python/ai_scripts/bing_6th_description/model.pth (torch, 493191 bytes, 5 tensors)

fc1.weight f4 [600, 3]
000000 bd 72 27 bc 69 dc b1 3e 7e 21 d5 be e2 3a cd be
       -0.010220227 0.34738472 -0.41627115 -0.40083987
000010 3e ac a0 bd 1d 3c cc 3d 64 26 63 be 1b 2c 3c 3e
       -0.078453526 0.09972403 -0.22182614 0.183762
000020 24 aa 40 be 35 ca 73 3d b9 4c 2d bd c6 bf 1e be
       -0.18814903 0.05951901 -0.042309497 -0.15502843
000030 ba 1c d7 be c8 9e 5b bf 07 53 5e bd b7 f7 8e be
       -0.42014104 -0.85789156 -0.0542784 -0.27923366
000040 1c 52 84 bd 39 93 0e 3e 8c 8c da be 5b a8 05 be
       -0.064609736 0.13923348 -0.42685354 -0.13052504
000050 da 35 9b 3d 35 43 f8 3e 0f d1 eb be ba 9c 99 3e
       0.07578631 0.48488775 -0.46057937 0.30002385
000060 62 3c 2a be 9d 00 09 be 0c 1d d3 3e a9 5c 91 be
       -0.16624597 -0.1337914 0.41233099 -0.28391007
000070 65 c0 1d bd b6 32 53 3d dc 5a 85 be 4d 29 e8 3e
       -0.03851356 0.051562034 -0.26045883 0.4534401
000080 0a 14 e9 be 9a cd 5a be a1 ec 3c bf bb 45 dc be
       -0.455231 -0.21367493 -0.7379857 -0.4302195
000090 e6 c0 07 bf 04 b7 82 3e b1 b5 11 3e 8c 72 5c 3e
       -0.53028715 0.25530255 0.14229466 0.21528071
0000a0 1b 30 a7 3d a4 45 93 be fe 96 bf 3b a9 c0 30 bf
       0.08163472 -0.2876407 0.005846857 -0.69043976
0000b0 dc 6c 03 bf 66 a5 d8 be 0d d9 13 3e 6f 97 66 3e
       -0.5133798 -0.4231369 0.14438267 0.22518705
0000c0 d5 ba a2 be ce c2 2e be 59 65 4d 3e 02 ca a4 3d
       -0.31783167 -0.170665 0.20058192 0.080463424
0000d0 04 c7 4f be 28 58 c3 be 01 c7 35 bd d2 46 12 bf
       -0.20290762 -0.38153195 -0.044379238 -0.57139313
0000e0 f1 2e 8d be 3b be 92 be 37 f2 0a bf 11 f0 fc bd
       -0.27574876 -0.2866076 -0.5427584 -0.123504765
0000f0 a9 df 0f 3e 24 ef 48 3e 4f fc b3 be 4a eb 35 bd
       0.14050163 0.19622475 -0.35153434 -0.044413842
000100 22 c8 9d bd 24 54 61 be 34 e3 1a be d2 cd b4 bd
       -0.07704188 -0.22004753 -0.15125734 -0.088283196
000110 fd de 7b 3e 1d 95 a8 3e e7 67 06 bf e3 7d 05 bf
       0.24596782 0.32926264 -0.5250229 -0.5214521
000120 cd a1 fc bd 2d 85 b2 3d 56 f9 42 3e d6 5c 31 3f
       -0.123355485 0.087168075 0.19040427 0.6928228
000130 d6 b5 74 3e dc be ce be c9 c6 ef 3d 62 dc 66 be
       0.2389749 -0.4037999 0.11707837 -0.22545007
000140 1e 08 12 bf c7 1d 19 3f be 7d c3 3e 8e 9f 12 bf
       -0.57043636 0.5981106 0.3818187 -0.5727471
000150 68 39 97 3c 3f 16 17 bb 1e cb 0d be bb 55 25 be
       0.01845999 -0.0023054031 -0.13847014 -0.16145985
000160 cf 31 7d 3e e5 82 85 be 48 ce 89 bd d7 88 b4 3c
       0.24726032 -0.26076427 -0.06728798 0.022037907
000170 50 f8 58 3e d3 ee ab 3d 91 42 96 bf a5 d8 81 bf
       0.21188474 0.083951615 -1.1739064 -1.014424
000180 57 e7 4e 3e aa 6b 15 3e 35 3f c7 be 3d b9 e7 be
       0.20205437 0.14591852 -0.3891541 -0.45258513
000190 17 22 b3 3e b0 cd b6 3e 5c 68 2f be 33 e7 9e 3c
       0.34986946 0.35703802 -0.17129654 0.019397354
0001a0 a8 6b 13 bf 63 27 a3 3d 82 1a e9 be fe ca 0c bf
       -0.57586145 0.07966497 -0.45528036 -0.5499724
0001b0 7e 0a 15 bd ae 89 f4 3d c0 2f 36 be ab 83 55 3e
       -0.03638696 0.11940323 -0.17791653 0.20851009
0001c0 00 da 15 bf 4d e1 f3 3e ef 0c 3c 3e b9 38 eb be
       -0.58535767 0.47632828 0.18364309 -0.45941713
0001d0 12 1d a9 be 4f 60 e4 bc 17 3d 2c bd f5 6d bf 3d
       -0.3302999 -0.027877955 -0.042050447 0.093471445
0001e0 f0 3a fb 3d 8b 7a 5d 3d 6b 16 80 be fb e2 31 3e
       0.12267101 0.054071944 -0.25017104 0.17371742
0001f0 6f ab 15 bf 5e 01 24 bf c2 a8 c5 bd ea 29 41 3c
       -0.5846471 -0.64064586 -0.096513286 0.011789778
000200 75 6a 80 bd 31 c8 ca be 0c b7 49 bd 11 dd b4 3d
       -0.06270305 -0.3960586 -0.049246833 0.088312276
000210 1b 69 fe be a5 1b 3f be 89 2f a6 3e 9b 45 bd bd
       -0.49689564 -0.1866289 0.3245814 -0.09241792
000220 b8 2e 14 3d 6e ed 9f bd 92 cf 56 be 47 ad d3 3d
       0.036177367 -0.07808958 -0.2097762 0.103357844
000230 f7 18 29 3f 2a bd 05 3c 52 56 c8 3d 44 16 b2 be
       0.6605372 0.008162776 0.09782089 -0.34782612
000240 8d 76 8b bf cb 53 d2 be f9 15 40 3e ab 36 b8 3d
       -1.0895554 -0.41079554 0.18758382 0.08994802
000250 16 53 bc bd de 13 a5 be 38 2d c3 be 68 e3 3d bf
       -0.09195535 -0.3224172 -0.38120437 -0.7417512
000260 68 2a a3 bd 5f 72 74 3e 51 0b b4 3e 3c 63 05 bf
       -0.07967073 0.23871754 0.35164884 -0.52104545
000270 34 e3 23 3e 3e 7f 01 bf 87 c0 9b be 96 65 26 be
       0.1600464 -0.5058478 -0.30420324 -0.1624969
000280 cc 08 cc 3c 28 37 22 bd c7 3b a3 be df eb 7d be
       0.024906538 -0.039603382 -0.31881544 -0.24797009
000290 4c e6 6f 3c 0c f8 3e 3c f4 20 5a be cc cd 87 3e
       0.014642309 0.011655819 -0.21301633 0.26524198
0002a0 24 cb 5d bf fa 23 38 be 90 21 b2 3e 16 8a bd be
       -0.86638093 -0.17982474 0.3479123 -0.37019414
0002b0 56 66 a2 3e a4 d4 34 3e 96 f9 2b bf 22 cb 93 3e
       0.317187 0.17659241 -0.6717771 0.28865916
0002c0 a0 3d 38 be f4 1c 6b be c9 49 ea 3e 9a ae eb be
       -0.17992258 -0.22960263 0.4575942 -0.46031648
0002d0 ba 99 93 bb cc d6 52 be ce 52 85 3e 08 a1 39 be
       -0.0045044096 -0.20589751 0.26039737 -0.18127835
0002e0 64 57 5f bd 61 4f 0c be e2 7c 11 bd 66 37 34 3d
       -0.0545267 -0.13702156 -0.03551949 0.043998145
0002f0 6f 26 67 be 21 5f 14 bd 59 23 84 3e 0a c4 ac 3e
       -0.22573255 -0.036223534 0.25808218 0.33743316
000300 2f 82 1a be b5 48 5a 3e 07 19 6a be ca 3d c2 be
       -0.15088724 0.21316798 -0.2286111 -0.37937766
000310 75 8c 1f be d1 c4 69 3d fa c9 87 be e5 28 16 3c
       -0.15580924 0.057072464 -0.26521283 0.009165023
000320 ab 26 0f 3c a2 05 94 3e 54 f5 a7 be db c0 c3 be
       0.0087372465 0.28910547 -0.32804358 -0.38233075
000330 88 27 a2 be d7 0a a4 3e 0d 0b 94 be 67 2c 88 3d
       -0.31670785 0.3203952 -0.2891468 0.06649094
000340 1e 06 48 be ba 69 b9 be eb 15 96 ba 75 f3 9c bd
       -0.19533584 -0.36213475 -0.0011450624 -0.07663623
000350 ae e2 fb 3d 16 fb 57 bd d0 10 1b bd c6 67 08 3e
       0.12299095 -0.05272969 -0.03785783 0.13320836
000360 2c 7a 0b bf e3 9c 99 be 4e 4c df 3e d1 89 66 bf
       -0.54483294 -0.30002508 0.43612903 -0.9005404
000370 b4 8c 5c be d2 8c a9 3e 46 b8 2d 3e f2 53 ae 3d
       -0.21538049 0.3311525 0.16964826 0.08512105
000380 79 35 aa be 01 a9 1a 3e 2b 6b 83 be a3 bd 8c be
       -0.3324392 0.15103532 -0.256677 -0.2748843
000390 52 2e 49 be ae a1 35 3c ab 98 84 bc 5d 55 73 3e
       -0.19646576 0.011085911 -0.016186079 0.23763032
0003a0 2c c4 a3 be c9 4b bd 3e cb 49 83 3e 2a 7d ad be
       -0.31985605 0.36971882 0.25642237 -0.33884555
0003b0 bf fd 9b 3e 04 6b d0 be 19 79 bb bd bd 16 ba 3d
       0.3046703 -0.40706646 -0.09153957 0.09086368
0003c0 1c b6 a1 bd 87 cb 84 3e a9 e4 ba be e8 83 8c bb
       -0.07896063 0.2593653 -0.3650258 -0.0042881854
0003d0 ba d1 af 3e 21 a8 03 bf ee 1c 26 3d 96 d0 36 bf
       0.34339696 -0.5142842 0.040554933 -0.71412027
0003e0 d4 36 f9 be e2 7f 2e be 9b d9 a0 bd 34 5d 90 bc
       -0.48674643 -0.17040971 -0.07854005 -0.017622568
0003f0 23 f5 e3 3e ed a2 fd bd cf 72 a4 be c6 3b f5 be
       0.44522962 -0.12384591 -0.32118842 -0.47897166

fc1.bias f4 [600]
000000 e2 45 80 3e 6d 71 6f 3e a7 6a 47 bf 6d 55 99 3e
       0.25053316 0.23383112 -0.77897114 0.29947987
000010 3e 17 f9 be 29 88 8f 3c 9a 3c 55 be 54 b0 a1 be
       -0.48650545 0.01752098 -0.20823899 -0.3157984
000020 a6 94 c5 be b6 ae 2d 3f 3e d8 87 be 88 a3 6c 3e
       -0.38589972 0.6784471 -0.26532167 0.23109257
000030 88 15 08 3e 31 aa 25 3f 54 1b eb 3d 08 63 13 3e
       0.13289464 0.64712816 0.11479822 0.14393246
000040 59 e7 66 3e 5f 34 b0 be a5 e1 6a bd 10 16 f4 be
       0.2254919 -0.34414956 -0.057344098 -0.47673082
000050 77 8d 9f 3b 1c df d0 be 7c ce af bd 6e b0 4f be
       0.004869159 -0.4079522 -0.08584306 -0.20282146
000060 de 49 6f bf 3f 45 62 3e d5 40 6e 3e 04 60 63 3f
       -0.9347209 0.22096728 0.23266919 0.88818383
000070 f3 85 b6 be fb d6 08 3f 66 d4 44 bf 59 8f 0b bf
       -0.3564907 0.53453034 -0.76886594 -0.54515606
000080 96 1f 5c be 20 5c 31 be 4f 31 fe 3d 6b 1f c0 be
       -0.21496424 -0.17320299 0.124117486 -0.3752397
000090 91 99 34 3f 79 c9 e3 3e dc a8 8e 3d bd 11 82 3e
       0.70546824 0.4448965 0.06965801 0.25404158
0000a0 ee 41 dc bd fa d4 9c be aa 5f 2d 3e a6 43 ab 3e
       -0.107547626 -0.30631238 0.16931024 0.3345005
0000b0 8b a7 43 bf 28 22 8c be 8b 81 21 bd 64 0a 76 be
       -0.76427525 -0.2736981 -0.039430182 -0.24027401
0000c0 0f 6e 01 3e 58 95 13 be 0a d8 53 3e 6e bf e5 bd
       0.1263964 -0.14412439 0.20687881 -0.11218153
0000d0 63 8b 97 3e cc db 84 3e c5 7d 0a 3f 52 18 fd 3d
       0.2959853 0.25948942 0.5409816 0.12358154
0000e0 11 11 de 3c ef d5 0b 3e 32 4c 8b bc 30 e9 26 3f
       0.027107747 0.13655828 -0.017004106 0.65199566
0000f0 42 c2 10 bf 0c f1 06 3e a7 50 34 3f 38 19 8d 3e
       -0.56546414 0.1317789 0.70435566 0.27558303
000100 cb b3 2f be f6 ab 4c be 55 91 aa 3e 64 bc 67 3e
       -0.1715843 -0.19987473 0.33314005 0.22630459
000110 4e 05 e9 3e 22 fa 41 be 76 1b 7f 3e de ce ab be
       0.4551186 -0.18943074 0.2491282 -0.33556265
000120 f2 9b 13 bf e6 41 43 be 08 02 9d 3e 52 b9 a0 be
       -0.5765983 -0.19068107 0.30665612 -0.31391388
000130 d6 2f a2 3e c6 7b 29 bf 00 8f c3 be a7 fd 13 bd
       0.3167712 -0.6620449 -0.38195038 -0.036130574
000140 64 91 33 3e 7c 75 c6 be 6b 44 23 bf a6 35 d6 be
       0.17535931 -0.38761508 -0.6377627 -0.41837806
000150 f2 9a b4 3e 95 63 2c bf 83 70 94 3e b5 c7 2f bf
       0.35274464 -0.6733945 0.2899209 -0.68664104
000160 75 16 7f be 19 a4 4b bf 98 d5 a1 3c 6e 44 10 3f
       -0.2491091 -0.7954727 0.01975517 0.56354415
000170 ed 55 20 3f 95 8a 1c 3e 1d fb 57 bf bd 9e d6 be
       0.6263111 0.1528724 -0.84367543 -0.41917983
000180 1d 46 9c 3d 70 48 d6 be 9e 02 89 3d 69 a6 0e 3f
       0.076305605 -0.4185214 0.06689952 0.5572267
000190 65 75 14 3f 84 24 d0 3e 23 9c f2 be 7b 48 2e 3e
       0.5799163 0.4065286 -0.47384748 0.17019837
0001a0 ac 69 65 be e2 c0 1f bf 5b 91 ab be 12 fd ef bc
       -0.22403592 -0.6240369 -0.33509335 -0.029295478
0001b0 a3 27 34 bf 7c a0 10 3f f0 53 b3 be f7 e4 2a bf
       -0.7037298 0.5649488 -0.35024977 -0.6675562
0001c0 f5 d2 23 3e f9 cd 95 be 3c 15 89 3e e7 18 bd 3e
       0.15998442 -0.29258707 0.26774013 0.3693306
0001d0 46 8e a0 3e 58 36 bb bd 3d aa 6a 3e 39 ce d0 3e
       0.31358546 -0.091412246 0.22916503 0.40782335
0001e0 1c bc 88 bd b1 53 08 bf 7e 42 bb bd 04 ed 9a 3e
       -0.06676504 -0.532527 -0.09143542 0.30258954
0001f0 b4 3b b5 bc 92 39 da 3e 19 20 66 be b7 e1 97 3d
       -0.022123195 0.42622048 -0.22473182 0.074160986
000200 3f 18 31 be 1c f7 73 be c8 64 c5 be dc fa 34 bf
       -0.17294405 -0.23824733 -0.38553452 -0.7069528
000210 69 d6 84 3e 06 0a 6d be 26 13 13 3e 59 26 9b 3c
       0.25944832 -0.23148355 0.14362773 0.018939184
000220 59 6e e4 3e 81 08 88 be 4a 06 33 be d2 fa 1b bf
       0.4461544 -0.26568988 -0.17482868 -0.60929596
000230 45 74 a6 be f6 69 46 3e bc 73 74 be d4 1b 9f be
       -0.32510582 0.19376358 -0.23872274 -0.3107592
000240 d3 43 38 3e ed e3 ef 3e 5a 66 7d 3d 3f 13 13 3d
       0.17994623 0.4685358 0.06186519 0.035907026
000250 e6 ea f0 3e 23 03 a9 be eb f2 71 be 73 1e a7 bd
       0.47054213 -0.33010206 -0.23627822 -0.081601046
000260 ff 2b 31 3f 6b 63 a8 bd 6a 28 d6 be ed eb 56 be
       0.6920776 -0.082220875 -0.41827708 -0.20988436
000270 bf 73 ae bd cd 38 4b bf df 2d 8a be 11 13 34 3e
       -0.085181706 -0.79383546 -0.26988122 0.17585398
000280 b0 4f ca 3e 0c a1 6e be 04 26 43 bf 8b f6 31 3f
       0.39513922 -0.23303622 -0.7622988 0.6951682
000290 1b d7 c2 be bc b1 55 be b2 13 4a bf 81 84 f3 be
       -0.38054737 -0.20868582 -0.789363 -0.4756203
0002a0 26 b1 2c bf 3d 12 23 bf 30 47 07 bf 7c eb 9f be
       -0.6745781 -0.63699704 -0.52843 -0.31234348
0002b0 58 6f 45 bd 39 fe 50 be df dd 5e 3d 1c dc c1 be
       -0.04820189 -0.20409478 0.05441081 -0.37863243
0002c0 9f d6 15 3e 9c 4f 2e 3f 1b 61 8a 3e 02 dc 6d bd
       0.14632653 0.68090224 0.2702721 -0.058071144
0002d0 5a 45 22 be ea 0d 13 bf 28 09 08 3f a6 34 1f 3e
       -0.15846768 -0.57443106 0.5313897 0.15547428
0002e0 5f 5a 14 3e 0f d8 18 3e 2d ea 22 3f 99 1c 4d bf
       0.14487599 0.1492617 0.63638574 -0.8012176
0002f0 0b a2 d8 bb 74 96 de 3e 95 d1 71 bf 77 d6 2f bf
       -0.006611114 0.43474162 -0.9446042 -0.6868662
000300 e3 41 1a 3f 63 10 91 3d 4f 27 ad bd 84 bd 4c 3e
       0.60256785 0.07083204 -0.08454763 0.1999417
000310 45 d2 c7 be 05 a1 6c be 22 c5 b0 bc 5d fb 39 3e
       -0.3902761 -0.23108299 -0.021578375 0.18162294
000320 69 41 e9 3e f5 aa 88 3e 6f 7c 47 3e 24 de de 3e
       0.45557716 0.2669293 0.19481061 0.43528855
000330 42 44 2e 3e 55 37 28 bf b3 bb f5 be 4f 28 24 3f
       0.17018226 -0.6570943 -0.47994766 0.64124006
000340 73 84 da be b7 35 3a 3f 14 c4 4d bf 9f 7e 91 3e
       -0.42679176 0.7273821 -0.80377316 0.28416917
000350 f9 de 47 be a8 a9 bc 3c 5e d7 2d 3f 17 1d ae bd
       -0.19518651 0.023030117 0.6790675 -0.08501642
000360 4d bb ea be 00 f7 04 3f 7d 49 5f be bd f3 1a bf
       -0.45846024 0.5193939 -0.21805377 -0.60528165
000370 db c5 43 bf 12 c1 30 bf 61 d0 c1 bd d1 25 f5 be
       -0.7647378 -0.690446 -0.09463573 -0.47880414
000380 e0 9d 8f bd 72 b4 a0 be 2b f5 70 3e b4 c5 55 3d
       -0.07012534 -0.3138767 0.23531024 0.052190498
000390 c8 8f 18 bf 27 ab bc 3c 90 6d ab be cb b9 63 3f
       -0.5959439 0.02303083 -0.33482027 0.8895537
0003a0 b6 42 ba be 28 ec 6f be ea 6a 55 3d b3 b1 2e 3e
       -0.3637902 -0.2342993 0.052103914 0.17059974
0003b0 f7 77 41 3e fa 9e 30 be 3c c9 05 3e e2 2c 4c be
       0.18893419 -0.17248145 0.13065046 -0.19938996
0003c0 ea 28 80 be ae 9c 44 3e 53 6f 3f 3e e1 b1 c1 3e
       -0.25031215 0.19200394 0.1869481 0.37831023
0003d0 b7 07 0e 3f 73 06 ca 3e f8 36 d1 3e 74 08 d4 be
       0.5548052 0.39458045 0.4086225 -0.414127
0003e0 19 65 e4 be 88 19 2c 3e 5f 0f 3e bf 3b db e3 bd
       -0.4460838 0.16806614 -0.74242204 -0.11125799
0003f0 5e be 76 3d 6f 1a f9 be 7d 9b 27 be b8 a5 f0 be
       0.060240142 -0.4865298 -0.16367908 -0.47001433

fc2.weight f4 [200, 600]
000000 7b e1 ff bd bb aa 50 bd 6c 3a aa bd a4 7a 1a be
       -0.12494179 -0.05094407 -0.08311924 -0.15085846
000010 27 5c cf bd a9 f8 5f 3c 37 2a 2f bd c5 6b d1 bc
       -0.101249985 0.013670125 -0.04276487 -0.025564084
000020 5f b0 c2 bb f2 cc 7c bd 83 95 86 be e9 77 42 be
       -0.005941435 -0.06171889 -0.26285943 -0.18991055
000030 17 32 a3 3c 03 6e 0e be 03 3f 3a be e5 3d 92 bc
       0.019921346 -0.13909154 -0.181881 -0.01785178
000040 ba cb 0e 39 63 34 08 be 71 8a 09 be b5 3e 1b be
       0.0001361807 -0.13301234 -0.13431717 -0.1516064
000050 5e 51 eb bd 0d da d9 bd 3e 70 6b bc 24 c8 c7 bd
       -0.11490129 -0.10637293 -0.014370022 -0.09754971
000060 24 02 02 3d e0 a7 a3 bd 92 41 d6 be 50 8c e5 bd
       0.031740323 -0.07991004 -0.418469 -0.11208403
000070 03 59 21 be 0f f6 56 be fc 3f a2 3c 4a e6 1d bc
       -0.15756612 -0.20992301 0.0198059 -0.009637425
000080 1f 6e fb bd da f2 f8 3c c1 b5 7f be 4f e9 7e be
       -0.12276863 0.030389238 -0.24971677 -0.24893688
000090 d6 1f 11 be 79 2a 4f 3d 6c 00 11 be 04 a9 b0 3c
       -0.141723 0.050577614 -0.14160317 0.021564968
0000a0 80 28 21 be fc 93 18 be e9 24 19 be a5 33 c2 bd
       -0.15738106 -0.14900202 -0.14955486 -0.09482507
0000b0 92 14 91 3d 20 e1 cc bd 31 cb 48 bc 92 c4 0d be
       0.070840016 -0.10003877 -0.012255476 -0.13844517
0000c0 46 5d d0 3d b4 6c b9 be 04 fb f4 bd 1f 82 89 bd
       0.101740405 -0.36215746 -0.1196194 -0.06714272
0000d0 3e 12 0e be d9 a3 3b be 1a 94 f3 bd 33 04 8a 3c
       -0.13874146 -0.18324222 -0.118934825 0.016847705
0000e0 44 a8 66 3e 83 de 82 3b 4a 74 41 3c 6f ef 74 be
       0.22525126 0.0039938106 0.011807511 -0.23919462
0000f0 37 ff 6f 3d ec e2 9a bd 9c a8 8e be 94 04 b6 bc
       0.058593 -0.07562813 -0.27863014 -0.02221898
000100 7a 68 31 be ca 7a 08 bd 7c 0a 04 be 77 b6 31 be
       -0.17325011 -0.033320226 -0.12894624 -0.17354761
000110 50 0c 4f be 5c 6f 05 be 53 df 5c 3d 26 15 e7 3c
       -0.2021954 -0.13030761 0.053923916 0.028208327
000120 fc ef 9b 3d 51 bb 91 3e f5 9c 47 be f9 54 5b be
       0.07614133 0.28463224 -0.19493468 -0.21419133
000130 c8 0a d9 bd 24 f1 b3 bc 14 51 de bb 61 16 8d bc
       -0.105977595 -0.02196557 -0.0067845676 -0.017222585
000140 6e 11 d6 bd 31 08 aa be 08 1a 08 be 7d b5 fc bd
       -0.10452543 -0.33209375 -0.1329118 -0.12339304
000150 f2 72 04 be f0 05 df bd 28 60 68 be ed f4 0c 3c
       -0.12934473 -0.10889804 -0.2269293 0.008603317
000160 88 48 54 be a4 48 e7 bc 15 83 b2 be d9 d6 b1 be
       -0.20730793 -0.02823288 -0.34865633 -0.34734228
000170 0f f7 93 bd 1b a7 e1 bd ec 0c 51 3c 37 40 4b 3c
       -0.07224857 -0.11018201 0.0127594285 0.012405447
000180 c5 06 1f be a6 55 8b 3d 95 9a 54 3c 6f 80 24 be
       -0.15529926 0.068034455 0.012976308 -0.16064619
000190 ff a3 3e be 55 2d d3 bd ea 68 91 ba 67 f1 1f be
       -0.18617247 -0.10311381 -0.0011093889 -0.15619431
0001a0 eb 8b b6 3c b2 d3 1d be 2a ac 40 3d bd e7 08 be
       0.022283515 -0.15412787 0.04703919 -0.13369651
0001b0 d2 b5 f1 bc ea 26 f2 bd c5 be 65 3d a7 96 3d 3d
       -0.029505644 -0.118238285 0.056090135 0.04628625
0001c0 04 6f ed 3c 17 a3 1f be fc a0 a1 bd e1 0b 66 bc
       0.0289836 -0.15589558 -0.078920335 -0.014040918
0001d0 50 fd 36 be dd 8a d9 bc c7 24 f7 bd 89 6c b3 bd
       -0.17870069 -0.026555473 -0.120675616 -0.08760936
0001e0 7c f0 b1 3d 74 4c 3c 3c e9 f3 4a be 04 e5 cd 3a
       0.08688447 0.011492837 -0.19819607 0.0015708511
0001f0 82 4e 9d bd 48 cc 1a bd b2 5b ce 3c 25 66 c1 bc
       -0.0768099 -0.037792474 0.025190208 -0.023608277
000200 81 71 c3 39 16 cf 0c 3d 87 bd 2a be dc 92 50 3d
       0.00037277865 0.03437718 -0.16673861 0.050921306
000210 f8 85 c1 bd 21 12 ae 3c d5 ef 42 3d 2e 48 c9 bc
       -0.09449381 0.021248879 0.047592003 -0.02457055
000220 04 b9 6c be 7a 15 3c 3c de 5f 06 be 47 cc 82 bb
       -0.23117453 0.01147973 -0.13122508 -0.003991637
000230 56 cd 48 be e3 0e f0 bd 6a be 6f be 44 19 81 39
       -0.1960958 -0.117215894 -0.23412481 0.00024623622
000240 25 14 af bd 1d b0 67 be 87 dc 56 be db bc 6e 3e
       -0.08548764 -0.22625776 -0.20982562 0.2331423
000250 b4 9c c1 bd 76 7c a7 be 76 86 73 bb b6 7d 30 3d
       -0.09453717 -0.32712144 -0.0037159002 0.043088637
000260 45 69 3f be 8c 97 52 be 18 5b ac bd 0d 1b b2 bd
       -0.18692501 -0.20565623 -0.08415812 -0.08696566
000270 29 8f a1 3b 38 e4 27 be bf c6 96 bd 04 8a 05 3c
       0.004930396 -0.16395652 -0.073621266 0.008150581
000280 ef 93 9c be d8 98 84 bc 8d 37 38 3d de 9d 01 be
       -0.30581614 -0.016186163 0.044974852 -0.12657878
000290 0a 92 f8 3c 26 d9 68 be a3 82 15 be 0e 0f 13 3b
       0.030343074 -0.22739086 -0.14600615 0.0022439393
0002a0 5b 91 42 3d 9e bd 07 3d d0 94 f6 bd 28 5a 36 3d
       0.047501903 0.033139817 -0.120401025 0.044519573
0002b0 4a 6c 4e 3d f4 c4 03 be 14 cd 64 be 9c 61 c7 bd
       0.05039624 -0.128681 -0.22343856 -0.097354144
0002c0 36 d0 9e bc 3a ac 94 bd e3 a1 0f be 18 0d b5 bd
       -0.019386392 -0.07259412 -0.14026599 -0.08840388
0002d0 19 b4 5a be 25 6a 9c 3d 23 49 4c be 0b c2 c4 bd
       -0.21357764 0.07637433 -0.19949774 -0.09607323
0002e0 85 32 05 bc b6 eb 0d be 3c 34 2b bd 8a ca 02 3e
       -0.008129721 -0.13859448 -0.04179786 0.12772575
0002f0 48 29 b6 bd 48 07 03 3d 4c ce d2 bc bf d4 f8 3d
       -0.088945925 0.031989366 -0.025733136 0.12149953
000300 4b b0 94 bd e3 5e a9 bd dd 5a 04 be 84 72 68 3d
       -0.07260188 -0.08270051 -0.12925287 0.056749836
000310 0b f4 72 bd 71 33 94 3d ac 33 b9 bd 4c 84 d5 3b
       -0.05931477 0.07236374 -0.09043059 0.006516015
000320 06 0a 5e be b4 bb d9 bd 36 8f 3e be 29 c5 83 be
       -0.21683511 -0.10631505 -0.18609318 -0.2573636
000330 78 b2 8d 3b c7 92 1d be 2c bf f5 bd ee b2 00 be
       0.0043242536 -0.15388022 -0.11999354 -0.12568256
000340 17 01 7e 3d 6a 61 59 be 70 fb 28 3c f5 b8 05 be
       0.062012758 -0.21228567 0.010313854 -0.13058837
000350 78 ac 3b 3c fe 81 00 be a3 00 24 be b5 c5 01 bc
       0.011454694 -0.12549588 -0.16015868 -0.007920672
000360 54 79 97 3d e7 09 8c be 20 47 4f bb 47 b1 56 3d
       0.073961884 -0.27351305 -0.0031628087 0.05241516
000370 4f cf 54 3d 24 9c c6 3d 74 2c ad bd 99 b3 89 bd
       0.051955517 0.0969775 -0.084557444 -0.06723709
000380 06 ae e3 3c ab a3 e2 bc 5c 0f 4b 3d dd e6 32 be
       0.027792942 -0.027665934 0.049575195 -0.1747088
000390 81 c1 a9 bd 57 bf 64 3d e7 42 c0 3c 1b bf ea bd
       -0.08288861 0.05584654 0.023469402 -0.11462232
0003a0 91 43 96 bd b9 bb 48 3d 8e df 30 be ed 3f 45 3d
       -0.07337106 0.04900715 -0.1727278 0.048156668
0003b0 40 c2 73 bd 07 1b 93 3d d9 4f 18 bc 58 ad a0 bc
       -0.059511423 0.071828894 -0.009296381 -0.019613907
0003c0 2d 37 e4 bd 40 43 8b bd 98 d0 5f 3c 6d 32 3e 3c
       -0.111433364 -0.06799936 0.0136605725 0.011608702
0003d0 17 33 2e be 39 d6 32 bd 74 58 9e be 28 89 e2 bd
       -0.17011677 -0.04366133 -0.3092686 -0.11061317
0003e0 73 a6 c6 3c cf b8 2d be cb 08 2c 3e 1b 0b 1b be
       0.024249291 -0.1696503 0.16800229 -0.15140955
0003f0 8b 2e 20 bd 38 b4 fc 3b 90 1d 62 3d 03 ad e9 3d
       -0.039106887 0.0077119134 0.055203974 0.114099525

fc2.bias f4 [200]
000000 9a 37 b9 bc 7e e9 7c bd 9c d9 30 bd 04 e7 be bd
       -0.02260952 -0.061746113 -0.04317628 -0.093214065
000010 11 7b a1 bc 99 66 c4 bd 61 5a 90 3c a5 4a bf bd
       -0.019712003 -0.095898814 0.017621221 -0.09340409
000020 87 78 f6 bc de ae 13 bd ca 2d ba 3c 61 d6 3d bd
       -0.030086769 -0.03605544 0.022726912 -0.046347026
000030 29 61 94 bc ae d1 9a ba 3e d5 89 bd 93 bd 18 3d
       -0.018112736 -0.0011811757 -0.06730126 0.037290167
000040 39 79 3f bd 46 69 0b bb b4 23 02 bd 81 ef 17 3d
       -0.046746466 -0.0021272465 -0.03177233 0.037093643
000050 26 77 1e bd de 67 2b 3d 16 d9 87 3c 26 82 db 3b
       -0.038687848 0.041847102 0.016583007 0.0066988645
000060 bf 01 b5 bc f4 10 43 bc ff 74 63 bd 01 18 b8 bc
       -0.02209556 -0.011905897 -0.055531498 -0.022472383
000070 23 3c 50 bc f0 22 c4 bc 7c c9 8c bd fb 77 9c 3d
       -0.01270965 -0.02394244 -0.068743676 0.07640072
000080 bd 53 65 3c a8 26 73 bd 61 ef 59 bb 65 b2 d5 bb
       0.013997016 -0.059363037 -0.0033254253 -0.0065215104
000090 49 94 db bc 8a dc 95 3c 43 cd 67 3d d2 93 92 3b
       -0.026804106 0.018293638 0.056592237 0.004473188
0000a0 ce fe 0c 3d 3f 1e e5 3c 23 ab 96 bc cf c1 a0 bd
       0.03442269 0.027968524 -0.018392151 -0.07849466
0000b0 8b 8b 8f bd 18 1e 86 bd 06 36 bc bc 54 70 11 bd
       -0.070090376 -0.06548709 -0.02297498 -0.035507515
0000c0 6c 8b ca bc da 4a c6 bd 48 4d 80 bd 7a 6a b4 bd
       -0.024724685 -0.096822456 -0.0626474 -0.08809371
0000d0 a4 26 91 3d 4c 09 2d bd cb 05 ac bc 83 86 22 3c
       0.07087448 -0.042245194 -0.020998856 0.009919765
0000e0 fc b4 0c bd 87 49 5e bd 50 f3 0a bd b4 61 93 bc
       -0.034352288 -0.05426934 -0.033923447 -0.017990924
0000f0 3b 65 97 bc 0d e2 34 bd db bb 6a 3d db c0 95 bd
       -0.018480888 -0.04416089 0.05730806 -0.07312175
000100 35 23 47 bc 1c 17 8d 3c ac f3 23 bd 9d 2c 42 bd
       -0.01215439 0.017222933 -0.040027305 -0.047405828
000110 54 89 98 bd 83 06 59 bd ee 2b 2a bd 63 a0 5d bd
       -0.07448068 -0.052984726 -0.0415458 -0.054108035
000120 0d 18 26 3c 27 b3 45 bd 82 9a 31 3c 47 c7 ac bd
       0.01013757 -0.048266556 0.01084006 -0.08436447
000130 29 73 58 bd 4a 7e b9 bd fb 10 87 bd ae 68 de bd
       -0.0528442 -0.09057291 -0.06595036 -0.1085981
000140 39 c9 d8 3b cb 27 b6 bd b1 cc fc ba 96 17 07 3d
       0.0066157845 -0.08894309 -0.0019287077 0.032981478
000150 32 19 5e bd df 7c b7 bd 14 2a 72 bd 6a 3a 54 bc
       -0.054223247 -0.08959364 -0.05912216 -0.01295338
000160 18 28 2c bc 03 46 f3 3c 01 68 07 bd 43 a0 f5 ba
       -0.010507606 0.02969647 -0.03305817 -0.0018739778
000170 4b 6d d6 3c bd 8c 81 bd 78 6d aa bd 59 11 ea bb
       0.026175162 -0.06325672 -0.08321661 -0.0071431813
000180 40 23 38 3c 9b 50 b0 bc d6 76 af bc 70 e4 a6 ba
       0.011238873 -0.02152281 -0.02141897 -0.0012732875
000190 04 ea a8 3d ac 2f c3 bc ce 5d b3 3b 71 f7 50 bd
       0.0824776 -0.023826443 0.005473829 -0.05101723
0001a0 7e 63 c6 3c c5 bb 31 bd 51 3e 20 bd e4 8c b3 bd
       0.024217363 -0.04339196 -0.03912193 -0.08767107
0001b0 40 49 c9 bc 0b d7 a3 3c c6 22 a3 bd 18 61 27 bd
       -0.024571061 0.020000001 -0.07965617 -0.04086408
0001c0 74 2d 96 bb 1c e3 d6 bc eb 72 34 bc dd c0 ad bd
       -0.004583055 -0.026231341 -0.011013727 -0.084840514
0001d0 c9 44 49 bd bc 5f b4 bc 16 6f 89 bd f9 b0 af bd
       -0.049137864 -0.022018306 -0.06710641 -0.08578677
0001e0 0b eb 2a bb 40 9c 0c bd c6 45 8c 3b 5b fa c3 bc
       -0.0026080038 -0.0343287 0.0042807786 -0.02392309
0001f0 13 7f 47 bd 87 d1 d5 bb e3 6f c0 bc 7b 26 b8 bd
       -0.04870517 -0.0065252217 -0.023490852 -0.089917146
000200 4e c0 9a 3d ca 35 04 bd 10 df 04 3d 8f 8e 1f bd
       0.075562105 -0.03227786 0.03243929 -0.038954314
000210 68 a0 b8 bd 41 15 91 bd 4c f0 92 3c da 90 ca bb
       -0.0901497 -0.07084132 0.017936848 -0.0061818184
000220 df 5f 40 bd 15 23 05 bc 40 66 2b bd 55 0d ed 3b
       -0.04696643 -0.00812604 -0.04184556 0.0072342553
000230 b8 3e f0 bc e1 ea 31 bd dc 1d af bd c0 61 83 bd
       -0.029326782 -0.04343689 -0.08550617 -0.06415129
000240 fa e7 64 3d 93 dd 26 bc d7 f3 f5 bc 5c 6f a7 bb
       0.055885293 -0.010184663 -0.030023498 -0.0051097106
000250 40 c2 38 bc 8d 07 0a bd 99 f0 34 bd c5 95 aa 3d
       -0.011276782 -0.033698607 -0.044174764 0.083293475
000260 cb 50 1a bd c3 44 8d bc d2 92 a3 bd 09 cf 26 bd
       -0.037674706 -0.017244702 -0.07986988 -0.040724788
000270 e6 ab 31 bd a5 2d 89 bd e1 72 88 bd 6d f2 c1 bd
       -0.043376826 -0.06698159 -0.066625364 -0.09470067
000280 47 0b 3a bd b5 11 e3 bc 23 e3 79 3d ac c7 c1 bc
       -0.04542091 -0.027718404 0.06100763 -0.023654781
000290 b3 1b c6 bd c6 4c 45 bd b6 5f b0 bc 15 fa ef bc
       -0.09673252 -0.04816892 -0.021530014 -0.029294053
0002a0 e2 fb ad bc a7 22 d6 bc dc cb 27 bd 42 67 bc 3b
       -0.021238271 -0.02613957 -0.0409659 0.005749614
0002b0 99 f2 84 bd 31 52 b9 bd 66 4d 18 bd 93 2b 20 3b
       -0.06491584 -0.0904888 -0.037183188 0.0024440035
0002c0 cf 52 05 bd 7f 6e 67 bd 7d ce ad bd 83 ba f4 bc
       -0.032549676 -0.05650186 -0.0848665 -0.029874092
0002d0 aa 53 90 bd 1d d9 16 bd f7 48 b0 bd 03 fa 4f bd
       -0.07047208 -0.03682815 -0.08607667 -0.05077554
0002e0 0e c7 20 bd 8a 2b ab bd 71 3f 77 bd 81 e3 12 bc
       -0.039252333 -0.08357914 -0.060363237 -0.008965374
0002f0 76 1e c3 bc 93 2c f4 bc dc 3a d0 3b 9d c9 a1 bd
       -0.023818236 -0.02980641 0.006354673 -0.07899783
000300 82 97 a7 bc d5 a8 b7 bd fd 9e 6a bb ed 9f 6a bc
       -0.020457987 -0.08967749 -0.003580033 -0.014320356
000310 75 81 4b bd ce ac 25 bd 94 0e d7 bc d1 4c cf bc
       -0.049684007 -0.040448003 -0.026252069 -0.025305184

fc3.weight f4 [1, 200]
000000 cb 14 fa 3d 22 4c 76 bd fa 70 4f bd b1 69 d0 bc
       0.12210997 -0.0601312 -0.050644852 -0.025441023
000010 97 96 82 bd 99 d8 7f bd ca 2c d7 3d 45 60 83 bd
       -0.06376379 -0.062462423 0.1050659 -0.06414846
000020 06 92 c4 3d fc 08 93 bd 44 59 8e 3d 98 61 e1 3d
       0.09598164 -0.07179448 0.0695062 0.11004943
000030 f7 26 bf 3e 0a 27 cb 3d e7 c6 81 bd 45 19 fc 3d
       0.37334415 0.099195555 -0.06336766 0.12309507
000040 78 20 76 bd 4e a1 02 3e 39 6e 00 bd 16 92 eb 3d
       -0.06008956 0.12756845 -0.031355117 0.11502473
000050 db 15 ef 3d 50 3e f4 3d a9 d6 80 3e 2b 68 d1 3d
       0.116740905 0.11925948 0.25163773 0.102249466
000060 cb f8 f2 3d 5e 76 3b bd d2 99 72 bd 2c 58 e4 3d
       0.1186386 -0.04576718 -0.059228726 0.1114963
000070 14 8f ca 3d a6 d4 7d bd c0 9e ba 3b 86 4e d0 3d
       0.09890571 -0.061970375 0.005695194 0.10171227
000080 be bf ce 3d e7 77 75 3b e7 fa e9 3d a4 7d c6 3d
       0.10095166 0.00374555 0.11424809 0.09691933
000090 8c 3e e9 3d 66 1e d7 3d 79 13 a5 3d 73 d1 fe 3d
       0.11388883 0.10503845 0.08060355 0.12442293
0000a0 1f c7 df 3d 78 38 ce 3d f5 09 8f 3d 74 87 09 bd
       0.10926651 0.10069364 0.06984321 -0.033576444
0000b0 01 f1 3b 3c b1 a1 80 bd 71 2d 66 bd a4 3f c5 bc
       0.011471034 -0.0628084 -0.05619568 -0.024078198
0000c0 75 59 84 3d f3 45 44 bd 0d 4e 28 3e 11 28 71 bd
       0.06462375 -0.04791827 0.16436024 -0.0588761
0000d0 50 b1 c6 3d a8 68 60 bd bf a6 91 bd 23 08 d7 3d
       0.097017884 -0.054787308 -0.071118824 0.10499599
0000e0 03 fd 1b bd 14 d9 c6 3d 7b be 0c 3e 93 f9 ad 3d
       -0.038083088 0.09709373 0.13744538 0.08494868
0000f0 3e 42 23 3e a3 01 2b bd 2f c5 db 3d 48 01 79 3d
       0.15943238 -0.041749608 0.10730969 0.060792238
000100 12 31 3a 3e 05 c9 dc 3d b3 5d 67 bd 2e 5e 82 bd
       0.18182781 0.10780529 -0.056485843 -0.063656196
000110 6c 2f 7e bd f5 c8 64 bd f7 09 92 3d 15 4e 12 bd
       -0.062056944 -0.05585571 0.07130807 -0.035718996
000120 ef 52 ab 3d 79 2a e1 3d d1 32 b9 3d ae 18 85 bd
       0.08365428 0.10994429 0.090428956 -0.06498848
000130 ef 37 6c bd f7 16 0b bd c6 c5 97 3d 37 36 ec bc
       -0.05767053 -0.033957448 0.07410769 -0.028834445
000140 ca 19 bd 3d 1e 28 29 bc 6e ec 7a bd f7 b7 ca 3d
       0.092334345 -0.010324506 -0.061260633 0.0989837
000150 04 33 c6 3d 3e 35 97 bd eb 65 08 bc 8d 19 53 3d
       0.09677699 -0.07383202 -0.00832508 0.05153804
000160 3a 74 f5 3d 7b 9b 6a 3d 38 97 86 3c de af cb 3d
       0.11985059 0.057277184 0.016429529 0.099456534
000170 f7 b0 b6 3d 23 7f 16 3e 66 94 b6 3d 97 b5 b1 3d
       0.08920472 0.14696936 0.089150235 0.08677214
000180 cb 60 b0 3d b5 10 bc 3d ff f9 b6 3d c5 24 89 3c
       0.08612212 0.09182874 0.08934402 0.016741166
000190 d5 8b ee 3d ae d9 82 bd ff 7f 8b bd 81 21 87 bd
       0.116477646 -0.06389175 -0.06811523 -0.06598187
0001a0 3b 63 a5 bd ea 27 a0 3d a4 28 17 3e 60 d2 4c bd
       -0.08075567 0.07820113 0.14761597 -0.050005317
0001b0 ca c8 fb bc 45 a7 c7 3d 45 01 8c bd 77 0e 6c bd
       -0.030735392 0.09748701 -0.0683618 -0.057630982
0001c0 07 3f e7 3d f6 44 0a 3e 76 94 52 bd 0e a1 84 bd
       0.112913184 0.13502869 -0.051411115 -0.06476031
0001d0 1b b4 9e 3d 78 63 eb 3d 8f f8 71 bd 9e ae e1 3b
       0.07749196 0.114935815 -0.059074935 0.006887271
0001e0 58 85 e3 3d ff 8f 34 bd b2 9f 98 bd 12 4a 86 bd
       0.11109418 -0.044082638 -0.074523345 -0.065570965
0001f0 bc 4e 34 bd 2b b7 2a bd dc 0f 36 bd 99 cd 44 3d
       -0.0440204 -0.04167859 -0.04444872 0.048047636
000200 aa ce e0 3d a0 0e 81 bd e7 48 b2 3d d6 a9 6c bd
       0.10976918 -0.063016176 0.08705311 -0.057779156
000210 bb e7 7a bd 18 fd 7f bd d3 15 f3 3d 4f 15 df 3d
       -0.06125615 -0.06249723 0.11869397 0.10892736
000220 dd cb 43 3d 4e dc 2c bd 40 e7 02 3e 0b b6 b5 3d
       0.04780184 -0.042202286 0.12783527 0.088726126
000230 f7 63 db 3d 4e 33 86 bd a8 f4 7e bd 31 e5 83 bd
       0.10712426 -0.06552754 -0.06224504 -0.06440199
000240 bb 4b 8f 3d 3e ec 47 bd 7e 78 58 bd 44 4c 99 bd
       0.06996866 -0.048809282 -0.052849285 -0.0748525
000250 50 84 ca 3d 27 f4 88 bd c4 76 58 bd e8 60 94 3d
       0.09888518 -0.06687193 -0.05284764 0.07245046
000260 18 25 67 3c e6 a9 ca 3d c8 75 76 bd c7 ca 88 bd
       0.014107965 0.09895687 -0.06017092 -0.06679302
000270 6e c5 07 bd e8 d9 9e 3d 6d ca ac 3b 96 42 82 bd
       -0.033147268 0.07756406 0.0052731545 -0.063603565
000280 ed 3d e6 3d 2d 2e c2 3d d9 78 bd 3d f0 cc d6 3d
       0.1124228 0.094814636 0.092515655 0.104883075
000290 86 ab 72 bd 35 8c e1 3d da 47 81 bd b5 23 23 bd
       -0.05924561 0.110130705 -0.06312533 -0.039828975
0002a0 8e cc d3 3d e8 aa 82 bd 26 79 64 bd 86 49 bc 3d
       0.1034175 -0.06380254 -0.0557796 0.09193711
0002b0 55 2e 2b bd 3d 8e 41 bd 6b e1 de bc 3e ff 62 bd
       -0.041792233 -0.04725479 -0.027207097 -0.0554192
0002c0 bb 2f 3c bd e1 56 6d bd c0 69 72 bd 13 0a 43 bd
       -0.045943957 -0.057944182 -0.059182882 -0.04761703
0002d0 5c b4 9a bc 73 06 72 bd 39 35 78 bd 85 36 6b bd
       -0.01888483 -0.05908818 -0.060597632 -0.05742504
0002e0 8d 59 aa 3e 5b 83 8c bd 8c 4f 21 bd 52 70 b6 3d
       0.33271447 -0.068609916 -0.039382502 0.08908142
0002f0 0e 01 8c bd 87 ec df 3d 54 a9 05 3e a7 b3 70 bd
       -0.06836139 0.10933786 0.13052875 -0.05876508
000300 cb 49 b4 3d 94 4a 4e bd 4f f3 da 3d b3 23 60 3d
       0.088031374 -0.050364092 0.10690939 0.054721545
000310 7e 78 0b 3e 16 69 62 bd 43 e3 86 bd 0c dc de bd
       0.13620183 -0.055276 -0.065863155 -0.10881814
