python/bsc/con2prim_restoration/training_with_best_params/0073/net.pth (torch, 178167 bytes, 5 tensors)

layers.0.weight f4 [172, 3]
000000 03 7a 99 be d5 27 dd be 09 3e 0b 3f c2 1a 10 3f
       -0.299759 -0.43194452 0.54391533 0.5629083
000010 32 80 b8 bd c7 80 e7 3e aa 49 20 3e 1c 59 d6 be
       -0.09008826 0.45215437 0.156531 -0.4186486
000020 f6 5c 0f 3f 74 54 94 3e 38 75 1a be 6f 03 c3 bc
       0.5600122 0.28970683 -0.15083778 -0.023805348
000030 01 e9 8d 3e e5 99 a1 3e 90 e1 b2 bd 09 db 9b 3e
       0.2771683 0.31562725 -0.08734429 0.30440548
000040 f4 a9 03 bf 4b f4 88 be d7 15 a3 be fc 43 9b be
       -0.514312 -0.2674888 -0.318526 -0.30325305
000050 37 7b 8a 3e 7f 43 0b 3f c3 3e 51 be 38 37 09 bf
       0.2704713 0.54399866 -0.20434098 -0.5359988
000060 bd 69 5a be 07 14 69 bc 2b 33 db be e8 b8 00 3f
       -0.21329398 -0.014225966 -0.42812476 0.50282145
000070 fb e9 ef bd c6 3f 03 bf 69 79 b9 bc 67 a9 8f be
       -0.1171455 -0.51269186 -0.0226409 -0.2805893
000080 03 92 37 3d 81 e3 3a 3e 7e 4c b0 be 00 ec 4b be
       0.044816982 0.18250848 -0.3443336 -0.19914246
000090 72 e9 de 3e dc 69 74 bd d0 46 6d be a1 18 d0 3c
       0.4353748 -0.059671268 -0.23171544 0.025402369
0000a0 c6 82 38 be d2 40 4b 3e 7f 7e b2 3e 8f 8d 97 be
       -0.18018636 0.19848946 0.34862134 -0.29600188
0000b0 31 4f 51 bc f4 93 dc be e7 3a ee 3d fc 9a 8b 3e
       -0.012775228 -0.4308163 0.116323285 0.2726668
0000c0 c6 c1 db 3e 9e 0e 28 bd da e7 21 be 0c a1 0e be
       0.42921275 -0.041029565 -0.158111 -0.13928622
0000d0 53 66 0e 3e d6 4d 7a bd 92 53 85 3c 85 92 40 3e
       0.13906221 -0.061109386 0.016275201 0.18805893
0000e0 38 e2 d5 be a0 39 02 bf b4 4a 85 3e 57 a8 c2 3e
       -0.41774154 -0.5086918 0.26033556 0.38019058
0000f0 8a e0 1f 3e e0 7b 0d 3f 2e 5f 81 bd 93 ef c0 bd
       0.15612999 0.55267143 -0.06316982 -0.09420695
000100 cd 8e 56 3c 61 4b 78 bd 5c 2d 93 3e 08 03 ad be
       0.01309557 -0.060618762 0.28745544 -0.33791375
000110 a1 6c 3a bc b5 a1 be be 07 7f 44 be 53 3e ef bd
       -0.011378438 -0.37232748 -0.19189082 -0.11681809
000120 f0 f6 cb bd dc d1 79 3e ce 34 bf be e9 77 ab 3d
       -0.09959209 0.24396461 -0.37344974 0.083724804
000130 6a 01 cd be cf 0a 9f 3c 6e 92 68 be 54 ff ec be
       -0.4004014 0.019414334 -0.22712108 -0.4628855
000140 6b a5 ce be a7 f4 90 be 48 d9 f4 3e 90 2d 93 3e
       -0.4036058 -0.28311655 0.47822022 0.287457
000150 7e e2 f0 3e 5c 26 c8 be cc 59 b1 3e 0a 4f 01 3f
       0.470478 -0.39091766 0.34638822 0.5051123
000160 ee 01 d0 be 0d 00 0c 3f 3a bb 70 3e 88 25 93 3e
       -0.40626472 0.5468758 0.23508921 0.28739572
000170 28 c7 7c be c9 88 44 3b a0 b9 09 bf 5e e8 15 3e
       -0.24685347 0.0029988757 -0.53798866 0.14639422
000180 21 9f e7 be d4 48 b1 be e6 d8 ae be 2e 2e e7 3e
       -0.45238593 -0.34625876 -0.34149855 0.4515242
000190 e9 b9 b9 be ed ed df be b5 aa c6 3e 56 91 f0 be
       -0.3627465 -0.4373621 0.38802114 -0.46985883
0001a0 84 7e 6c 3d 8e 60 10 bf 5d 20 5a 3e 21 45 bb 3e
       0.057737842 -0.5639733 0.21301408 0.3657618
0001b0 ac 51 15 bf 7e d6 0e 3e ed 03 53 3e ba 14 07 bf
       -0.58327746 0.1394901 0.20606966 -0.52766
0001c0 93 29 cc be 9e 7b d8 3d 82 41 52 be 29 2a b3 be
       -0.3987547 0.10570453 -0.20532802 -0.34993103
0001d0 10 f3 c6 bd ae 60 df be 71 4e c0 be d0 a2 8d be
       -0.09714329 -0.43628448 -0.37559846 -0.2766328
0001e0 f6 3e f1 3e bf ee 4e 3e bc f5 d4 be d5 49 b9 bc
       0.47118348 0.20208262 -0.4159373 -0.022618214
0001f0 48 f5 c9 3d 92 92 6f 3d ad 1b 0e 3e e8 a8 9b 3d
       0.09861237 0.05848939 0.13877745 0.07600576
000200 60 f4 ed be c2 64 26 bf fe f1 06 bf f9 12 d9 3e
       -0.46475506 -0.64997494 -0.52713 0.42397287
000210 98 39 0d 3f ef 06 35 be f1 bb 9f 3d 5a 76 25 be
       0.55166006 -0.17678426 0.07799519 -0.16158429
000220 ad 22 ac 3e 78 bc 46 3e 75 0a ea 3e 62 e0 22 3e
       0.33620206 0.19407833 0.45711103 0.15905908
000230 d0 6d 09 3f fc 4b 08 3f 26 fb 91 3d b2 d5 ac be
       0.53683186 0.5324094 0.07127981 -0.33756787
000240 f5 b5 8f 3d e7 ba 9d be fb eb a5 be 85 3d ef 3d
       0.070171274 -0.30806658 -0.324066 0.11681656
000250 ce aa 85 3d f6 1b 28 be b9 99 36 3e 95 37 18 bf
       0.06526719 -0.16416916 0.17832078 -0.5945981
000260 e7 30 1b 3e a9 09 30 3d 74 cd c6 3e af 02 1b 3e
       0.15155374 0.042977963 0.38828623 0.15137742
000270 b6 31 51 3e 6c f1 35 be 9b 7a 99 bd 06 73 bf be
       0.2042912 -0.17767876 -0.07494088 -0.37392443
000280 0e e9 09 3f 22 12 66 3e 3c 32 88 3d 3b 27 d1 3e
       0.5387124 0.22467855 0.066502064 0.40850243
000290 74 bf d9 be 19 27 38 3b 1a 78 16 3e c0 77 08 3f
       -0.4252888 0.0028099476 0.14694253 0.53307724
0002a0 4f 24 ec be 86 6f bd be 92 65 74 be 98 0b 07 bf
       -0.4612145 -0.36999148 -0.23866871 -0.52752066
0002b0 9d 1d 75 3d 40 fd 5f be dc f7 32 be 91 a3 fe bd
       0.059842695 -0.21873951 -0.17477363 -0.124335416
0002c0 9e 15 f0 bd 41 17 98 be c9 4e 9b 3d 93 61 b4 3e
       -0.11722873 -0.2970524 0.075833865 0.35230693
0002d0 75 75 24 be 6f 2c e5 be 36 d0 3c 3e 85 50 f4 bd
       -0.16060431 -0.44760463 0.18438801 -0.119294204
0002e0 b6 ba c6 bd 81 c0 d6 3e 2e 6f b0 be 66 f4 11 be
       -0.09703581 0.41943744 -0.34459823 -0.14253387
0002f0 fa 92 e3 3e 00 0f e3 be 55 73 0c 3f 46 0a 52 bc
       0.44448072 -0.44347382 0.5486348 -0.012819832
000300 c7 c9 72 3e 4e 63 a1 be f9 4d 96 3e 69 2c fc be
       0.23709784 -0.31521076 0.29356363 -0.49252632
000310 79 b1 88 3d 0c 78 96 be e8 62 e5 be a5 32 e5 3e
       0.06674475 -0.29388463 -0.44802022 0.447652
000320 39 8e a8 be 99 50 f0 3e 28 84 2b be fd 5e 92 be
       -0.32921007 0.4693649 -0.16749632 -0.28588095
000330 c2 6b 21 3e 66 03 67 bd 62 a7 e8 3e f3 86 55 3e
       0.15763763 -0.056399725 0.45440203 0.2085226
000340 e9 6f 01 bf c8 1d 07 3f 97 88 d4 3e 65 5e e4 be
       -0.50561386 0.5277982 0.4151046 -0.44603267
000350 6b 6d bf 3e 0f ff 6b be 3e 7a 90 be 54 d6 01 3e
       0.37388167 -0.23046516 -0.28218263 0.12679416
000360 ea e8 2d be 3e 17 98 3e dd c6 52 be ff 7a e1 3d
       -0.16983381 0.29705232 -0.20583673 0.11009788
000370 38 46 13 bf 38 91 15 3e 79 4b 5b be 0d 4a 01 be
       -0.5752902 0.14606178 -0.2141551 -0.12625904
000380 df b1 69 be fa a2 95 be d1 1d dd 3e ae e0 c6 be
       -0.22821759 -0.29225904 0.4318681 -0.38843292
000390 88 0d 9c 3e 9b 74 04 3f 4d 1d a8 be d8 24 9c 3e
       0.30479074 0.51740426 -0.32834855 0.3049686
0003a0 8e 2d 4b be 70 04 0c 3f 4b e7 df be a5 dc 8d bd
       -0.19841596 0.5469427 -0.4373115 -0.0692685
0003b0 f8 c7 3d 3e ca de 84 bd 34 7c 15 3e f3 66 e0 3e
       0.18533313 -0.06487806 0.14598161 0.43828544
0003c0 e2 6c dd be 53 09 95 3d 79 39 f3 bd 00 61 f5 be
       -0.43247133 0.07277169 -0.118761964 -0.47925568
0003d0 79 19 fa 3e af 3d a6 be 13 bd 91 be a0 31 0c 3f
       0.4884756 -0.32468936 -0.28464565 0.5476322
0003e0 36 cc af be 8f f6 f9 be 37 1a dd bd 82 ef b3 3e
       -0.34335488 -0.48820922 -0.10796016 0.35143667
0003f0 24 5e 8d 3e b8 c2 b5 3e ab e3 bb 3d 07 a8 96 bd
       0.27610886 0.3550012 0.091742836 -0.073562674

layers.0.bias f4 [172]
000000 16 e6 65 be 23 a2 a4 be e3 2c d4 3e 93 5e e6 be
       -0.22451052 -0.3215495 0.41440496 -0.4499403
000010 72 61 fc 3e 4e c1 c9 bd 9e f1 ea be b0 d1 9c bc
       0.49293095 -0.09851323 -0.45887464 -0.019142956
000020 02 ed ce 3e 60 67 08 3e d8 e7 a7 be b5 5e 2a be
       0.40415198 0.13320684 -0.3279407 -0.1663769
000030 c9 0e b5 be 1b f6 fb bc 4d 42 e3 3e 38 0e b9 3e
       -0.35362843 -0.030757 0.4438652 0.3614366
000040 e9 e3 ee be 59 53 d2 3e 76 6e 46 3e b7 59 be 3e
       -0.46658257 0.41079214 0.19378075 0.37177822
000050 f8 2d b8 be cc 4a 39 3f 3f ed b2 be 9f 0f 01 bc
       -0.3597257 0.72379756 -0.3494663 -0.0078772595
000060 b5 ec 83 be 4b 15 b6 be 28 da 06 be 64 3e 06 3f
       -0.2576653 -0.3556312 -0.13169158 0.5243895
000070 59 b2 0a 3f ff 46 2a be 25 09 2f be 8b 28 ac 3d
       0.54178387 -0.16628645 -0.17093332 0.084061705
000080 ce d9 a4 3e 69 41 a8 3d 36 86 60 be 31 45 94 3e
       0.32197422 0.08215601 -0.21926197 0.2895904
000090 f2 e2 d1 3e 6c 00 b9 bb f1 5b 86 3e 6f 8d 34 3e
       0.40993458 -0.0056458022 0.2624202 0.17632078
0000a0 dc c7 84 be d1 a3 29 bf e2 3b 31 3e a2 5b 85 bd
       -0.2593373 -0.6626559 0.17308 -0.06511618
0000b0 18 75 f5 be c3 da b2 3e 70 3a de be 4a 2b 0e 3f
       -0.47940898 0.34932527 -0.4340396 0.55534804
0000c0 22 91 56 3e 91 64 42 be ce ac 33 be 36 ca f8 be
       0.20953801 -0.18983676 -0.17546389 -0.48591775
0000d0 2d 62 24 bd f3 76 d8 bd d3 01 50 3d da ab bf 3d
       -0.04013269 -0.10569563 0.05078299 0.0935895
0000e0 12 38 31 39 cf 44 e3 be 93 10 9e 3e 5a 74 3b be
       0.00016900923 -0.44388434 0.3087202 -0.18306103
0000f0 70 67 03 bf 79 00 f6 bd 84 eb 62 be b4 86 8d 3e
       -0.5132971 -0.12011809 -0.22160155 0.27641833
000100 1f 6a b1 3d a4 91 e8 3e f4 95 48 3b 9b 62 e5 be
       0.08662819 0.45423615 0.0030606957 -0.44801793
000110 2a b0 18 bf 7d f3 bd bd bf da 76 bd ae 2f be bd
       -0.59643805 -0.09274957 -0.060267206 -0.09286438
000120 a1 67 43 3d 81 22 45 be a7 3d a7 38 de c9 8b be
       0.04770625 -0.19251443 7.974664e-05 -0.2730245
000130 56 49 0b bf 54 66 03 bf 34 2e 81 3e 71 16 9b 3e
       -0.54408777 -0.51328015 0.25230563 0.3029056
000140 72 42 be be c7 32 68 3d 70 ea ba 3c de 82 b2 3e
       -0.3716007 0.05668905 0.022816867 0.3486547
000150 47 2d 56 be 62 01 e6 3e 50 22 e3 bd e3 a0 ad be
       -0.2091571 0.4492293 -0.11090529 -0.3391181
000160 14 05 87 be 1c de 37 3d d6 41 4f be 5f 2d 1a be
       -0.26371062 0.044889554 -0.20239958 -0.1505637
000170 60 0c c0 be cd 42 aa 3e 69 6b ad 3e 8f ac 01 3f
       -0.3750944 0.3325409 0.3387101 0.5065393
000180 ab 6a 8b 3d 5b ff b9 3e c3 cb cc bc b9 3d f7 be
       0.06807455 0.36327633 -0.024999505 -0.48289278
000190 fc da 05 bf 63 34 87 3e 07 78 06 3f ad 95 f8 3e
       -0.5228727 0.26407155 0.525269 0.48551694
0001a0 af 8a 83 3e 5a 6d ac 3e 97 ef 05 be 51 d3 0f 3f
       0.25691745 0.3367718 -0.13079678 0.5618182
0001b0 5b 6c 06 bf 65 33 07 3e 4d 86 c7 3e 46 4e 33 3d
       -0.5250909 0.13203199 0.3896965 0.04377582
0001c0 af 78 c7 be 83 db 57 be 81 5c 81 b9 dd 4e 74 3e
       -0.38959262 -0.21079831 -0.00024673718 0.23858209
0001d0 a4 38 3f 3e 45 51 e5 3c 01 19 b2 3e 0a 7e 5b 3d
       0.1867395 0.027992854 0.347847 0.053586997
0001e0 11 64 4c bd 45 a7 ad be 01 bf bb be 6c 7d 65 3e
       -0.04990012 -0.3391668 -0.36669162 0.22411126
0001f0 59 a7 ae 3e ee 77 fc 3e 00 85 db bd 59 bf ee 3d
       0.3411205 0.4931025 -0.10718727 0.116575904
000200 7b 5f e5 be 50 d1 32 3e 17 8e e0 bc e4 48 a1 3e
       -0.44799408 0.17462659 -0.027411504 0.31500924
000210 19 e4 c5 3d 2d 61 42 bd c6 67 89 be 65 98 f6 bd
       0.09662647 -0.047455955 -0.26836985 -0.12040786
000220 24 69 ec be 3b 1e a4 be 86 dd b8 3e e3 81 be be
       -0.46173966 -0.32054314 0.3610651 -0.3720847
000230 74 5a a9 be 84 97 0a 3f 61 dc f8 be 1b 9a e6 3e
       -0.33076823 0.54137444 -0.48605636 0.45039448
000240 01 f9 a6 be 47 ed e6 bd bb 50 3f 3e 7a 9b c6 3e
       -0.3261185 -0.11275726 0.1868314 0.38790494
000250 1b c7 c9 bd c6 70 93 3e 18 bf aa be ef e8 59 3e
       -0.098524295 0.28796977 -0.33348918 0.21280263
000260 5a c2 d1 bd d7 74 96 bd 9d 5d 0c bf 27 bc b1 be
       -0.10242148 -0.07346504 -0.5483034 -0.3471386
000270 c8 9e 08 3f 20 c9 02 3c 0e 32 03 3e e5 4a 81 3d
       0.5336728 0.007982522 0.12812063 0.06313113
000280 31 70 53 3e 5e dc 19 bd c5 93 e1 be 4c b7 63 3d
       0.20648266 -0.037563674 -0.44058052 0.055594727
000290 93 97 99 3e 93 9d 0b 3f 2e f6 d2 be e0 4b e1 be
       0.29998454 0.54537314 -0.41203445 -0.440032
0002a0 4e 92 30 3c a3 56 c5 be 72 31 bd be d2 76 1c bf
       0.010777069 -0.3854266 -0.36951786 -0.61118805

layers.1.weight f4 [249, 172]
000000 85 da 77 bd 20 11 82 bd 64 92 9f bd e6 f6 cb 3c
       -0.06051113 -0.063509226 -0.07791594 0.024898004
000010 6a eb 3a 3c f2 65 b8 3c 87 f5 8d 3d 9b 98 0a bc
       0.011408666 0.022509549 0.06931596 -0.008459236
000020 93 63 82 bb 8c 44 54 bd a2 8c 2a 3d 83 3b 40 bd
       -0.0039791553 -0.051823184 0.041638024 -0.046931755
000030 c2 b0 a5 3d 55 3f e6 bc c8 da 18 bd 99 8f 05 3d
       0.080903545 -0.028106371 -0.03731802 0.03260765
000040 d4 eb b8 bc e5 d8 4c bd 89 a3 5a 3d c1 03 fd bc
       -0.02257339 -0.050011534 0.053378616 -0.030885579
000050 7a 26 91 bd 16 78 67 3c ed 8d c7 b9 1a 91 64 3d
       -0.07087417 0.014127752 -0.0003806198 0.055802442
000060 9c df 24 3d 31 90 23 3d cb 13 fb 3c 2b 42 56 3c
       0.040252313 0.039932434 0.030649086 0.013077299
000070 40 3c f0 bc 98 c3 0d 3c 76 e3 29 3d 61 eb 60 3d
       -0.029325604 0.00865259 0.04147669 0.054911975
000080 f5 a5 56 3c eb d7 99 3d 08 dc 95 3d 29 bc db 3c
       0.013101091 0.07511886 0.07317358 0.02682312
000090 c8 d8 25 bb cc 0d 6f bc a0 86 24 bb ba 23 8d bd
       -0.0025306214 -0.014590692 -0.0025104657 -0.0689158
0000a0 b6 82 90 3c af 6a 40 bd 01 32 fe bc 5e 05 e2 bc
       0.017640453 -0.04697674 -0.031029703 -0.02759045
0000b0 e5 09 22 bd 2a 5d b0 bc 75 df 6d 3d 2e ca 29 bd
       -0.039560217 -0.0215288 0.058074433 -0.04145258
0000c0 71 62 86 bd f7 e7 c7 3d b4 27 a6 3d 91 7b 7d bd
       -0.06561745 0.09761041 0.081130415 -0.06188542
0000d0 cf 03 2a 3d 59 7e 3b 3b 20 b2 29 3d f6 8b d2 3c
       0.04150754 0.0028609245 0.04142964 0.025701504
0000e0 95 37 36 3b b8 d7 9a 3d 5f e1 1d bd 76 95 65 3d
       0.0027804126 0.07560676 -0.03854501 0.05605074
0000f0 05 6c 8f bd 11 40 9d bc 5e 54 0b bd c4 c4 83 3c
       -0.07003025 -0.019195588 -0.034016006 0.016085036
000100 cf 3f a3 bd d2 a1 12 3d f8 45 5f 37 e5 44 4a bd
       -0.07971155 0.035798855 1.3308127e-05 -0.04938211
000110 58 ae 8b 3d 4e c7 cd bd 8b 38 04 bd 4a 7c d3 bc
       0.06820363 -0.1004778 -0.032280486 -0.025816102
000120 38 73 02 3e a2 10 46 3d be ea 06 bd 28 61 10 3b
       0.12739265 0.048355706 -0.03293871 0.0022030566
000130 3f 8c 6b bd ef fa 6b bd a0 2a c8 bc 20 72 ad 3c
       -0.057506796 -0.057612356 -0.024434388 0.021172583
000140 f1 3d 5d bc 52 5c a0 3b 44 57 14 bd d9 a8 9a bd
       -0.0135035375 0.004893818 -0.036216035 -0.075517364
000150 ff ff 32 bc 87 0c bf 3b dd 5b 60 bc 52 91 64 3c
       -0.010925292 0.005830351 -0.013693777 0.013950663
000160 b7 48 ad 3a eb aa c3 bb e0 e6 9f 3d 61 cc 52 bd
       0.0013220523 -0.0059713027 0.07807708 -0.051464442
000170 33 65 8d bd ee f3 7a bc 50 f7 2c 3d 1a 47 25 3d
       -0.06904068 -0.015316946 0.042228043 0.04035101
000180 e9 59 b3 bb fc b2 b8 bc 20 e2 5f bd f9 64 07 3c
       -0.0054733646 -0.022546284 -0.05465901 0.00826382
000190 a8 51 98 3d ab 58 17 3d 66 b7 d2 bc 5e ee b8 bd
       0.0743745 0.036949795 -0.025722217 -0.0902984
0001a0 f2 17 44 bd 39 e9 5a bc f1 73 62 bd a8 e2 05 bc
       -0.0478744 -0.013361269 -0.05528635 -0.008171715
0001b0 83 3f 61 bd af 88 ca 3b bd e1 8e bd 96 38 9f bc
       -0.05499221 0.0061808447 -0.0697665 -0.019436162
0001c0 a7 d6 2f 3c f9 d0 65 3d 61 4f 88 bd bc f6 4c bd
       0.010732329 0.056107495 -0.06655765 -0.05003999
0001d0 f6 fa 0e bd a2 28 38 3d 83 d1 8c bd 65 11 f1 3b
       -0.034907304 0.044960625 -0.06875899 0.00735681
0001e0 af ac 5e 3c e5 be 97 3d 81 20 99 3d 90 52 5b bd
       0.013590976 0.07409457 0.07476903 -0.053545535
0001f0 38 3c 1f 3d d1 22 0d bd 9f 04 59 3d 77 95 f7 bc
       0.03887579 -0.03445703 0.052982923 -0.030222638
000200 80 cd 3c bc 0f 34 98 3d 2d eb a5 bd f4 93 fc bc
       -0.011523604 0.074318044 -0.08101497 -0.030832268
000210 84 df ab bc 35 c5 8b bc 39 39 b9 bc fc 3d 8f bd
       -0.020980604 -0.01706181 -0.022610294 -0.069942445
000220 ad 85 b1 3c 71 9c bd 3b ce fc 1d bc 2c 1f 4d 3d
       0.021670187 0.0057864715 -0.009642793 0.050078556
000230 ee 6f ed ba 78 48 a6 bb ba 89 3d 3d c0 3e 14 3d
       -0.0018115023 -0.005074557 0.046273924 0.036192656
000240 ff 0a aa 3c 33 59 3b 3c db a1 dc bc c3 0f 87 3c
       0.020757196 0.011434841 -0.026932647 0.016487008
000250 28 f6 ce 3c f8 3e 8b 3b 74 37 05 bd 02 09 34 3d
       0.02526386 0.00424945 -0.032523587 0.043953903
000260 82 c8 78 bb b2 87 0d bd 13 66 75 bd f0 3e 84 bd
       -0.003796131 -0.034553237 -0.0599118 -0.06457317
000270 9f a0 39 3d 90 2c e5 3d 92 41 65 bd 2a 8f ab 3d
       0.045319196 0.1119014 -0.055970736 0.08376916
000280 ca e6 07 bd f5 fe 7d 3d 6f 99 1a 3d a1 28 00 39
       -0.033179082 0.062010724 0.037743982 0.00012222167
000290 4b 5c 79 bc 8f f7 9e bd 84 ca 83 3d c0 2a d7 bc
       -0.015219758 -0.07762062 0.06435111 -0.026265502
0002a0 a9 ea 0d bd 89 ff c7 3b be 09 1c bd 9a bc 67 3d
       -0.034647617 0.00610346 -0.03809523 0.05657635
0002b0 ca ee 25 bd e6 6b 72 3c 79 ce 8c bd 29 88 fc 3b
       -0.04051093 0.014796233 -0.06875319 0.0077066612
0002c0 88 a6 59 3d 31 3f eb 3d 50 72 07 bd be a9 ac 3c
       0.053137332 0.11486662 -0.033068 0.021077033
0002d0 47 06 7d bd 52 2c 2e 3d 95 ac 4c 3d d2 9b 5a 3d
       -0.061773565 0.042522736 0.049969275 0.053371258
0002e0 1c ab ec ba bd 5b 94 3d 90 da f9 bc b3 c2 2c bd
       -0.0018056366 0.0724406 -0.030499727 -0.042177867
0002f0 98 4c 30 bd b8 85 f7 bb 8d a9 1b be fc fb 28 3c
       -0.043041795 -0.0075537823 -0.15201397 0.010313984
000300 6f 5f 41 3d 9b 39 4d b7 fe 9d 83 3d 01 d4 bc 3d
       0.047210153 -1.22323645e-05 0.06426619 0.09220124
000310 46 03 da 3c 10 7d ad 3d 37 95 16 3c ba c8 48 bd
       0.026612889 0.084711194 0.009190849 -0.049019553
000320 af e9 3e 3d b7 27 64 3c 0d 0c 1f 3d 39 af 06 3e
       0.046609577 0.013925484 0.038829852 0.1315278
000330 17 33 7c bd f6 4c c2 3c 90 c3 3f 3d f4 4d 68 bd
       -0.06157216 0.023718338 0.046817362 -0.056714967
000340 80 31 3a 3d 27 f4 c9 39 1f b3 6e 3d c1 b8 f8 bc
       0.045457363 0.00038519615 0.058276292 -0.030361535
000350 db 54 61 bd 20 32 a0 bc f5 c5 06 3d 88 6e 26 3d
       -0.055012565 -0.019555151 0.03290363 0.040632755
000360 17 d5 92 bd b0 aa 4f 3c 37 d1 de bc f9 cd da bc
       -0.0716955 0.012674972 -0.02719937 -0.026709544
000370 b4 9f a4 3e 97 14 bc 3c 2e 8d 2d 3e 2c 44 87 bd
       0.32153094 0.022959037 0.16948387 -0.066048
000380 45 11 a8 3c b0 17 37 3d 1f 53 ff bc 5f b2 f5 bc
       0.020516047 0.044700325 -0.031167565 -0.02999228
000390 1c fa 0f bc ab dd 19 3d b8 99 6c 3d 23 31 81 3c
       -0.008787658 0.037564915 0.057763785 0.0157705
0003a0 9f c7 2c 3d 9d 3c 34 bd b6 dc 2b bd 22 e1 54 3c
       0.04218256 -0.044003118 -0.041958533 0.012993129
0003b0 d4 18 64 bd e1 46 7a bd a8 a8 3e bd bc 88 1e 3d
       -0.05568774 -0.06110275 -0.046547562 0.03870462
0003c0 a5 12 0a 3c 98 9d ad bd c2 73 18 3c 20 68 3a 3d
       0.008427297 -0.08477324 0.009304943 0.045509458
0003d0 4d 4a a9 3c 01 7c 43 3e b1 16 32 bc 36 99 46 3d
       0.020665312 0.19090272 -0.010869668 0.048485957
0003e0 6d 63 1d 3d f4 09 50 bd 9e a0 8e 3c 5e 04 cb bc
       0.038424898 -0.050790742 0.017410573 -0.024782356
0003f0 81 87 d4 bb 7e 4c 33 be a2 c3 25 bd 9f 65 96 bc
       -0.00648588 -0.17509648 -0.040469773 -0.018359004

layers.1.bias f4 [249]
000000 2a 77 f7 3c c3 40 01 3a 4d 0d 04 3d 43 d4 99 3d
       0.030208189 0.000493061 0.032239247 0.07511189
000010 91 d3 e0 3c b9 04 87 3d ee c8 a9 bd 51 fa 81 bc
       0.027444633 0.06592698 -0.082902774 -0.01586643
000020 8f 02 63 bd 61 e3 8f bd c0 02 84 bd 1c 79 6a 3b
       -0.055422362 -0.07025791 -0.06445837 0.0035777753
000030 10 22 96 3c bc 0d 62 3d 4d 45 62 3c 16 8a 60 bd
       0.01832679 0.05518888 0.013810468 -0.05481919
000040 cd 54 20 3d f1 96 bb 3d 45 47 82 3d 07 fb 29 3d
       0.039143372 0.09159649 0.0636125 0.041499164
000050 9f 72 55 bd 3b 5f 8d bd 68 fb 35 3d b0 3b 31 bd
       -0.052111264 -0.069029294 0.044429213 -0.043269813
000060 72 bd 99 bd d8 c2 08 3d 97 bc 05 3d 6b c5 9c 3c
       -0.07506837 0.033388942 0.032650556 0.019137105
000070 31 7f 6f 3d af 53 0c bd d1 01 f4 3a b5 94 77 bd
       0.05847091 -0.034259494 0.0018616264 -0.060444552
000080 8d 56 0e 3d fb 87 74 bd 5f 1b 06 3d cb 73 42 bc
       0.03475051 -0.059699994 0.032740947 -0.0118684275
000090 8d 48 62 bb 80 01 43 3d 84 f4 c5 bd dc 54 24 3d
       -0.0034528107 0.047608852 -0.09665778 0.04011999
0000a0 46 53 20 3d b8 c9 18 bd 25 0a 91 bd 24 89 aa 3d
       0.039141916 -0.03730175 -0.07082013 0.08326939
0000b0 ae 91 2c bd 09 fb 3f bd 14 a6 0b bd 6a 4a 81 bd
       -0.04213112 -0.046870265 -0.03409393 -0.063130215
0000c0 e1 07 28 bc 52 7e b2 3b eb 18 7c bd 5a 69 0d 3d
       -0.010255785 0.0054471875 -0.0615472 0.0345243
0000d0 dc c0 0e bc c3 08 08 3d 2d 76 9d bc 62 90 25 bb
       -0.008712973 0.03321148 -0.01922139 -0.002526306
0000e0 b1 04 d6 bd 01 c6 11 3d 40 8c 30 3d c9 f2 91 3c
       -0.104501136 0.035589222 0.043102503 0.017815964
0000f0 32 18 90 3d 10 fc 93 3d df 63 80 3c 35 62 2b 3c
       0.07035865 0.072258115 0.015672622 0.010460426
000100 90 21 aa bd 2a 77 9a 3d 84 b6 87 3c 0a 11 06 3d
       -0.08307183 0.0754226 0.016566522 0.032731093
000110 39 75 3e bd bf 58 86 3d f6 1c f6 3d 9c 10 73 3b
       -0.04649851 0.06559896 0.120172426 0.0037088757
000120 45 05 66 3d b9 a8 0e bd 34 28 19 3d c9 43 72 bb
       0.05615737 -0.034828875 0.037391856 -0.0036966673
000130 03 ff e8 3c e0 73 29 3d 84 fa 9e bd 9a 62 17 3d
       0.028441912 0.041370273 -0.07762626 0.03695927
000140 db f6 d2 bb 35 72 82 3d 02 fe 96 3d c1 ac b9 3a
       -0.006438119 0.063694395 0.07372667 0.0014165865
000150 e1 90 62 3c b1 c0 36 3d 55 77 6d bd 0e f1 db 3c
       0.013828487 0.04461736 -0.057975132 0.026848342
000160 ad 88 8e bd b2 62 98 bc c3 2e 59 bd 66 bd 32 3d
       -0.069596626 -0.01860175 -0.05302311 0.043637656
000170 97 70 24 3d 4e dd a2 bd 20 7b a3 bd 92 86 c2 bc
       0.040146437 -0.07952367 -0.079824686 -0.023745809
000180 6b e2 40 3d 31 1a d4 bc e8 81 16 3b 5d ee a5 bd
       0.04709093 -0.025891395 0.0022965614 -0.08102105
000190 e9 29 ef bc 26 1a 9f 3d 53 b2 7c bc b5 77 b1 3a
       -0.029194789 0.07768659 -0.015423375 0.0013539704
0001a0 28 27 6a 3d 76 fa 6b bd 54 ca 00 3d 4f 37 43 bc
       0.05716625 -0.057611905 0.031442955 -0.011915042
0001b0 6e ec c4 bc 53 13 ee 3c 88 0e 66 bd 1f ca 7e bc
       -0.02403852 0.029061949 -0.0561662 -0.015551119
0001c0 01 43 f2 bc ae db 10 bd e7 8a 48 3c ba 06 5f bd
       -0.029572966 -0.035365753 0.012240148 -0.054449774
0001d0 d1 96 70 bc b6 55 47 bd df ee 9a bb dc 75 d6 3c
       -0.014684395 -0.048665725 -0.0047281827 0.026179247
0001e0 e3 23 8d bd 9a 8d 19 bd 3d d9 f1 bc 20 5d 8b 3d
       -0.068916105 -0.037488557 -0.029522533 0.068048716
0001f0 9f 93 9a 3c 82 ef dd 3c ff da 8a bd 82 2a 69 3d
       0.01886922 0.027091745 -0.067800514 0.056925304
000200 67 e6 f4 3c 13 b7 2e bc 34 0a 70 3d 69 83 98 bc
       0.02989502 -0.0106637655 0.05860348 -0.018617349
000210 70 48 98 bc 87 d2 d2 bc 12 2c 64 3d 92 71 aa bd
       -0.018589228 -0.025735153 0.05570609 -0.08322443
000220 a6 79 36 bd 86 f3 fe bc 77 d3 8e 3c 64 21 38 ba
       -0.044549607 -0.03112198 0.017434819 -0.00070240186
000230 5f 5f 9b 3c 0c 3a 30 3d ad 26 ae bb 88 d5 88 3c
       0.018966375 0.043024108 -0.005314669 0.016703382
000240 e0 6a 11 3b 50 a7 3d 3d be 24 43 3d d1 df 83 bd
       0.0022188947 0.04630214 0.047642462 -0.06439174
000250 4b c1 7d bd 78 46 2d 3d a3 1f 4d bd ef 41 a0 bd
       -0.061951917 0.042303532 -0.050079 -0.07825076
000260 26 45 b9 bd 0a f1 d4 3c 09 a0 b3 3c be 0d d2 3c
       -0.09046392 0.025993843 0.021926897 0.025641318
000270 f8 f1 5d 3d fe e3 06 3c 21 40 91 3d c1 ac 19 3c
       0.054185838 0.0082330685 0.0709231 0.009379567
000280 a0 51 5a bd 16 c7 b3 bc e1 de 84 3d 8e d7 a6 bc
       -0.0533005 -0.021945518 0.06487823 -0.020366456
000290 4d 9d 06 bd ee 9f 30 bc 3f 17 76 3d d2 35 d1 3c
       -0.032864857 -0.010780318 0.060080763 0.025538359
0002a0 43 4d 38 bd 82 6f e8 3c 95 5e f5 bb dd cf 7f bd
       -0.044995558 0.028373484 -0.0074880817 -0.062454093
0002b0 d3 45 f0 3c 7c ae a4 bc ba c1 98 3c 01 c6 a9 bc
       0.02933017 -0.020102732 0.018647064 -0.020724298
0002c0 a2 f6 45 3b 28 ea a3 bd ab 9d 15 3c 4e 66 02 bd
       0.003020682 -0.08003646 0.009131829 -0.031835847
0002d0 4e ae 07 bb 73 b2 17 bd d5 e0 f7 bb 1c 47 59 3d
       -0.002070326 -0.037035417 -0.007564644 0.05304633
0002e0 d5 bb 15 bd e3 40 f0 b9 a8 e9 10 3d d6 96 93 3d
       -0.036556084 -0.00045824712 0.035379082 0.07206504
0002f0 98 54 c7 3c 0b cd ba bd 34 21 84 3d c0 f9 97 3d
       0.02433233 -0.0912114 0.064516455 0.07420683
000300 c0 0e 60 3d 61 13 da 3c bb 82 89 bc aa b5 a8 3c
       0.054701567 0.026620569 -0.01678597 0.020594437
000310 b9 35 a2 3d 33 90 06 3d 47 b6 d2 bc 94 01 52 3d
       0.07920403 0.032852363 -0.025721682 0.051271036
000320 a2 12 6e bd e3 3a 65 bd e7 30 87 3d 5c ce 17 bc
       -0.05812324 -0.055964362 0.06601124 -0.0092655085
000330 74 60 5c bd 2a 5f 6d 3a 49 d3 4c bd 16 04 77 3d
       -0.053802922 0.0009055013 -0.050006185 0.06030663
000340 25 07 59 3c 40 42 72 3d 49 da 64 3d f2 89 cc bc
       0.013246332 0.059145212 0.055872235 -0.024968121
000350 89 55 2f bd 78 d3 44 3d c0 c5 d6 bc 96 b2 84 3d
       -0.042806182 0.048053235 -0.026217341 0.06479375
000360 c8 d6 4e 3d 64 78 ed 3c b1 e5 3e 3d 84 87 c7 3b
       0.0504978 0.02898807 0.04660577 0.006089153
000370 d6 71 67 3d 2b 2d 42 bd a6 2d 00 bd c8 26 13 bd
       0.056505047 -0.047406357 -0.031293534 -0.035925657
000380 2f 85 3a 3d 7f 49 6e 3d f1 70 8f 3d 5e 72 77 bd
       0.04553717 0.05817556 0.07003964 -0.060411803
000390 0c 67 dc bc e0 d3 8d 3c 12 b4 3f 3d 17 f9 52 3d
       -0.026904605 0.017312944 0.046802588 0.05150708
0003a0 a3 4d 0b bd 63 6e 6a bd c1 58 8e bc 62 47 bf 3b
       -0.034009587 -0.05723418 -0.017376306 0.005837367
0003b0 8c 01 70 3d 6a 94 07 3d 6b 55 93 bc 06 7d 9f bd
       0.058595225 0.033100523 -0.017985066 -0.07787518
0003c0 40 2a 6e 3a 6e 23 6e bd 35 78 8a 3b b7 cd a1 3d
       0.0009085275 -0.058139257 0.0042257556 0.07900565
0003d0 9f 9c 85 bd a0 d6 2d 3d db 21 aa bc 63 c1 9b bd
       -0.06524014 0.04244101 -0.020768097 -0.07605245
0003e0 92 c1 b6 3c
       0.022309098

layers.2.weight f4 [1, 249]
000000 73 07 26 bd 05 5d 8c bc 40 ef 4c bd b7 e4 ba 3c
       -0.040534448 -0.017134199 -0.050032854 0.022814138
000010 6a 6c 87 bc a7 52 a5 3c cd 1f dd bc 5f 50 05 3d
       -0.016531188 0.020181013 -0.026992703 0.03254735
000020 f0 da 47 3d 6d ae 45 3b 35 c9 c7 bc 1e 9f 2d bb
       0.04879278 0.003016378 -0.024387935 -0.0026492546
000030 0a 6b df bc 0a 17 2f 3b 4c ab 84 bc 13 8e 9c bc
       -0.02727272 0.0026716613 -0.016194962 -0.019110715
000040 c3 ee 82 3d cc d1 2f 3d 6b c2 45 ba 8b f2 d0 3b
       0.063931964 0.042924687 -0.0007543924 0.0063765696
000050 e3 7e 1b bd 3a a4 02 bb d6 f6 7b bc b4 68 84 3b
       -0.037962805 -0.0019934312 -0.0153786745 0.004040802
000060 78 bb 36 bd b9 eb e2 bb e4 e1 22 3d 72 9d c3 bc
       -0.044612378 -0.006925073 0.039766207 -0.023878787
000070 a3 a2 28 bb fb d0 3c bd 59 46 35 bc 18 08 0b 3c
       -0.0025731705 -0.046097737 -0.0110641355 0.008485816
000080 af e8 9b 3c 59 69 80 bd 72 ea 4b bd 1b aa 30 bd
       0.01903185 -0.062700935 -0.04978413 -0.043130975
000090 aa 63 11 3d e3 13 88 ba 24 12 2d bd fd 4d b9 bc
       0.035495438 -0.0010381903 -0.04225363 -0.022620196
0000a0 9c 9b 8e bc c0 89 14 bd 94 b4 b6 bc 17 97 b3 bc
       -0.017408185 -0.03626418 -0.022302903 -0.021922631
0000b0 4a b1 32 bc df 0f 56 bc 0f 82 0f bd e4 e1 4f bd
       -0.010906527 -0.013065307 -0.035036143 -0.050752535
0000c0 ce 46 fc bc 98 12 4e bc c9 ef 91 3c cd 33 14 bd
       -0.030795481 -0.012577675 0.017814534 -0.036182214
0000d0 26 67 5a bc 2b df 5c bd d4 aa 55 3d 6a c4 f3 ba
       -0.013330257 -0.053923767 0.052164868 -0.0018597965
0000e0 3b 46 0c bc 50 41 d5 39 d1 0b 6a bd 1a 36 4d bd
       -0.008561666 0.00040675187 -0.057140175 -0.050100423
0000f0 fa 80 f9 ba 4e 25 43 3d cd 2d 6c bd e7 76 b5 bc
       -0.001903563 0.047643 -0.057660867 -0.022151424
000100 12 1d 23 bc 7e 3d 07 3d 12 e9 74 bc 7e 7a f9 bb
       -0.009955661 0.033017628 -0.014948146 -0.007613479
000110 0f 1c 52 3b e7 bc c2 bc 3d ba 01 3c aa 21 a0 bc
       0.0032060181 -0.023771716 0.007917938 -0.019547302
000120 d8 07 a9 bc ba 21 17 bd d3 19 e7 3c 75 99 2e 3c
       -0.020633623 -0.0368974 0.028210556 0.010656704
000130 0f 73 6a bc ad d4 70 bc a0 ad e3 39 b9 49 c5 bc
       -0.014309659 -0.014699143 0.00043426175 -0.024083005
000140 97 fe dd bb a8 a2 7d 3c 4c 14 aa 3c ba 42 13 3d
       -0.0067747342 0.015480675 0.020761631 0.035952307
000150 42 d1 03 3d 44 fd 09 bd 73 d2 6f 3d 36 c8 4e 3d
       0.032181986 -0.0336888 0.05855031 0.050483905
000160 94 bc b1 3c 73 79 da bc 85 53 cd 3c 58 c0 5f bc
       0.021696366 -0.02666924 0.02506424 -0.013656698
000170 06 8f f6 3c 5c 87 5f bd 8e c0 a4 3a cd de a8 3c
       0.030097496 -0.054572448 0.0012569593 0.020614052
000180 08 f1 4c 3c d3 cc ba bc e5 ce b3 3c 6c eb 03 bb
       0.012508638 -0.022802746 0.021949241 -0.0020129336
000190 f1 c5 f5 3c 6b fa a9 3c 8c 28 54 3d bc 5b 82 bc
       0.030001612 0.020749291 0.05179648 -0.015912883
0001a0 a5 e3 6e 3c 35 0b b1 3a 1e f0 6a 3b d9 dc b7 3b
       0.014580642 0.0013507368 0.0035848687 0.005611044
0001b0 f2 fc b5 bc 78 3d 3c 3d 40 11 53 bd f7 85 0e bd
       -0.02221534 0.04595706 -0.051530123 -0.034795728
0001c0 93 eb bb 3c 66 91 17 bd 02 43 94 3c 5e e5 57 3d
       0.022939479 -0.037003897 0.018098358 0.052708976
0001d0 62 b6 c3 bc e7 80 0c bd c6 7a 05 3c b2 f0 22 bd
       -0.023890678 -0.03430262 0.008146947 -0.039780326
0001e0 e5 3a 42 3c 30 82 78 bc b2 62 64 bc 84 fb a2 bb
       0.011854862 -0.015167758 -0.013939546 -0.0049738307
0001f0 0f b7 e7 bc 02 90 dd bc 66 c9 71 bc 3e f4 29 3d
       -0.028285531 -0.027046207 -0.01475749 0.041492693
000200 c9 34 12 bd ed 38 f5 39 c7 5c 64 bc e0 42 66 bb
       -0.03569487 0.00046772455 -0.0139381355 -0.0035135075
000210 d0 db db bd 84 fe 48 3d 16 be 2b 3c 59 19 90 3c
       -0.10735285 0.04907085 0.010482332 0.017590212
000220 19 49 3c 3d 0f e7 dd 3b 97 9d 14 bc 59 a0 da 3c
       0.04596815 0.006771929 -0.0090707755 0.026687788
000230 9a 8c 75 3c 78 66 57 3d 69 0c 88 ba e1 5b 2d 3d
       0.014987135 0.052587956 -0.0010379675 0.04232395
000240 c1 38 00 bd 8a 91 d0 ba ac ee 15 3c a9 e9 34 bc
       -0.031304125 -0.0015912515 0.009151142 -0.011042037
000250 63 eb ac bc c2 d1 13 3d 15 35 3f 3d 9a cd f7 bc
       -0.021108335 0.036088713 0.046681482 -0.030249406
000260 64 9b ad bc 08 4f 88 bc 62 54 89 bd 30 b3 e1 3b
       -0.02119226 -0.016639248 -0.06705548 0.006887816
000270 4a 18 ff 3c 6e 60 82 bb 97 dd 28 3b a0 47 28 3d
       0.031139512 -0.0039787805 0.0025766843 0.041083932
000280 ef 4f ad ba 99 5d 50 3d 08 74 b5 bc f9 21 70 bc
       -0.0013222675 0.05087051 -0.022150055 -0.014656537
000290 10 7d 8e bb bc 93 36 bd 2e 65 c7 3c 66 a9 b5 bb
       -0.0043484047 -0.044574484 0.024340238 -0.0055438755
0002a0 03 0e 5a 3d 82 55 41 bd 01 5a 7a bc 93 22 9f bb
       0.05323602 -0.047200687 -0.015280248 -0.0048564165
0002b0 27 34 cf bc 4c 2b 4a 3c 89 22 b8 bc 2c fd 0d bc
       -0.025293423 0.012339424 -0.022477405 -0.008666318
0002c0 23 40 f4 3c 42 e0 e5 3a bd 0b 24 3b c0 6e 0b 3d
       0.029815739 0.0017538148 0.002503141 0.034041166
0002d0 ee a1 ac 3c 98 a4 3f bd a1 4c 17 3d 6f 2b 58 3a
       0.021073308 -0.04678783 0.036938313 0.0008246218
0002e0 9b ed 61 bc 05 b8 92 3b 56 78 65 bc 20 88 19 3c
       -0.01378956 0.0044775032 -0.014005741 0.009370834
0002f0 80 c1 1b 3c d9 0d 08 3c f5 80 a8 bc fd 52 8d 3c
       0.009506583 0.008304083 -0.020569304 0.017251486
000300 dd 42 2d bd 46 44 29 3d 63 74 07 bd b9 30 0e 3d
       -0.042300094 0.041324876 -0.03306998 0.034714434
000310 68 bf 13 3d 0d 4d 2b bd 0a ff 1b bd 35 74 ca 3c
       0.03607121 -0.04182153 -0.03808502 0.024713615
000320 bf 1b 0c bc 0a e6 28 3c 09 84 07 3d 60 21 0d 3d
       -0.008551537 0.010308752 0.033084903 0.034455657
000330 f8 4b fe 3c d3 6f 07 3d cc 67 1c 3d 1e ca 8e 3c
       0.031042084 0.03306563 0.038184926 0.017430361
000340 d0 a9 76 3c fe 84 32 bc d1 34 df 3c 77 a3 b9 3c
       0.015055135 -0.010895966 0.027246865 0.022660954
000350 8c 40 b5 bc 9d cf 81 3c c4 3f 38 bc 85 df 0b bd
       -0.022125505 0.015846068 -0.011245672 -0.03414871
000360 29 a9 e5 bc d4 cd b3 bc e0 23 ff 3c d9 1b 39 bd
       -0.028034763 -0.021948732 0.031145036 -0.045192573
000370 2c 79 7c bb 8a 85 0c bd e2 cc 01 bd eb c8 36 3d
       -0.0038524373 -0.03430704 -0.031689532 0.044625204
000380 eb 74 0e bd 7a b6 d0 bc cd ed 1c 3d df 26 7c 3d
       -0.03477947 -0.025477637 0.038312722 0.061560508
000390 8f 4a bf bc 8f 3b 15 bd 71 b0 52 3c 28 7c 0b bd
       -0.023350982 -0.036433753 0.01285945 -0.03405395
0003a0 fa fa 4c bd c9 45 64 bb d7 ce 86 3c 90 4b a8 3c
       -0.050044037 -0.0034831634 0.01645605 0.020543844
0003b0 26 56 41 3d 3d 23 72 bd 27 a6 cf bc 60 f8 48 bd
       0.0472013 -0.059115637 -0.025347782 -0.049064994
0003c0 9a aa b6 3c 32 7e 96 3c 16 46 48 bc c8 99 e8 3c
       0.022298146 0.018370721 -0.012223741 0.028393641
0003d0 53 e4 b9 3c 84 59 18 bc a3 ce cc 3c c0 d3 aa 3c
       0.022691881 -0.009298686 0.025000876 0.020852923
0003e0 4a 4c 2b bd
       -0.0418208
