python/bsc/con2prim_restoration/best_net.pth (torch, 493343 bytes, 5 tensors)

layers.0.weight f4 [600, 3]
0	0x3f102f86	0.56322515
1	0xbe00c579	-0.1257533
2	0x3cd4d023	0.025978154
3	0x3f1242b4	0.5713303
4	0xbcea32ed	-0.028588736
5	0x3ceb1d20	0.028700411
6	0x3e5c71cc	0.21527785
7	0x3f037c7e	0.51361835
8	0xbe9260d3	-0.28589496
9	0xbca53b65	-0.020169923
10	0x3f0615dd	0.5237711
11	0x3ecb200c	0.39672887
12	0x3f08f19e	0.5349368
13	0x3d46c75f	0.04852998
14	0x3e59aaba	0.21256533
15	0x3f0ba10a	0.545426
16	0xbe34f9a2	-0.17673352
17	0x3e3454d0	0.17610478
18	0xbcb7b534	-0.022425272
19	0x3ded5740	0.11588907
20	0xbca29d62	-0.019850437
21	0xbe8d2a02	-0.27571112
22	0x3f136281	0.5757218
23	0xbe67582c	-0.22592229
24	0x3e359116	0.17731127
25	0xbf07d192	-0.53054154
26	0x3ebd8aa0	0.37019825
27	0x3f045df4	0.5170586
28	0xbf00d449	-0.5032392
29	0x3ee2f6a4	0.44328797
30	0xbe59131d	-0.21198697
31	0xbf3742f0	-0.71586514
32	0xbeedbfce	-0.46435398
33	0xbf0337d7	-0.5125708
34	0x3ec86836	0.39142007
35	0xbea63ec8	-0.32469773
36	0xbead398b	-0.33832964
37	0xbe6b34ae	-0.22969314
38	0x3eb9a583	0.36259088
39	0x3e34898c	0.17630595
40	0x3e1bff2c	0.15234059
41	0x3e2ace45	0.16680248
42	0x3ece46e1	0.4028845
43	0xbde55765	-0.1119831
44	0x3e9afce3	0.30271062
45	0x3f23a7ea	0.6392809
46	0xbde8d4c8	-0.1136871
47	0x3ec2a318	0.38015056
48	0x3f237914	0.63856626
49	0xbe858b76	-0.26082963
50	0xbec9d6cd	-0.39421692
51	0x3f1d5bd1	0.61468226
52	0xbe89ec14	-0.26937926
53	0x3e60be15	0.2194751
54	0x3ed2a260	0.41139507
55	0xbef6577b	-0.48113617
56	0x3eb1ac0c	0.34701574
57	0xbe81fd01	-0.2538834
58	0x3ef2251e	0.47293943
59	0x3d5592f8	0.052142113
60	0xbef47157	-0.4774272
61	0x3eca3b01	0.3949814
62	0x3eeb48d5	0.45954004
63	0x3f004469	0.50104386
64	0x3e48adef	0.195976
65	0x3e2b2cb3	0.1671627
66	0x3e798aa9	0.24369301
67	0xbd71b2e5	-0.059008498
68	0x3ea7b5fe	0.32756037
69	0xbf0ca55f	-0.54939836
70	0xbebcf300	-0.36904144
71	0x3e8d507f	0.27600476
72	0xbec0047a	-0.37503415
73	0xbd550b11	-0.052012507
74	0xbe2c655f	-0.16835545
75	0xbe1d3ac9	-0.15354456
76	0x3ccc3302	0.024926666
77	0x3e964ce2	0.29355532
78	0x3ef6b1e4	0.48182595
79	0x3e9d892e	0.30768722
80	0x3e3e229a	0.18567887
81	0x3e8cc224	0.27491868
82	0x3e6fcc13	0.23417692
83	0xbd3aafc7	-0.04557779
84	0xbf0ad4dd	-0.54231054
85	0x3eb474fa	0.35245496
86	0x3e6a41e8	0.22876704
87	0x3d2eefdf	0.042709228
88	0xbf36e6cf	-0.71445936
89	0xbf23b436	-0.63946855
90	0x3ed6593e	0.4186496
91	0xbe662a78	-0.22477138
92	0xbef8d0fd	-0.48596945
93	0xbe2a668c	-0.16640681
94	0x3f1dbc68	0.6161561
95	0xbe83f949	-0.25776127
96	0x3e7838f1	0.24240471
97	0x3ef41082	0.47668844
98	0x3e73821f	0.23780106
99	0xbec576d2	-0.38567215
100	0x3e8f0924	0.2793666
101	0xbcd1467a	-0.025546301
102	0xbe37910b	-0.17926423
103	0x3f1d231c	0.613817
104	0xbd31b4a3	-0.04338516
105	0xbdbca56d	-0.0921124
106	0x3f0b9dd0	0.5453768
107	0xbd6ea34f	-0.058261212
108	0x3e55e1d5	0.2088693
109	0xbea7ba4e	-0.32759327
110	0xbcac14b3	-0.021005964
111	0x3f1f208f	0.62159055
112	0x3d5efe10	0.05444151
113	0xbc8a912a	-0.016914923
114	0x3eeb3818	0.45941234
115	0xbec9d177	-0.39417621
116	0x3c2a4503	0.01039243
117	0xbe390a98	-0.18070447
118	0x3ebc218e	0.3674435
119	0xbe6823cd	-0.22669907
120	0x3f1307c2	0.5743371
121	0xbf0942be	-0.53617465
122	0xbf2de401	-0.6792603
123	0xbe98e751	-0.2986398
124	0x3e69ddc1	0.22838499
125	0x3d525223	0.051347863
126	0x3d976c8e	0.07393752
127	0x3d9fb12c	0.07797465
128	0x3ee3ef13	0.44518337
129	0x3ed39479	0.41324213
130	0xbdb62444	-0.08893636
131	0xbede3c00	-0.4340515
132	0x3f12146d	0.5706242
133	0x3f205799	0.62633663
134	0xbedc1422	-0.4298411
135	0xbe41a06b	-0.18908851
136	0xbeb1fe76	-0.3476445
137	0x3eb9ac72	0.36264378
138	0x3e9d3c48	0.30710053
139	0xbe3b4734	-0.1828888
140	0xbdb8ba81	-0.09019948
141	0xbed8cef6	-0.423454
142	0x3ea72662	0.3264647
143	0xbebea8ce	-0.37238163
144	0x3f2584b3	0.6465561
145	0xbdc7995e	-0.09746049
146	0x3e8c240f	0.2737126
147	0xbe8bd06b	-0.27307448
148	0x3dbf51a4	0.093417436
149	0x3dc6f4a8	0.09714633
150	0x3ec75b48	0.3893683
151	0x3e158b73	0.14603977
152	0xbe2f3b36	-0.17112431
153	0xbece4744	-0.40288746
154	0x3e95e444	0.29275715
155	0xbeb3c0b3	-0.35107955
156	0x3d1ac318	0.037783712
157	0x3e340937	0.1758164
158	0x3edb445d	0.42825595
159	0x3f0f1d1a	0.5590378
160	0x3d8bee29	0.06832535
161	0x3e62ed52	0.22160843
162	0xbf179b9c	-0.59221816
163	0xbce1559b	-0.02750664
164	0x3da0a536	0.078440115
165	0x3de4ddb2	0.111750975
166	0xbe27d404	-0.16389471
167	0x3eab5e48	0.33470368
168	0x3e03fd10	0.12889504
169	0xbf032d4f	-0.5124101
170	0xbf15151a	-0.58235323
171	0x3ea2a081	0.3176308
172	0x3d3919cd	0.04519062
173	0x3c393a8a	0.011305461
174	0xbd66c937	-0.056344237
175	0x3de491d2	0.111606255
176	0x3efeb19f	0.4974489
177	0x3eb91cab	0.36154684
178	0xbecd8c67	-0.4014618
179	0xbe761478	-0.24031246
180	0xbf0a71b2	-0.54079735
181	0x3f182dce	0.5944489
182	0xbdc3ec6f	-0.095665805
183	0x3de13e95	0.10998265
184	0x3e2bf387	0.16792117
185	0xbcc2ec48	-0.023794308
186	0x3eaa8bf0	0.3330989
187	0x3f24ba3f	0.6434669
188	0xbeb6296c	-0.35578477
189	0x3f097dd8	0.5370765
190	0x3eaac4f7	0.33353397
191	0xbea6dc83	-0.32590112
192	0x3ec5104a	0.3848899
193	0xbebccf92	-0.36877114
194	0x3ea8644c	0.3288902
195	0x3eece614	0.46269286
196	0x3e4963db	0.19666998
197	0xbe9d736f	-0.3075213
198	0xbe3807b4	-0.17971689
199	0xbf098837	-0.5372347
200	0xbe936f0e	-0.28795666
201	0x3e5bc79e	0.21462867
202	0xbf466b48	-0.7750745
203	0xbf30c35a	-0.6904808
204	0xbe533903	-0.20627217
205	0xbef8a596	-0.48563832
206	0x3e834eb4	0.25645983
207	0xbce4006e	-0.027832236
208	0xbf421435	-0.75812083
209	0xbf074d98	-0.52852774
210	0xbdb527e8	-0.08845502
211	0xbe624be0	-0.22099257
212	0x3ef24036	0.47314614
213	0xbee7ca06	-0.4527132
214	0xbe90e968	-0.28303075
215	0xbb16fc43	-0.0023038543
216	0x3e6521d7	0.2237619
217	0x3ee8c456	0.45462292
218	0xbe506cc9	-0.20353998
219	0x3e36ff04	0.17870718
220	0x3f0f1976	0.55898225
221	0x3dbdccda	0.09267588
222	0x3e5b62fd	0.2142448
223	0x3f14d515	0.5813764
224	0xbeddfc28	-0.43356442
225	0xbebc97a8	-0.36834455
226	0x3e50ceb7	0.20391355
227	0x3e2fc457	0.17164741
228	0xbe46805b	-0.19384901
229	0x3de201a0	0.11035466
230	0x3d503b90	0.050838053
231	0xbecd5bf6	-0.40109223
232	0x3edb3a8f	0.42818114
233	0x3f136eee	0.5759114
234	0x3e13d6c7	0.144374
235	0x3f2036d9	0.6258369
236	0xbe7fea1b	-0.24991648
237	0x3ed326c0	0.412405
238	0xbe595f3f	-0.2122774
239	0x3da633df	0.081153624
240	0xbed0f44b	-0.4081138
241	0xbef4f7d1	-0.4784532
242	0xbdf740ee	-0.12072931
243	0x3e557b13	0.2084773
244	0xbdd603c3	-0.10449936
245	0xbef68393	-0.48147258
246	0xbeb02680	-0.34404373
247	0xbea67e8a	-0.32518417
248	0x3d2dbfdc	0.0424193
249	0xbf0ea303	-0.55717486
250	0x3f045e8f	0.51706785
251	0xbd9f93bc	-0.0779185
252	0xbeebdf23	-0.46068677
253	0x3e5f5150	0.21808362
254	0x3e157151	0.14594008
255	0xbdafd63f	-0.08585786

layers.0.bias f4 [600]
0	0x3d3969e5	0.045267005
1	0x3d1e2a78	0.03861472
2	0x3efccfa3	0.49377164
3	0xbdc52c08	-0.09627539
4	0xbe15409c	-0.14575428
5	0xbce060c0	-0.027389884
6	0xbf0b7ea7	-0.5449013
7	0xbf00ad9e	-0.5026492
8	0x3e2ac76d	0.16677637
9	0x3e624e78	0.22100246
10	0xbea79744	-0.32732594
11	0xbeccb67c	-0.39982975
12	0xbe890cd8	-0.26767612
13	0xbd1b78ef	-0.037957128
14	0x3e9d91b6	0.3077523
15	0x3ecdc33f	0.40188023
16	0xbe3c7afe	-0.18406293
17	0xbe1620d3	-0.14660959
18	0x3e707a3c	0.23484129
19	0x3e90b699	0.2826431
20	0x3e1b871f	0.15188263
21	0xbe823b5a	-0.25435907
22	0xbecd37d0	-0.40081644
23	0x3f1e9343	0.61943454
24	0x3eb914fe	0.36148828
25	0x3e857300	0.260643
26	0x3f161e4e	0.5863999
27	0x3ee86b06	0.45394152
28	0x3c67fcc4	0.014159385
29	0xbec84240	-0.39113045
30	0x3ec34bcb	0.38143763
31	0xbeef87ca	-0.46783286
32	0x3f1bf290	0.60916996
33	0x3e1da20d	0.15393849
34	0x3ecd4658	0.4009273
35	0x3eba5245	0.36390892
36	0x3ec134d0	0.37735605
37	0xbebef2f0	-0.37294722
38	0x39146879	0.00014153299
39	0x3e71b85e	0.23605487
40	0xbe9d3868	-0.30707097
41	0xbeb2acde	-0.34897512
42	0xbeda538a	-0.4264186
43	0x3a852174	0.0010157065
44	0xbef3c088	-0.47607827
45	0xbea89465	-0.32925716
46	0xbed5134e	-0.4161629
47	0xbd34669b	-0.044043165
48	0xbe84d9bd	-0.2594737
49	0x3ea8bcb8	0.3295648
50	0x3e7d91e7	0.24762689
51	0xbe3a0ee1	-0.18169738
52	0x3ef7ed86	0.48423404
53	0x3e31a34e	0.17347452
54	0xbd702c8c	-0.058636233
55	0xbe2d88dc	-0.16946739
56	0xbd41911a	-0.04725752
57	0xbecf4270	-0.40480375
58	0x3f204ee9	0.6262041
59	0x3eabfdc3	0.33592042
60	0xbc72710c	-0.01479746
61	0xbf1803d7	-0.5938086
62	0xbcadb844	-0.021206029
63	0x3e51f704	0.20504385
64	0xbc76550b	-0.015034924
65	0x3e41c039	0.18920983
66	0x3ea402bb	0.32033333
67	0x3e910788	0.28326058
68	0xbea2772c	-0.31731546
69	0xbc8436be	-0.016139384
70	0xbeae4e56	-0.3404414
71	0x3e8fde2f	0.280992
72	0xbec658f8	-0.38739753
73	0x39c58259	0.00037671885
74	0xbd73cdbf	-0.059522387
75	0xbebe9ccb	-0.37229
76	0xbe9a8bfa	-0.3018492
77	0x3ed568d4	0.4168154
78	0xbed4e9b7	-0.4158456
79	0xbf0901de	-0.53518474
80	0xbef22d97	-0.47300407
81	0x3e893771	0.2680011
82	0x3e3b5a09	0.18296064
83	0x3ec29c7d	0.38010016
84	0x3ee967e1	0.45587066
85	0x3ee8ae30	0.45445395
86	0x3e7d3400	0.24726868
87	0x3eaa42a6	0.33253974
88	0x3f121518	0.57063437
89	0x3ece4cd9	0.40293005
90	0x3e938cde	0.2881841
91	0xbf0b34b4	-0.54377294
92	0x3f042bff	0.5162963
93	0xbd92a97c	-0.07161233
94	0x3d5821c8	0.05276659
95	0x3e8c30e8	0.27381063
96	0x3ea9d56f	0.3317065
97	0xbe47d1e7	-0.19513665
98	0x3f0356ec	0.5130451
99	0x3ea9c6bd	0.33159438
100	0x3eff28a4	0.49835694
101	0x3ee9d12d	0.456674
102	0xbdaf9428	-0.085731804
103	0xbedcb012	-0.4310308
104	0xbe9b0549	-0.3027747
105	0xbe345b30	-0.1761291
106	0xbe9e6c7a	-0.30942136
107	0xbf07feae	-0.53122985
108	0xbe93e21e	-0.2888345
109	0xbd6b27a7	-0.057410862
110	0xbeaaa371	-0.3332782
111	0x3de27552	0.11057533
112	0x3e34327d	0.17597385
113	0x3e8edf09	0.27904537
114	0x3db73148	0.089449465
115	0xbe95e885	-0.2927896
116	0xbe7151c4	-0.23566347
117	0xbd159bd1	-0.03652555
118	0x3efccee7	0.49376604
119	0x3ea7c52b	0.32767615
120	0xbe7b1b71	-0.24522187
121	0xbeaf7776	-0.3427083
122	0xbe8adf58	-0.27123523
123	0x3db8dcf6	0.0902652
124	0xbe960454	-0.29300177
125	0x3e92f0e1	0.286994
126	0x3e82b099	0.25525358
127	0x3e42fb6a	0.1904122
128	0xbe968260	-0.29396343
129	0x3e339642	0.17537788
130	0x3efa4cac	0.4888662
131	0x3d6dce0e	0.058057837
132	0xbf122456	-0.57086694
133	0x3ebc154c	0.36734998
134	0x3eeb00c3	0.4589902
135	0xbed19a5d	-0.40938082
136	0xbeec4782	-0.46148306
137	0xbee4bdc9	-0.44676045
138	0x3eb5b178	0.3548696
139	0x3dc699a2	0.09697272
140	0x3e2994c4	0.16560656
141	0xbd6556ba	-0.055990912
142	0xbe194d6f	-0.14970945
143	0xbefe7801	-0.4970093
144	0xbd36d59e	-0.044637315
145	0xbdfc85f5	-0.12330238
146	0x3eb981e9	0.36231926
147	0xbde708da	-0.11280985
148	0xbe208f67	-0.15679704
149	0xbec31e53	-0.38109073
150	0xbf15afff	-0.58471674
151	0x3e35c6fd	0.1775169
152	0x3d88aa65	0.06673125
153	0x3e3b479b	0.18289034
154	0xbe7bd1f9	-0.24591817
155	0xbeecabc2	-0.4622479
156	0xbeee666d	-0.4656252
157	0x3f142da6	0.57882154
158	0x3d7d76d1	0.06188089
159	0x3d89465b	0.06702872
160	0x3f0d53fb	0.5520627
161	0x3e94a593	0.29032573
162	0xbdbf0ba5	-0.09328393
163	0x3f02e718	0.5113387
164	0x3e36a2fd	0.17835613
165	0xbe330149	-0.17480959
166	0x3e1bc7a5	0.15212877
167	0x3edc6e72	0.43053013
168	0xbe389927	-0.18027173
169	0xbef1ac68	-0.47201848
170	0xbe3fbfe3	-0.18725543
171	0x3f0903b2	0.53521264
172	0x3f153d70	0.5829687
173	0x3e659f7c	0.2242412
174	0x3db98dd6	0.09060256
175	0xbdce1c37	-0.10063975
176	0xbdbb5fe4	-0.09149149
177	0xbdc0ca02	-0.0941353
178	0x3f0c0fc3	0.5471155
179	0x3f018a69	0.5060182
180	0x3e698354	0.22804004
181	0x3e983625	0.2972881
182	0xbda1514b	-0.078768335
183	0x3dc7a047	0.09747367
184	0xbeb0e467	-0.34549257
185	0xbe392238	-0.1807946
186	0xbecc20f5	-0.39868894
187	0x3d5a5794	0.053306177
188	0x3da724c8	0.08161312
189	0x3e2129ce	0.15738603
190	0xbea389b6	-0.31941003
191	0xbe942ff1	-0.28942826
192	0xbf0421e4	-0.51614213
193	0xbe312c3b	-0.17302029
194	0xbf03fc9a	-0.51557314
195	0xbe357b1c	-0.17722744
196	0xbe18b718	-0.14913595
197	0xbedbc4c7	-0.42923567
198	0x3ec70822	0.38873392
199	0xbe535a90	-0.20640016
200	0xbeaba528	-0.33524442
201	0x3ea3c56b	0.31986555
202	0x3f1645a7	0.5870003
203	0x3cc70cd3	0.024298107
204	0x3e2a3740	0.16622639
205	0x3f1bb510	0.60823154
206	0xbebf6ab9	-0.3738611
207	0x3dbd8e34	0.09255639
208	0xbe86aeee	-0.26305336
209	0xbe614960	-0.22000647
210	0xbe10df30	-0.1414764
211	0x3d1d94fc	0.03847216
212	0x3e54b18a	0.20770851
213	0xbe950ab3	-0.29109725
214	0xbd23b25b	-0.039965015
215	0x3e8e88eb	0.27838835
216	0x3e864178	0.26221824
217	0xbdbeb1a0	-0.09311223
218	0x3ece505d	0.40295687
219	0x3e9c3c59	0.30514792
220	0x3bb1049c	0.005402161
221	0xbe824661	-0.2544432
222	0x3f1412bd	0.5784109
223	0x3e3c3ed7	0.18383346
224	0x3df09136	0.11746447
225	0xbef16799	-0.4714935
226	0xbf01b191	-0.5066157
227	0x3e307f1f	0.17235993
228	0xbe95b2e3	-0.29238042
229	0x3dab3d24	0.08361271
230	0x3e458f71	0.19293
231	0xbf17bc91	-0.59272105
232	0x3e951d6e	0.29124016
233	0xbe12863b	-0.14309017
234	0xbd9be362	-0.07611729
235	0x3ea7be49	0.32762364
236	0xbe88c313	-0.2671133
237	0xbd4a1183	-0.049333107
238	0xbed80f0e	-0.42198986
239	0x3ee6c50c	0.4507221
240	0x3e4dd1d2	0.20099571
241	0x3da2c269	0.07947237
242	0x3d4e0edd	0.050307143
243	0x3c308b0f	0.010775342
244	0xbef70813	-0.48248348
245	0xbe76e61a	-0.24111214
246	0xbeb27133	-0.3485199
247	0xbeef7bf5	-0.4677426
248	0x3e47a524	0.1949659
249	0xbf213490	-0.6297083
250	0xbe8f23b6	-0.27956933
251	0x3ec1bdf1	0.37840226
252	0x3e21f3ef	0.1581571
253	0xbe249999	-0.16074218
254	0xbef04d6a	-0.46934062
255	0xbee57df1	-0.44822648

layers.1.weight f4 [200, 600]
0	0xbd96c4b3	-0.07361736
1	0xbd2cff9b	-0.042235952
2	0xbda7210e	-0.081606016
3	0xbcf54b30	-0.029943079
4	0x39920af1	0.00027855442
5	0x3a719c8c	0.0009216748
6	0xbd1dcebb	-0.03852723
7	0xbca4a0fd	-0.020096296
8	0x3af20dd7	0.0018467259
9	0xbd07027e	-0.03296136
10	0xbcfde19b	-0.030991366
11	0xbd743e34	-0.059629634
12	0x3b597f85	0.003318758
13	0xbce91826	-0.028453898
14	0x3c29b86b	0.01035891
15	0xbd8525ed	-0.065013744
16	0xbd123adc	-0.035700664
17	0xbd269512	-0.04066951
18	0xbd2150ce	-0.039383702
19	0xbd3b15f8	-0.045675248
20	0xbd24f82a	-0.04027573
21	0xbd1bdca0	-0.0380522
22	0xbca91e0c	-0.02064421
23	0x3b063b1c	0.002048201
24	0x3be56789	0.0070008677
25	0xbc19e38a	-0.009392628
26	0xbd79ed26	-0.061017178
27	0xbd72dcea	-0.05929271
28	0xbd52428e	-0.051333003
29	0xbd5f2d73	-0.054486703
30	0xba218657	-0.0006161681
31	0xbda93ec9	-0.082639284
32	0xbd8a2246	-0.067448184
33	0xbd7ebff7	-0.06219479
34	0xbdcb5139	-0.09927601
35	0xbd96cbda	-0.073631
36	0xbd4a2221	-0.049348954
37	0xbc60436c	-0.01368795
38	0xbca8a5d9	-0.020586895
39	0xbd714d36	-0.058911525
40	0xbd2c7e1b	-0.04211245
41	0xbdac1fe1	-0.08404518
42	0x3c7d9bd5	0.015479048
43	0xbd6a5430	-0.057209194
44	0xbd4bc2ef	-0.04974645
45	0xbd8715b0	-0.065959334
46	0xbd103432	-0.035206027
47	0xbd8ac5d5	-0.06776015
48	0xbd924e32	-0.07143821
49	0xbd8a344c	-0.06748256
50	0xbd16deab	-0.036833446
51	0xba9926b9	-0.0011684514
52	0xbcdf8301	-0.027284147
53	0xbb80082e	-0.003907225
54	0xbd535126	-0.05159106
55	0xbce77aeb	-0.028256854
56	0xbcf4e916	-0.0298963
57	0xbc4fcbed	-0.012682897
58	0xbd63185c	-0.055443153
59	0xbcf9015a	-0.030396152
60	0xbb48596a	-0.0030570873
61	0xbc8e1c5b	-0.017347505
62	0xbd2c1899	-0.042015646
63	0xbcf9e6bb	-0.030505529
64	0xbcb68b4c	-0.022283219
65	0xbd840068	-0.0644539
66	0xbc5072c6	-0.012722677
67	0xbd45d951	-0.048302952
68	0x3cde4a25	0.027134964
69	0xbdd801e8	-0.105472386
70	0xbd4ff8df	-0.05077445
71	0xbceeacc9	-0.029135125
72	0xbd0b6b05	-0.03403761
73	0x3c1225bb	0.008920128
74	0xbd054bbd	-0.032542933
75	0xbd0681b1	-0.032838527
76	0xbc194a7f	-0.00935614
77	0xbcbfda20	-0.02341944
78	0xbd597342	-0.053088434
79	0xbd92d3f7	-0.07169335
80	0xbcaa2172	-0.020767901
81	0xbca743d2	-0.020418081
82	0xbd4a1341	-0.04933477
83	0xbd5a1f17	-0.053252306
84	0xbcad6052	-0.021164093
85	0xbd5990b4	-0.053116515
86	0xbd584f9d	-0.0528103
87	0xbd86b4a4	-0.06577423
88	0xbd59d6a1	-0.0531832
89	0xbc66c4c1	-0.014084996
90	0xbc9c477f	-0.01907706
91	0xbd30cac7	-0.043162134
92	0xbd7abff4	-0.061218217
93	0xbd8422a5	-0.064519204
94	0xbc622768	-0.0138033405
95	0xbcbac583	-0.022799259
96	0xbc31d19e	-0.010853199
97	0xbdadf716	-0.084943935
98	0xbd909bb9	-0.07060952
99	0xbd173853	-0.03691895
100	0xbd028384	-0.031863704
101	0xbc2b81d7	-0.010467968
102	0xbd8f5aa2	-0.06999709
103	0xbdb75763	-0.089522146
104	0xbda2d28b	-0.07950314
105	0xbdaf7b5f	-0.08568453
106	0xbda37796	-0.079817936
107	0xbc1bc2be	-0.009506879
108	0xbd83d89e	-0.06437801
109	0xbc8d0d68	-0.017218307
110	0xbc07f147	-0.008297271
111	0xbceaa29c	-0.028641991
112	0x3d01185f	0.031517383
113	0xbcc3f939	-0.02392255
114	0xbd96022a	-0.073246315
115	0x3baf9a1f	0.005358949
116	0xbc19afa2	-0.009380253
117	0xbd0dea31	-0.03464717
118	0xbd8f9eb1	-0.0701269
119	0xbc5b8248	-0.013397761
120	0xbd60d542	-0.05489088
121	0xbd8e74d3	-0.06955876
122	0xbd8ccda4	-0.0687516
123	0xbd828e32	-0.06374778
124	0xbc7febc4	-0.015620176
125	0xbb632291	-0.0034658054
126	0xbd8f4497	-0.06995504
127	0xbd63e9ac	-0.05564277
128	0xbd5234a6	-0.05131974
129	0xbd80c4f3	-0.06287565
130	0xbd852c8e	-0.06502639
131	0xbd357dd9	-0.04430947
132	0xbc645b85	-0.013937836
133	0xbcd76c42	-0.026296739
134	0xbc3a9cf2	-0.011389958
135	0xbd63aa87	-0.05558255
136	0xbd16a3da	-0.036777355
137	0xbd84b9a4	-0.06480721
138	0xbd871938	-0.06596607
139	0xbcc8f16d	-0.024529183
140	0xbd8b6110	-0.068056226
141	0xbdc58293	-0.09644046
142	0xbcaea28d	-0.021317745
143	0x3b1fb2b9	0.0024368002
144	0x3ac0c9f9	0.001470863
145	0xbd6a9449	-0.057270322
146	0xbd8a703a	-0.06759687
147	0xbceeda3f	-0.029156802
148	0xbca09df2	-0.019606564
149	0xbd5baa08	-0.05362895
150	0xbd96c69e	-0.07362102
151	0xbd509bc7	-0.05092981
152	0xbc90aacd	-0.01765957
153	0xbd8482dd	-0.06470273
154	0xbb7f025e	-0.0038911323
155	0xbc9ab0ff	-0.018883226
156	0xbd9c0bbf	-0.07619428
157	0xbcd86599	-0.026415633
158	0xbccafc57	-0.024778528
159	0xbcdafd29	-0.026732044
160	0xbd5d2222	-0.05398763
161	0xbce031bd	-0.027367467
162	0xbd8454eb	-0.06461509
163	0xbd777fdb	-0.060424667
164	0xbd76c2b6	-0.060244285
165	0xbcf691d8	-0.03009884
166	0xbd0bafae	-0.034103088
167	0xbd036955	-0.032082874
168	0xbd882dd5	-0.06649367
169	0xbd55afba	-0.05216954
170	0xbd845f18	-0.0646345
171	0xbd73c693	-0.059515547
172	0xbd312048	-0.043243676
173	0xbdaa6033	-0.0831913
174	0xbd8965a7	-0.06708842
175	0xbc3cf4ee	-0.011533005
176	0xbd10d3ad	-0.03535812
177	0xbcfaf117	-0.030632539
178	0x3c7f7d92	0.015593903
179	0xbb8214f9	-0.0039697853
180	0x3ba422c9	0.0050090295
181	0xbd7e0599	-0.062017057
182	0xbd217785	-0.039420623
183	0xbd7ede25	-0.062223572
184	0xbd0da4e2	-0.034581073
185	0xbca391ca	-0.019966979
186	0xbc99d2fa	-0.01877736
187	0xbd5f3f8d	-0.054503966
188	0xbdb1223e	-0.08649109
189	0xbd0fc86e	-0.035103254
190	0xbd7f5706	-0.06233885
191	0xbda9c36b	-0.08289226
192	0xbdaf4a67	-0.08559113
193	0xbd5025a5	-0.05081715
194	0xbd123c7d	-0.035702217
195	0xbd9d2c40	-0.07674456
196	0xbbed632e	-0.007244489
197	0xbda9f123	-0.08297946
198	0xbd26658f	-0.040624198
199	0xbd0940c5	-0.033509035
200	0xbd5e5367	-0.054278757
201	0xbc876745	-0.016528735
202	0xbd22fbb2	-0.039790817
203	0xbd56eea8	-0.052473694
204	0xbda0dbd4	-0.07854429
205	0xbd2fd0d8	-0.04292378
206	0xbcf5bafc	-0.029996388
207	0xbd02824a	-0.031862535
208	0xbc95aad4	-0.018269934
209	0xbd4ad4bf	-0.049519297
210	0xbd2b00ba	-0.04174874
211	0xbd7e65b0	-0.062108696
212	0xbd9ebd1b	-0.07750913
213	0x3c209bb2	0.009802746
214	0xbd1c9f19	-0.038237665
215	0xbc1ff7c6	-0.009763664
216	0xbda94c04	-0.08266452
217	0xbd2232f4	-0.039599374
218	0x3ae99323	0.0017820339
219	0xbcfcb688	-0.030848756
220	0xbd1dc89a	-0.038521387
221	0xbd86a66f	-0.065747134
222	0x3c4165fe	0.011804102
223	0xbdb5889c	-0.08863947
224	0xbc498bae	-0.012301369
225	0xbd55a00f	-0.052154597
226	0xbd2cfdd4	-0.042234257
227	0xbcb42b74	-0.021993376
228	0xbd4978fb	-0.04918764
229	0xbd5965e5	-0.05307569
230	0xbd8a4438	-0.06751293
231	0xbc8e3228	-0.0173579
232	0xbc930020	-0.017944396
233	0xbcfe71da	-0.031060148
234	0xbd0fc2d9	-0.03509793
235	0xbd2aafed	-0.041671682
236	0xbd014aa4	-0.031565323
237	0xbdb24da8	-0.08706218
238	0xbd0ab204	-0.033861175
239	0xbd6857c8	-0.05672434
240	0xbcacacbb	-0.021078458
241	0xbbf01a19	-0.00732733
242	0xbd36cf9c	-0.044631585
243	0xbb6bf58a	-0.0036004507
244	0xbdc006f5	-0.09376327
245	0xbd875ccc	-0.066094965
246	0xbd1e7c6e	-0.038692884
247	0xbd68a77a	-0.056800343
248	0xbc4bae1a	-0.012431646
249	0xbdc90794	-0.098158985
250	0xbccbaa9d	-0.024861628
251	0xbc397299	-0.011318826
252	0xbaab5d68	-0.0013074102
253	0xbcd34bad	-0.025792921
254	0xbc0022e2	-0.007820817
255	0xbc632d27	-0.013865746

layers.1.bias f4 [200]
0	0xbd3c00cc	-0.045899197
1	0xbd77bfd5	-0.06048568
2	0xbd6efc0c	-0.05834584
3	0xbbc10052	-0.0058899308
4	0x3c866e2e	0.01640996
5	0xbc9b85b5	-0.018984655
6	0xbd8e3538	-0.069437444
7	0xbc5090b4	-0.012729812
8	0x3d569ac9	0.05239371
9	0xbc10dc2e	-0.008841557
10	0x3d4c76cc	0.04991798
11	0x3d322ffb	0.04350279
12	0x3d65b219	0.05607805
13	0xbc837111	-0.016045125
14	0xbd404c0d	-0.046947528
15	0x3cb70464	0.02234096
16	0x3d168473	0.036747407
17	0x3d69e7cf	0.057105836
18	0xbaecc071	-0.0018062723
19	0xbc3f3afd	-0.011671779
20	0x3d0c0935	0.034188468
21	0x3c2a13c9	0.010380694
22	0x3b83d5e7	0.004023302
23	0xbcca24c0	-0.024675727
24	0x3c67b296	0.014141699
25	0x3d0c5573	0.03426118
26	0xbc84a440	-0.016191602
27	0x3b199ce0	0.0023439452
28	0xbd7f5651	-0.062338177
29	0xbd8afc2e	-0.06786381
30	0x3d82b357	0.063818626
31	0xbd03131c	-0.032000646
32	0xbc862328	-0.016374186
33	0xbc065a07	-0.008200175
34	0xbc0c51ec	-0.008564454
35	0x3b459fa9	0.003015498
36	0xbd462557	-0.048375454
37	0xbcc23a5f	-0.023709474
38	0x3d86427c	0.0655565
39	0xbcc20458	-0.023683712
40	0xbd04f629	-0.03246132
41	0x3cb921bf	0.0225991
42	0xbd235ac2	-0.039881475
43	0x3d0c18ed	0.03420346
44	0x3d5cebe9	0.05393592
45	0xbd68ae5f	-0.05680692
46	0xbda2772c	-0.079328865
47	0xbd93fb43	-0.07225659
48	0xbcacc3bb	-0.021089425
49	0xbd3f5d1f	-0.046719667
50	0xbd03a4f9	-0.032139752
51	0xbc9ca3c3	-0.019121056
52	0x3cedc2d0	0.029023558
53	0x3d2db72b	0.04241101
54	0xbd161a8b	-0.036646407
55	0xbd21f511	-0.039540354
56	0xbbe2a653	-0.0069168
57	0x3cb28a7a	0.021794546
58	0xb9fb6adb	-0.00047954064
59	0xbad4842c	-0.0016213707
60	0xbd9f7dea	-0.07787688
61	0xbd0a7fd7	-0.033813324
62	0xbcb82861	-0.022480192
63	0xbc828c65	-0.015936086
64	0xbc8a24ab	-0.016863188
65	0xbd7b8fe8	-0.061416537
66	0xbd02ef6f	-0.031966623
67	0x3a0b14fd	0.00053055567
68	0xbd2bbe37	-0.04192945
69	0xbd47904c	-0.048721597
70	0x3c26b7bd	0.010175643
71	0xbc8498a0	-0.016186059
72	0x3c8f0c5e	0.017461952
73	0xbd321e20	-0.04348576
74	0xbd4f9e8b	-0.050688308
75	0x3a4a06be	0.0007706693
76	0x3d2d8f4d	0.04237299
77	0x3cf97a67	0.030453874
78	0xbd8074eb	-0.062723
79	0xbcc94562	-0.024569217
80	0x3cdd98b3	0.027050352
81	0xbcf9da84	-0.030499704
82	0xbd3afb81	-0.04565001
83	0xbca7c1e5	-0.020478198
84	0x3d54ff8f	0.052001532
85	0xbbc737bb	-0.0060796416
86	0x3c307163	0.010769221
87	0xbcea85ec	-0.028628312
88	0x3c96df1e	0.018416937
89	0x3d66b5f6	0.056325875
90	0xbd0cf5d8	-0.034414142
91	0xbc377c41	-0.011199058
92	0x3bd05e52	0.0063589
93	0xbd4e6f48	-0.050399095
94	0xbd26c3e9	-0.04071418
95	0x3d17bb3b	0.03704379
96	0xbd8ca52a	-0.0686744
97	0xbc0f571f	-0.008748799
98	0x3cca76ae	0.024714794
99	0xbd4d9aa9	-0.050196324
100	0x3c320854	0.010866243
101	0xbb5867bf	-0.0033020822
102	0xbd3cf198	-0.04612884
103	0x3d109a8d	0.03530364
104	0xbd8cf2cc	-0.06882247
105	0x3b9de8be	0.004819005
106	0xbd16f8b1	-0.036858264
107	0x3b35b37f	0.0027725396
108	0xbd74c6ae	-0.05975979
109	0x3d2c3a6e	0.04204791
110	0xbcb7dd89	-0.022444503
111	0xbd461e4f	-0.04836875
112	0xbd708f03	-0.058730137
113	0xbd391e15	-0.045194704
114	0x3b853ca9	0.004066069
115	0xbc9ebee9	-0.019378142
116	0xbbe02ba5	-0.0068411403
117	0xbd77dc41	-0.060512785
118	0x3d513b82	0.05108214
119	0xbcd3af5a	-0.02584045
120	0xbd53f4eb	-0.051747244
121	0xbd652311	-0.055941645
122	0xbd3b7230	-0.045763195
123	0xbca5faa2	-0.020261113
124	0xbc0cec5b	-0.008601273
125	0xbca804ae	-0.020510044
126	0x3d25cbc8	0.040477544
127	0x3bbcb068	0.005758334
128	0xbd4a4941	-0.049386267
129	0x3c6efba9	0.014586368
130	0x3d204da9	0.039136562
131	0x3c827f0b	0.01592972
132	0xbd51c4f0	-0.051213205
133	0x3c799032	0.015232133
134	0xbc9e451f	-0.019320069
135	0xbcdf972c	-0.027293764
136	0x3d1ad470	0.037800252
137	0xbcaa1294	-0.020760812
138	0x3d2beb37	0.041972365
139	0xbcd16a5e	-0.025563415
140	0x3c8a7755	0.016902605
141	0x3cd8f876	0.026485663
142	0xbc77e894	-0.015131135
143	0x3ab5f27d	0.0013881471
144	0xb91c3726	-0.00014897864
145	0xbd1536d8	-0.036429256
146	0x3d271e9d	0.04080068
147	0xbb8b4456	-0.0042500896
148	0x3c3a2e3a	0.01136356
149	0x3d02e7ff	0.03195953
150	0xbc72e28f	-0.014824524
151	0x3c23939f	0.009983926
152	0xbd785bbe	-0.060634367
153	0xbc885670	-0.01664278
154	0xbc51e2f7	-0.01281046
155	0x3c1282b0	0.008942291
156	0x3d0e8a63	0.034799945
157	0xbd32830c	-0.043582007
158	0xbc42cc13	-0.011889475
159	0xbd80d03a	-0.06289716
160	0x3d63b899	0.055595968
161	0xbd0b8608	-0.03406337
162	0xbcda2613	-0.026629483
163	0x3d2d202a	0.042267002
164	0x3d0e37ba	0.034721114
165	0xbd35a269	-0.04434434
166	0xbd23ed2e	-0.040021114
167	0xbd8c08ee	-0.06837641
168	0xbd86be6a	-0.06579287
169	0xbc79b90c	-0.0152418725
170	0xbd212df1	-0.039350454
171	0x3cee43b1	0.029085012
172	0xbd4eabfb	-0.050456982
173	0x392556c5	0.0001576795
174	0x3ca3d775	0.020000199
175	0xbd8e761e	-0.06956123
176	0xbd3be950	-0.0458768
177	0xbd32d8f2	-0.043663926
178	0xbd702d6e	-0.058637075
179	0x3d111017	0.035415735
180	0xbd2ef494	-0.042713717
181	0xbd26f8db	-0.04076467
182	0xbd01654e	-0.031590752
183	0xbc9ecac4	-0.019383796
184	0xbd93283c	-0.071854085
185	0xbcbed929	-0.02329691
186	0xbca6c67d	-0.020358318
187	0xbcf3f42a	-0.029779512
188	0xbd73e6ad	-0.05954616
189	0x3d27a19d	0.04092561
190	0xbd6d60c3	-0.057953607
191	0xbc00aaf8	-0.007853262
192	0xbb954341	-0.0045551364
193	0x3d1cadae	0.03825157
194	0xbccb0adc	-0.024785452
195	0xbd26bd35	-0.040707786
196	0xbc7759db	-0.015097107
197	0x3d25ef86	0.04051163
198	0x3a6cb245	0.000902925
199	0xbc860dac	-0.016363941

layers.2.weight f4 [1, 200]
0	0xbd2ff179	-0.042954896
1	0xbd2561b2	-0.040376373
2	0xbd4b3630	-0.049612224
3	0x3c833a68	0.016019061
4	0x3d897f6f	0.06713759
5	0xbd35eca8	-0.044415146
6	0xbd0fa192	-0.035066195
7	0x3c382c21	0.01124099
8	0x3d2c1a58	0.04201731
9	0x3cef5721	0.029216351
10	0x3d0f531e	0.034991376
11	0x3d71c797	0.059028234
12	0x3d8e9782	0.069624916
13	0xbd3bd9c9	-0.045861993
14	0xbcf2dced	-0.029646361
15	0x3d86a44c	0.06574306
16	0x3d6725a5	0.056432385
17	0x3d06acc0	0.03287959
18	0xbd153e26	-0.036436222
19	0xbd3ae2f5	-0.0456266
20	0x3d4d8315	0.050173838
21	0xbd5e3339	-0.05424807
22	0xbd4a4757	-0.04938444
23	0xbd287c30	-0.04113406
24	0x3ce831a1	0.028343977
25	0x3d858e58	0.065212905
26	0xbd3de8f0	-0.046364725
27	0x3d0a3123	0.033738267
28	0xbd40e7ab	-0.047095936
29	0xbd42d6b6	-0.047568046
30	0x3d914698	0.07093543
31	0xbc7c1c0d	-0.015387547
32	0xbd5ca745	-0.05387046
33	0xbd6fc5cc	-0.058538243
34	0xbd14c334	-0.036318973
35	0x3c7a125d	0.015263167
36	0xbb7a1416	-0.0038158945
37	0xbd426604	-0.04746057
38	0x3d47ffa0	0.048827767
39	0x3bffc0a6	0.007804948
40	0xbc1e9f04	-0.009681467
41	0x3cefb03d	0.029258842
42	0xbc95e0fa	-0.018295754
43	0x3d7e6680	0.06210947
44	0x3d2289e8	0.0396823
45	0x3c929ede	0.01789802
46	0xbcf9cc51	-0.030492933
47	0xbd17847d	-0.036991585
48	0xbd34b8da	-0.0441216
49	0xbd660610	-0.056158125
50	0xbd212de8	-0.03935042
51	0xbd2bf1d4	-0.041978672
52	0x3d21b8d9	0.039482925
53	0x3d127b2f	0.03576201
54	0xbd133af7	-0.035944905
55	0xbd374b6c	-0.044749662
56	0xbd288b06	-0.041148208
57	0x3d37b80f	0.044853266
58	0xbd28ab7a	-0.041179158
59	0x3d10cafd	0.035349835
60	0xbd12fe30	-0.035886943
61	0xbd2609a9	-0.040536556
62	0x3c2cf748	0.010557003
63	0x3c92f844	0.017940648
64	0xbd2c3999	-0.042047117
65	0xbd288245	-0.04113986
66	0xbd236e91	-0.039900366
67	0xbd1fc195	-0.039002974
68	0xbd3829fd	-0.04496192
69	0xbd4d6ee6	-0.05015459
70	0x3d675616	0.056478582
71	0xbc95b499	-0.018274592
72	0x3d5bfd51	0.05370838
73	0xbd62efe1	-0.055404548
74	0xbc43f789	-0.011960872
75	0x3d0d912b	0.03456227
76	0x3d915be7	0.07097607
77	0x3d3668f2	0.044533677
78	0xbd255b17	-0.040370073
79	0x3c4eaa07	0.01261378
80	0x3cd17f0f	0.025573282
81	0x3cbd57bf	0.02311313
82	0xbd59b9ac	-0.053155586
83	0xbd3ed8ff	-0.046593662
84	0x3d802b83	0.06258299
85	0xbd42b99e	-0.0475403
86	0xbd34ffde	-0.044189326
87	0xbd346d47	-0.044049527
88	0x3d0f1388	0.034930736
89	0x3d3ddb86	0.046351932
90	0xbd7f2b66	-0.062297247
91	0x3cf6e4a4	0.030138321
92	0x3d3c3197	0.04594573
93	0xbcf52280	-0.029923677
94	0xbd21ca01	-0.039499287
95	0x3c9961ea	0.018723447
96	0xbd20fd73	-0.039304208
97	0xbd0dfd41	-0.03466535
98	0x3d82b2c1	0.06381751
99	0xbd1c98ad	-0.03823154
100	0x3d805cbd	0.062676884
101	0xbd302b69	-0.04301015
102	0xbd83b226	-0.064304635
103	0x3d004a08	0.0313206
104	0xbd2c05a3	-0.041997563
105	0xbd47ce77	-0.048780885
106	0x3c8f345f	0.017481027
107	0x3d07af8a	0.03312639
108	0xbd48aad6	-0.048991047
109	0x3d59a03e	0.053131334
110	0xbd6dd40b	-0.058063548
111	0xbd550777	-0.052009072
112	0xbc4f20f4	-0.012642134
113	0xbd08983e	-0.033348314
114	0x3ce6a07f	0.028152702
115	0xbd24b72b	-0.040213745
116	0x3d037e2a	0.03210274
117	0xbd3b22c7	-0.045687463
118	0x3d85e5b2	0.065379515
119	0xbd27136f	-0.040790018
120	0xbd1c398a	-0.03814081
121	0xbd56c48b	-0.05243353
122	0xbb7c6b4a	-0.0038516098
123	0xbd5f838b	-0.05456881
124	0xbd5444e1	-0.0518235
125	0xbd43c4c5	-0.047795076
126	0x3d87e2d8	0.06635064
127	0x3d55dfb0	0.05221528
128	0xbd29f6e6	-0.041495226
129	0x3d8c5c55	0.068535484
130	0x3ce5df94	0.028060712
131	0x3d3add75	0.045621354
132	0xbd333838	-0.043754786
133	0x3cdee927	0.027210785
134	0xbcfd24fb	-0.030901423
135	0xbd5594ec	-0.052143976
136	0x3d8ac0b3	0.06775036
137	0x3cd9944c	0.026559971
138	0x3d717cac	0.058956787
139	0xbd349aa0	-0.044092774
140	0x3d7f192d	0.06227987
141	0x3cf19be0	0.029493272
142	0xbd3738f9	-0.044732068
143	0xbd28f85b	-0.041252475
144	0xbd1ed46e	-0.038776807
145	0xbd305421	-0.04304898
146	0x3d7e9ce7	0.062161352
147	0xbd239443	-0.039936315
148	0x3cab61fe	0.02092075
149	0x3cd85470	0.02640745
150	0x3d258a4c	0.040415093
151	0x3c678148	0.014129944
152	0xbd5bc9ea	-0.053659357
153	0x3ca2e4de	0.019884523
154	0x3cb278d7	0.021786137
155	0xbd333a28	-0.043756634
156	0x3d734111	0.059388224
157	0xbcf46e09	-0.029837625
158	0xbd32dcef	-0.04366773
159	0xbd448fc0	-0.047988653
160	0x3d85c35b	0.06531402
161	0xbd718417	-0.05896386
162	0x3d09b934	0.03362389
163	0x3cbaf6e5	0.022822807
164	0x3d7b90b3	0.061417293
165	0xbd2b23a6	-0.041782044
166	0xbd2edb7f	-0.042689797
167	0xbd417588	-0.047231227
168	0xbd385589	-0.045003448
169	0x3d445a0c	0.047937438
170	0xbd39cc8d	-0.04536109
171	0x3d509daf	0.05093163
172	0xbd7919a8	-0.060815483
173	0xbd1e518d	-0.03865199
174	0x3cc1f11a	0.023674536
175	0xbd40ab37	-0.047038283
176	0x3c96d66c	0.018412791
177	0xbd1a307b	-0.03764389
178	0xbd42caba	-0.047556616
179	0x3d8f3c62	0.06993939
180	0xbd3efd59	-0.04662833
181	0xbd13a26e	-0.036043577
182	0xbd18a2ba	-0.037264563
183	0xbd02db09	-0.03194717
184	0xbd5e8c20	-0.054332852
185	0xbd67d04c	-0.05659513
186	0x3c7fbb79	0.015608662
187	0xbc55cdac	-0.013049524
188	0xbd4661be	-0.048433058
189	0x3d852463	0.06501081
190	0xbd1e6d7d	-0.038678635
191	0xbd874f19	-0.066068836
192	0xbd4965be	-0.049169295
193	0x3d309e5a	0.043119766
194	0x3c9645fa	0.018343914
195	0xbd204095	-0.03912409
196	0xbd3067a5	-0.043067593
197	0x3d2bc693	0.041937422
198	0x3d68c3a8	0.056827217
199	0xbcfa4b48	-0.030553475
