python/bsc/con2prim_restoration/net.pth (torch, 31735 bytes, 5 tensors)

layers.0.weight f4 [30, 3]
0	0x3d0ae8ea	0.03391353
1	0x3dbb47a3	0.09144523
2	0xbe3f75da	-0.186973
3	0xbe2251b1	-0.15851475
4	0xbe689092	-0.22711399
5	0xbeb79287	-0.3585398
6	0xbe45b8c5	-0.19308765
7	0x3ec3ac51	0.38217404
8	0xbed805bf	-0.42191884
9	0xbd7605df	-0.060064193
10	0xbe8b0ca5	-0.27158085
11	0x3c9e5d04	0.019331463
12	0xbd20b631	-0.03923625
13	0xbdfde397	-0.12396925
14	0xbd6bd152	-0.05757267
15	0xbe167b84	-0.14695555
16	0x3cfb05d1	0.030642422
17	0xbc1f693f	-0.0097296825
18	0x3dd11d89	0.102107115
19	0x3dd4093e	0.10353325
20	0xbe2c8fd0	-0.16851735
21	0xbe691739	-0.22762765
22	0xbca27c6f	-0.019834725
23	0x3d629538	0.055318087
24	0xbc5aabe8	-0.01334665
25	0xbda741ee	-0.08166872
26	0xbc83ee77	-0.01610492
27	0x3d96c382	0.07361509
28	0xbdd56b72	-0.10420884
29	0xbc120ee2	-0.008914681
30	0x3daa3954	0.08311716
31	0xbe192e4c	-0.14959067
32	0x3da11239	0.07864804
33	0xbdac348d	-0.08408461
34	0xbcbbf436	-0.022943597
35	0xbc4d47ce	-0.012529327
36	0xbe186590	-0.14882493
37	0xbf281bf3	-0.6566765
38	0xbe31f0f5	-0.17377074
39	0xbda12679	-0.07868666
40	0xbcc1da88	-0.023663774
41	0xbb67b8fc	-0.0035358062
42	0xbe8647bd	-0.26226607
43	0xbee02b87	-0.4378321
44	0xbea71d19	-0.32639387
45	0xbe0f43dd	-0.13990732
46	0xbe5d3dba	-0.21605578
47	0xbef345f0	-0.47514296
48	0xbdaf60d4	-0.085633904
49	0xbbbbd4d8	-0.00573216
50	0x3ccf9b1a	0.025342513
51	0xbedf1fd7	-0.4357898
52	0x3e7c4e3c	0.24639219
53	0xbde2e7a9	-0.11079342
54	0xbe1fc303	-0.15601735
55	0x3eb8db48	0.36104798
56	0xbee44776	-0.4458577
57	0xbe33c3d2	-0.17555168
58	0x3dbaf055	0.09127871
59	0xbd38ffe4	-0.04516591
60	0xbe901f51	-0.28148893
61	0xbd65d50e	-0.056111388
62	0x3e1f4674	0.1555422
63	0xbec212f4	-0.37905085
64	0x3e9ce976	0.30646867
65	0xbe68f607	-0.22750102
66	0xbefd3124	-0.49451554
67	0x3e66e674	0.22548848
68	0xbdbc18fd	-0.09184454
69	0xbed55857	-0.4166896
70	0xbf30abb7	-0.69012016
71	0xbe9531ac	-0.2913946
72	0xbde69931	-0.11259688
73	0x3e9956f9	0.29949167
74	0xbeed8ba4	-0.463956
75	0xbd69db5c	-0.057093963
76	0xbe2a3a0e	-0.16623709
77	0xbf0471d6	-0.517362
78	0xbe190bda	-0.14945927
79	0x3ceba839	0.028766738
80	0x3b143088	0.0022611935
81	0xbe102999	-0.14078368
82	0xbcd72ffe	-0.026268002
83	0x3db9bd52	0.09069313
84	0xbe969c80	-0.29416275
85	0xbf173c06	-0.59075963
86	0xbf0d8170	-0.5527563
87	0xbd8f3422	-0.069923654
88	0x3e036a0d	0.12833424
89	0xbdf653b9	-0.120276876

layers.0.bias f4 [30]
0	0xbf44806e	-0.7675847
1	0xbf8bd576	-1.0924518
2	0x3c2e53af	0.010640069
3	0xbf8669f6	-1.0501087
4	0xbdfe3bc0	-0.1241374
5	0xbd99df18	-0.07513255
6	0xbf1edb44	-0.6205332
7	0xbe1471d2	-0.14496544
8	0xbc1d585e	-0.009603588
9	0xbf6f40b5	-0.9345811
10	0xbf80ffe3	-1.007809
11	0xbe6e61fe	-0.23279569
12	0xbf3ef76c	-0.74596286
13	0xbe81c249	-0.2534354
14	0xbe26c0f1	-0.16284539
15	0xbf61164e	-0.8792466
16	0xbd42eaa8	-0.047587067
17	0xbf883103	-1.0639957
18	0x3e16e717	0.14736591
19	0x3d582766	0.05277195
20	0xbcab4adc	-0.02090972
21	0x3e721adb	0.23643057
22	0x3e0975b7	0.13423811
23	0xbfa30989	-1.2737285
24	0xbef2dc0c	-0.47433507
25	0x3ece004e	0.40234607
26	0x3dc0e359	0.09418363
27	0xbf102e59	-0.5632072
28	0xbfc4d121	-1.5376321
29	0xbed715fe	-0.42008966

layers.1.weight f4 [228, 30]
0	0x3ee73f0b	0.45165285
1	0x3f2784a5	0.65436774
2	0x3e5e7631	0.21724774
3	0x3edef88e	0.43549007
4	0x3e588770	0.21145415
5	0x3e67c464	0.22633511
6	0x3eef8522	0.4678126
7	0x3dd56898	0.1042034
8	0x3e44678c	0.19180125
9	0x3f085c71	0.53266054
10	0x3ebfe0df	0.3747625
11	0x3e75eda3	0.24016432
12	0x3f5a40c4	0.85255075
13	0x3eb73e88	0.35789895
14	0x3ec5bce4	0.38620675
15	0x3f514420	0.81744576
16	0x3e92bddf	0.28660485
17	0x3e836a44	0.25667012
18	0x3e67de68	0.22643435
19	0x3efcdb46	0.49386042
20	0x3eac3756	0.33635968
21	0x3dce2b2f	0.1006683
22	0x3e346853	0.17617922
23	0x3f272a17	0.652986
24	0x3ea05e01	0.3132172
25	0x3e1a9592	0.15096119
26	0x3dd1aa1b	0.10237523
27	0x3f28a098	0.65870047
28	0x3f5c1b82	0.85979474
29	0x3eefbd42	0.4682408
30	0xbd964575	-0.073374666
31	0xbe3c228f	-0.18372558
32	0xbe7d79e8	-0.24753535
33	0xbe4fcbe7	-0.20292626
34	0x3cd3b650	0.02584377
35	0x3ddc1164	0.107455045
36	0x3d863a9a	0.06554146
37	0xbd9b8b8d	-0.075949766
38	0xbd949c30	-0.07256353
39	0xbea1b0e0	-0.31580257
40	0x3aeff6a2	0.0018307755
41	0xbe20859c	-0.15675968
42	0xbd177670	-0.036978185
43	0x3de73b9e	0.11290668
44	0x3ebea87d	0.3723792
45	0xbd596b24	-0.053080693
46	0xbd5070a3	-0.05088867
47	0xbef40705	-0.47661605
48	0x3d725849	0.059166227
49	0xbf078a42	-0.5294534
50	0x3dc29f52	0.09503044
51	0x3ecad292	0.39613777
52	0xbe014acb	-0.12626188
53	0xbd8d28da	-0.068925574
54	0x3e11aeac	0.14226788
55	0x3e566ae8	0.20939219
56	0xbdbb42fc	-0.09143636
57	0xbdb1a3b9	-0.08673806
58	0x3dd96cfa	0.10616489
59	0xbd99aab3	-0.075032614
60	0x3e9a17aa	0.3009618
61	0x3f544596	0.8291868
62	0x3ef77f70	0.48339415
63	0x3f348166	0.70509946
64	0x3ecd51a0	0.40101337
65	0x3e378838	0.17923057
66	0x3eb08c05	0.34481826
67	0x3eb00c5c	0.3438443
68	0x3eca22b5	0.39479604
69	0x3f2454ee	0.6419209
70	0x3f4f11f5	0.80886775
71	0x3f19da69	0.6009889
72	0x3f5977ad	0.84948236
73	0x3eb72243	0.35768327
74	0x3ec504fa	0.3848036
75	0x3f2a5e9b	0.66550606
76	0x3e708613	0.23488645
77	0x3f2ecea6	0.6828407
78	0x3ea5fb2f	0.324182
79	0x3f2223f8	0.63336134
80	0x3ebe4131	0.37159112
81	0x3e8711de	0.2638082
82	0x3dd453ab	0.10367521
83	0x3f428076	0.75977266
84	0x3f272a80	0.65299225
85	0x3df5de95	0.12005345
86	0x3e52b0e7	0.20575295
87	0x3f0fc0da	0.56153643
88	0x3f7c3d1e	0.9853076
89	0x3edc2a9c	0.43001258
90	0x3ea14137	0.31495067
91	0x3ef37dec	0.47557008
92	0xbe059219	-0.13044013
93	0x3f077247	0.5290875
94	0x3ef7476e	0.48296684
95	0x3d0f474a	0.034980096
96	0x3eb6b668	0.3568604
97	0x3c8c4c9d	0.017126376
98	0x3e9ec0b8	0.31006408
99	0x3ea3e988	0.32014108
100	0x3f14dcdb	0.581495
101	0x3d62f784	0.05541183
102	0x3f2d896b	0.6778781
103	0x3eda950e	0.42691845
104	0x3e030c2f	0.12797616
105	0x3f2432eb	0.64140195
106	0x3e935205	0.28773513
107	0x3e2e75c0	0.17037106
108	0xbd91d492	-0.07120623
109	0x3c31992e	0.010839744
110	0x3daa35ec	0.08311066
111	0x3e0a272c	0.13491505
112	0x3d30dbc6	0.043178342
113	0x3f320bb4	0.6954911
114	0x3edf4f29	0.43615082
115	0x3eac0b60	0.33602428
116	0x3ebb6016	0.36596745
117	0x3f373cf2	0.7157737
118	0x3f0c3c1a	0.5477921
119	0x3ed0c40a	0.40774566
120	0x3d890316	0.06690042
121	0x3e34258e	0.17592451
122	0xbc128a3b	-0.0089440895
123	0xbdbc7a93	-0.09203067
124	0xbe0d1ad3	-0.13779764
125	0xbbb05dc5	-0.005382272
126	0xbc31f19a	-0.010860825
127	0x3e9f9053	0.31164798
128	0xbe90bfc5	-0.2827131
129	0xbe4db88e	-0.20089933
130	0x3bc25c85	0.0059314393
131	0xbd90a1ec	-0.07062134
132	0xbd34574a	-0.044028558
133	0xbdb7ff15	-0.089842
134	0x3dc056d4	0.09391561
135	0x3ceade44	0.028670438
136	0xbda56ab9	-0.08076996
137	0x3c1e13c6	0.009648269
138	0xbdc51a9c	-0.09624216
139	0xbe10b965	-0.14133222
140	0xbc337e50	-0.010955408
141	0xbcec5408	-0.028848663
142	0xbc169d85	-0.009192829
143	0x3e485834	0.19564897
144	0xbd42a19b	-0.0475174
145	0xbc25f33c	-0.010128792
146	0xbba5f2fb	-0.005064366
147	0x3d642b45	0.055705328
148	0x3e3dfd54	0.18553668
149	0xbe57835e	-0.21046206
150	0xbbe64f35	-0.007028485
151	0x3e9b0452	0.30276734
152	0xbd1c80c0	-0.038208723
153	0x3e007d8f	0.12547897
154	0x3dba2823	0.09089687
155	0xbe9ae794	-0.30254805
156	0x3ca4c0e7	0.020111514
157	0x3e39f8ce	0.18161318
158	0xbbae9dea	-0.0053288834
159	0x3ebdc07b	0.37060913
160	0x3db43b23	0.08800342
161	0x3e2c6c31	0.16838147
162	0xbc58b820	-0.013227493
163	0x3e0f980c	0.14022845
164	0x3dd4ec5f	0.10396647
165	0xbd4ef3bd	-0.050525416
166	0x3dcd0911	0.10011495
167	0x3e6faa6d	0.23404856
168	0x3ce54699	0.027987765
169	0x3daa7f6a	0.083250836
170	0x3da8bf0c	0.08239564
171	0x3c6ba8dc	0.014383521
172	0xbe80c1b5	-0.25147787
173	0xbd03b866	-0.032158278
174	0x3db03d87	0.086054854
175	0x3dea3c3e	0.114372715
176	0x3e19849a	0.1499199
177	0x3d9fa186	0.0779448
178	0xbbc65467	-0.006052542
179	0x3e127845	0.14303692
180	0x3f1151c0	0.56765366
181	0x3d90256e	0.07038389
182	0x3dd74124	0.105104715
183	0x3e198018	0.1499027
184	0xbe234a0e	-0.15946218
185	0xb9f8edaf	-0.00047479334
186	0x3e3d234d	0.18470497
187	0x3ea86548	0.3288977
188	0xbb950ff9	-0.004549023
189	0xbd296b90	-0.041362345
190	0xbdc54c69	-0.09633715
191	0xbe52d305	-0.2058831
192	0xbe0bab02	-0.13639453
193	0x3d26630a	0.040621795
194	0xbe0627f5	-0.1310118
195	0x3d047ab2	0.032343574
196	0x3d88bd65	0.06676749
197	0x3da0525c	0.07828209
198	0xbec674f9	-0.38761118
199	0x3e75024f	0.23926662
200	0x3f024e5b	0.5090081
201	0x3e87d3b1	0.26528695
202	0x3e9049a2	0.28181177
203	0x3e0412e5	0.12897833
204	0x3ed5297f	0.41633222
205	0xbc523d9c	-0.012832072
206	0x3d8b7e3c	0.06811187
207	0x3e941f54	0.2893015
208	0x3e87c74a	0.26519233
209	0x3d208e8a	0.039198436
210	0xbda1d568	-0.07902032
211	0xbe6fb2c6	-0.2340804
212	0x3ed2d9e1	0.41181853
213	0x3de8b097	0.11361807
214	0x3b2a22b6	0.002596063
215	0xbe817987	-0.2528803
216	0x3cca3257	0.024682207
217	0x3e724398	0.23658597
218	0xbd935073	-0.07193079
219	0x3af69850	0.0018813703
220	0x3d8ea453	0.06964936
221	0x3dbe6c83	0.09298041
222	0x3d830579	0.06397528
223	0x3e9c3fca	0.30517417
224	0xbdc1d004	-0.09463504
225	0xbd90ebef	-0.07076251
226	0xbc1bcf92	-0.009509938
227	0x3cd0359f	0.025416194
228	0x3dc01a05	0.09379963
229	0xbe8b360b	-0.2718967
230	0xbcc6c601	-0.024264337
231	0x3e405ad8	0.18784654
232	0x3e4ab14c	0.19794196
233	0x3e63be83	0.22240643
234	0x3ee593dd	0.44839373
235	0xbe771489	-0.24128927
236	0xbd4603e1	-0.048343543
237	0x3ea971da	0.33094674
238	0xbe09f97f	-0.13474081
239	0xbd78ec28	-0.06077209
240	0xbd72f73b	-0.05931781
241	0xbcab0877	-0.02087806
242	0xbf139828	-0.57654047
243	0x3dcb4ea8	0.09927112
244	0x3e99d7e3	0.3004752
245	0xbd43996d	-0.04775374
246	0x3d3f757d	0.046742905
247	0xbe252b16	-0.16129717
248	0x3e68c343	0.22730736
249	0x3ee7e412	0.4529119
250	0x3dca0b10	0.09865391
251	0x3e830dfd	0.2559661
252	0xbd85177a	-0.064986184
253	0x3e865b5a	0.2624157
254	0x3e5366ba	0.20644656
255	0xbe72577d	-0.23666187

layers.1.bias f4 [228]
0	0xbe8a7f61	-0.27050307
1	0xbe86c4dd	-0.2632207
2	0xbeaa0719	-0.3320854
3	0xbe646c33	-0.223069
4	0xbd4cad55	-0.04996999
5	0xbec5e466	-0.38650817
6	0x3d566935	0.052346427
7	0xbed98233	-0.42482147
8	0xbde3a102	-0.11114694
9	0xbe329e04	-0.1744309
10	0xbe81a80c	-0.25323522
11	0xbd843dad	-0.06457076
12	0xbde104c7	-0.10987239
13	0xbf11f12b	-0.5700862
14	0xbe22e8d6	-0.15909132
15	0xbdf4c5dd	-0.11951802
16	0xbe5003d6	-0.20313963
17	0xbe6894e6	-0.2271305
18	0xbe3097db	-0.17245428
19	0xbd5916e8	-0.05300036
20	0xbe9c773c	-0.3055972
21	0xbd872999	-0.06599731
22	0xbe992bc8	-0.29916215
23	0xbd4f5098	-0.05061397
24	0xbe2ad394	-0.16682273
25	0x3f94c8b9	1.1623756
26	0xbed9892f	-0.42487475
27	0xbe31a77f	-0.17349051
28	0xbea6e79d	-0.32598582
29	0xbdfdf17e	-0.123995766
30	0x3e0ebc63	0.13939051
31	0xbec56f7d	-0.3856162
32	0xbedb5f04	-0.4284593
33	0xbe3113b0	-0.17292666
34	0xbe4b9a5a	-0.19883099
35	0xbeb54a66	-0.35408324
36	0xbe6bdc3d	-0.23033233
37	0xbd682a9a	-0.056681253
38	0xbe66525c	-0.22492355
39	0xbeda266f	-0.42607448
40	0xbdead5c0	-0.11466551
41	0xbeb78ed2	-0.3585115
42	0xbe9292ab	-0.28627524
43	0xbdf7d503	-0.12101176
44	0x39e84f31	0.0004430949
45	0xbeccc49e	-0.39993757
46	0xbeac3500	-0.33634186
47	0xbe2eae50	-0.17058682
48	0xbe8316cb	-0.25603327
49	0xbea6f8eb	-0.32611784
50	0xbe3c80ce	-0.1840851
51	0xbe4a782e	-0.19772407
52	0xbde87fd6	-0.11352508
53	0xbdfef6e2	-0.12449433
54	0xbe91d22b	-0.28480658
55	0xbf257c8e	-0.6464318
56	0xbcb9cf5d	-0.022681886
57	0xbf145b45	-0.57951766
58	0xbd607634	-0.054800227
59	0xbd2d6f08	-0.042342216
60	0xbceb7916	-0.028744262
61	0xbf0e67e3	-0.5562727
62	0xbeabfebc	-0.33592784
63	0xbd549cc5	-0.05190732
64	0xbe8d8b0c	-0.27645147
65	0xbec00940	-0.37507057
66	0xbc9f1968	-0.019421294
67	0xbe2c71e4	-0.16840321
68	0xbe599ee2	-0.21252015
69	0xbe9f5243	-0.31117448
70	0xbe0f45b2	-0.1399143
71	0x3cd82947	0.02638687
72	0xbe1b2008	-0.15148938
73	0xbe109110	-0.14117837
74	0xbee6a240	-0.45045662
75	0xbeb06981	-0.34455493
76	0xbf0af9a0	-0.5428715
77	0xbea132e2	-0.31484133
78	0x3d7421a4	0.059602395
79	0xbeb60dde	-0.35557455
80	0xbe2260e0	-0.15857267
81	0xbdb28f81	-0.087187774
82	0xbe8fd988	-0.2809565
83	0xbebd1311	-0.3692861
84	0xbebf2f40	-0.37340736
85	0xbd820d1f	-0.06350159
86	0xbea7fd8f	-0.32810637
87	0xbe8c9c10	-0.27462816
88	0xbe358133	-0.17725067
89	0xbec018c2	-0.3751889
90	0xbdfc78c5	-0.123277225
91	0x3c4b3272	0.012402164
92	0xbdb6f84c	-0.089340776
93	0xbf00271b	-0.5005967
94	0xbed5256f	-0.41630122
95	0xbe9ee8aa	-0.31036884
96	0xbeb76b87	-0.35824224
97	0xbec8bf25	-0.39208332
98	0xbe5e8947	-0.21732055
99	0xbf2bb4b4	-0.67072606
100	0xbe185e9c	-0.1487984
101	0xbe891c14	-0.26779234
102	0xbee5b73e	-0.44866365
103	0xbe346460	-0.17616415
104	0xbe2f1727	-0.17098676
105	0xbe6eaea6	-0.2330881
106	0xbdfba6b9	-0.12287659
107	0xbef5a5c8	-0.47978044
108	0xbdaa1de5	-0.08306483
109	0xbe08e71a	-0.13369408
110	0xbd8ad6da	-0.06779261
111	0xbf0861fe	-0.53274524
112	0xbf0ca1de	-0.5493449
113	0xbe8e4e28	-0.27794003
114	0xbf00b256	-0.5027212
115	0xbd9fd8ce	-0.07805024
116	0x3dd8ee4f	0.10592329
117	0x3d3ae7f2	0.045631357
118	0xbd19f184	-0.037583843
119	0xbdee015c	-0.11621353
120	0xbde82425	-0.11335019
121	0xbf1d2ce5	-0.6139663
122	0xbcbfb125	-0.023399899
123	0xbda3bd72	-0.07995118
124	0xbde8b85b	-0.11363288
125	0xbe2b9df9	-0.1675948
126	0xbcfb3b91	-0.030668052
127	0xbe3f8039	-0.18701257
128	0xbef58af6	-0.4795758
129	0xbce1856d	-0.027529443
130	0xbd844c82	-0.06459905
131	0xbe34e267	-0.1766449
132	0xbdf09595	-0.117472805
133	0xbe4d618d	-0.20056744
134	0xbe90144b	-0.28140482
135	0xbdcef562	-0.10105397
136	0xbd351c6f	-0.04421657
137	0xbe4317dd	-0.19052072
138	0xbdb8f67b	-0.090313874
139	0xbed6ccb7	-0.4195306
140	0xbe500934	-0.2031601
141	0x3fad299c	1.3528323
142	0xbe6f2d8b	-0.23357217
143	0xbe590496	-0.21193156
144	0xbed3667f	-0.41289136
145	0xbb93b5e2	-0.004507766
146	0x3d82279a	0.0635521
147	0x3f526a11	0.82193094
148	0x3c310d62	0.010806413
149	0xbe7c0782	-0.24612239
150	0xbe2809c1	-0.16409971
151	0xbeb60e05	-0.3555757
152	0xbd34aac3	-0.044108164
153	0xbe855dea	-0.26048213
154	0xbec56fa8	-0.3856175
155	0xbe9a8807	-0.30181906
156	0xbe639a7d	-0.22226901
157	0xbe981a24	-0.29707444
158	0xbe581e99	-0.21105422
159	0xbd7af774	-0.061271146
160	0xbe2326c3	-0.15932755
161	0xbee858c2	-0.45380217
162	0xbd12d937	-0.035851683
163	0xbee7acf0	-0.45249128
164	0xbe8fbe3e	-0.2807483
165	0x3fb4fcb6	1.4139621
166	0xbe983cd3	-0.29733905
167	0xbe1e5a20	-0.15464067
168	0xbe8c5f7e	-0.27416605
169	0xbe3c0bd4	-0.18363887
170	0xbe9b59bf	-0.30341908
171	0xbdb82a35	-0.08992425
172	0xbe6b780b	-0.22995012
173	0xbe9e704a	-0.30945045
174	0xbe07b22e	-0.13251564
175	0xbd441bf8	-0.047878236
176	0xbe7f6c59	-0.24943675
177	0xbeb54161	-0.35401443
178	0xbdc3e8e3	-0.09565904
179	0xbe77a2c7	-0.24183188
180	0xbc987889	-0.018612163
181	0xbd6a95ad	-0.05727165
182	0xbe09ebdc	-0.1346888
183	0xbe80f16e	-0.25184196
184	0xbe77a7ad	-0.24185057
185	0xbe833e64	-0.25633538
186	0xbd8ba4df	-0.06818556
187	0xbef51c09	-0.47872952
188	0xbe7e3357	-0.24824272
189	0xbe37bb7f	-0.17942618
190	0xbec582fe	-0.38576502
191	0xbeac2039	-0.33618334
192	0xbe820e89	-0.25401714
193	0xbf136c7e	-0.5758742
194	0xbdee489a	-0.116349414
195	0xbe0e2c96	-0.13884196
196	0xbde2c94b	-0.1107355
197	0xbd1ea4f5	-0.038731534
198	0xbe101eb3	-0.14074211
199	0xbe983e6e	-0.2973513
200	0xbeb5642f	-0.35427997
201	0x3ccd2f85	0.025047073
202	0x3fb1073e	1.3830335
203	0xbefdb3ac	-0.4955114
204	0xbe06fff8	-0.13183582
205	0xbeba2791	-0.36358312
206	0x3cd5c0af	0.026092855
207	0xbe84aa60	-0.25911236
208	0xbeed863f	-0.46391484
209	0xbdeed8ca	-0.11662443
210	0xbe628689	-0.22121634
211	0xbe9d135c	-0.30678833
212	0xbe702794	-0.23452598
213	0xbdd3ad9b	-0.10335847
214	0xbd95bfdc	-0.07311985
215	0xbe1bdf9b	-0.15222017
216	0xbe66e54a	-0.22548404
217	0xbe5d4ddd	-0.21611734
218	0xbe341514	-0.17586166
219	0x3db5b2d5	0.08872
220	0xbdc85ae2	-0.097829595
221	0xbec2c802	-0.3804322
222	0xbe220f7d	-0.15826221
223	0xbdf2fc42	-0.118645206
224	0xbdba3b12	-0.09093298
225	0x3fdaa467	1.7081422
226	0xbe7137c5	-0.2355643
227	0xbe493978	-0.19650829

layers.2.weight f4 [1, 228]
0	0xbca60b95	-0.020269195
1	0xbca202fa	-0.01977681
2	0x38d1d703	0.00010005946
3	0x37806d67	1.5309733e-05
4	0x3c0f5889	0.008749136
5	0xbbe7063a	-0.007050303
6	0xbd1fb64e	-0.03899222
7	0x3c226a4e	0.00991304
8	0xbdb61416	-0.0889055
9	0xbd9864a2	-0.07441069
10	0xbc036c27	-0.008021391
11	0xbd4de82b	-0.05027024
12	0x3d2c6c87	0.042095687
13	0xbdc4c775	-0.09608356
14	0x3d6d85f5	0.05798908
15	0xbd8e5f37	-0.069517545
16	0xbd50321d	-0.05082904
17	0xbd52c577	-0.05145785
18	0xbbd525eb	-0.0065047643
19	0xbdb1db14	-0.08684364
20	0x3dad943a	0.084755376
21	0xbd72ddb0	-0.05929345
22	0x3d6d3e78	0.057920903
23	0xbd8867c4	-0.06660417
24	0x3d14ae72	0.036299177
25	0x3e45de10	0.19322991
26	0xbd533667	-0.051565554
27	0x3da24136	0.07922594
28	0x3d1da63b	0.038488608
29	0x3b625c1d	0.0034539767
30	0x3df7a1b6	0.12091391
31	0x3d3c731d	0.046008218
32	0x3adcd2e0	0.0016847514
33	0x3c145bdc	0.009055104
34	0xbd755fd9	-0.05990586
35	0xbd62d5bf	-0.055379625
36	0x3cc18c78	0.023626551
37	0x3d5996d2	0.05312235
38	0xbd537d75	-0.051633317
39	0xbc736663	-0.014855954
40	0x3d931109	0.071809836
41	0xbd6daa1b	-0.058023553
42	0x3cd2c5be	0.025729056
43	0xbdb004c9	-0.08594663
44	0xbd662823	-0.05619062
45	0x3a8d9da4	0.0010804427
46	0xbd6111c1	-0.054948572
47	0xbd879464	-0.066201
48	0x3b91c4a2	0.0044484893
49	0xbd62e04d	-0.05538969
50	0xb9b0517b	-0.00033630044
51	0xbbc2cc87	-0.0059447917
52	0xbd9a31d3	-0.075290345
53	0xbc590e23	-0.013247999
54	0x3d86cb92	0.06581797
55	0xbd0dc305	-0.034609813
56	0x3d8700c9	0.06591947
57	0xba2f43fb	-0.000668585
58	0xbd633a59	-0.055475567
59	0xbdc1016c	-0.09424099
60	0xbd767dd2	-0.060178585
61	0xbd01605b	-0.031586032
62	0x3d91271c	0.07087538
63	0x3d380046	0.044922136
64	0x3b820eaf	0.0039690356
65	0xbde36ec9	-0.11105115
66	0xbd30b8f1	-0.043145124
67	0x3c0194b5	0.00790899
68	0x3cb883cf	0.022523789
69	0x3a204672	0.0006114013
70	0x3d6fb540	0.058522463
71	0x3d89802e	0.067139015
72	0xbd86080a	-0.06544502
73	0x3d78c131	0.060731117
74	0xbc45ff89	-0.01208485
75	0xbc4d87fe	-0.01254463
76	0xbd43183b	-0.04763053
77	0xbc73d425	-0.014882122
78	0x3cbe72ea	0.023248155
79	0xbb2fd8bd	-0.0026832067
80	0xbd15843f	-0.036503073
81	0xbdaf3d22	-0.08556582
82	0x3d5c146d	0.053730417
83	0xbc5f3fb3	-0.013626027
84	0xbaded481	-0.0017000587
85	0xbc873190	-0.016503125
86	0x3c8ea539	0.017412769
87	0xbd6bf094	-0.05760248
88	0x3dbb88f0	0.09156978
89	0xbcc690c4	-0.024238952
90	0x3c9b0ea9	0.018927889
91	0xbdec6533	-0.1154274
92	0x3dd0df4e	0.10198842
93	0x3dc9b9a4	0.09849861
94	0x3d5cc31d	0.053897012
95	0xbd093a9e	-0.033503167
96	0x3cdfd7c9	0.027324574
97	0xbd3e265f	-0.046423312
98	0x3d1bcbf4	0.0380363
99	0xbdb3a1d5	-0.087711014
100	0x3d4d40d5	0.050110657
101	0xbd080737	-0.033210006
102	0xbd11a263	-0.035555255
103	0x3d35d493	0.04439218
104	0xbcca5e70	-0.024703234
105	0xbdd7b7e9	-0.10533125
106	0xbd5bf843	-0.053703558
107	0xbd82b4f7	-0.063821726
108	0xbd98bad9	-0.07457513
109	0x3d863348	0.0655275
110	0xbdd4c233	-0.10388603
111	0x3c65f0f0	0.014034495
112	0xba836e8c	-0.0010027452
113	0x3d8c87e7	0.06861859
114	0x3d274124	0.040833607
115	0x3d127241	0.035753492
116	0xbdb84b8b	-0.08998784
117	0xbd52dd40	-0.05148053
118	0x3c8f24b7	0.017473562
119	0xbc8dfbec	-0.01733204
120	0xbdd8acb1	-0.10579813
121	0xbda417c0	-0.080123425
122	0xbe07a028	-0.13244689
123	0xbc9b16c2	-0.01893175
124	0x3ca6451c	0.020296626
125	0x3d62511d	0.055253137
126	0xbdae718d	-0.08517752
127	0xbce29c15	-0.027662316
128	0xbda75233	-0.08169975
129	0xbbb8cf3e	-0.0056399396
130	0xbd0ec45d	-0.034855235
131	0xbe18c27a	-0.14917937
132	0x3c612f50	0.01374419
133	0x3d1f3156	0.03886541
134	0x3b33cff3	0.002743718
135	0xbdf89ac5	-0.12138895
136	0x3bb7a717	0.0056046355
137	0xbdc4b6cc	-0.09605178
138	0x3c79236c	0.015206199
139	0xbd9f85a1	-0.077891596
140	0x3d18ebbc	0.03733419
141	0x3e902425	0.28152576
142	0xbd2e1d32	-0.04250831
143	0x3ca95f4d	0.020675326
144	0x3ca44fef	0.020057647
145	0xbd70d340	-0.058795214
146	0xbdad0841	-0.0844884
147	0x3dc8fa7a	0.098133996
148	0x3d6ccc22	0.057811864
149	0xbca43b1f	-0.020047722
150	0xbd7226cc	-0.05911903
151	0x3d04dc16	0.032436453
152	0xbdfd8f3e	-0.12380837
153	0xbd354acd	-0.04426079
154	0xbca1ea6a	-0.019765098
155	0x3c8cf2d2	0.01720563
156	0x3b79630a	0.0038053417
157	0xbd57b430	-0.052662075
158	0xbbb1f8af	-0.0054312567
159	0xbc0a7b2a	-0.008452216
160	0xbb56681f	-0.003271587
161	0xbc8f873a	-0.017520536
162	0xbccff294	-0.025384225
163	0xbd67ab12	-0.05655963
164	0x3cde04b5	0.027101854
165	0x3e8da25f	0.27662942
166	0xbcc83f6c	-0.024444304
167	0x3d143040	0.036178827
168	0x3d31d023	0.043411385
169	0x3bd46df8	0.006482836
170	0xbd00a6c8	-0.031409055
171	0x3c0d92d4	0.008640964
172	0x3d1965ab	0.037450474
173	0x3c6de626	0.014520204
174	0x3cd22528	0.025652483
175	0x3dff05f2	0.12452306
176	0x3d785a28	0.060632855
177	0xbd8a7316	-0.06760232
178	0xbdaf7096	-0.08566396
179	0xbbc01f5e	-0.0058631143
180	0x3d4f51d7	0.050615158
181	0xbbf5b98a	-0.0074989246
182	0xbdffc5a9	-0.124888726
183	0x3cfc691c	0.030811839
184	0x3caca192	0.021073136
185	0x3d1cdbfa	0.038295723
186	0x3c287f63	0.010284278
187	0xbd9bba86	-0.07603936
188	0xbd1a1045	-0.037613172
189	0x3d025abe	0.03182482
190	0xbda17d75	-0.07885257
191	0x39851293	0.00025381576
192	0xbcefc803	-0.029270178
193	0xbcc98b7f	-0.02460265
194	0xbb883e48	-0.004157815
195	0xbc7f81a4	-0.015594874
196	0xbdffd28e	-0.12491332
197	0x3dc2d6a3	0.09513595
198	0xbd638aa9	-0.05555216
199	0x3c9c9e6a	0.019118506
200	0x3ca78175	0.020447472
201	0xbdd2f565	-0.103007115
202	0x3ec2d50e	0.38053173
203	0xbc299f9f	-0.010352998
204	0xbb5d8cca	-0.003380584
205	0xbd1c1fd0	-0.038116276
206	0xbd00c323	-0.031436097
207	0x3d9bca62	0.07606961
208	0x3d5c3af6	0.053767167
209	0xbd0907f5	-0.033454854
210	0x3d61367f	0.054983612
211	0x3cebf717	0.028804345
212	0x3d26642d	0.04062288
213	0x3bdec521	0.006798402
214	0x3c35900d	0.011081708
215	0x3d568bd2	0.052379437
216	0x3d4c2e52	0.049848862
217	0x3d1b29a2	0.0378815
218	0x3cde53a1	0.027139487
219	0xbe0e87b6	-0.13918957
220	0x3d98916e	0.074496135
221	0x3c8b7f71	0.017028542
222	0x3d0bdea7	0.034147885
223	0x3c75b77a	0.0149973575
224	0xba4bc868	-0.00077736983
225	0x3ebc57ee	0.36785835
226	0xbc1cc1b0	-0.009567663
227	0xbcde9635	-0.027171234
