python/bsc/con2prim_restoration/net.pth (torch, 493239 bytes, 5 tensors)

layers.0.weight f4 [600, 3]
00000000: 3d29 ebbd 6032 5abe 1d9c 9bbe 7129 11be
00000010: 42b7 acbe e957 91be 71c8 77be 391a 9b3e
00000020: 581f a7be e29e 37be c289 32be 8b39 3fbe
00000030: c3ad 89bd 841c b1bd 74d7 b3be 95a9 cabe
00000040: 4bf7 8bbe 8ef2 12be be01 aebc cbdb 77bf
00000050: 8080 7bbf 5cd2 0fbe f491 34be e30f 83be
00000060: 892f 71be a102 da3e 625d ebbe 7f19 a8bf
00000070: de4c 4ebf 6166 3d3e 28d5 08be 6e92 82be
00000080: 47e8 98be e087 d5be a242 143f 4aae 12bf
00000090: 870c 3ebf 9b9b dabe 70b5 04bc b207 8fbd
000000a0: 9141 07be e419 bebe 0e29 e0bd dbdc 09be
000000b0: c2c0 4bbe c23c dbbe 4d10 03bf d1c8 47be
000000c0: ad46 3c3c e458 603e 44f9 b5be 1944 0ebf
000000d0: be5a c4be 1abe 0e3f e761 113e fbc6 b5ba
000000e0: 3c9d 94be 8f87 b23e 7b21 ecbe 1675 e03e
000000f0: ac82 09be 235f 903e 2bee acbe 792a f9bd
00000100: 74fc 693e 98c8 95be 43fb adbe 9547 69be
00000110: f5d5 843e 1e12 9ebe 4d6b a9be e8f1 68be
00000120: 8ed9 df3e 6460 aabd 3583 e7be c915 94be
00000130: fd8f b0be ac10 4abe 492f 99be c673 70bf
00000140: 79b6 9fbe 90d2 2dbd 3f56 91bf 3138 8bbf
00000150: 75cf 5bbe 94ea d33d 42ef 40be e51b ffbd
00000160: 99f0 13be 0164 52be 6482 93bf 60ef ac3c
00000170: aa1c 5fbe 4a8b bbbe ca32 65be e0ed 14be
00000180: 21b4 bcbe e07f ce3e 18e0 cfbe 3409 ebbe
00000190: ee91 f0be c582 f4bd 2f57 7ebe 86e2 4bbb
000001a0: 5b48 b9bd f1fc fdbd df3c 22bf 255c c83e
000001b0: 9cc3 7abb 7fa2 f73c de1e 56be d20f 2abe
000001c0: 6881 a03d df14 10be dd39 47be 2480 a83e
000001d0: 34b1 bbbe b1ce 88be 9746 a93e 5158 b0be
000001e0: ecb6 cd3c 196d 2c3e a8c4 a0be 223b 253e
000001f0: ad16 dcbd 85b4 f6be f995 21be e6fd 45be
00000200: 1cf6 57be 166f 00be ba0f 133e 02a1 52be
00000210: 139f 49bf fe73 913b bc9e aa3e 5c77 2a3f
00000220: 735f 473e 01f1 01bf 48a5 a5bc 8665 bebe
00000230: 5eda c3be 4ddd 11c0 1b7c 233d f7e5 6abe
00000240: 6182 6cbe 7f63 563e 50db 6bbe cd2d 51be
00000250: 08d8 ac3e cdce bebe c8b1 63be 8cec 003f
00000260: 97b9 0cbf 93fd aabe 2ab9 d5be 70e3 6abe
00000270: 366b af3d 6fcd 29be 3cf3 f1be ab47 aabd
00000280: c5c0 2d3d 201a b7be 3b15 54be 1965 73bf
00000290: 25ce c0be 4a91 c73b c9b1 e43c 059c 58be
000002a0: 6d65 8ebe 95e7 8abe 3ced 66be c4a0 8ebe
000002b0: e9ce 20bd c2ca 99bd 1caf 0b3e d4a8 063e
000002c0: b099 20bf b19d 0dbe 5605 d7bd 2934 11be
000002d0: 3d54 2bbe a9a6 9f3d fc47 12be 538a 9fbe
000002e0: 91df 4a3d 594b fd3e 019e 59bf f452 73be
000002f0: 3e8b d73e 97a1 edbe bc02 20bd c98f c1bd
00000300: e65e adbe 3080 043f e55c 07bf 293c a2be
00000310: 9431 d33d 84e7 4a3e c941 45bd 27c8 523e
00000320: b3c2 99be 32d5 44bf c1f4 6abe 69ff bf3e
00000330: 3164 31be ad9e 473c ae4a fcbd 21cb 04bd
00000340: 76bc a2be 9128 133f 65d5 b8be 0c67 8c3e
00000350: 2c03 8dbe 5108 90be 7843 f03e 4200 00bf
00000360: 0527 d5be 5c4c 883e e8bf 81be e444 8cbe
00000370: e219 e83e ce47 f5be 7612 2fbe e171 ed3e
00000380: b405 06bf c9f5 b2be 9ef4 64bf 0d8a 8abe
00000390: a5d4 25be bab4 65be fbb0 40be 52f7 9cbe
000003a0: e9e9 a53e 3f07 213f cb66 5f3d aa89 f9bd
000003b0: c0ca 383e f018 3abe 149b 87be b2ac 68bc
000003c0: 35fd 5f3d 689c 883e 212f 03bf bb51 61be
000003d0: cc01 063f 1dd5 13bf 47bd acbe fd84 203e
000003e0: 528b b03e 6b5b a7bd 9433 efbe ccab d23e
000003f0: 853b 94bd d9f7 6fbe 3612 bbbe c377 bcbd
-0.11482475 -0.21308279 -0.30392542 -0.14175965 -0.33733565 -0.28387383 -0.24197556 0.30293444
-0.326411 -0.17931703 -0.17435363 -0.18674295 -0.067225955 -0.08648017 -0.35125315 -0.39582506
-0.27337107 -0.1435034 -0.021241065 -0.9681975 -0.9824295 -0.1404509 -0.17633802 -0.25598058
-0.2355329 0.4258013 -0.45969683 -1.3132781 -0.8058604 0.18496086 -0.13362563 -0.25502342
-0.29864714 -0.41705227 0.57914174 -0.57297194 -0.74237865 -0.42696843 -0.008099899 -0.0698389
-0.13208605 -0.37129128 -0.109453306 -0.13463156 -0.1989775 -0.42819792 -0.5119675 -0.19510199
0.01149146 0.21908909 -0.35541737 -0.5557266 -0.3835048 0.5575882 0.14197503 -0.0013868505
-0.2902621 0.34869048 -0.46119294 0.4383933 -0.13428754 0.28197584 -0.33775458 -0.12166304
0.2285021 -0.29254603 -0.3398076 -0.22781213 0.25944486 -0.30873197 -0.33089676 -0.2274853
0.4372067 -0.08319166 -0.4521729 -0.2892287 -0.34484854 -0.19732922 -0.29918888 -0.93926656
-0.31193903 -0.042437136 -1.1354445 -1.0876523 -0.21465857 0.103474766 -0.1884127 -0.12456492
-0.1444725 -0.20545961 -1.1524167 0.021110237 -0.21788278 -0.36629707 -0.22382656 -0.14543867
-0.36856177 0.40331936 -0.40600657 -0.4590546 -0.46986336 -0.11939005 -0.24837945 -0.003111036
-0.09047004 -0.1240176 -0.6337413 0.391328 -0.0038263565 0.030228851 -0.20910212 -0.16607597
0.07837182 -0.14070462 -0.19455667 0.32910264 -0.36658633 -0.26720193 0.33061668 -0.3444238
0.025111638 0.16838492 -0.31400037 0.16135839 -0.107465126 -0.481846 -0.15779866 -0.19335136
-0.21089977 -0.12542376 0.14361468 -0.20569232 -0.78758353 0.004438876 0.3332423 0.6658838
0.19470005 -0.5075837 -0.020220414 -0.3718683 -0.38252538 -2.2791321 0.039913278 -0.22939287
-0.2309661 0.20936392 -0.2303288 -0.20427628 0.3375857 -0.3726715 -0.22235787 0.5036094
-0.5497069 -0.33396587 -0.4174283 -0.22938323 0.08565371 -0.16582273 -0.47255886 -0.08314451
0.042420167 -0.3576212 -0.20711224 -0.9507614 -0.37657276 0.006090318 0.027916806 -0.21153267
-0.27811757 -0.27129808 -0.22551435 -0.2785703 -0.039259825 -0.07509376 0.13641018 0.1315034
-0.6273451 -0.13829686 -0.104990646 -0.14180054 -0.16731353 0.0779546 -0.14285272 -0.3116022
0.049529616 0.49471548 -0.8500672 -0.23762113 0.4209842 -0.46412346 -0.039065108 -0.09451253
-0.33861464 0.517581 -0.5287612 -0.31686524 0.10312191 0.19814879 -0.04815844 0.20584165
-0.30031356 -0.7688781 -0.22944929 0.3749955 -0.17323376 0.012183827 -0.123189315 -0.03242028
-0.3178441 0.57483774 -0.36100307 0.2742237 -0.27541482 -0.28131345 0.46926475 -0.50000393
-0.41631332 0.26620758 -0.25341725 -0.2739631 0.45332247 -0.47906345 -0.17096886 0.46375945
-0.5235245 -0.34953144 -0.89435756 -0.2705845 -0.16194399 -0.22432223 -0.18817513 -0.3065744
0.32405022 0.6290168 0.05454139 -0.121844605 0.18046093 -0.18173575 -0.26485503 -0.01420133
0.054684836 0.26681828 -0.5124379 -0.22003834 0.5234649 -0.5774706 -0.33738157 0.15675731
0.34481293 -0.081717335 -0.46719038 0.41146696 -0.07237915 -0.2343439 -0.3653733 -0.0920253

layers.0.bias f4 [600]
00000000: aac3 3cbe 5613 bd3e d7cb 20be b699 24bf
00000010: c02b 9dbf cbff 14bf 4755 983e fab4 3bbf
00000020: d30a 2c3e 9783 5fbf 8bea 9ebf 56e3 553f
00000030: 3f06 47bf 923b 26bf 2aef abbf 21fe 6dbe
00000040: 98cd 4b3e 8d07 96bf c80b 423f 1b49 0ebf
00000050: c5e5 523f 13c4 0ebe 89a6 d0be 1e03 a6be
00000060: f8cd 5f3f d7c2 58be c5dd a2be 0ddd 4f3f
00000070: 7071 16bf d984 91bf a65e 80bf eed5 9bbf
00000080: dc17 05bf 9457 febe 75fa 5b3f fdd0 8fbd
00000090: 333b d03e 4084 883f d409 873e 840a ad3d
000000a0: 9c4e 213f dd87 d13e d85c 57bf 05e3 8d3f
000000b0: 4337 a3bf 4582 023f 873d 2c3f 9c8f a0bf
000000c0: 3b93 9f3e 47c5 883c ad77 783f d5f8 a1be
000000d0: 9c84 cabd b204 5bbf 4d8e 2bbf c9f9 a23e
000000e0: a986 1ebf b023 793f a693 9ebd 5ffc 1c3f
000000f0: c02e 023f 8a55 3fbe 8704 5bbf 5a30 52bf
00000100: fab4 fe3e f327 87bf 0efc d53e c515 9bbf
00000110: 3d00 833f c8ce 9ebd 6314 13bf 7c88 13bf
00000120: 0c86 0dbf 59fd 863f d029 b23e e9af cebe
00000130: ce23 efbc 1b8a 00bf 5cc8 93bf ba23 14bf
00000140: 525d 40be bdd2 04be e25a a8be f513 39bf
00000150: 433d 26bc c248 363e 87a7 6e3e 1382 2e3f
00000160: 1557 673f c3c2 55bf 8c33 203f b604 4fbf
00000170: 9722 01bf f1b8 02bf c235 81be 4b1f d8bd
00000180: e7c5 89bf 6e9e b43e f5ca 753f 097e 42bf
00000190: abd5 38be f3d6 6fbf 6d23 49bf b0f6 8c3f
000001a0: f66e 0f3e d805 35bd 0009 25bf 434e 8ebf
000001b0: 06cc 513f 6aff 2bbf f11a 72bf a233 0bbf
000001c0: 94c0 68bf 40e5 553d 48f4 d5be 7831 80be
000001d0: 7592 a0bf 6e62 5fbd 64b8 05be 4836 99bf
000001e0: 0295 85bf 845e 8dbe 92cd b83e d0df 1bbf
000001f0: 51dd 86bf 4996 acbf bc9c 883f 1131 8d3f
00000200: ca0f adbe c7f1 a33c abf2 26bf 0f74 9cbf
00000210: 1b13 26bf e474 003e f817 6a3e e0f0 a8bf
00000220: 1b85 82bf 39ef e8bc b68c 153f 2f5b 643e
00000230: 566a 67bd 5225 763f eb47 a43c bffb 403e
00000240: aa7e 14bf 6dce 32bf 5e33 db3d a79c 24bd
00000250: e887 403f b80a b0bf 7183 a2bf 5c8e a6bf
00000260: 9727 7ebf 4026 5c3f da60 4b3f 4690 a4bf
00000270: 1f7a aebe 49cc afbf de15 043d e696 0cbf
00000280: 2355 26be 5df6 1d3e fc1c bd3d 698d 523f
00000290: 4d70 85bd 9d0d 21bf 8f1d fc3e ecd5 3bbf
000002a0: 29b6 8e3e bb2b 27be bdd2 103f 6eaa adbe
000002b0: 075c 193f c194 9e3f 9d66 3c3f 205e 91bd
000002c0: 7dd6 d9be 3fdc 95bf b43e 14bf 2dd5 9dbf
000002d0: 2bd3 23bf 3bfe 34be 059a 913d 3bb1 50bf
000002e0: 74c5 91bf f459 86bf 1a53 1bbf 3bb1 6bbe
000002f0: 59e3 f13e 5021 4dbf 9fbd c53d 9529 17bf
00000300: b9e9 213e 1d4e 9ebf c69a 28be f9df c4bd
00000310: 4bd8 babf 6afe 783f 498f 483e abb5 38be
00000320: 2b10 f43e 3aab 8a3f fb25 073f 9dd9 9ebf
00000330: 7e1c 24bf 819d 33bf 6e6b 80be d8ba 21bf
00000340: d2ad 6dbf f000 393f 961c 2abf 5017 293e
00000350: 9f8d a0bd ec41 86bf 4aaa 87be 68ce 86bf
00000360: 5304 5a3d 2831 5e3f 3155 f8be 2fba 103f
00000370: e312 79bf 79b5 5f3f 8195 fb3c b96d 13b9
00000380: 4ae5 443c 304a 97bf 6c90 9dbf 03af cabe
00000390: 5721 18bf 85f8 8dbf ba7c 87bf 2421 78bf
000003a0: c0c9 7a3f 9dd8 dfbe 0fb1 2d3e cb76 aabe
000003b0: 92f4 a4bf 7a9d c4be c08c 133f e8ef d93e
000003c0: d88a c7be cd7c 04be 9e1d b13e 4cbc 14bf
000003d0: 275e 503d 3786 823e 54ec 96be 7784 a1bf
000003e0: a5ee 0fbf cdd1 ebbe e601 0bbf 4287 6dbf
000003f0: 4da1 76bf f918 24bf 90ea b43d a01c 49bf
-0.18434015 0.36928815 -0.15702759 -0.64297044 -1.2278976 -0.5820281 0.2975256 -0.73323023
0.16801004 -0.87310165 -1.2415327 0.8355001 -0.77743906 -0.6493465 -1.3432362 -0.23241474
0.19902647 -1.1721054 0.75799227 -0.555803 0.8238185 -0.13941984 -0.40752056 -0.32424253
0.8742366 -0.21168076 -0.31809822 0.8119667 -0.5876684 -1.1368667 -1.0028884 -1.2174661
-0.5198953 -0.49676192 0.8592904 -0.07022283 0.40670165 1.066536 0.26374686 0.08449271
0.63010573 0.40923968 -0.84126043 1.1084906 -1.275124 0.50980026 0.67281383 -1.2543826
0.31167015 0.016695632 0.9705761 -0.31635156 -0.098885745 -0.8555404 -0.6701401 0.31831196
-0.61924225 0.9732008 -0.077430055 0.6132259 0.50852585 -0.18684974 -0.85553783 -0.8210503
0.4974745 -1.0559067 0.41793865 -1.2116019 1.0234448 -0.07754284 -0.5745298 -0.57630134
-0.55282664 1.0546066 0.34797525 -0.40368584 -0.029191878 -0.5021073 -1.154552 -0.57867014
-0.18785599 -0.12971015 -0.32881838 -0.72296077 -0.010146442 0.17801192 0.23306094 0.6816723
0.9036725 -0.8350031 0.62578654 -0.80866563 -0.50443405 -0.5106345 -0.25236326 -0.10552844
-1.076352 0.35277122 0.9601281 -0.75973564 -0.18050258 -0.9368736 -0.7856968 1.1012783
0.14007172 -0.044195026 -0.6446686 -1.1117634 0.8195194 -0.67186606 -0.9457236 -0.5437566
-0.9091885 0.052220583 -0.41787934 -0.25037742 -1.2544695 -0.05453723 -0.1305862 -1.196969
-1.0436099 -0.27611172 0.36094338 -0.60888386 -1.053629 -1.3483363 1.0672832 1.1030599
-0.3380111 0.02001275 -0.6521403 -1.2222918 -0.648729 0.1254459 0.22860706 -1.3198509
-1.019687 -0.028434383 0.5841783 0.22300409 -0.056497894 0.96150696 0.020053824 0.18846034
-0.58005774 -0.6984623 0.10703157 -0.040188458 0.75207376 -1.3753271 -1.2696363 -1.3012195
-0.9927916 0.85995865 0.7944466 -1.2856529 -0.34077546 -1.3734218 0.032247417 -0.5491775
-0.16243415 0.15426011 0.09234044 0.82247025 -0.0651556 -0.629114 0.492413 -0.73373294
0.27873352 -0.16325276 0.5657156 -0.3391909 0.5990605 1.2389146 0.73594075 -0.07098031
-0.42546454 -1.1707839 -0.5790818 -1.2330681 -0.6399409 -0.17675106 0.07109455 -0.8152043
-1.1388383 -1.0496202 -0.6067368 -0.23016827 0.47243765 -0.80128956 0.09655308 -0.59047824
0.15811814 -1.2367588 -0.16465291 -0.09613032 -1.4597257 0.97263205 0.19585909 -0.18038051
0.47668585 1.0833504 0.5279233 -1.241016 -0.64105976 -0.70162207 -0.25081962 -0.63175726
-0.92843354 0.72267056 -0.6644987 0.165128 -0.07839512 -1.0488868 -0.26497108 -1.053174
0.05322678 0.86793756 -0.48502496 0.56534094 -0.97294444 0.8738628 0.030710937 -0.00014059887
0.012017557 -1.1819515 -1.2309699 -0.39586648 -0.5942587 -1.1091467 -1.0584939 -0.9692557
0.97964096 -0.4371995 0.16962074 -0.33293757 -1.2887137 -0.38401395 0.5763664 0.42565846
-0.38973117 -0.12938233 0.3459291 -0.5809982 0.05087104 0.25493023 -0.2947718 -1.261855
-0.5622352 -0.46058503 -0.5429977 -0.9278451 -0.96339875 -0.64100605 0.08833802 -0.78559303

layers.1.weight f4 [200, 600]
00000000: cbd4 9fbd 6786 33be 24dc 0dbf 441e d4bd
00000010: ccae 3fbd 7ed8 87bd dbeb dbbd d693 bdbd
00000020: 1cee 4ebf 6eec dc3c 7de2 d6bd 0463 2cbf
00000030: 8c6d 04bc 38eb bbbd 19c4 05be a627 edbc
00000040: 65c8 60bf ec1f df3d bc8e 28bf 98a6 89bc
00000050: efed 8fbf 50c2 54bf 8346 b13c 6a6c bfbd
00000060: bea5 ccbe fef7 fcbd 31ba 063d 120b d0bd
00000070: 15dc a9be 53d2 00be 8ebd 51bc 2eb6 24bd
00000080: 7a56 33be f676 993c 31b3 1cbf 5667 ccbc
00000090: b91d 50bf 214c 5ebf 8140 93bf f542 80bf
000000a0: 0186 39bf bd5a 96be 2263 cebd f513 6abf
000000b0: 85af 843d 4e90 acbe 88e4 18be bc71 9cbd
000000c0: c398 6cbf 5975 8fbf 6f5b 52bf c249 91bd
000000d0: 5854 35be 1dfe 2bbd cb0f f1bc dbbf 60bf
000000e0: a6a1 86bd d71c 29bf 3bc2 4ebe 1bdd 04bf
000000f0: d99a 5dbf 5d28 a0bd 1a04 62bc d33f 49bc
00000100: cc59 09bf ba56 c7bc 4fc2 85bf a454 ebbc
00000110: 3cf6 24bf dac0 6fbd 7802 87be 7181 9dbe
00000120: 0f7f abbe 9d36 80bf 1285 45bf 1c77 823c
00000130: 25f1 94be 7407 b4bd 59dd 5d3d 7e62 9ebd
00000140: f888 ffbe 251c 08bf ab51 87bd b2ef 40bc
00000150: a763 9dbd 29c5 dbbe 3f24 41bd 1e81 2abe
00000160: 637e 78bf 3dd1 62bb a039 debe d106 89bd
00000170: 5100 d8bc c3cd f33c 4e7d a33c a465 83be
00000180: 7286 cabd 16e5 d3bd d12c 61bf 7d0d 61bd
00000190: cb52 14bd 92ef 743d b032 29be dda5 2bbf
000001a0: ed92 c1bd 356d e83c 439d d8bd 9faf df3c
000001b0: 87f4 0cbe c49b 0dbe a12d d93c 02ec 3b3c
000001c0: 011b 41bd 98eb 6bbf 53e5 1dbe 0551 d5bc
000001d0: 9c27 6ebd 24d8 09be b8b7 f0ba d311 b13b
000001e0: 485f 83bd 31e1 07bf ea22 ef3b 7ae5 6bbd
000001f0: 9dde cabd c7a3 96bd 1661 34bf f154 58bf
00000200: e3b5 2cbc ed30 83bf c347 99bc 6038 9737
00000210: 6e72 f2bc 602d 68bf 4c63 23be f3c0 5abd
00000220: 579c 00bd df7d 8fbd 1c8b 52bf 61df 5bbf
00000230: 7023 c2bd 90ca e1be 434a 6cbd 63d5 69be
00000240: 3748 babd 8f28 06bd c169 9ebe b0a8 64bd
00000250: c569 16bf 5080 c3bd 9b68 48bd 8ade 47bd
00000260: bb31 2d3d f555 49bf f236 8fbf 8073 acbc
00000270: d2ab 98bd cfa8 c1bd 830f 17bf 7520 8a3d
00000280: 91a4 a1be 9453 00bf 0698 e6bd 6e24 22bf
00000290: 1a40 2cbe ca04 08bd 5a2a 86bf e6b7 b3bc
000002a0: 08b2 4bbf 1568 8ebc 146f 08be a941 13bf
000002b0: af93 85bf 16be 8bbf 9c97 cebe 78c2 f9be
000002c0: e1bc efbc 7513 62bd b307 84bd 1524 d73a
000002d0: c97c 0fbd 0318 8fbe e0d7 9fbd 7504 f5bd
000002e0: 1117 09bd fc42 20bd 2da6 f5bc f5b0 f0bd
000002f0: b15b 16bf 1aed 69be 834d ab39 fbcd 843c
00000300: 6cdd 80bf 2a1d 49bd 511d cabd 032b 94be
00000310: 42b0 58bc 8014 27bf 267f 76bf 3bea 63bc
00000320: f4f4 91bf a418 83bf e903 1ebf ff2c 3abd
00000330: 917a 073d d488 d9bc ed7e 80be 732c a0bb
00000340: e32c 9dbc 62ed 51bf 37ca a13c cdf0 0dbd
00000350: b806 a6bd f26f 20bd 8215 fd3c 8f3a c73d
00000360: cb1e 47be 8f16 8bbf 85cc 223d 4647 3bbe
00000370: b4b0 52bc 48d7 18bf ad9c 9f3c ffff e5ba
00000380: 02f2 e5bd f835 743d e03a 22bc 28ce ba3b
00000390: 1cdc 46bd 0885 8cbd ea27 703d 02a4 a63b
000003a0: 70eb 23bf 0754 dfbe 975c 8abf b547 b8bc
000003b0: beba 04b9 2569 1abc acdd 97be 1caa afbd
000003c0: d3f8 073d 7857 adbd cb15 87bf f741 633d
000003d0: 7ab5 d9bd 95e9 6fbe 564f f9bc 208c e6bd
000003e0: b81a 08bd 132a e5bc dcb3 2dbe ee97 39bd
000003f0: c9c5 37bd 16a8 02bc 45fc eebd 9a07 88bc
-0.07804259 -0.17531739 -0.5541403 -0.10357335 -0.04679756 -0.066330895 -0.10738345 -0.09256713
-0.80832076 0.026968207 -0.10492418 -0.67338586 -0.008082759 -0.09175724 -0.13063087 -0.02894957
-0.8780578 0.108947605 -0.65842795 -0.01680307 -1.1244487 -0.83109 0.021640068 -0.0934685
-0.399702 -0.12351988 0.03289241 -0.101583615 -0.33175722 -0.12580232 -0.012801541 -0.040212803
-0.17513457 0.018733483 -0.61210924 -0.024951618 -0.81295353 -0.86834913 -1.150406 -1.0020434
-0.724701 -0.29366103 -0.10077502 -0.914367 0.0647879 -0.33703846 -0.14930928 -0.076388806
-0.92420596 -1.1207687 -0.82170767 -0.07094146 -0.17707956 -0.04199039 -0.029426476 -0.8779275
-0.06573801 -0.6605963 -0.2019128 -0.5189988 -0.86564404 -0.07820199 -0.013794923 -0.012283283
-0.53652644 -0.024333347 -1.0449923 -0.028726883 -0.64438224 -0.058533527 -0.2636907 -0.30762818
-0.33495376 -1.0016667 -0.77156174 0.015925936 -0.2909023 -0.08790484 0.05416617 -0.0773363
-0.49909186 -0.53167945 -0.06607374 -0.011775898 -0.07685023 -0.4292386 -0.047153708 -0.16650817
-0.9706785 -0.003460958 -0.4340334 -0.06690753 -0.026367338 0.0297612 0.01995721 -0.25663483
-0.09888925 -0.10346429 -0.8795901 -0.054944504 -0.03621177 0.059798785 -0.16523242 -0.6704996
-0.09451852 0.028372386 -0.1057687 0.027305422 -0.13765155 -0.13828951 0.026511015 0.011469843
-0.047144894 -0.9215636 -0.15419511 -0.02603961 -0.058143243 -0.13461357 -0.0018365299 0.005403736
-0.06414658 -0.5307799 0.0072978633 -0.057591893 -0.09905741 -0.07355457 -0.7046064 -0.8450461
-0.010541412 -1.0249306 -0.018710976 1.8026854e-05 -0.02959558 -0.90694237 -0.15955848 -0.053406667
-0.031399097 -0.0700643 -0.82243514 -0.85887724 -0.094794154 -0.44099855 -0.05768801 -0.22835307
-0.09095805 -0.032753523 -0.3094006 -0.055824935 -0.5875514 -0.09545958 -0.048927885 -0.048796214
0.042283755 -0.78646785 -1.1188643 -0.021051168 -0.07454647 -0.09456026 -0.59008044 0.06744472
-0.31570867 -0.5012753 -0.11259465 -0.6333684 -0.16821328 -0.033207692 -1.0481675 -0.021938276
-0.7956853 -0.017383615 -0.13323623 -0.57522064 -1.0435694 -1.0917385 -0.40350044 -0.4878118
-0.02926487 -0.055194337 -0.06446781 0.0016413952 -0.035031114 -0.27948007 -0.07804847 -0.11963741
-0.033469263 -0.03912638 -0.029986465 -0.11752502 -0.5873366 -0.22844353 0.00032673412 0.0162115
-1.0067573 -0.04910008 -0.09868873 -0.28939065 -0.013225617 -0.65265656 -0.96287763 -0.013910825
-1.1402879 -1.0241895 -0.61724716 -0.045453068 0.033075873 -0.026554503 -0.25096837 -0.0048881113
-0.019186443 -0.8200284 0.019749744 -0.034653474 -0.0810675 -0.03916926 0.030894045 0.09727966
-0.1944534 -1.0866259 0.039745826 -0.18288907 -0.012859512 -0.59703493 0.019483889 -0.0017547606
-0.112278 0.05962178 -0.009901732 0.0057008453 -0.048549756 -0.06861311 0.058631815 0.005085469
-0.64031124 -0.43618795 -1.0809506 -0.02249513 -0.00012658068 -0.0094244825 -0.2966131 -0.08577368
0.03319628 -0.08463949 -1.0553526 0.05548283 -0.10630317 -0.23428948 -0.030433338 -0.112571955
-0.033228606 -0.027974164 -0.16963142 -0.045310907 -0.044866357 -0.007974645 -0.1166921 -0.016605187

layers.1.bias f4 [200]
00000000: 73bc 3bbd 6f51 5d3e a5f5 22be da08 a03d
00000010: c055 99bd 6226 1bbd 70c7 a13d 294a 44be
00000020: f493 cebd 6595 19bd cae4 5bbd 2a86 31be
00000030: 2ce4 05be 1906 91bd d737 e1bb 7b84 9fbc
00000040: 414a 32be 36f1 9bbd 870a 393c 1b7b c3bd
00000050: 1758 893d f5c6 64be ea55 df3b b924 9dbd
00000060: cf0d 36be 707f 253e 7385 41be 0cf9 18be
00000070: 89ea 153e 7d8d 01be 712d 8ebd 984c 35be
00000080: 5438 f43d f735 34be 5640 ccbd dbc8 2abe
00000090: 2270 dfbd 6ef7 7ebd 5ed6 e3bc 87dc f8bd
000000a0: 1063 2ebe 7bee 22be 8675 42be 6903 25be
000000b0: 29e2 113a db9d 733e 20c7 d93d 0f7b acbb
000000c0: a0a2 c7bd 3e60 adbd b591 41be 17aa 40be
000000d0: ba70 1d3d 2687 c23c 1b96 ad3c d04c 5bbe
000000e0: 68ce 3ebe 2c44 38bd 8668 c6bd dbc1 80bc
000000f0: a682 173e 545f edbd 1a64 0dbe 8772 213e
00000100: 7cd6 73be e6c4 acbd f6bd 15bd 46ca 373e
00000110: 9fe4 0bbe 4bff 23be 6375 9abd 8a99 56be
00000120: 1796 003d a984 5bbe d64b f9bd 61a6 12ba
00000130: 77f9 61bd c551 4cbd 74b3 53bd 9c28 77be
00000140: b6f8 b2bd cee9 45be 3b89 1cbd 1c0f 303d
00000150: a00f f2bd bf56 3abe 44b8 47be 2930 e2bd
00000160: e563 47bd 43b5 8abd ed00 bdbd 7eb3 44bd
00000170: 0593 8c3d 65d0 4abe 43ed a23c 8437 193e
00000180: 9583 21be 5b0b 97bd 1de3 5abe 1fc2 47bd
00000190: f359 09bd 3bff 66bd fcd8 efbd 80e7 e2bd
000001a0: 6cbd 1c3d 95d1 47bc 80a4 44bd 1020 103e
000001b0: 1672 913d f1a2 50be 343b 08be ecc1 b0bd
000001c0: 7d23 3c3e d32c d9bd fcbf 3cbd 3a2e 20be
000001d0: 7291 85bd cb97 c2bd 9fd8 e5bd f874 46be
000001e0: 6607 813d 6a80 54be 9462 d5bd a9cc e5bd
000001f0: b4b8 d3bd 1df2 5fbd 88d7 ea3d fd15 bc3c
00000200: 5491 4abe a6c2 4c3e 3333 42be 6372 d33c
00000210: 9ec3 bfbd dfe8 22be 8114 76bb e54f adbd
00000220: 90cc 733d 2dec 7bbe c3b2 023e 6e40 46be
00000230: 7106 12be 1800 3cbe 5a1a 85bd 5b96 29be
00000240: 9f74 e9bd 6014 55be 9ed7 5a3d b464 0cb9
00000250: 7dd7 77bc 409e f2bd c3c0 b1bd 9c3e 7dbd
00000260: 808c 74bc a911 41be 771a 2abe 4e7b cbbd
00000270: ebb2 52bd 1ca8 4c3c c7b1 a0bd d60d 4dbc
00000280: b4dd 5d3d f9ee 0fbe dfd4 3ebe cc63 44be
00000290: d3b4 f93d 1fb9 f53d de0e 5fbd 849d 8d3e
000002a0: 0f9b d73d fcd7 60be 6c31 c43b 58b4 34be
000002b0: f8d4 2d3e 44c2 1a3e 56dc b0bd c625 99bd
000002c0: c180 c7bd 44e9 e9bd 8c32 06be 3ecb dbbd
000002d0: 03cf 82bd d18f 68bd a0d6 82be 70f4 143e
000002e0: 6e53 3bbe 789d 3dbd fc6f 00be 591a 4f3e
000002f0: 7bae 96bd 31f9 31be b34a 47be 2ca5 c2bb
00000300: 96c3 d8bd d3d2 49be fd05 aebc 7f3e 1bbe
00000310: f349 853d 5644 b4bb b180 9fbd 3e57 2ebe
-0.045834016 0.21613096 -0.15914018 0.07814188 -0.07487059 -0.0378784 0.07899368 -0.19168915
-0.100868136 -0.03749599 -0.053684987 -0.17336336 -0.13075322 -0.07081241 -0.0068731117 -0.019472351
-0.17411138 -0.07614367 0.011294014 -0.09544965 0.06706255 -0.22341521 0.0068156617 -0.0767302
-0.17778705 0.16161895 -0.18898563 -0.14938754 0.1464025 -0.1265163 -0.06942261 -0.17705
0.11924806 -0.17598711 -0.099732086 -0.16678183 -0.109100595 -0.062247686 -0.02781218 -0.12151437
-0.17029977 -0.15911286 -0.18990144 -0.16114582 0.00055650115 0.23790686 0.10633683 -0.005263693
-0.09747815 -0.08465622 -0.18903239 -0.18814884 0.038437583 0.023746084 0.02118974 -0.2141602
-0.18633425 -0.04498689 -0.09687905 -0.015717437 0.14795932 -0.11590448 -0.13807717 0.15766345
-0.23812288 -0.08435993 -0.036558114 0.17948255 -0.13661431 -0.16015355 -0.07541921 -0.20957008
0.031393137 -0.21437325 -0.12172668 -0.00055942504 -0.05516955 -0.04988267 -0.05168481 -0.24136585
-0.08738844 -0.1932747 -0.03821681 0.04298316 -0.118193865 -0.18197154 -0.19503886 -0.11044342
-0.04867925 -0.06772854 -0.09228692 -0.04802274 0.06863979 -0.19806059 0.019888526 0.14962584
-0.15772851 -0.07375213 -0.213757 -0.048769113 -0.033533048 -0.05639575 -0.11711308 -0.11079311
0.038266584 -0.012195964 -0.048008442 0.14074731 0.07101838 -0.20374657 -0.13303834 -0.08630738
0.18372913 -0.10604253 -0.046081528 -0.15642634 -0.06521882 -0.095016085 -0.11222958 -0.19380558
0.06300239 -0.20752111 -0.10419193 -0.112206765 -0.10337964 -0.054674257 0.114668906 0.022959704
-0.19782001 0.19996127 -0.18964843 0.02581138 -0.09363483 -0.15909146 -0.0037548842 -0.08462504
0.059521258 -0.24601813 0.12763505 -0.19360515 -0.1426027 -0.18359411 -0.06499167 -0.16561262
-0.11399197 -0.20808554 0.053428285 -0.00013388955 -0.01512706 -0.1184659 -0.086793445 -0.061827287
-0.014926076 -0.18854393 -0.16611658 -0.09935628 -0.05144016 0.012491252 -0.07846408 -0.012515506
0.05416651 -0.14056005 -0.18635891 -0.19178694 0.121926926 0.119982 -0.054457538 0.27659237
0.10527622 -0.21957392 0.005987337 -0.1764692 0.16975772 0.15113169 -0.08635776 -0.07477908
-0.09741355 -0.11421445 -0.1310522 -0.10732125 -0.063871406 -0.05677778 -0.2555437 0.1454637
-0.18293545 -0.046292752 -0.12542719 0.20224895 -0.07357498 -0.17380215 -0.19462089 -0.0059401
-0.1058418 -0.1970933 -0.02124309 -0.15160559 0.06508245 -0.0055013103 -0.07788218 -0.17025468

layers.2.weight f4 [1, 200]
00000000: 1fdd 543e 446b 263e 83e6 4abd cdb6 3f3e
00000010: 6182 283d bc0c 5d3e 7e72 3d3e 97e7 d3bb
00000020: 3e9a 493e 50dc a73e 95c8 6c3d c7c8 dabd
00000030: 9e4d e9ba 1a09 833d 2503 5e3e a2f1 403e
00000040: 1813 e7bd 2142 813d 95e8 523e c001 2a3f
00000050: 0003 663e 5de4 29bc 18e6 373e c7bd 6d3e
00000060: ff2a 59bb 2c40 1a3e 08b8 cabc 9165 b0bb
00000070: cff9 373e d419 3d3e bf3a 343e f436 12be
00000080: 6363 0f3e f327 f4bb ecc9 583e 07b3 92bb
00000090: 0ba5 4a3d 840f 593e 04e8 c13d 535c 5f3d
000000a0: 1878 a33c eab6 703c b185 9ebb ee3a a2bb
000000b0: eb76 4c3e 3659 383e 4f6a 6a3e 0cd1 e73d
000000c0: bcf8 8a3d 73ca e73c ae9f 6ebc 7dcb 1fbe
000000d0: 042c 4b3e 900e 543e 3f77 383e f628 e6bb
000000e0: 34a9 edbd f8cd 333e 1f42 bd3c ed20 bd3d
000000f0: bc6a 603e 83c3 673d 0bab 113d a7c6 4a3e
00000100: 75bc 07be 11af 443e 69ed 403e d6d2 2e3e
00000110: 3afc 7d3c 423d 35bb 2978 9d3d 38bb 00bc
00000120: 8b28 3d3e 2c42 0abe 19f9 583e f7cc 8c3e
00000130: c8ad 4c3e 0039 4c3e afa1 9b3d 37db 63bc
00000140: d8f5 643e dbe8 193d 6b44 5b3e 41e6 5c3e
00000150: 7fe2 083d b4b8 823c ee7b 02bd 339d 673e
00000160: 7cd4 563e e548 313e 26f5 613d b106 493e
00000170: bd33 6b3e db66 0fbe ffc7 4e3e f74e cf3d
00000180: 79d9 59bc be0d a93d 87e4 c7bd 7cc4 853d
00000190: 8974 2b3e c63c d53d dfec ec3c 59e8 523e
000001a0: f39c 523e dc31 4d3e 6eb4 573e 5bec 183e
000001b0: 75a4 593e 0551 50bb c2e4 543d beb0 893d
000001c0: 0d5a 223e deea 4f3e 14a3 2d3e 2a47 c7ba
000001d0: b374 403d 8573 1c3d fd50 c43c 3cc8 91bd
000001e0: 2b00 6a3e 2896 1cbe 46bc 943d bd02 693e
000001f0: 47c7 4b3e 7c60 373e 5241 383e ee77 5f3e
00000200: 2f7c d0bd 572c 213e 3395 bbbd 8b02 1e3e
00000210: 2635 6e3d 4a2b 97bb 62e2 3e3e dee0 403e
00000220: 297c 503e c888 51bc 3e71 723e aeb6 f5bd
00000230: 211a 103d 3d14 3cbd 6867 823d 5191 92bb
00000240: f398 533e 10c3 c9bb 40a9 5e3e 84eb 563e
00000250: 451c b63d a429 5f3e 9168 a13d 3c5c 583e
00000260: e18b 563e ded8 0bbe 6041 88bd e915 4d3e
00000270: e623 443e 69f3 793e f307 953d cc02 2a3e
00000280: 30ad 633e 71e2 f43c 191c e7bd e5c8 d2bd
00000290: 2357 583e ad2d 783e a348 553e a288 4d3e
000002a0: 89e7 1c3e d4b0 29bc e321 5d3e 7843 81bc
000002b0: 7ab7 403e 516f 5e3e b472 883d 5b53 bf3d
000002c0: 6eba 203d ad83 973e 1c02 553d d6f4 563e
000002d0: 82b7 513d f4c6 893d 1686 a2bc c2cb 2f3e
000002e0: aeee 03be 04a8 3f3e 90e9 a339 03bb 153e
000002f0: 8f1c 653e 362b 63bd 3202 e0bd 1adf be3d
00000300: 8dfb 903d aaf6 bcbb a0c5 463e 7a58 febd
00000310: 15d5 633e 67e7 5c3e 7eec 2d3e dd5c b1bd
0.20787476 0.16251856 -0.04953624 0.18722077 0.041139964 0.21586889 0.18500707 -0.0064668166
0.19687745 0.32785273 0.057808477 -0.106828265 -0.0017799621 0.0639822 0.21680887 0.18842176
-0.11282939 0.06311441 0.20596536 0.6640892 0.22462082 -0.010369387 0.17958868 0.23216926
-0.00331372 0.15063542 -0.024745956 -0.0053832014 0.17966388 0.18466884 0.17600535 -0.14278775
0.14002757 -0.0074510514 0.21170777 -0.004476908 0.049473803 0.21197325 0.094680816 0.054531407
0.019954726 0.014692048 -0.0048377146 -0.0049508726 0.19967239 0.18002781 0.22892116 0.113191694
0.067857236 0.028294777 -0.014564438 -0.15604968 0.1984101 0.2070868 0.18014239 -0.007023926
-0.116045386 0.1755904 0.023102818 0.09234796 0.21915716 0.05658294 0.03556351 0.19802342
-0.13255484 0.19207408 0.18840565 0.17072615 0.01550203 -0.002765492 0.07688934 -0.007857136
0.18472497 -0.13501805 0.21188773 0.27500126 0.19988167 0.19943619 0.07599198 -0.013907245
0.22359407 0.037575584 0.21412818 0.2157221 0.03341913 0.015957214 -0.03185647 0.2261856
0.20979494 0.17312963 0.055165432 0.19631459 0.22968955 -0.1400408 0.2019348 0.10122483
-0.013296478 0.08254574 -0.09760385 0.06531617 0.16743673 0.10411982 0.028921543 0.20596446
0.20567684 0.20038551 0.21064922 0.14933912 0.21254142 -0.0031786573 0.051975973 0.06723164
0.15854664 0.20304438 0.1695674 -0.0015203704 0.046986293 0.038196106 0.0239644 -0.0711827
0.22851627 -0.15291655 0.07262473 0.22754951 0.19900237 0.179079 0.17993668 0.21823093
-0.10179936 0.1573957 -0.09159317 0.15430658 0.058156155 -0.0046133148 0.18641046 0.1883578
0.20359863 -0.012788959 0.23676011 -0.11997734 0.03518117 -0.04591774 0.063673794 -0.0044728895
0.20663814 -0.0061572865 0.21744251 0.2098828 0.08892111 0.21793228 0.078812726 0.21128935
0.20951797 -0.13656947 -0.06653094 0.2002789 0.19154319 0.2440926 0.07276907 0.1660263
0.22234035 0.029893132 -0.11284656 -0.10292224 0.2112699 0.24236174 0.2082849 0.20071653
0.15322699 -0.0103571005 0.21594958 -0.015779242 0.18819991 0.21722151 0.06662503 0.09342071
0.039240293 0.29592648 0.052003965 0.20991835 0.051200397 0.067274004 -0.019839328 0.17167571
-0.12884018 0.18716437 0.000312638 0.1462212 0.22374175 -0.05546113 -0.10937919 0.09319897
0.070792295 -0.0057667093 0.19411325 -0.12419219 0.22249253 0.21572648 0.16984746 -0.086602904
