python/bsc/con2prim_restoration/net.pth (torch, 141991 bytes, 7 tensors)

layers.0.weight f4 [78, 3]
-0.43798593 -0.27061266 0.38778704 -0.10398019 -0.28375688 0.42012042 0.012473765 -0.07130376
0.025847511 -0.57177466 0.14438617 -0.036278665 0.4209525 0.4313387 0.20013642 0.013273835
-0.29085392 0.10192425 0.46917066 -0.37547103 -0.18617819 -0.34145463 -0.2920481 0.49480304
-0.39995438 -0.09581524 0.3480574 0.5667708 0.3422165 0.53948087 0.039126713 -0.32944196
-0.31753868 -0.25646397 -0.51755625 -0.03541398 0.45398894 -0.14034738 0.2564453 -0.13593762
0.20994711 0.018995907 0.17302008 -0.27687806 0.15698783 -0.08204142 0.3468962 -0.21295483
-0.3043775 -0.20313038 0.33732277 0.021679433 0.23040633 0.06853824 0.029612772 0.361011
-0.041997902 0.030298539 0.2129738 0.47443888 0.13485135 0.34678754 0.5453242 0.310855
-0.2942378 0.383891 0.43875414 0.5204073 0.03634487 -0.33578926 0.46198487 0.44266048
-0.424854 0.24074629 -0.36373708 -0.35853893 0.46848238 0.35545743 0.17445466 -0.69396627
-0.17325664 -0.26117086 0.40344822 -0.101211295 0.25716573 0.54473794 0.42073628 -0.018340167
0.43215218 0.3213948 0.065296695 0.45596826 0.14992492 -0.46688887 0.5479203 -0.24911971
0.06023495 0.081276864 0.010088212 -0.44733727 -0.34259027 0.4943283 0.26472256 -0.1774042
-0.053938735 0.1291415 0.44222102 0.2389645 0.28916976 -0.2612885 -0.10326232 0.09089637
0.39623886 -0.36095956 0.45528156 -0.22948074 -0.33936378 -0.403427 -0.35919088 0.1927231
0.0176439 -0.4193663 0.58342606 0.5202723 -0.03304496 0.26636294 -0.0018126232 0.38504222
0.11084249 -0.5258137 0.45423865 -0.05392391 -0.37660742 0.5634136 -0.52829796 0.55100095
0.50267035 -0.063608825 -0.25979322 0.52840495 0.03181824 -0.36973333 -0.45287606 0.5649423
-0.5420949 -0.49203745 -0.07838911 0.5253656 0.2706102 -0.29734033 0.3021067 -0.4424378
0.381065 0.22262813 -0.00976658 0.10961441 -0.27392247 0.16396259 0.06766743 0.51310676
-0.30131814 0.46931264 0.27744055 -0.541624 -0.09580576 0.003430082 0.5082381 0.1338652
0.57602596 -0.013082916 0.17975636 -0.25179243 0.16303541 0.09006581 -0.36847606 -0.16088235
0.5119247 -0.3391173 -0.10273826 -0.32395604 0.47176883 0.5210339 -0.29964563 0.09236466
-0.10133365 0.39913964 -0.32589474 -0.42803133 0.055902123 -0.42528537 0.5345362 -0.40823448
0.17493515 0.22449699 0.5818427 -0.009118947 0.089459114 0.008488495 0.55798686 -0.1077249
-0.31324786 0.4845413 -0.38741288 0.28238338 -0.47897053 -0.12871057 0.24646083 0.13476743
-0.6901193 -0.019526668 0.23128074 0.054203782 -0.07699234 0.4003562 0.061821356 -0.16842596
0.13622439 0.4049151 0.48314175 -0.16709968 0.52685267 -0.4942955 0.53479797 0.021827657
-0.17708309 -0.19625306 -0.12300876 -0.5432571 -0.059441477 0.09984226 0.14656515 0.21247625
-0.0845912 -0.42841983
00000000: b13f e0be be8d 8abe 068c c63e 91f3 d4bd
00000010: 9548 91be 061a d73e c35e 4c3c b507 92bd
00000020: 29be d33c d35f 12bf f8d9 133e f098 14bd
00000030: 1687 d73e 6dd8 dc3e 90f0 4c3e 807a 593c
00000040: ceea 94be a9bd d03d 2337 f03e bd3d c0be
00000050: 7fa5 3ebe 24d3 aebe 5487 95be d356 fd3e
00000060: d2c6 ccbe c83a c4bd 9434 b23e e417 113f
00000070: 0037 af3e 6b1b 0a3f 5543 203d 9eac a8be
00000080: 6e94 a2be 3f4f 83be 917e 04bf 400e 11bd
00000090: 3d71 e83e 39b7 0fbe cc4c 833e 3b33 0bbe
000000a0: 60fc 563e 4e9d 9b3c 2d2c 313e f6c2 8dbe
000000b0: 6bc1 203e 5505 a8bd 619c b13e d510 5abe
000000c0: 5ed7 9bbe 6901 50be 92b5 ac3e 1199 b13c
000000d0: a3ef 6b3e c75d 8c3d 7c96 f23c 6fd6 b83e
000000e0: fe05 2cbd a434 f83c ce15 5a3e a7e9 f23e
000000f0: 7916 0a3e 238e b13e 5e9a 0b3f 6328 9f3e
00000100: 56a6 96be 5c8d c43e 62a4 e03e 6a39 053f
00000110: 5cde 143d 92ec abbe 4889 ec3e 65a4 e23e
00000120: 7786 d9be 3286 763e bf3b babe 6a92 b7be
00000130: ecdc ef3e 84fe b53e 3ea4 323e c6a7 31bf
00000140: 306a 31be 30b8 85be c490 ce3e de47 cfbd
00000150: 3aab 833e f273 0b3f bf6a d73e 1e3e 96bc
00000160: 0d43 dd3e dc8d a43e 46ba 853d ac74 e93e
00000170: eb85 193e 0f0c efbe 8144 0c3f 3d19 7fbe
00000180: ecb8 763d 7c74 a63d 0749 253c 6409 e5be
00000190: fe67 afbe 9918 fd3e b789 873e 72a9 35be
000001a0: ddee 5cbd ab3d 043e cb6a e23e 1cb3 743e
000001b0: 0f0e 943e 9bc7 85be 327b d3bd e027 ba3d
000001c0: d2df ca3e b1cf b8be aa1a e93e 00fd 6abe
000001d0: 17c1 adbe fc8d cebe dee7 b7be 3459 453e
000001e0: f189 903c 2eb7 d6be 695b 153f 9130 053f
000001f0: 275a 07bd b960 883e 8b95 edba 4124 c53e
00000200: 6301 e33d ba9b 06bf f891 e83e 51df 5cbd
00000210: b0d2 c0be e03b 103f 893e 07bf 660e 0d3f
00000220: 01af 003f 5845 82bd 9e03 85be 8c45 073f
00000230: d853 023d b04d bdbe 5fdf e7be 0fa0 103f
00000240: bbc6 0abf 55ec fbbe 788a a0bd 5c7e 063f
00000250: 6c8d 8a3e fe3c 98be bbad 9a3e 3587 e2be
00000260: f41a c33e a1f8 633e 0104 20bc 857d e03d
00000270: 913f 8cbe cfe5 273e 3995 8a3d f75a 033f
00000280: 5f46 9abe bf49 f03e b00c 8e3e dfa7 0abf
00000290: cf35 c4bd 3acb 603b e41b 023f f613 093e
000002a0: 7076 133f ba59 56bc 0d12 383e f0ea 80be
000002b0: c1f2 263e 6c74 b83d e5a8 bcbe 58be 24be
000002c0: 7f0d 033f c8a0 adbe 7068 d2bd 91dd a5be
000002d0: af8b f13e 7a62 053f 276b 99be af29 bd3d
000002e0: 0488 cfbd 085c cc3e addb a6be ec26 dbbe
000002f0: a0f9 643d 01bf d9be 5dd7 083f 1c04 d1be
00000300: 3322 333e 8ae2 653e a5f3 143f a367 15bc
00000310: 5736 b73d 5413 0b3c 3ad8 0e3f df9e dcbd
00000320: 0662 a0be cc15 f83e fb5a c6be 8e94 903e
00000330: a03b f5be b4cc 03be 3a60 7c3e 7900 0a3e
00000340: a9ab 30bf 64f6 9fbc dcd4 6c3e c904 5e3d
00000350: 29ae 9dbd 7dfb cc3e 6438 7d3d db77 2cbe
00000360: 687e 0b3e 0851 cf3e 5b5e f73e 2e1c 2bbe
00000370: d1df 063f 4d14 fdbe 85e8 083f eacf b23c
00000380: 4555 35be 90f6 48be 04ec fbbd e612 0bbf
00000390: e878 73bd 197a cc3d 2d15 163e 6093 593e
000003a0: 273e adbd d859 dbbe

layers.0.bias f4 [78]
0.36478022 0.4283532 0.32052287 -0.2665314 0.48153326 0.28681666 -0.21264943 -0.35493678
0.51851064 -0.019449102 0.2370105 -0.20400661 0.30654898 -0.0055767694 -0.12347373 0.00317425
0.00912685 0.20951869 -0.22293034 -0.521677 -0.08776701 0.39642403 -0.14284515 -0.44026634
0.41161352 0.22507656 -0.31262428 0.110056326 0.1269089 0.2540648 -0.48134384 -0.031435926
0.19353612 0.35894588 -0.26208153 0.41532758 0.42347723 0.17707671 -0.23832352 -0.16688582
0.026099844 0.17267208 0.41323832 0.12300933 -0.16289747 -0.3646404 0.28822646 -0.41711375
-0.38318866 0.20083858 0.5285097 -0.28176838 -0.35171577 -0.50809467 0.54349375 -0.32872108
0.09183846 -0.42866805 0.022920895 -0.086956084 0.30921787 -0.07821249 -0.13911542 0.05400636
-0.5341869 0.48121467 -0.08783443 0.44047713 0.44979063 0.095904216 0.0480077 0.017844766
0.34827146 0.07308856 -0.4934728 -0.18258563 -0.35452667 0.24892266
00000000: 79c4 ba3e 1c51 db3e 931b a43e ce76 88be
00000010: 878b f63e a2d9 923e c6c0 59be 46ba b5be
00000020: 1dbd 043f b953 9fbc e1b2 723e 1ce7 50be
00000030: fdf3 9c3e 55bd b6bb ccdf fcbd 1407 503b
00000040: c988 153c 118c 563e da47 64be a08c 05bf
00000050: 31bf b3bd 17f8 ca3e 0046 12be 976a e1be
00000060: 02bf d23e 787a 663e 4a10 a0be 3665 e13d
00000070: 68f4 013e c814 823e b372 f6be f5c2 00bd
00000080: 552e 463e c1c7 b73e 8d2f 86be d1a5 d43e
00000090: 02d2 d83e 9953 353e 150b 74be 1ee4 2abe
000000a0: 57cf d53c f3d0 303e f993 d33e 51ec fb3d
000000b0: 98ce 26be 26b2 babe 6b92 933e ef8f d5be
000000c0: 4e31 c4be a1a8 4d3e 694c 073f f243 90be
000000d0: 1714 b4be 7e12 02bf 6822 0b3f 214e a8be
000000e0: cd15 bc3d 617a dbbe 9ac4 bb3c 0816 b2bd
000000f0: ce51 9e3e df2d a0bd 4674 0ebe c635 5d3d
00000100: 79c0 08bf c561 f63e 8ae2 b3bd 3886 e13e
00000110: f54a e63e 6e69 c43d b9a3 443d 302f 923c
00000120: a350 b23e 74af 953d 78a8 fcbe baf7 3abe
00000130: 8584 b5be 95e5 7e3e

layers.1.weight f4 [193, 78]
0.045419946 0.071888566 -0.016774768 0.049586453 0.058066238 0.007953505 -0.07438325 -0.06912572
0.108750425 -0.050710104 -0.05405298 2.7954578e-05 0.09478664 -0.085061796 0.06676548 0.058167554
-0.08828799 0.0037139053 0.0911069 -0.07487604 0.09456062 0.114632204 -0.007212525 0.040070232
0.05311828 0.09679831 -0.06336738 -0.08826562 0.040663347 0.06210061 -0.08177195 -0.02362089
-0.08503566 0.055572424 -0.011195425 -0.028935373 -0.1290571 0.031632166 0.09784588 -0.063044
-0.015909791 -0.061383124 0.080619 -0.08360533 0.0808517 -0.021721678 0.10349351 0.103326194
-0.028397202 -0.07178071 0.06074292 0.05265603 0.08875108 0.06301204 -0.043346096 -0.009007581
-0.08455756 -0.11151106 0.1047328 0.06359852 -0.02514536 0.01229342 0.012464263 -0.0045239027
-0.082135595 -0.018178692 0.020734068 0.0767492 -0.081952825 0.08647754 -0.0053016236 -0.06281414
-0.0450258 0.023530968 -0.08515074 -0.0725451 -0.056464203 0.07515924 -0.052969128 0.03317903
0.029918425 -0.039359972 0.04500337 0.09990691 0.091454364 0.03711119 -0.09781579 0.10985179
0.0043404857 -0.071355686 -0.07968409 0.0776535 0.017021276 0.05381711 0.0854147 0.07713537
0.009226074 -0.08189399 0.057405032 -0.08664892 -0.048769996 -0.0023782123 0.15493672 -0.06161597
0.031984624 0.07721244 -0.092343874 -0.049084216 -0.089597456 0.14713886 0.03973696 0.09503413
-0.073435694 0.1178019 0.04596516 0.033818446 0.063282095 0.041149266 0.044234864 -0.004815937
0.114108145 0.12920015 -0.071278036 0.06739688 0.088587835 0.10626969 -0.0034590364 0.04632679
0.07749566 -0.027089486 0.10890921 -0.08749743 0.0803998 -0.07892975 -0.019371517 -0.08645856
0.05095683 0.09895008 0.05389552 -0.10087181 -0.057034228 -0.056547787 0.023894703 -0.061938785
0.10890736 -0.073456556 0.109509334 0.11911483 0.052550435 0.058748208 -0.0055480916 0.027421216
-0.0016938826 0.007425137 -0.009132669 0.108098805 -0.050444935 0.08879771 0.10249842 -0.05384594
0.055416655 0.019324662 -0.0073344074 0.026766285 -0.047545616 0.054087505 -0.006800394 0.03462004
0.10290041 0.012359441 -0.020246912 -0.106011696 -0.048696455 0.05917375 -0.02426912 -0.018694384
0.009496521 -0.0707961 -0.032263 -0.028723652 0.073688075 -0.10196181 -0.020324614 0.030006409
-0.09010465 0.08087525 -0.010826033 -0.08525755 -0.08156737 -0.055060923 -0.09448356 -0.029159008
-0.04788873 -0.013852879 -0.03406261 0.0013282374 0.09707289 -0.064314544 0.026833182 -0.11567032
0.0518293 0.08879438 0.081452854 0.01480384 -0.07712587 -0.10960492 -0.029242126 0.076470934
-0.1144746 0.12256177 -0.022913199 0.10155471 0.04169199 -0.033063293 -0.046565585 -0.093619995
0.05239814 -0.031718895 0.007446207 0.045175757 -0.073045716 0.06766409 0.07971014 0.058330555
-0.012514177 -0.06286553 0.03136345 0.04619499 0.025283795 -0.041089263 -0.030632883 -0.10343511
-0.03936607 0.052400712 0.1387176 -0.007471393 -0.028195364 0.0494053 0.076343946 0.08359414
0.055360317 0.08020088 -0.04766885 -0.03509104 0.0003204739 -0.03601797 -0.104217656 0.06557223
-0.06563657 -0.06197401 -0.06606662 0.083517164 -0.014551558 0.03075454 0.005558196 -0.05791712
00000000: 440a 3a3d 503a 933d 3d6b 89bc 2a1b 4b3d
00000010: ddd6 6d3d 6b4f 023c 3f56 98bd c991 8dbd
00000020: 8bb8 de3d 66b5 4fbd a866 5dbd 0080 ea37
00000030: 7f1f c23d e134 aebd 57bc 883d 1a41 6e3d
00000040: 55d0 b4bd fe64 733b 4196 ba3d 9c58 99bd
00000050: 00a9 c13d 4ac4 ea3d 0b57 ecbb af20 243d
00000060: 8e92 593d 313e c63d c2c6 81bd 9bc4 b4bd
00000070: 9c8e 263d 365d 7e3d 0d78 a7bd 9980 c1bc
00000080: 2d27 aebd e99f 633d 046d 37bc e009 edbc
00000090: 8b27 04be bb90 013d 6c63 c83d 361d 81bd
000000a0: 4055 82bc df6c 7bbd 931b a53d 4539 abbd
000000b0: 9395 a53d a9f1 b1bc 68f4 d33d af9c d33d
000000c0: 40a1 e8bc c401 93bd 91cd 783d d9ad 573d
000000d0: 20c3 b53d 750c 813d ad8b 31bd 8894 13bc
000000e0: 842c adbd e95f e4bd 267e d63d f13f 823d
000000f0: a4fd cdbc 576a 493c e836 4c3c 3f3d 94bb
00000100: b536 a8bd 7beb 94bc 7eda a93c af2e 9d3d
00000110: e2d6 a7bd 231b b13d 3eb9 adbb b3a4 80bd
00000120: f96c 38bd 04c4 c03c 8363 aebd 8692 94bd
00000130: 0247 67bd 16ed 993d 28f6 58bd bce6 073d
00000140: 7c17 f53c ec37 21bd 7455 383d fe9b cc3d
00000150: 6d4c bb3d e701 183d a553 c8bd faf9 e03d
00000160: a23a 8e3b ee22 92bd 6a31 a3bd cc08 9f3d
00000170: 3470 8b3c 546f 5c3d e7ed ae3d 26f9 9d3d
00000180: f628 173c 09b8 a7bd 8a21 6b3d fd74 b1bd
00000190: 0cc3 47bd c8db 1bbb bba7 1e3e 0761 7cbd
000001a0: 4f02 033d 8e21 9e3d c91e bdbd 880c 49bd
000001b0: df7e b7bd 92ab 163e 39c3 223d 41a1 c23d
000001c0: 7465 96bd 1f42 f13d f745 3c3d 3685 0a3d
000001d0: 0b9a 813d 228c 283d 9e2f 353d 02cf 9dbb
000001e0: 88b1 e93d 0b4d 043e 38fa 91bd 6007 8a3d
000001f0: 8a6d b53d eca3 d93d 00b1 62bb 29c1 3d3d
00000200: 0bb6 9e3d c5ea ddbc cb0b df3d da31 b3bd
00000210: a6a8 a43d eca5 a1bd 04b1 9ebc 2f11 b1bd
00000220: 1cb8 503d 57a6 ca3d 8cc1 5c3d e195 cebd
00000230: b99c 69bd a79e 67bd d3be c33c 86b3 7dbd
00000240: d20a df3d 6470 96bd 6e46 e03d 7af2 f33d
00000250: 203f 573d f6a1 703d c4cc b5bb 75a2 e03c
00000260: 4505 deba 904e f33b 31a1 15bc e862 dd3d
00000270: 599f 4ebd 93db b53d b1ea d13d 8f8d 5cbd
00000280: 93fc 623d c14e 9e3c 7855 f0bb f844 db3c
00000290: 31bf 42bd dc8a 5d3d d7d5 debb becd 0d3d
000002a0: 73bd d23d 417f 4a3c dadc a5bc a91c d9bd
000002b0: ef75 47bd 2d60 723d 09d0 c6bc f724 99bc
000002c0: 4c97 1b3c 8cfd 90bd 3526 04bd dd4d ebbc
000002d0: c6e9 963d 5ad1 d0bd ce7f a6bc 00d0 f53c
000002e0: c988 b8bd eca1 a53d ac5f 31bc 839b aebd
000002f0: cb0c a7bd 9087 61bd 9980 c1bd dfde eebc
00000300: f926 44bd 30f7 62bc 3c85 0bbd 4018 ae3a
00000310: 27ce c63d 58b7 83bd 43d1 db3c 90e4 ecbd
00000320: f64a 543d d4d9 b53d c1d0 a63d ce8b 723c
00000330: 2bf4 9dbd 8b78 e0bd 2f8d efbc cb9c 9c3d
00000340: a971 eabd aa01 fb3d 76b4 bbbc eafb cf3d
00000350: 38c5 2a3d 606d 07bd 8ebb 3ebd d7bb bfbd
00000360: 6f9f 563d aceb 01bd 50ff f33b 370a 393d
00000370: fe98 95bd 7893 8a3d 123f a33d 05ec 6e3d
00000380: 4308 4dbc a5bf 80bd f676 003d f536 3d3d
00000390: f61f cf3c 374d 28bd d0f1 fabc c9d5 d3bd
000003a0: 513e 21bd 21a2 563d fd0b 0e3e 96d2 f4bb
000003b0: f7f9 e6bc 365d 4a3d 375a 9c3d 6833 ab3d
000003c0: 80c1 623d 5c40 a43d 6940 43bd 9fbb 0fbd
000003d0: 4705 a839 9487 13bd 1170 d5bd bc4a 863d
000003e0: 776c 86bd 76d8 7dbd f04d 87bd 0c0b ab3d
000003f0: a869 6ebc f2f0 fb3c 8721 b63b 813a 6dbd

layers.1.bias f4 [193]
-0.08089074 0.057538625 0.07180801 0.057581924 0.10717659 -0.11184756 -0.08468305 -0.066287935
0.082822196 0.12235136 0.0744452 -0.16160911 0.019833144 -0.086420394 0.082217954 0.06866121
0.105907656 -0.0052156853 0.13480662 -0.039565686 0.08927086 -0.05887055 -0.01934256 -0.089776255
0.031015411 -0.019387428 0.021703247 0.08808019 0.08745173 -0.08075061 0.073738314 0.094251744
-0.02058306 -0.08478649 -0.019524463 -0.031009814 0.030276174 -0.06196624 -0.068487465 0.078863725
-0.069703564 -0.09295872 -0.020474952 -0.10007483 -0.034741938 0.041193727 0.027615227 0.031324364
0.09700856 0.029284494 0.063970566 0.07177786 -0.09585865 0.059164185 0.10839272 -0.05478196
0.12424322 0.012482323 -0.052860856 0.088525996 -0.0018818395 -0.12917407 -0.037638344 -0.060781594
-0.0078616105 -0.030251931 -0.066365615 0.018001975 0.059769046 0.0094509395 0.086522795 -0.017701719
-0.09538806 -0.09644888 -0.073564894 0.057958428 0.06860519 -0.03701929 -0.040557604 0.04949426
0.06635746 -0.013206518 -0.0836851 -0.10796408 -0.111887924 0.031450775 -0.05042432 -0.053418208
-0.018970022 -0.0678258 0.03028327 -0.11580865 0.048546784 -0.07260051 -0.07547211 0.04873396
-0.051949203 -0.016750291 -0.044942617 0.03207835 -0.028097898 -0.06135747 0.09646665 -0.05183198
0.05218702 0.096664675 0.08130571 0.03814232 0.013161458 -0.038322948 -0.01224431 0.042405304
0.017843405 0.038936753 0.023977263 0.13885099 0.11806389 0.08466493 -0.00035459732 0.033323884
0.066827305 -0.0042961384 -0.12897654 0.013488463 0.10125658 0.07144654 0.06696658 -0.07109611
-0.065772474 -0.019251758 -0.00881498 -0.020373251 0.037281863 0.014392801 -0.07362166 0.06280401
-0.06206006 0.041475523 0.02535872 0.017725999 -0.074062504 0.0046063247 0.08036129 -0.02987757
0.008561373 -0.043443426 -0.033667598 0.10964268 -0.023531325 -0.015785983 0.15443563 -0.11064451
0.008003552 -0.07654193 -0.04860312 -0.030087836 0.078661844 0.0468187 0.043602727 0.057634063
0.037391048 -0.03665369 -0.061341286 -0.09535136 0.07731538 0.10119326 -0.08726905 -0.07182679
0.09021721 -0.1045724 0.01643286 -0.111695096 -0.06930071 -0.055611614 0.07067223 -0.039851494
-0.025514165 -0.037129734 -0.04240011 -0.06479595 0.06328162 0.014902867 0.061951086 0.0882738
0.07409653 0.037586126 0.02242146 0.032622896 0.0952219 -0.04423733 0.047890875 -0.024653886
-0.11654545
00000000: 0baa a5bd 9fad 6b3d 1410 933d 06db 6b3d
00000010: 667f db3d 5510 e5bd 4f6e adbd f8c1 87bd
00000020: af9e a93d 5a93 fa3d ba76 983d dc7c 25be
00000030: 1e79 a23c 2dfd b0bd e361 a83d 409e 8c3d
00000040: 1de6 d83d 57e8 aabb bf0a 0a3e a10f 22bd
00000050: a4d3 b63d 3f22 71bd 4a74 9ebc 9ddc b7bd
00000060: 0814 fe3c 62d2 9ebc 02cb b13c 6363 b43d
00000070: e519 b33d 9360 a5bd 1d04 973d 0f07 c13d
00000080: ce9d a8bc 8aa4 adbd c4f1 9fbc 4b08 febc
00000090: bd05 f83c 50d0 7dbd 2843 8cbd 4e83 a13d
000000a0: bec0 8ebd 2461 bebd 16bb a7bc 08f4 ccbd
000000b0: 904d 0ebd c1ba 283d 5439 e23c fa4d 003d
000000c0: 6dac c63d 09e6 ef3c 0003 833d 4500 933d
000000d0: 8a51 c4bd 2556 723d 01fd dd3d 0c63 60bd
000000e0: 3b73 fe3d a882 4c3c a084 58bd 1e4d b53d
000000f0: 0ea8 f6ba 3546 04be aa2a 1abd 1ff6 78bd
00000100: fccd 00bc e6d2 f7bc b2ea 87bd e178 933c
00000110: 63d0 743d 1dd8 1a3c dd32 b13d 3203 91bc
00000120: d15a c3bd fe86 c5bd 31a9 96bd d165 6d3d
00000130: e180 8c3d 8aa1 17bd bb1f 26bd 7eba 4a3d
00000140: 6ce6 873d 2760 58bc 1863 abbd 461c ddbd
00000150: 7f25 e5bd 87d2 003d bb89 4ebd 0dcd 5abd
00000160: 0567 9bbc 41e8 8abd 9f14 f83c 162d edbd
00000170: fed8 463d 94af 94bd 1f91 9abd 439d 473d
00000180: b0c8 54bd e837 89bc c015 38bd 9764 033d
00000190: 902d e6bc f851 7bbd 4f90 c53d c54d 54bd
000001a0: 0fc2 553d 21f8 c53d 9c83 a63d 1f3b 1c3d
000001b0: 28a3 573c 86f8 1cbd 5c9c 48bc 2fb1 2d3d
000001c0: 552c 923c 257c 1f3d f76b c43c f42e 0e3e
000001d0: 7bcb f13d cf64 ad3d 3fe9 b9b9 a07e 083d
000001e0: c1dc 883d 9fc6 8cbb 6d12 04be b7fe 5c3c
000001f0: 9c5f cf3d 9052 923d c625 893d d69a 91bd
00000200: b8b3 86bd ddb5 9dbc b56c 10bc cee5 a6bc
00000210: deb4 183d c8cf 6b3c f4c6 96bd 649f 803d
00000220: b132 7ebd 3de2 293d 17bd cf3c 1d36 913c
00000230: 15ae 97bd a7f0 963b 7694 a43d cec1 f4bc
00000240: 0045 0c3c bcf1 31bd 09e7 09bd 578c e03d
00000250: c4c4 c0bc 9b51 81bc 6024 1e3e 9799 e2bd
00000260: 5521 033c 04c2 9cbd 1114 47bd c47a f6bc
00000270: 7619 a13d f7c4 3f3d c698 323d b211 6c3d
00000280: 5b27 193d 2e22 16bd 0041 7bbd 9347 c3bd
00000290: 8757 9e3d 693e cf3d 1eba b2bd ed19 93bd
000002a0: cdc3 b83d 0e2a d6bd 359e 863c 66c0 e4bd
000002b0: 88ed 8dbd 01c9 63bd 9abc 903d 523b 23bd
000002c0: 1503 d1bc 5915 18bd bdab 2dbd bdb3 84bd
000002d0: cb99 813d 282b 743c 6cc0 7d3d e5c8 b43d
000002e0: ecbf 973d e9f3 193d 36ad b73c 969f 053d
000002f0: b303 c33d 3432 35bd 3929 443d f2f6 c9bc
00000300: 62af eebd

layers.2.weight f4 [99, 193]
-0.0017689447 -0.026562769 -0.03638918 0.06598023 0.022951491 -0.019393038 0.0048339204 -0.03598272
-0.060284305 0.02676472 -0.0017033155 -0.07088237 -0.046442594 -0.03574212 0.021959368 -0.037346568
-0.026206154 -0.025772829 0.0315012 -0.011307956 0.063528456 -0.026888307 0.05843344 0.021384636
0.010433163 -0.07500467 -0.05247157 0.050766256 0.048473053 -0.023734588 -0.0061780214 -0.043084487
-0.009411601 -0.05560342 -0.0133280605 0.050361104 -0.003916248 0.051880922 -0.002228192 -0.018971121
-0.008192324 0.05801122 -0.04172024 -0.06813466 0.015398779 -0.0725858 -0.0141285695 0.013483866
-0.04284821 0.050072115 0.05633922 0.0662408 0.052100286 0.0632729 -0.055646095 0.053149324
-0.05226966 0.043530937 0.021877728 -0.020941595 -0.061789107 -0.06955014 -0.018031657 -0.038288247
0.03590933 -0.003154737 0.04250244 0.061961006 0.061538577 0.009298285 -0.040275164 -0.0074069607
-0.0673531 -0.019542292 -0.031745106 -0.011142365 -0.018637106 -0.017262433 0.040830236 0.013866958
-0.0071722246 -0.020973723 -0.02940857 0.03726925 0.024384782 -0.01595347 -0.027781378 -0.037452064
-0.016356407 0.035942275 0.031973965 -0.03605506 0.0016774874 -0.06951012 0.040855847 -0.059895806
-0.02182706 -0.032708943 0.021862164 0.02586168 0.04271333 0.0427878 0.062353943 0.02549142
-0.034485005 0.036572658 -0.06503835 -0.07593822 0.023005739 0.06337928 0.041213695 -0.027715528
0.0111718215 0.0056082294 -0.012418815 -0.026774393 -0.054895394 -0.025719848 -0.07473828 0.0054660924
0.064224064 -0.045078527 0.008949815 -0.037142534 0.0035802051 -0.01539154 0.007540965 -0.0037997898
0.047852725 0.06496086 0.038430102 -0.07579726 -0.022052027 0.035991818 0.06989431 0.034254238
0.006974317 -0.05059393 0.04443185 0.05080316 0.047276244 -0.05779684 0.01600751 -0.075075865
0.016825974 0.025643384 0.059888016 0.0017386153 -0.05123812 -0.03205547 -0.040622454 -0.03272725
0.04178095 -0.06900166 -0.0032236334 0.06985573 0.025584402 -0.051036905 -0.07693376 0.042983647
-0.07559044 0.040528677 0.03867519 0.009471246 0.035217952 -0.015581554 0.027440503 0.03758069
-0.061307345 -0.00014492124 -0.04803862 0.05360899 0.019647665 -0.049011983 0.01590812 -0.055513646
0.05825571 0.026853327 -0.00738905 0.054627918 0.0355933 -0.045662843 0.0037617 0.056628026
0.0030507988 0.022126883 0.049437102 -0.06728852 0.03587434 -0.06406669 -0.036194485 0.018059826
-0.040810164 0.001948376 -0.030299323 0.06816361 -0.019069102 -0.0457021 -0.027003616 -0.009919494
0.0010389797 0.0023306147 0.07083937 0.0056097806 -0.10179344 0.049547937 -0.018318918 -0.021048205
-0.03456986 0.0553103 0.037809886 -0.027548024 0.0322843 -0.06922193 0.09341222 -0.053904545
-0.030707346 0.026200693 -0.032499373 -0.06988099 -0.021229388 0.0037704706 -0.031629086 0.02400206
0.031804338 -0.07113958 -0.045185335 0.024859704 0.010743896 0.04938799 0.0691877 0.065134384
0.00023219585 -0.051563293 0.042532317 -0.049928572 0.059060864 -0.058576334 -0.07057986 0.0067658424
0.033125132 0.061568078 -0.036977284 -0.045643114 0.033828992 -0.06339468 0.04795658 0.026861282
0.06709747 -0.029658487 0.035024833 0.049070876 0.009941097 -0.031442836 -0.06937581 -0.007841885
00000000: efdb e7ba 2a9a d9bc d20c 15bd a520 873d
00000010: c404 bc3c 26de 9ebc dd65 9e3b 9e62 13bd
00000020: adec 76bd b041 db3c c941 dfba c72a 91bd
00000030: 973a 3ebd 5466 12bd 22e4 b33c b7f8 18bd
00000040: 4aae d6bc 8a21 d3bc 6707 013d 0145 39bc
00000050: 351b 823d de44 dcbc e757 6f3d d52e af3c
00000060: dbef 2a3c 0c9c 99bd 6eec 56bd 47f0 4f3d
00000070: ae8b 463d 0a6f c2bc 0071 cabb 5c79 30bd
00000080: 1e33 1abc 69c0 63bd f05d 5abc 7247 4e3d
00000090: df53 80bb 1781 543d dc06 12bb 5369 9bbc
000000a0: 1939 06bc 2c9d 6d3d d8e2 2abd 2f8a 8bbd
000000b0: 294b 7c3c dda7 94bd 847b 67bc 6feb 5c3c
000000c0: 9b81 2fbd 6b18 4d3d f4c3 663d 42a9 873d
000000d0: 1c67 553d 3995 813d 29ed 63bd 1bb3 593d
000000e0: b618 56bd 7f4d 323d ec38 b33c b58d abbc
000000f0: 9316 7dbd 4e70 8ebd 20b7 93bc 23d4 1cbd
00000100: a915 133d b4bf 4ebb 0a17 2e3d d3ca 7d3d
00000110: e00f 7c3d d557 183c 92f7 24bd 17b6 f2bb
00000120: 6cf0 89bd 2817 a0bc 2807 02bd 778e 36bc
00000130: d8ac 98bc f269 8dbc 9b3d 273d 3d32 633c
00000140: fb04 ebbb 16d1 abbc 3eea f0bc a4a7 183d
00000150: 98c2 c73c dab0 82bc c695 e3bc 5667 19bd
00000160: dffd 85bc 3538 133d 22f7 023d 78ae 13bd
00000170: 23df db3a 525b 8ebd 7658 273d 4e55 75bd
00000180: aace b2bc d0f9 05bd 4818 b33c e0db d33c
00000190: 2cf4 2e3d 4342 2f3d d966 7f3d 62d3 d03c
000001a0: 2640 0dbd 36cd 153d d432 85bd 7f85 9bbd
000001b0: 8876 bc3c ffcc 813d b1cf 283d ad0b e3bc
000001c0: 040a 373c 3dc5 b73b 4978 4bbc f955 dbbc
000001d0: fed9 60bd 6eb2 d2bc 6210 99bd e81c b33b
000001e0: e887 833d 43a4 38bd 3fa2 123c c522 18bd
000001f0: e0a1 6a3b cc2c 7cbc 331a f73b e505 79bb
00000200: 3801 443d 330a 853d e268 1d3d 983b 9bbd
00000210: 74a6 b4bc 286c 133d bf24 8f3d 2c4e 0c3d
00000220: d088 e43b 953b 4fbd 2cfe 353d f916 503d
00000230: bca4 413d 61bc 6cbd 2e22 833c 60c1 99bd
00000240: a0d6 893c 1312 d23c 234d 753d 40e2 e33a
00000250: 10df 51bd 994c 03bd bb63 26bd 020d 06bd
00000260: 8022 2b3d be50 8dbd 9843 53bb 8510 8f3d
00000270: 6196 d13c 130c 51bd 728f 9dbd 9f0f 303d
00000280: 29cf 9abd 6601 263d e069 1e3d 492d 1b3c
00000290: b340 103d c649 7fbc e8ca e03c 36ee 193d
000002a0: 691d 7bbd 00f6 17b9 25c4 44bd 1a95 5b3d
000002b0: 24f4 a03c cac0 48bd bf51 823c 4762 63bd
000002c0: 8a9d 6e3d 82fb db3c d81f f2bb 86c1 5f3d
000002d0: 48ca 113d f608 3bbd da86 763b caf2 673d
000002e0: e9ef 473b 7043 b53c 8f7e 4a3d 90ce 89bd
000002f0: f9f0 123d 6635 83bd ab40 14bd 33f2 933c
00000300: 8f28 27bd a660 ff3a 4936 f8bc 5d99 8b3d
00000310: ce36 9cbc 2032 3bbd b036 ddbc 6085 22bc
00000320: 602e 883a 3abd 183b 3b14 913d 40d2 b73b
00000330: 1479 d0bd c7f2 4a3d 8e11 96bc 496d acbc
00000340: 2099 0dbd 0e8d 623d 8ade 1a3d 65ac e1bc
00000350: 8b3c 043d 3ac4 8dbd e84e bf3d 03cb 5cbd
00000360: f98d fbbc d6a2 d63c 101e 05bd c41d 8fbd
00000370: 41e9 adbc 001a 773b 808d 01bd f89f c43c
00000380: 4445 023d a1b1 91bd 4214 39bd 94a6 cb3c
00000390: 2a07 303c 104b 4a3d 48b2 8d3d 2d65 853d
000003a0: 9979 7339 0834 53bd 5e36 2e3d e781 4cbd
000003b0: cee9 713d bded 6fbd 2c8c 90bd 00b4 dd3b
000003c0: 38ae 073d cf2e 7c3d 7e75 17bd 46f4 3abd
000003d0: 4590 0a3d 12d5 81bd 1e6e 443d 310c dc3c
000003e0: 666a 893d 5bf6 f2bc 3376 0f3d 8bfe 483d
000003f0: fcdf 223c 34ca 00bd e814 8ebd 407b 00bc

layers.2.bias f4 [99]
0.038677845 0.026055938 0.07009894 0.07746627 -0.025831137 -0.0058680316 -0.05861044 -0.057534758
0.06718695 0.033417802 0.074418224 0.03799267 0.03141927 0.044519138 -0.06810742 -0.054511532
-0.076051205 0.036767144 -0.0075383545 0.051407985 -0.028252939 0.041657392 0.005749141 -0.058765307
0.060176723 -0.0035796454 0.005673642 0.03347001 -0.039729137 0.05868174 -0.06271425 0.005225273
-0.012468304 -0.015152528 0.0062201633 -0.06527716 -0.069178805 0.028440421 -0.03759163 0.07668215
0.0006277277 0.036539424 -0.05130414 0.034497857 0.06375513 -0.031878673 0.06959704 0.026683988
-0.022691473 -0.041070566 -0.03357451 0.04877406 0.067969896 -0.056654293 0.011199516 0.04107816
-0.028598256 -0.020246988 0.03264754 0.044790246 0.012264426 -0.011347112 0.06411714 -0.008680358
0.053375717 -0.050773516 0.04521108 -0.069569156 0.064636044 -0.076573595 -0.017015431 0.01894261
-0.06470903 0.023890883 -0.040973045 -0.015652047 0.055364814 -0.05624619 0.007111524 -0.054358933
-0.038044352 0.007853667 0.04309327 -0.0515409 -0.06673019 0.024041899 -0.050259795 0.071066186
0.01379406 -0.023620505 -0.06323821 -0.002931159 -0.07347782 -0.041363172 0.023234269 -0.065928616
-0.046965513 -0.007480205 -0.07505638
00000000: a96c 1e3d 4373 d53c 0890 8f3d a3a6 9e3d
00000010: d29b d3bc 9e48 c0bb 8011 70bd 91a9 6bbd
00000020: 5099 893d 1be1 083d 9568 983d 349e 1b3d
00000030: 7eb1 003d b359 363d e77b 8bbd 7c47 5fbd
00000040: bcc0 9bbd 2599 163d 4d04 f7bb 2e91 523d
00000050: b572 e7bc f1a0 2a3d 4a63 bc3b e4b3 70bd
00000060: de7b 763d 7c98 6abb f5e9 b93b d917 093d
00000070: 05bb 22bd 445c 703d 5470 80bd c438 ab3b
00000080: db47 4cbc 4f42 78bc 83d2 cb3b 08b0 85bd
00000090: 9ead 8dbd e3fb e83c aef9 19bd 880b 9d3d
000000a0: 188e 243a 5daa 153d 4a24 52bd a04d 0d3d
000000b0: 0d92 823d 3693 02bd e588 8e3d 6198 da3c
000000c0: 78e3 b9bc 9c39 28bd 6d85 09bd 4fc7 473d
000000d0: cd33 8b3d 550e 68bd 2d7e 373c 9341 283d
000000e0: e446 eabc 03dd a5bc 6db9 053d fa75 373d
000000f0: bbf0 483c 3de9 39bc d94f 833d 0f38 0ebc
00000100: 7fa0 5a3d e4f7 4fbd 412f 393d 467a 8ebd
00000110: e75f 843d 9ed2 9cbd f263 8bbc 882d 9b3c
00000120: 2b86 84bd d0b6 c33c 5ad3 27bd b938 80bc
00000130: 37c6 623d 6862 66bd ca07 e93b 79a7 5ebd
00000140: 65d4 1bbd abac 003c 9282 303d 8d1c 53bd
00000150: d6a9 88bd 84f3 c43c 37dd 4dbd 268b 913d
00000160: 7b00 623c ca7f c1bc 0983 81bd b018 40bb
00000170: 8a7b 96bd 6e6c 29bd cb55 be3c 9505 87bd
00000180: e95e 40bd 821c f5bb 29b7 99bd

layers.3.weight f4 [1, 99]
-0.08886338 0.09942601 0.07381282 0.0638934 0.094100185 -0.010390832 0.015522088 -0.026453793
0.0641845 0.06847606 0.056136563 0.088802926 -0.024299825 -0.033795968 -0.031712934 -0.08241462
0.056110226 0.08307277 0.09654757 -0.060080912 0.028059293 0.016783204 -0.09164091 -0.036948226
-0.05036278 0.09403636 0.08150374 -0.08177848 0.08893115 -0.060818747 -0.041271113 0.010092241
0.020108502 0.025873844 0.044893432 0.02262788 -0.06754636 -0.052303832 0.07969972 0.0915348
0.06093958 0.07261859 -0.093625195 -0.0805774 -0.05642033 0.013339605 -0.06788724 -0.06578951
0.055560738 -0.03978275 0.09162435 0.092465304 -0.04945491 -0.049008813 -0.033744402 -0.09386848
0.0046989396 -0.021774089 -0.0146626625 0.0026091854 -0.10934076 0.025010679 -0.08093127 -0.05519595
-0.04590588 -0.063967034 -0.016498338 -0.04167469 0.12204856 -0.08664951 -0.049805343 -0.07190423
-0.0035295442 0.10728621 -0.094511345 -0.07328496 -0.03632431 -0.08872605 0.08349158 0.08684368
-0.07568792 0.08396731 0.04058928 0.070002235 -0.018054102 -0.04757904 0.048168536 0.030313393
-0.10486926 -0.08956091 -0.029296763 0.076418154 -0.0088165505 0.018591674 -0.0338291 -0.05281486
-0.005286408 0.06415673 0.024061553
00000000: 01fe b5bd dd9f cb3d 2d2b 973d 8bda 823d
00000010: 99b7 c03d 4f3e 2abc 5b50 7e3c a0b5 d8bc
00000020: 2a73 833d 2d3d 8c3d 74ef 653d 4fde b53d
00000030: 6d10 c7bc a46d 0abd 6ce5 01bd ffc8 a8bd
00000040: d6d3 653d 0e22 aa3d bbba c53d 6717 76bd
00000050: 9adc e53c ee7c 893c 3bae bbbd 0657 17bd
00000060: 3449 4ebd 2396 c03d 6feb a63d 7a7b a7bd
00000070: 8921 b63d 141d 79bd e60b 29bd ed59 253c
00000080: 96ba a43c 62f5 d33c 2de2 373d 1b5e b93c
00000090: bf55 8abd 8b3c 56bd 9b39 a33d 9976 bb3d
000000a0: c89b 793d 0eb9 943d 91be bfbd c405 a5bd
000000b0: 0119 67bd 5c8e 5a3c 7708 8bbd a7bc 86bd
000000c0: a893 633d 3df3 22bd 8ca5 bb3d 735e bd3d
000000d0: 3b91 4abd 77bd 48bd 9237 0abd 1e3e c0bd
000000e0: 90f9 993b 935f b2bc aa3b 70bc defe 2a3b
000000f0: 0cee dfbd 32e3 cc3c 4bbf a5bd 2615 62bd
00000100: ce07 3cbd 2601 83bd 8627 87bc 14b3 2abd
00000110: 98f4 f93d 4c75 b1bd b000 4cbd 8642 93bd
00000120: ed4f 67bb dfb8 db3d 2a8f c1bd 6d16 96bd
00000130: cdc8 14bd 01b6 b5bd a2fd aa3d 19db b13d
00000140: 4502 9bbd 0ef7 ab3d f240 263d 555d 8f3d
00000150: 32e6 93bc 3de2 42bd 5f4c 453d cb53 f83c
00000160: b2c5 d6bd b66b b7bd c4ff efbc 1f81 9c3d
00000170: 4b73 10bc 914d 983c 6290 0abd 6554 58bd
00000180: 9b39 adbb 9b64 833d bc1c c53c
