python/bsc/bing_1st_autonomous/c2p_net.pt (torch, 57159 bytes, 10 tensors)

weight f4 [64, 5]
00000000: 6816 dc3d e47c 1d3e bedc 9cbe 8013 b03b
00000010: 6c41 94be 3b97 0bbd 20f4 b8be 77b6 f7bc
00000020: 6591 13be 3fc9 b0be 09a7 e3bc 9682 d4bd
00000030: 7fd4 6fbe eac7 a63e e112 613e 7d16 7abd
00000040: 12c8 80be fc41 ecb9 ce97 c7be db5c 933e
00000050: 04d8 ccbd f7c7 babe 8383 60be 504b b23d
00000060: 7c07 79be c89a 14bb 7e20 1b3e 25af 9c3e
00000070: 35da 9c3d b0bf 903e cee4 53bc d4d9 d63e
00000080: 2ee8 f33e 0c2c 0b3e 2665 a93e da5f c4be
00000090: d85d ce3d 78bf f5bd 00f9 d9bb c852 143d
000000a0: 806a ba3e 604d 07bd 4dad 85be 98eb 133e
000000b0: 787e 083e 5893 523e e075 52be f213 dfbe
000000c0: 94b7 19be b1c7 a2be 24be d83d 3dfe 583e
000000d0: dd61 f03e bd63 9a3e f6c3 f53e dbf1 003e
000000e0: a968 343d fb44 0f3d 5324 883e 1012 9abd
000000f0: 52e6 863e b794 7ebe 32b2 91be 6128 9bbe
00000100: a8ae 12be 7092 ca3d 802b e73d 1435 1c3e
00000110: a05d 033c 0aff d4be c4c5 9e3e 2dfc bdbe
00000120: aa12 14be 4286 cb3e 80e2 ecbc d37a c4be
00000130: 155a d7be 7007 603d 5545 debe 1891 e2be
00000140: 2035 993e e5c1 3e3e a6cc c93e a568 db3e
00000150: 33f1 fd3e fe50 2f3e 0336 5abd ff52 5fbe
00000160: cc57 643e b5c6 86bd 7d2e ca3d c102 c4be
00000170: 5bb9 dd3e 4f5a c83e ec6b fc3e 579a af3e
00000180: e5d2 473e 801c d4bd d04e b03e 5e96 b33e
00000190: 137f 8cbd f448 c53e d92e f4bd a321 e03e
000001a0: 7c95 6f3e 20a2 7a3c ccbe 753e d005 adbc
000001b0: c662 bbbe c0dc 87bb 1224 86be 3795 a53e
000001c0: 08c9 e53e 629a 9e3e 66f0 0b3e f5e3 593e
000001d0: 7ced 093d af2a 95be b6f5 52be e310 b5be
000001e0: cb83 a2be b8c3 be3d 8df3 c6be a2fb acbd
000001f0: 4eea 2f3e ef73 70be 9ebf 1abe 607c 0bbd
00000200: 7460 d13e 9a70 9ebe b87c 4d3d c065 bcbc
00000210: d8d7 7f3e 950c b5be 0cfd b63e 717f 9cbe
00000220: 1092 f23c b891 7e3e 3a23 d0be 5d6d bfbe
00000230: 7854 46be c06d be3b 06c9 e23e 9287 7abe
00000240: c62d 84be 44f7 013f 51be 7d3e e033 a13e
00000250: 64b8 9cbe 28af f53e 684f 37be 1647 9ebe
00000260: fc36 093e e998 cdbe c241 d33e 21c9 84be
00000270: 76ef e23e a031 9c3e 16c6 8bbe 739d 973e
00000280: c465 4b3d 5ece b3be 2596 65bd 1465 2fbe
00000290: f7ab 533e 5942 6abd 2e2c fc3b 2b9e ff3e
000002a0: 81fc 06bd 0b49 5dbe 30a3 f23c b083 66bd
000002b0: 147e a03e 1054 02be cac6 b8be 90b2 933c
000002c0: aa5a b0be ac04 663e 75fe b3be 40db be3d
000002d0: 4ed0 e4be debd e5be 0104 77bd 23e7 88be
000002e0: bb34 b03e 1c92 de3e 875c c0be a81f 27be
000002f0: 3049 953c 4405 9dbd 1de6 c3be 27b1 cbbe
00000300: 0ff6 e2be c0ec 93be 261c 7ebe 3ae5 db3e
00000310: 6a11 7cbe c14f 15be e4a9 ecbc 61e5 273e
00000320: 506c ebbc fa05 2fbe 9ada 99be d455 9ebe
00000330: 4897 303e 0ca3 b23e 5096 8dbe c9d0 033d
00000340: 7e71 5cbe 1f74 a33e 9758 9fbe 306e 3fbe
00000350: 6d96 36be c3e1 c8be 6062 4d3e 9040 47bd
00000360: e8a5 c0be 2aa0 c9be 00e1 ddba 9295 c03e
00000370: f445 bc3e 4609 23be 409e d1be 1cda acbd
00000380: e843 4f3e ea47 293d d9b6 a83e 932b 883e
00000390: 6b98 7cbe 0e00 ab3e aa72 65bd 01db 503d
000003a0: 19d8 7ebe 051e 31bd 8238 5e3e a0a0 2b3d
000003b0: d8f0 c3bd ec14 02be a27b 71be d9e4 66be
000003c0: a05f 6d3d e2a5 0d3e 379c c93e 6588 6a3e
000003d0: 13fd e23e f358 fa3d 40e7 fb3e 9830 7e3e
000003e0: 3e03 be3b 0362 0a3e 3f9d 0c3e 956b 673e
000003f0: 80ba e3bd 09ac c73e 9883 f03e 6296 e33e
0.10746461 0.15379673 -0.30637163 0.0053734183 -0.28956163 -0.03407977 -0.36123753 -0.030238373
-0.14410932 -0.3452854 -0.02778961 -0.1037647 -0.23420905 0.32574397 0.21979858 -0.061056603
-0.25152642 -0.0004506259 -0.38983005 0.2878178 -0.10002139 -0.36480686 -0.21925168 0.08705771
-0.24319261 -0.0022675265 0.15149114 0.30602375 0.07658807 0.28271246 -0.012932969 0.41963065
0.47638077 0.13591021 0.33084983 -0.3835438 0.10076493 -0.119994104 -0.0066519976 0.03621176
0.36409378 -0.033032775 -0.2610878 0.1444534 0.13329494 0.2056402 -0.20552778 -0.43569905
-0.15011436 -0.31792977 0.105831414 0.21190734 0.46949664 0.3015422 0.4800107 0.1259226
0.044045124 0.034977894 0.26590213 -0.075229764 0.26347595 -0.24861418 -0.28456265 -0.30304244
-0.14324439 0.09891212 0.11287594 0.15254623 0.008017927 -0.4160083 0.31010258 -0.37106457
-0.14460245 0.39750868 -0.028916597 -0.38374957 -0.42060915 0.054694593 -0.4341227 -0.44251323
0.29923344 0.18628652 0.39413947 0.42853275 0.49598083 0.1712074 -0.053274166 -0.21809004
0.22299117 -0.06580869 0.09872148 -0.3828335 0.43305477 0.391314 0.49301088 0.3429744
0.19514044 -0.103569984 0.3443513 0.3507566 -0.06860175 0.3853222 -0.11922998 0.43775663
0.23396868 0.015297443 0.23998564 -0.021120936 -0.36598796 -0.0041461885 -0.26199394 0.32340404
0.44879937 0.3097716 0.13665923 0.21278365 0.03367375 -0.29134127 -0.20601544 -0.35364446
-0.31741175 0.09314674 -0.3885769 -0.08446433 0.17179224 -0.23481725 -0.15112159 -0.03405416
0.408939 -0.30945283 0.05016777 -0.022997737 0.24984682 -0.35361162 0.35739934 -0.3056598
0.029610664 0.24860275 -0.40651876 -0.37388125 -0.1936816 0.005811423 0.44293994 -0.24465778
-0.25816172 0.5076792 0.24779631 0.3148489 -0.3060943 0.47985196 -0.17901385 -0.3091361
0.13399881 -0.40155724 0.41261107 -0.259347 0.4432332 0.3050661 -0.27299565 0.29612312
0.0496576 -0.35118383 -0.056051392 -0.17128402 0.20671068 -0.05719218 0.0076956963 0.4992536
-0.03295565 -0.21609895 0.02961883 -0.05627793 0.3134619 -0.1272738 -0.36089164 0.018029481
-0.3444417 0.2246272 -0.35155073 0.09319162 -0.44690174 -0.4487142 -0.060306553 -0.26738843
0.3441523 0.43470848 -0.37570593 -0.1632067 0.018223375 -0.0766702 -0.382615 -0.39783594
-0.44328353 -0.28891563 -0.24815425 0.42948323 -0.24616018 -0.14581205 -0.028889604 0.16396095
-0.02873817 -0.17092124 -0.30049592 -0.30924857 0.17245209 0.3489002 -0.27653742 0.032181535
-0.21527669 0.3192453 -0.31122276 -0.18694377 -0.1783082 -0.39234743 0.20057058 -0.048645556
-0.37626576 -0.39380008 -0.0016928017 0.37614113 0.3677212 -0.15921506 -0.40941048 -0.084400386
0.20240748 0.04132835 0.32952002 0.26595744 -0.24667518 0.3339848 -0.056017555 0.05099011
-0.24887122 -0.04324152 0.21701244 0.04190123 -0.09567422 -0.12703294 -0.23582318 -0.22548236
0.057952523 0.1383281 0.39376995 0.22903593 0.44333705 0.12223997 0.49199867 0.24823225
0.0057987263 0.13513951 0.1373186 0.22599633 -0.111195564 0.3899844 0.46975398 0.4445067

bias f4 [64]
00000000: a3be c2be d87c a13e bd53 cf3e b789 bf3e
00000010: c835 d9bd 3bcf b4be 790b 143e 62ef 38be
00000020: e521 84be 8854 333d df1c 143e 4b54 633e
00000030: d604 d3be 00f0 5c39 fc86 01be 0c90 86bd
00000040: a0b8 65be 1bee 76bd 2f67 c7be 3b22 613e
00000050: fa2a f03c e835 e2bd 5045 a93e 2589 9b3e
00000060: 0708 9d3e 2197 afbe b337 acbe a60c 0cbe
00000070: 8c33 59be 2981 b73c 4755 6dbe 87b1 dabc
00000080: 256c b93e 0a4b ce3e ce2b 2bbe 1a14 1abe
00000090: 79c4 953d 28b1 a6bd 6ee9 d83e 02de a33e
000000a0: df62 b5be 9c26 953d 74a4 9f3e ec00 00be
000000b0: e5a5 babe 1f9a e5ba 2859 e03e 76f2 97be
000000c0: 0985 b5bd 0536 9ebe 5032 803e 45dd aabc
000000d0: 8067 b7bd 593f 62be de2f 2e3d 84a5 d0bb
000000e0: e7b3 cd3e 07ff 113e ca2b bb3e 8823 183e
000000f0: f451 f1bd 48f1 a13e 0860 e23d 1875 a2be
-0.3803607 0.3154056 0.40493575 0.37409756 -0.10605961 -0.35314354 0.14457501 -0.18060067
-0.2580711 0.043781787 0.14464138 0.22200124 -0.41214627 0.00021070242 -0.12649149 -0.065704435
-0.2243371 -0.06028567 -0.3894591 0.21985714 0.029317368 -0.11045438 0.33060694 0.3037807
0.30670187 -0.3429499 -0.33636245 -0.136767 -0.2121107 0.022400456 -0.23177062 -0.02669598
0.3621532 0.40291625 -0.16715929 -0.1504673 0.07312865 -0.081392586 0.42365593 0.32005316
-0.35426995 0.07282755 0.31180155 -0.12500352 -0.36454692 -0.0017517245 0.4381802 -0.2967717
-0.08863265 -0.3090059 0.25038385 -0.020857463 -0.08955288 -0.22094478 0.04252612 -0.0063673873
0.40176317 0.14257441 0.36556846 0.14857304 -0.117832094 0.31629395 0.11053473 -0.3172996

weight f4 [64, 64]
00000000: a0ae abbd 3824 bebd aab6 cabd 4a35 90bd
00000010: b8de 5a3d 2059 11bc ace7 51bd 5463 c0bd
00000020: 2024 d03d 3272 9ebd 0053 6bbb 5c68 b9bd
00000030: 14fd 37bd 002d af3b 084d acbc 9209 fcbd
00000040: 28ff c5bd 0070 5a3c f0f3 03bc 5c58 9abd
00000050: a8c8 ea3c 285e 0d3d 7eb2 94bd 227f bc3d
00000060: 20c9 ca3b 481e d0bd c4bc 973d e063 863d
00000070: e83c a5bd 20ef c43d 801d 883c ee01 fcbd
00000080: caed 953d 9803 dfbc b8ad fc3c 80a5 b0bc
00000090: ece7 9dbd e235 803d cc60 d03d 169a ee3d
000000a0: 76ee b5bd 5c2e ed3d 6899 f23c 2406 b83d
000000b0: 52b0 b1bd 18a2 eabc 286c 68bd 2472 febd
000000c0: 3c9b 29bd 0002 32bb 58c8 d3bc 4248 ee3d
000000d0: c03c a63b 7c21 7dbd 72d3 ebbd 2cd2 df3d
000000e0: 60a9 953c 5683 8bbd f87d 9ebd c05c 8ebb
000000f0: 28ef e03c 40fd c23b 08ca 99bc e6a7 dabd
00000100: fac1 e8bd 246a c03d 80e4 f93c f467 eebd
00000110: b2b7 c7bd 1cf7 bd3d debb c4bd 507d d43c
00000120: 507f c1bc 906d 9c3d 8094 d83a f8e1 73bd
00000130: 88fc 38bd 600b c4bb a855 a0bd e07d ef3b
00000140: b061 a6bc e462 9c3d 7ae7 e8bd 36a3 81bd
00000150: fa1c 8d3d 181d f3bc 9829 86bd b0bc d6bc
00000160: 8c43 1d3d 800c 773b a091 9f3c 627d 8dbd
00000170: 82c6 98bd 4257 9bbd 983e 85bd b0ed 8ebd
00000180: 2259 b6bd 707c 1cbd d295 b73d 22e4 993d
00000190: c46c 31bd c407 513d d6e8 e23d 9cdc ad3d
000001a0: 246d 1a3d 6053 693d 60c3 fa3b 9a8c f23d
000001b0: a840 f83d d476 d13d baa9 d7bd 60a3 66bd
000001c0: 5a0d f2bd 6cf0 aabd 2846 1abd 4a90 8fbd
000001d0: 209f c73d b00d 56bc 00f5 3ebd 48f1 773d
000001e0: 7892 a13c 3058 ecbd 9407 a13d 6c82 7d3d
000001f0: b876 3b3d 4818 863c a4db 7b3d 2ceb 483d
00000200: e071 f5bd 5e14 253c ef59 d3ba 522d 51bc
00000210: 2040 f2bb 8689 4dbb a4b8 253e 005f 41bb
00000220: 20af c83d b0b8 9c3d e217 2abd efa7 743d
00000230: b4dd 6bbd 7028 6fbc f613 d5bd 54a7 4abd
00000240: ff43 653d 973b 8abc 2746 123e bdbd 72bc
00000250: 8bda 123e 48f4 dc3d 7f85 033e 1a48 c6bd
00000260: c9ce 783d deba 81bd e638 833d e06f d2bb
00000270: 08c3 bdbd d36d df3d d6c1 e63d 1073 293e
00000280: 7c85 0d3e bea6 8f3d 70bf 3abc 7cd9 18bd
00000290: 512b 083d 3803 1dbd 2083 dabd b41e 44bc
000002a0: 5cfc 62bd 24d9 683d 0aa1 78bd f0f7 d2bd
000002b0: 00ad e93b 2cf3 df3c 8de4 613d 6026 c7bb
000002c0: 3821 d63d 0c4c 1f3e 4e41 ff3d e569 683d
000002d0: 70af 4abc fc5a c9bc f209 f73d e848 27bd
000002e0: cf38 f83d cf81 263e f5e8 0c3e 3489 883d
000002f0: d8ff 903d fa73 6fbd c8e9 6b3d d6ef 90bd
00000300: f005 3dbc c011 fa3d ee4f ba3d 743c bebd
00000310: 3603 913d ec80 e13d 009b 333a 403a fb3b
00000320: a0d0 77bc 2c5a dcbd 9e3b cdbd 8449 103d
00000330: e01e 963c 304a 293c a09e 463c 7868 dfbd
00000340: 0090 e13d 0e89 ef3d 1cc6 97bd b048 4d3c
00000350: 4859 78bd 90c2 b6bd 8435 c5bd c8af f2bd
00000360: 5c09 85bd 6800 28bd ec87 acbd 4e52 b53d
00000370: 900a a43c c838 f83c 5673 a5bd 04ee f0bd
00000380: fcbd 253d cc61 563d cc39 1ebd aa99 a1bd
00000390: 085d 8ebc d457 e73d b409 983d 2e93 e03d
000003a0: 0842 9ebd f85a d6bd 6045 f43d 426c 883d
000003b0: 7c9b b5bd 3616 e9bd 868a de3d 1e4c 86bd
000003c0: 2cfe 2dbd 4a98 af3d 841b 853d 0cd1 d53d
000003d0: e8c0 c4bc f0db c83d 96be e33d 3a5b d8bd
000003e0: 9c7b 4cbd 7ec8 bdbd 5cd0 973d a803 a33d
000003f0: 283d abbd 2e8c f7bd 18d3 bcbd 6c08 31bd
-0.083829165 -0.09284252 -0.09898122 -0.07041414 0.053435057 -0.008871347 -0.05124633 -0.09393945
0.1016314 -0.07736625 -0.0035907626 -0.09053108 -0.04491909 0.0053459406 -0.021032825 -0.12306513
-0.09667808 0.013332367 -0.008053765 -0.075363845 0.028660133 0.034513623 -0.07260607 0.09203936
0.0061885267 -0.10162026 0.07409051 0.065620184 -0.080682576 0.09615922 0.01661563 -0.123050556
0.07320745 -0.027223393 0.030844554 -0.021563292 -0.07710251 0.06260277 0.101747125 0.11650483
-0.088833734 0.11581108 0.029614165 0.08985546 -0.086762086 -0.028641745 -0.05674377 -0.12424114
-0.04140781 -0.0027161837 -0.025852367 0.11634876 0.00507316 -0.06179951 -0.11514939 0.10928759
0.01826924 -0.0681216 -0.077388704 -0.0043445528 0.027457789 0.0059506 -0.018773094 -0.10676555
-0.11365123 0.09395245 0.030504465 -0.11640921 -0.09751834 0.09275648 -0.09606145 0.02593866
-0.023620278 0.07638085 0.0016523749 -0.059541672 -0.045162708 -0.0059828013 -0.07828838 0.0073087066
-0.020310253 0.076360494 -0.11372276 -0.06329958 0.068902925 -0.029676959 -0.06550902 -0.02621302
0.038394496 0.003769666 0.01947862 -0.069086805 -0.07459737 -0.075850025 -0.065060794 -0.06978929
-0.089037195 -0.03820461 0.08964123 0.07514216 -0.043316618 0.051032797 0.11079566 0.084893435
0.03770174 0.05696428 0.007652685 0.11843224 0.12121707 0.10227743 -0.1053042 -0.05630815
-0.11818953 -0.08346638 -0.037664562 -0.07009943 0.097471476 -0.013064787 -0.04662037 0.060532838
0.019723162 -0.11540258 0.078627735 0.061891958 0.045767516 0.016369 0.061488762 0.049052402
-0.119846106 0.010075657 -0.0016124825 -0.012767153 -0.007392898 -0.0031362488 0.16183716 -0.0029506087
0.097990274 0.07652414 -0.041526683 0.059730466 -0.05758448 -0.014597043 -0.10404198 -0.049475983
0.05597305 -0.016874118 0.14284573 -0.014815745 0.1434118 0.107887805 0.12843893 -0.09681721
0.06074408 -0.0633447 0.06407337 -0.006422028 -0.09265715 0.10909619 0.1126744 0.16547799
0.13820451 0.070142254 -0.011398181 -0.037316784 0.033244435 -0.038333148 -0.10669541 -0.011970211
-0.05541645 0.056847706 -0.060700454 -0.103011966 0.007131219 0.027337633 0.055149604 -0.0060775727
0.10455555 0.15556353 0.12463628 0.056741614 -0.012370929 -0.024579518 0.12062444 -0.040841013
0.121202104 0.16260456 0.13760741 0.066667944 0.07080048 -0.058460213 0.057595998 -0.07076995
-0.01153706 0.12210417 0.09097277 -0.09288874 0.070806906 0.11010918 0.0006851405 0.007666856
-0.015125424 -0.107593864 -0.10021137 0.03522636 0.01832527 0.010332629 0.01212278 -0.10908598
0.11013794 0.11696063 -0.07410833 0.012529537 -0.06063202 -0.089238286 -0.09629348 -0.11849934
-0.06495926 -0.041016012 -0.084243625 0.08853589 0.020024568 0.030300513 -0.08078639 -0.11764148
0.040464386 0.05233936 -0.03862934 -0.07890637 -0.017378345 0.11296049 0.07423726 0.10965572
-0.07727438 -0.1046657 0.11927295 0.066612735 -0.08867547 -0.113811895 0.10866265 -0.06557487
-0.042478725 0.08573969 0.06499389 0.10440263 -0.024017766 0.09807575 0.11120336 -0.10564275
-0.04992257 -0.092667565 0.07412788 0.07959682 -0.08361274 -0.12087284 -0.092199504 -0.043220922

bias f4 [64]
00000000: 9881 ea3d ac01 2a3d c2f2 3d3d 6c45 95bd
00000010: 6c25 083d 00db 3cbd a4be c4bc 8d56 113e
00000020: 30a3 2bbc 3011 0dbc 6e78 173e 6eb3 0dbd
00000030: 04e0 863c 3983 c6bc 22ba 153e 64fd 5f3c
00000040: dae4 61bc 1435 fabd 432d c13d e5c3 183e
00000050: 1ba4 d43d a0e3 293c a015 09bd 8046 333c
00000060: 9abf 193e a057 2c3c 70a3 cabd d85f aebd
00000070: 786d cebd 0e74 a9bd 3c68 29bd ff3e 633d
00000080: 745d 463d 0759 023e 68e1 88bd 61a3 d4bd
00000090: b861 4b3d 087b 42bd 18ee 253e 90c0 0e3d
000000a0: d6b1 bf3d 3c43 993d de61 c93d 365d ebbc
000000b0: 04d5 233e aa53 c33d 3300 18bd 78ab babd
000000c0: 8c39 d4bb d456 aebd 3a3b fabd db31 1d3e
000000d0: 0d78 593d 12ce b4bd b3b0 ed3d d966 0e3e
000000e0: 3280 c5bd 7076 513d 4de6 49bd 6420 373d
000000f0: 0d2f 04be 94a6 373d daa8 0dbd 5f3f 683b
0.11450499 0.0415055 0.04637409 -0.07288632 0.033238813 -0.046107292 -0.024016686 0.14193173
-0.010475919 -0.008610055 0.14792034 -0.034594946 0.01646424 -0.024232494 0.14621785 0.013671253
-0.013787473 -0.12217155 0.09432461 0.14918478 0.10382863 0.010369211 -0.03346789 0.0109421015
0.15014496 0.010518938 -0.098944545 -0.085143745 -0.10079473 -0.08274089 -0.04135917 0.05548
0.048428968 0.12729274 -0.06683618 -0.103827246 0.04965374 -0.047480613 0.16204107 0.03485161
0.093600914 0.07483527 0.0983312 -0.02873097 0.15999228 0.09537442 -0.037109565 -0.09114736
-0.0064765867 -0.08512655 -0.12218328 0.1535105 0.053093005 -0.08828367 0.11605968 0.13906421
-0.09643592 0.05113834 -0.049291898 0.044708624 -0.12908573 0.044836596 -0.034584858 0.0035438163

weight f4 [64, 64]
00000000: 82c0 85bd 7ade cfbd 938a a93d ac3d f03d
00000010: 08c5 cebd c0ee 09bb 1d11 63bc b44b f8bc
00000020: b42d 0bbd 3dca a13d b749 363c 1946 05bd
00000030: 9668 dc3d 35b9 2f3e d479 823d febf 82bd
00000040: 4d24 0ebd ccf4 94bd 9966 d53d b64b ba3d
00000050: b42d df3a 809e 44bd d033 ef3c c0f5 113d
00000060: 02a6 a03d b06e d5bc 461f eb3d c4a0 fbbd
00000070: 8089 bfba 48ba ad3c c0c7 343b 281b 8fbd
00000080: 4b51 5a3d 08e7 1d3e eb5a 593d fe88 263c
00000090: fa2b be3d f8a0 103d 6b19 46bc 6af1 97bd
000000a0: 6844 f93c 6c6c 58bd 2d4c d33d 203f 1a3e
000000b0: 6e30 1a3e 8860 29bd 3695 003e d49f 80bd
000000c0: aefe 713d 00e9 563d 40c8 b93c 1e4f d53d
000000d0: a284 593d 40fc fb3b 33fc 2d3e 2c35 1a3d
000000e0: 94e2 493d fa7f 003e 1835 9abc 10e9 d6bc
000000f0: e524 12bd 8821 e4bd 9969 7b3d 1b61 f3bb
00000100: 0c52 963d 9001 bb3d 5ec4 9d3d 286e efbd
00000110: ccf5 263d ae85 9ebd 6cd1 8cbd d09e 89bc
00000120: e2fe efbd 0548 59bd ccaf ec3d d7ca 83bd
00000130: b415 833d d7f1 14bc 3b87 163e 577e 0c3d
00000140: 2b61 d53d 3c62 2d3d 6eea 6b3c 748d 0d3e
00000150: c460 883a 78fc a7bd 941f e93d a0a5 52bc
00000160: 29a7 3bbc 2832 8cbd 9496 1d3d 562b 803d
00000170: dccc 393d a6fb a3bd 3e29 92bd 8fe9 9abc
00000180: 264a 0d3e 032a 55bd 115b afbd 874d babd
00000190: 50a1 c13c 08ad be3d 62d1 d1bc b22b b6bd
000001a0: d45d 94bd b2f9 adbd ceeb 253e fc54 c23c
000001b0: 971d 213e d461 29bd 02c2 ad3d c567 cf3c
000001c0: 6c24 fe3d 341c edbd 7eb1 ca3d 8649 9fbd
000001d0: e42e b43d ae81 ed3d c2fc 263e f379 a0bd
000001e0: 1c95 513d 2f1a 3cbd 4475 bbbb e0ea 6f3c
000001f0: 15d7 c13d 7417 7e3d 0805 fe3d 66f7 103d
00000200: 16e8 fd3d 8a23 86bd 88a3 c3bd 9ee1 b33d
00000210: 5a0f 873d b03c 703c 6809 c0bd 1c3e 363d
00000220: 584f 903d bc6f 9d3d c06a 873d 949b e83d
00000230: bcf7 94bd 40d2 aa3d 2016 98bc c07a 1fbb
00000240: e84e 6ebd c214 a63d a4ff c6bd 44be e73d
00000250: 00c0 023c b827 24bd a07e e03b e048 efbd
00000260: 8871 ab3d 42ef adbd 0286 c43d e4fc 60bd
00000270: 780d 723d 8261 a83d e2aa 92bd d460 84bd
00000280: e856 afbd fcde d73d f85c 65bd aa0d 87bd
00000290: 521b fdbd e6a2 bd3d f832 4ebd 50dc 6abd
000002a0: e8b8 87bd a07a a0bd b6b5 dbbd 48ea 3d3d
000002b0: 906a 51bd c097 383c 78fb c0bd 4c93 f1bd
000002c0: 026b 8f3d 4014 3c3b 26fd a43d c0a8 53bd
000002d0: 62cb c0bd 3410 5abd 8028 f3ba 603d 853c
000002e0: c063 083b 0488 103d 2aef b43d b409 b0bd
000002f0: c0ad a8bb a411 2a3d e4ac babd 8a5c c03d
00000300: c0cc 24bb 0c6e d8bd 4063 c43b 80a8 803b
00000310: 4ef7 873d 7012 383d 53ac 6abd ddd9 10bd
00000320: 386c fb3d a1fd f63c 1c2e 303c d0d3 80bc
00000330: 6a9f 6d3d dc67 183d 4b25 a53b 945d bf3d
00000340: dd1b 08bd 9049 0c3d c9f6 aabd 62c2 abbd
00000350: 69f2 f7bb 9410 ca3d bc03 a13d f8b0 40bd
00000360: ffba b9bd 5cae a43d e4c5 8fbd 1e0e d33d
00000370: 1c8c 093d dab5 e43d 8a9f b33d 7af3 69bd
00000380: 48cf d5bd c4fb 99bd 2706 7bbd 7897 f9bc
00000390: a05b ca3b b0db 003c 15af 81bc 3803 aa3b
000003a0: f0bd 41bd b208 b4bd c78e 15bd 5d0b d7bd
000003b0: f366 fbbd 40cf 35bb e51f b33c fcf3 633d
000003c0: 40bc a13d e262 ff3d 3045 78bd 2323 eebd
000003d0: 5c2d 39bb e050 ac3d ee43 24bd 6363 b43d
000003e0: b4d3 c23d d90f e9bc 3deb d03c be76 dbbd
000003f0: 3de9 cabd f84b 5a3d 9feb 04be 209b a13d
-0.065308586 -0.10149856 0.08278384 0.11730513 -0.100961745 -0.0021046847 -0.013859061 -0.030309536
-0.033979133 0.07899902 0.011125973 -0.032537553 0.10762136 0.17160495 0.06370893 -0.06384276
-0.034702588 -0.07273254 0.104199596 0.09096472 0.001702717 -0.04800272 0.02919951 0.035634756
0.078441635 -0.026053756 0.11480574 -0.12286523 -0.0014613122 0.02120699 0.002758488 -0.069876015
0.053300183 0.15420163 0.05306522 0.010164497 0.092857316 0.03530976 -0.012091021 -0.07419093
0.030428126 -0.052837774 0.10317264 0.15063143 0.15057537 -0.041351825 0.1255692 -0.06280485
0.059080772 0.0524683 0.022678494 0.10415481 0.053105004 0.0076899827 0.16990738 0.037648365
0.049288347 0.12548819 -0.018824145 -0.02623418 -0.035679717 -0.11139208 0.061380003 -0.0074273474
0.07339868 0.091311574 0.0770347 -0.116909325 0.040761754 -0.07740341 -0.068758816 -0.01679936
-0.11718537 -0.0530472 0.11556968 -0.06435173 0.06400624 -0.009090862 0.14700024 0.034300175
0.10418924 0.04233001 0.014399154 0.13823491 0.0010404815 -0.082024515 0.11382976 -0.012856871
-0.011453428 -0.06845504 0.03847368 0.06258266 0.045361385 -0.080069825 -0.071367726 -0.018910198
0.13797817 -0.05204202 -0.085622914 -0.090968184 0.02363649 0.09310347 -0.025612537 -0.08895053
-0.07244459 -0.08494891 0.16203234 0.023722164 0.15733944 -0.04135306 0.0848427 0.025318036
0.12409291 -0.11577645 0.09897135 -0.07777695 0.08798006 0.11597 0.16307357 -0.0783576
0.051167592 -0.045923408 -0.0057207663 0.014643401 0.09464852 0.062034085 0.124033034 0.035392188
0.123977825 -0.06549747 -0.095526755 0.087832674 0.06594725 0.0146629065 -0.09376794 0.044492826
0.070463836 0.07687327 0.06612158 0.11357799 -0.07273814 0.08340883 -0.018565238 -0.002433464
-0.05818072 0.08109428 -0.09716728 0.11315587 0.007980347 -0.04007694 0.0068510324 -0.11683822
0.08371264 -0.084929004 0.095958725 -0.054928675 0.059094876 0.08221723 -0.071614996 -0.06463781
-0.08561498 0.10540578 -0.055996865 -0.06594403 -0.123587266 0.09259586 -0.050341576 -0.057339013
-0.06627065 -0.07835889 -0.10728018 0.046366006 -0.051127017 0.011266649 -0.09422964 -0.11795673
0.07002832 0.0028698593 0.08056097 -0.051674604 -0.09413792 -0.05323811 -0.0018551499 0.016264617
0.0020811409 0.035285965 0.088346794 -0.08595601 -0.0051476657 0.04152073 -0.091150075 0.093926504
-0.0025146455 -0.10567865 0.005993277 0.0039263368 0.066389665 0.04493946 -0.057293247 -0.03536402
0.122765005 0.030150237 0.010753181 -0.015726 0.058013357 0.037208423 0.005039846 0.093440205
-0.033229697 0.034249842 -0.08347852 -0.08386685 -0.0075667393 0.09866443 0.078620404 -0.04704377
-0.0906887 0.08041069 -0.070201665 0.10305427 0.033580884 0.11167498 0.08770664 -0.057116963
-0.104399264 -0.075187236 -0.061285164 -0.030467734 0.0061754733 0.007864878 -0.015830556 0.005188372
-0.04730028 -0.08790721 -0.036513116 -0.10500214 -0.122754954 -0.0027741939 0.021865794 0.055652604
0.07897234 0.12470032 -0.060612857 -0.116277955 -0.0028255796 0.08413863 -0.040103845 0.08808019
0.095130354 -0.02844994 0.025502795 -0.10716008 -0.09907768 0.053295106 -0.12980507 0.07890916

bias f4 [64]
00000000: 6f17 dc3d 7fea 1c3d 34e4 b8bd 9743 783d
00000010: 203a a0bd a60b c53d cb9a 443d df1f 433c
00000020: 1038 cebd 1f4b ae3c f828 d43c 8845 953c
00000030: ac9e 6dbd 0e9a 223e 109d 353d f57f f13d
00000040: 1c35 2bbd 487a 3ebd 9743 623d fc9b 68bd
00000050: 71e4 d93d 9d63 1d3e c664 e0bd 48cf 8fbd
00000060: 291b 973d 4614 fdbb c01f eb3b aab7 873b
00000070: 0823 b73d 181d 0fbd 2c8a abbc c4a9 afbd
00000080: 00d0 5e38 e400 afbd bbb1 75bd 89f2 cd3b
00000090: 94c1 ed3c 9ccb 65bd 5843 b4bd 1557 1b3e
000000a0: e287 d0bd bdf5 303c 401b be3d ec52 f43d
000000b0: d81e 9dbc ab70 afbb ae74 133e 2dbc a23d
000000c0: 31e4 89bb 7509 323e 669a a1bd f431 c6bd
000000d0: 079b 293e 4c44 f83d e0ad fbbd 6883 d6bd
000000e0: 47eb 223c 0e08 e73c d0e4 903d 2351 0ebe
000000f0: 946d 69bd c023 943b 1867 75bd 9be0 4bbd
0.10746657 0.03830957 -0.09027901 0.060611334 -0.078235865 0.096213624 0.047999185 0.011909454
-0.10069287 0.021276055 0.025898442 0.018221632 -0.05801265 0.1587908 0.04433924 0.11791984
-0.041798696 -0.046503335 0.05524024 -0.056789383 0.10639275 0.1537003 -0.10956721 -0.07021958
0.07378227 -0.007723364 0.0071754158 0.0041417675 0.089422286 -0.034939855 -0.020939909 -0.08577302
5.312264e-05 -0.08545092 -0.05998395 0.006285016 0.02902297 -0.05610238 -0.08801907 0.15169938
-0.101821676 0.010800776 0.09282541 0.119298786 -0.019179747 -0.0053540072 0.14399979 0.07946048
-0.0042081107 0.1738642 -0.07890777 -0.096774966 0.16563044 0.121224016 -0.122890234 -0.104742825
0.00994379 0.028202083 0.070748925 -0.13898139 -0.056989267 0.0045208633 -0.05991277 -0.049774747

weight f4 [64, 64]
00000000: 14a1 f03d 9e70 4b3d a07b f2bc 8159 0cbd
00000010: 4006 cf3d 4f48 ae3d ef1e 70bd 63e6 273e
00000020: ed5d 943d c3ca 3dbd f868 d5bc 4233 c4bd
00000030: e809 e1bc c9dd 44bd 2da6 393d 9e30 263e
00000040: 54c2 cabd d21c 86bd a03c 333e c46f ce3d
00000050: 3a72 1b3e 1f5c 0a3e 9cab 77bd b820 4bbd
00000060: 4b1c 803d c942 82bd b68d bdbd e693 ce3c
00000070: 3596 5cbd 004b 94bd 4094 46bd a433 e6bd
00000080: 46b9 f1bd 50c1 4bbd d5db d13d 107e e7bc
00000090: 17ed 163e 62fc ffbd 76c3 e4bc 45d2 333d
000000a0: 5482 0dbd 56f5 c83d a733 5dbc b24e 98b9
000000b0: cdb1 683d 87ca 34bd 3853 f63d 238f 5cbd
000000c0: 52c5 333d ab00 063e 003f 5a3b e618 d63d
000000d0: 5f57 263e 377e 8bbb 5080 8ebc 8c25 55bd
000000e0: a3f9 863c 9bb1 213e fe0a 983d 7498 54bd
000000f0: f439 58bd 00f8 4539 98e1 263d b504 6dbd
00000100: fc25 12bd d1a5 313d a80c 2ebd 40b2 2a3d
00000110: ecbd e53d c720 223e 8042 f1bc 3771 763d
00000120: 3f69 b6bd 5fd0 0ebd 74dc 203d 90a3 ec3c
00000130: c8e5 d63c 80b5 4c3d 97c9 c93d e6e8 7b3c
00000140: 28ce 933c 6ea2 92bd 72f3 38bd 7009 00bc
00000150: 155d 30bd f630 423d 80e0 b03c 146f afbd
00000160: e10e b63c 5a5d 2abd 582f 9b3c 9abc f73d
00000170: 10ff 103e 7a06 e4bd e40f debc 4823 a4bd
00000180: a827 21bd f05a 75bd 4588 893c 591e 0b3d
00000190: dbfb 393d 026f b53d 9dd3 a7bd 12f1 2d3e
000001a0: 9a4c bb3d 4bd4 99bb 4d02 86bd ba9a 68bd
000001b0: 283c ee3c effe 1f3e c285 54bb 8d0f a5bb
000001c0: 1510 d03d 3f54 b23c 58e1 e5bc 37d9 fb3d
000001d0: 5904 6f3c 59be 933c 888b 763d 1048 b7bd
000001e0: 0f68 1b3e 9dea 233e ae5b af3d f760 ca3d
000001f0: 40ff 9e3c c831 e03d d399 2d3e 2d23 c2bd
00000200: a92c f4bd 0a60 34bd 94ba babd f8b4 edbd
00000210: 64ab c13d f3f0 e03c 733e b8bd 9ac2 ecbd
00000220: 246d dd3d 2a31 9e3c 505d 453d d003 d53c
00000230: 3e35 f33d b1de 8dbd 4fa9 b1bc 8323 df3c
00000240: 70a0 583c 008a 95bb 7205 a23d 201b efbc
00000250: fcc5 1cbc 93d8 a9bb 9049 8ebd c0ce 3dbb
00000260: 2731 61bd 98d1 de3d 3a42 cdbd 40b6 ceba
00000270: 0d30 4d3d bab3 fa3d d46e 5b3d a092 bdbd
00000280: 1439 80bd e6f9 f2bd e80f e2bd 9476 96bd
00000290: 4819 a9bc ce71 b63d 707d 16bd ddbe 393c
000002a0: 4802 ee3c 2aae 283d 261c d33c 073d c6bd
000002b0: 46b1 bdbd e038 aa3d ab69 01bd a26a ca3d
000002c0: d976 bebc 2f49 043d f8a6 ac3d 9c7d a03d
000002d0: a4c5 66bc f11a 483c 2422 303d 00c7 ecbb
000002e0: f20e be3d d205 e5bc a853 b83c 1ef9 a0bd
000002f0: 903a 703d 2c77 333d f2ee eebd e16b e13c
00000300: 9032 203c c2a8 e43d 900c 8dbd 0029 793a
00000310: 6885 00bd a071 d7bd 1a77 ae3d 2074 e23d
00000320: 68b4 823c f0f9 53bd 3668 ea3d a8fd a13c
00000330: 1825 cebc 0078 2f3d 6e12 90bd 3cd4 1bbd
00000340: 80ef 48bd 40ea b53d 4afa d1bd 34e7 423d
00000350: 34f3 ea3d 12a9 9fbd 604e c7bc d80f db3d
00000360: 7421 82bd 9c3e 3d3d 0c2e 8bbd b02f 64bc
00000370: 3ee6 dabd dc62 7dbd 3010 27bc 444d dabd
00000380: 624d f23d 0878 ac3d e893 9f3c 4ce3 8bbd
00000390: c0b0 ac3b b0f3 803c a87a 5ebd 30ae 913c
000003a0: 60c6 aa3d 301e 9e3c 3e5b bfbd c065 bd3b
000003b0: 4a16 87bd 1ef5 95bd eed6 89bd 76ce 9dbd
000003c0: fef4 ef3d 2eaf 9dbd 9af0 8abd 5032 673d
000003d0: 1ec9 9b3d 824e b8bd d04e 16bd 90c5 f2bc
000003e0: 4cdc c1bd 8893 a1bc 0e8b febd 40f4 83bb
000003f0: b8e6 9c3d ec03 5f3d fa5a d8bd 8ee4 87bd
0.11749473 0.049667947 -0.029599965 -0.034265045 0.10108614 0.085098855 -0.05862325 0.1639648
0.072444774 -0.046335947 -0.02605103 -0.09580089 -0.027470544 -0.048063073 0.045324493 0.16229483
-0.099003464 -0.06548466 0.17503595 0.10079911 0.15180293 0.13511704 -0.060466394 -0.04959175
0.062553965 -0.063603945 -0.09255545 0.025217008 -0.053854186 -0.072408676 -0.048481226 -0.112403184
-0.11802916 -0.049744904 0.10247008 -0.028258353 0.1473888 -0.1249931 -0.027925234 0.0439017
-0.03454812 0.09812419 -0.013501084 -0.00029050332 0.05681019 -0.044138458 0.120275915 -0.053847443
0.04388935 0.13086192 0.003330171 0.10453968 0.16244267 -0.0042569893 -0.017395169 -0.05203776
0.016476458 0.15790407 0.074239716 -0.051903203 -0.052789643 0.00018879771 0.040742487 -0.057865817
-0.035680756 0.043371025 -0.04249254 0.0416739 0.11217865 0.15832816 -0.029450655 0.060166564
-0.08906793 -0.034866687 0.03927274 0.028886586 0.026232615 0.04997778 0.09852903 0.0153753515
0.018042639 -0.07159887 -0.045154043 -0.00781475 -0.04305752 0.047409974 0.021591425 -0.08566108
0.022223892 -0.041592933 0.018943474 0.1209652 0.14159799 -0.11134048 -0.027107187 -0.08014542
-0.03934446 -0.059901178 0.016788611 0.03396449 0.045406204 0.08859064 -0.08194659 0.16986492
0.0914547 -0.0046944967 -0.065434076 -0.056788184 0.02908142 0.15624593 -0.0032428359 -0.005037254
0.101593174 0.021768687 -0.028061554 0.1229729 0.014588439 0.0180351 0.06019166 -0.08949292
0.15176414 0.16007467 0.085624084 0.09881776 0.019408822 0.10946995 0.1695321 -0.094793655
-0.11922581 -0.044036902 -0.09117618 -0.11606783 0.09456518 0.027458644 -0.08996286 -0.11560555
0.108118325 0.019310553 0.048184693 0.026002795 0.118753895 -0.06927241 -0.021687178 0.027238613
0.013221845 -0.00456357 0.07911195 -0.029187739 -0.0095686875 -0.0051832884 -0.06947625 -0.0028962344
-0.054978516 0.108798206 -0.10022397 -0.0015770867 0.050094653 0.12241311 0.05357249 -0.09256482
-0.06260887 -0.118640706 -0.1103819 -0.07346836 -0.020641938 0.08908425 -0.03674072 0.011337009
0.029053822 0.04118172 0.025770258 -0.09679609 -0.09262328 0.08311629 -0.031594913 0.0988362
-0.02325003 0.032296356 0.08430284 0.07836458 -0.014085207 0.012213455 0.04300131 -0.007225871
0.09280194 -0.027956877 0.022500828 -0.07860015 0.0586496 0.043814823 -0.11666669 0.027517261
0.00977768 0.111650005 -0.06887162 0.00095047057 -0.031377226 -0.10519719 0.085188106 0.11057305
0.015955165 -0.05175203 0.11445658 0.019774273 -0.025164172 0.04283905 -0.07034765 -0.0380442
-0.04905653 0.0888257 -0.10252817 0.047583774 0.114721686 -0.077959195 -0.024329364 0.10696381
-0.06354037 0.046202287 -0.06795892 -0.013927385 -0.106884465 -0.061861858 -0.0101967305 -0.106592685
0.11831166 0.08421332 0.019479707 -0.06830463 0.0052700937 0.0157412 -0.054316193 0.017783254
0.08338618 0.019301504 -0.09343575 0.005779952 -0.06596048 -0.07322143 -0.06730448 -0.07705395
0.117166504 -0.076994285 -0.06784172 0.056444466 0.076067194 -0.08999349 -0.036696255 -0.02963522
-0.094658464 -0.019723669 -0.12428866 -0.0040269196 0.076611936 0.0544471 -0.105642274 -0.0663539

bias f4 [64]
00000000: 45c1 0b3e ac37 1e3e 3a9e 623c 2a77 fbbd
00000010: aa3d ccbd 112d a33d b5a8 a53d 4a80 aabd
00000020: 2651 2ebd 78ff 853c a316 b73d fd55 073e
00000030: 5aba 94bd aecd 093e 4cbd 0bbd c2c7 afbd
00000040: 74fd 6cbd 4aaf df3d 3c4f 9f3d 0e03 bf3c
00000050: 29fc 1a3d 4c24 1ebd 2022 c23d 4784 163d
00000060: 87c8 62bd 1481 0fbb dcab 36bd 4eee bcbd
00000070: 6329 dabd bca3 18bd 3c49 9fbd e4bf 38bc
00000080: 5460 ce3d 4103 cb3c 48a6 85bc 238e 72bd
00000090: 6cfb fcbd a122 df3d 5057 2dbd 0a34 1c3e
000000a0: e2b7 27bd e4a7 5abd 6134 bdbc 9a54 853d
000000b0: c867 f1bc 8db2 8d3d a00c 18bc e8f0 debd
000000c0: 6707 1d3e 40db 513c 2cbf da3d 9682 d6bd
000000d0: 51ff 0a3e cc9b 8a3d 910d 343e 88e0 493d
000000e0: 92bb 8f3d 7ce6 1a3e fbb8 293d 1fc0 4b3d
000000f0: d307 e9bd 5890 85bc db95 0a3d ebc4 f7bd
0.13647945 0.15450925 0.013831669 -0.12278588 -0.09972699 0.0796758 0.08088819 -0.083252504
-0.042557858 0.016357169 0.089398645 0.13216396 -0.07262106 0.13457367 -0.034116074 -0.08583023
-0.0578589 0.109221056 0.07778785 0.023316886 0.037838135 -0.038608834 0.09479165 0.036747243
-0.05536702 -0.0021897005 -0.04459749 -0.092251405 -0.10652425 -0.037265524 -0.0777764 -0.011276219
0.10076967 0.024781825 -0.01631464 -0.059217583 -0.123526424 0.10895277 -0.042319596 0.15254226
-0.04094685 -0.05338277 -0.023096265 0.06510277 -0.029468432 0.069188215 -0.009280354 -0.10885793
0.15334855 0.012808621 0.106809944 -0.10474126 0.13573958 0.06767997 0.175833 0.049286395
0.07018198 0.15126985 0.041436177 0.049743768 -0.113784455 -0.01630418 0.03383432 -0.12098106

weight f4 [5, 64]
00000000: 68ac 34bd 869b b6bb b243 7539 3839 2abd
00000010: 527e d83d a5ad b93c 2569 4c3d 5828 4cbd
00000020: e764 943d 0075 febc 1f6f ccbc e75d e13d
00000030: ef1f 80bd b60a 6cbc da41 153e 609b 5cbc
00000040: 3c51 a63d 2ada 0c3e 2fd6 40bd c3fb 513d
00000050: 4503 063e d0f4 e4bd f305 cabd c8e4 a6bc
00000060: 1377 efbc e890 753c 0039 7cbd 0a85 ddbd
00000070: c775 e43d 6081 b83c 1866 f5bd 9a04 9d3c
00000080: eeaf 81bd c6ca c1bd 6400 debd 2edb d4bc
00000090: 188d a13d 3d63 223e 28e1 74bd 36c9 443d
000000a0: a2f3 c0bd 3461 c23d 36e8 85bd f802 e03d
000000b0: ec2a 63bd 6d38 70bd 7034 9bbd d03f 643d
000000c0: 05b5 1b3e 8045 ecba 9f4b 08bd 621c f9bd
000000d0: d020 b83d 726d c33d a03f 9b3d 24a0 3ebd
000000e0: 323f b23d 15f8 0a3d 95de 203d ba7f 123d
000000f0: c606 6f3c 53b5 c4bd 1383 333d 0949 673d
00000100: beba 0d3e 178b 2c3d 617f 073c 8852 debd
00000110: 8469 783d c294 cdbd 5a84 8b3d 381a 8bbd
00000120: 5a26 d6bc 00f4 c5bb 60a8 3d3e 7c7e 22bd
00000130: 58d9 c3bd d888 073e 8101 863d e0be 313c
00000140: 1ffa e1bd 628e be3c 2563 4d3c ccd5 e83b
00000150: 513b 103d 589b a9bc 0c91 0e3e 279e c5bd
00000160: 185d cd3d 12fb adbd 8861 2c3d d041 bb3c
00000170: 7b19 42bd bebc 84bd 3298 e83d a4bd 6a3d
00000180: 0679 413d ca86 a5bd 0034 be3d 0a09 043e
00000190: 3840 98bd 285e 293e 18ee 84bc ac1b 353a
000001a0: bf3f f93c b0fc 82bd 46c9 e13d c1bb 1ebd
000001b0: a068 dabc 7962 173e b83b fbbc 6e0c e6bd
000001c0: 9ee0 243d 303f 603c 33d2 c5ba 3efe c43d
000001d0: d40e 56bd 41fc debd 67d5 d73d 1866 dabc
000001e0: 7414 ac3d 0ada 953c d761 7d3b caf4 edbc
000001f0: 6d4c bdbd 2e04 c4bd 0642 d63d f942 a8bd
00000200: 1b66 0a3e e028 3dbd 11a4 61bb 149e a3bd
00000210: b845 1c3d 3a66 2bbd ae3f 193e 88cb a63d
00000220: dc32 64bc 604d 643d 1473 0f3e 1619 da3d
00000230: 882a 233d 227f d93d 8a40 1a3e a871 33bd
00000240: 7e83 e6bd 7592 1c3e 3906 10bc 1932 223e
00000250: edc5 083e 8815 88bd 131b 97bd d821 6a3d
00000260: 61da a83d 3275 81bd ce41 f73d 7894 a23d
00000270: 0034 e63d c845 db3c ec21 fbbd 22cf b33d
00000280: cfb5 033e 94be fcbc ca81 cbbd f3e7 483d
00000290: 6014 b73d 2c03 95bd f6a2 94bd 8e6c e53d
000002a0: 5021 6e3d 5ec6 863d b308 a33d 96b8 ed3d
000002b0: 0016 fe3b c833 ec3d 50ab ee3c 0011 f23d
000002c0: b65e 1d3e 9cf7 563d 8e93 9abb ea1a bcbd
000002d0: 9055 193e 934b fa3c 437f d6bb 5ec0 f23d
000002e0: eaea babd 97c1 813c 0cff b3bd 7ee0 303c
000002f0: a446 093d 6c4a 2dbc e0bb 183d 6c60 02bd
00000300: c0d1 203e 71b9 a13d a8eb b2bd 0826 e2bd
00000310: 6eac 90bd e976 54bd 6c38 c03c 1cd8 e7bd
00000320: 7435 5b3d 30a9 2cbd 2c63 173e 9736 883d
00000330: f93f 9cbd e6fe 303e 2b34 5e3c 5c3a d6bd
00000340: beb0 b6bd a0bc 0f3e dcff a8bd 410c 2a3e
00000350: d798 b23d b8f3 3bbd 8e2e 3c3b 5a4d 99bd
00000360: f6ed 8d3c 2a53 26bc 8072 443c c231 dabd
00000370: 8f6d f9bb b09d a7bc 06f9 e3bd 62ae 07bb
00000380: 537f 9d3d 64a8 743d c2ae 9dbd 1622 193e
00000390: 8053 953c fa26 8f3d 28df a43c d735 24bd
000003a0: c74e 0abb 764b bbbd 7e12 c2bd 2045 2f3e
000003b0: d014 093d ae4b 97bd 7020 c73c ae4b d5bd
000003c0: ea1b 023e f091 533c 6245 c83d 367e 9c3d
000003d0: 7b12 2fbc 6a0b 92bd cd27 243e 97c9 5abd
000003e0: 868b 33bd 343d 043e ccd1 a1bd 3b5f fa3c
000003f0: 9b1f 063d bc46 1b3d e992 193e 0126 4cbd
-0.044109732 -0.005572739 0.00023390239 -0.041558474 0.10570969 0.022665808 0.04990496 -0.049843162
0.07245808 -0.03106165 -0.02495533 0.110042386 -0.06256091 -0.014406851 0.14575902 -0.013464779
0.08120963 0.13755098 -0.04707926 0.05126549 0.13087185 -0.11179507 -0.09864416 -0.020372763
-0.029231584 0.014988162 -0.061577797 -0.10816391 0.11155277 0.022522628 -0.119823635 0.019167233
-0.06332384 -0.09462504 -0.10839918 -0.02598342 0.078882396 0.15858169 -0.05978504 0.048043452
-0.09421469 0.09491196 -0.06538431 0.10938066 -0.055460855 -0.05864756 -0.07578361 0.05572492
0.15205772 -0.0018026084 -0.033275243 -0.12163617 0.089906335 0.095423594 0.07580495 -0.04653944
0.0870346 0.033927996 0.03927477 0.03576634 0.014589017 -0.09604897 0.043826174 0.056466136
0.13840768 0.042124834 0.008270116 -0.10855585 0.060647503 -0.10038139 0.068123534 -0.0679211
-0.026141334 -0.00604105 0.18521261 -0.039671406 -0.095629394 0.13235795 0.065432556 0.010848731
-0.11034035 0.023261253 0.012535845 0.0071055647 0.03521282 -0.020703956 0.13922518 -0.09649306
0.10027522 -0.084951535 0.0420852 0.02285853 -0.04738758 -0.06481312 0.11357154 0.05730976
0.047234558 -0.080823496 0.09287262 0.12894073 -0.07434124 0.16539824 -0.016226813 0.00069087255
0.030425904 -0.063958526 0.11024718 -0.038753275 -0.026661217 0.14783658 -0.030668125 -0.112328395
0.040253274 0.01368694 -0.0015092551 0.09618805 -0.052260235 -0.10887957 0.1053875 -0.02666001
0.084023386 0.018292446 0.0038663053 -0.029047389 -0.09243093 -0.0957111 0.10461812 -0.08215899
0.13515513 -0.04618156 -0.0034430067 -0.079891354 0.038152426 -0.041845538 0.14965698 0.08144289
-0.013928141 0.055737853 0.14008743 0.10649316 0.039835483 0.10619952 0.15063682 -0.043809563
-0.11255549 0.15290244 -0.008790546 0.15839423 0.13356753 -0.06644732 -0.07378211 0.057161182
0.082447775 -0.06321181 0.12073098 0.079384744 0.11240387 0.026766673 -0.122623295 0.08779742
0.12862323 -0.030852593 -0.09936865 0.04904933 0.08939433 -0.072759956 -0.07257645 0.11202346
0.058137238 0.06580804 0.079606436 0.116074726 0.0077540874 0.11533314 0.029134423 0.11819649
0.1536816 0.052482232 -0.004717297 -0.09184821 0.14974046 0.030553615 -0.0065459325 0.118530974
-0.091268376 0.015839381 -0.08788881 0.010795711 0.033514634 -0.010576826 0.037288547 -0.031830236
0.15705013 0.07896698 -0.08736354 -0.1104241 -0.07064138 -0.051871214 0.023464404 -0.113205165
0.053517774 -0.042153537 0.14783925 0.06651037 -0.07629389 0.17284736 0.0135622425 -0.1046035
-0.0892043 0.14036798 -0.08251926 0.16606237 0.08720558 -0.045886725 0.0028714272 -0.07485457
0.017325383 -0.010151664 0.01199019 -0.10654022 -0.0076119374 -0.020460933 -0.11131482 -0.0020703305
0.07690301 0.059730902 -0.07699348 0.14954409 0.018228292 0.06989856 0.02012594 -0.04009041
-0.0021104084 -0.091452524 -0.09476183 0.17116213 0.033467114 -0.07387482 0.02430746 -0.104148254
0.12705961 0.012913212 0.09778859 0.0764126 -0.010685558 -0.07131083 0.16030808 -0.053414907
-0.04383423 0.12913972 -0.07901344 0.030562988 0.032744985 0.037909254 0.14997448 -0.04984093

bias f4 [5]
00000000: dcdc 89bb 582c dd3d f143 223d 688f 13bc
00000010: 0ceb 2ebd
-0.0042072367 0.107994735 0.039615575 -0.009006359 -0.042704627
