python/bsc/con2prim_restoration/Dieselhorst_run_5/net.pt (torch, 504426 bytes, 5 tensors)

weight f4 [600, 3]
0	0x3ca13e21	0.019682946
1	0x3f2b4a61	0.6691037
2	0xbf89c5cf	-1.0763491
3	0x3b9b10d2	0.0047322297
4	0x3ed20dd7	0.41026184
5	0xbf594218	-0.84866476
6	0x3c0019ac	0.007818621
7	0x3f2df0d1	0.6794558
8	0xbf844ddb	-1.033626
9	0x3e6f1fd0	0.2335198
10	0xbff83bbe	-1.9393232
11	0xbf4cb982	-0.7997056
12	0x3b6961f8	0.0035611372
13	0x3f28dfbd	0.659664
14	0xbf876e91	-1.0580617
15	0xbdbcb394	-0.09213939
16	0x3f4a2359	0.78960186
17	0xbfabea04	-1.3430791
18	0xbd09ee65	-0.033674616
19	0x3f320b15	0.6954816
20	0xbf96cae2	-1.1780665
21	0xbe7ebc1d	-0.24876447
22	0x3f9f13fc	1.2427974
23	0xbfbc526e	-1.4712656
24	0xbd04b36f	-0.032397684
25	0x3f210c8e	0.6290978
26	0xbf91c735	-1.1388918
27	0xbe4664b9	-0.1937436
28	0x3f89e444	1.0772786
29	0xbfb96613	-1.4484276
30	0x3df33d30	0.11876905
31	0x3f0a167e	0.5394057
32	0xbfa3d98d	-1.2800766
33	0xbb244019	-0.002506262
34	0x3efe5318	0.4967277
35	0xbf68e6e6	-0.90977323
36	0xbea5e6d7	-0.3240268
37	0x3fb55555	1.4166666
38	0xbfc4c8c5	-1.537377
39	0xbfa17e62	-1.2616694
40	0x40578ac1	3.3678439
41	0xbf47bf7b	-0.7802655
42	0xbcf5682e	-0.029956903
43	0x3f209d4f	0.62740034
44	0xbf8f5aa4	-1.1199536
45	0xbe849217	-0.25892708
46	0x3f76ad1b	0.9635789
47	0xbfa49b56	-1.2859905
48	0xbe8daa14	-0.27668822
49	0x3fc2716f	1.5190867
50	0xbfd4417b	-1.6582483
51	0xbc44aac1	-0.0120036015
52	0x3f05f6ba	0.523296
53	0xbf596cf0	-0.8493185
54	0x3d785460	0.06062734
55	0x3e252ca5	0.16130312
56	0xbf25d868	-0.64783335
57	0xbdff414a	-0.12463625
58	0x3fe111fb	1.7583612
59	0x3f40bc19	0.75287014
60	0xbe0adf49	-0.13561739
61	0xbf71101b	-0.941652
62	0x3f83473a	1.0256112
63	0xbe604ab5	-0.21903498
64	0x3e99913a	0.29993612
65	0x3f771d6a	0.9652926
66	0xbe6d26c3	-0.23159318
67	0x3faac8c8	1.3342524
68	0xbfc3cdbc	-1.529716
69	0xbe140fa4	-0.14459091
70	0x3f3ac1e4	0.72952104
71	0xbf972e78	-1.1811056
72	0x3c1a7939	0.009428316
73	0x3f3348e7	0.70033115
74	0xbf94126e	-1.1568124
75	0xb977b0df	-0.00023621645
76	0x3f2e1b8f	0.680108
77	0xbf939845	-1.1530844
78	0xbe09f976	-0.13474068
79	0x3f65135d	0.8948267
80	0xbfa46e64	-1.2846189
81	0xbf2f946b	-0.6858584
82	0x3ffab56a	1.9586613
83	0xbfcf2b21	-1.6185037
84	0x3c662a8c	0.01404823
85	0x3f3b9feb	0.7329089
86	0xbf868477	-1.0509175
87	0x3d2595ff	0.04042625
88	0x3ea0f9bf	0.3144054
89	0xbf43f37a	-0.7654339
90	0xbd205760	-0.039145827
91	0x3f2fcf8c	0.68676066
92	0xbf93b677	-1.1540059
93	0xbe967af1	-0.29390672
94	0x3fae9e57	1.3642071
95	0xbfc0d020	-1.5063515
96	0xbe5102f7	-0.20411287
97	0xbea58c19	-0.3233345
98	0xbc76c44c	-0.015061449
99	0x3c9168fd	0.017750258
100	0x3f3e4749	0.7432752
101	0xbf8cc5b0	-1.099783
102	0xbe3783bb	-0.17921345
103	0x3f923198	1.1421385
104	0xbfbdc717	-1.4826382
105	0xbb34d5ef	-0.0027593335
106	0x3f1e2f96	0.6179136
107	0xbf71fa09	-0.9452215
108	0xbb1610c3	-0.0022898174
109	0x3f218c41	0.63104635
110	0xbf6f1b59	-0.93401104
111	0xbe407b9b	-0.18797152
112	0x3f7ee30d	0.995652
113	0xbfb0a7d4	-1.3801217
114	0xbe658c13	-0.22416715
115	0x3f4e3519	0.8054977
116	0xbf99df10	-1.2021198
117	0xbf0bc0a9	-0.5459085
118	0x402a7640	2.6634674
119	0x3e409c62	0.18809655
120	0x3c9eb89b	0.019375136
121	0x3f3257aa	0.69665015
122	0xbf949271	-1.160719
123	0xbdf333be	-0.118751034
124	0x3f4a41d0	0.7900667
125	0xbfa3184c	-1.274179
126	0xbf44ccf9	-0.76875263
127	0x3fb7ed6e	1.4369333
128	0x3e96cf6e	0.2945513
129	0xbda54ba5	-0.08071069
130	0xbdcd4961	-0.100237615
131	0xbf389a2c	-0.7211025
132	0xbb311de4	-0.0027025873
133	0x3f1c5995	0.6107419
134	0xbf6d1901	-0.9261628
135	0xbc6bf021	-0.014400513
136	0x3efe84e0	0.4971075
137	0xbf656e5f	-0.8962154
138	0x3c11562e	0.0088706445
139	0x3f2af0c9	0.6677366
140	0xbf7fbf1c	-0.99900985
141	0x3c874036	0.01651011
142	0x3f2e96c9	0.6819883
143	0xbf8e8ca1	-1.1136667
144	0xbe90c288	-0.28273416
145	0x3fab9920	1.3406105
146	0xbfc324aa	-1.5245564
147	0xbc9708b3	-0.018436765
148	0x3f013d32	0.50484
149	0xbf50a0bd	-0.8149527
150	0xbcb6adae	-0.022299614
151	0x3ef99edc	0.48754013
152	0xbf56fa98	-0.83976126
153	0xbdadcc7c	-0.08486268
154	0x3f3d2bf5	0.738952
155	0xbf9c36e4	-1.2204251
156	0xbbc15eb8	-0.005901184
157	0x3f001846	0.5003704
158	0xbf6c6b07	-0.9235081
159	0x3d24d5c4	0.040242925
160	0x3e2a9e29	0.16661896
161	0xbf3eb5f3	-0.7449638
162	0x3bcf5ba8	0.006328065
163	0x3f0678a1	0.52527815
164	0xbf7d7d93	-0.99019736
165	0xbb5e1e31	-0.0033892507
166	0x3f25f701	0.64830023
167	0xbf6f762c	-0.9353969
168	0xbd379165	-0.044816393
169	0x3f1dee5c	0.6169183
170	0xbf8f6dca	-1.120538
171	0xbd1d9b2c	-0.03847806
172	0x3f1ed529	0.62044007
173	0xbf906218	-1.1279936
174	0xbe284318	-0.16431844
175	0x3f4b809a	0.79493105
176	0xbf9a2d41	-1.204506
177	0xbb913063	-0.004430817
178	0x3f1ac740	0.6046028
179	0xbf71bc7a	-0.9442822
180	0xbe372e84	-0.17888838
181	0x3f5a78cf	0.8534059
182	0xbfa84080	-1.3144684
183	0xbdbdd2d5	-0.09268729
184	0x3f5ca8d3	0.86195105
185	0xbfaa1d23	-1.3290142
186	0xbe22ef7f	-0.15911673
187	0x3f6acfbb	0.9172322
188	0xbfa9dbe3	-1.3270229
189	0xbdce9d1d	-0.10088561
190	0x3d43b463	0.047779452
191	0xbf32894b	-0.6974074
192	0x3c2811e8	0.010258175
193	0x3f364bc9	0.7120939
194	0xbf864c26	-1.0491989
195	0x3d846961	0.06465412
196	0x3c847727	0.016170098
197	0xbf01751c	-0.5056932
198	0xbe5639f9	-0.20920552
199	0xbe881c8b	-0.26584277
200	0xbd9000ff	-0.0703144
201	0xbead3b5c	-0.3383435
202	0x3fc9899c	1.574512
203	0xbfd27050	-1.6440525
204	0xbc229313	-0.009922761
205	0x3ee789b8	0.4522226
206	0xbf663533	-0.89924926
207	0x3cb63fb8	0.02224718
208	0x3ee9eb83	0.45687494
209	0xbf69ca29	-0.91324097
210	0xbd75933b	-0.059954863
211	0x3f52d5d2	0.82357514
212	0xbfa9442f	-1.3223933
213	0xbb78703d	-0.0037908696
214	0x3f14420d	0.57913285
215	0xbf6d7415	-0.9275525
216	0x3c20bd33	0.009810734
217	0x3f24fbc6	0.64446676
218	0xbf78d708	-0.9720311
219	0xbc053d8d	-0.008132351
220	0x3ed6004e	0.41797107
221	0xbf5bb8db	-0.8582894
222	0xbe73f837	-0.23825155
223	0xbf00ef57	-0.50365204
224	0xbe0e05b7	-0.13869368
225	0x3ccd5d39	0.025068866
226	0x3f4525ff	0.770111
227	0xbf9a033d	-1.2032238
228	0xbf391637	-0.7229952
229	0x406e1caf	3.7205007
230	0xbdbbae1f	-0.0916407
231	0xbbb1daef	-0.0054277102
232	0x3f16f86e	0.58972824
233	0xbf627d03	-0.88472
234	0x3d15313b	0.036423903
235	0x3e8eebb7	0.2791421
236	0xbf3ab0ae	-0.7292584
237	0x3c87dee8	0.016585782
238	0x3f30b22a	0.69021857
239	0xbf91915c	-1.1372485
240	0xbd9ca73e	-0.076490864
241	0x3f3a5613	0.7278759
242	0xbf9c79e8	-1.2224703
243	0xbc31807a	-0.010833854
244	0x3efdacb3	0.49545822
245	0xbf7e1455	-0.99249774
246	0xbddee796	-0.10884015
247	0xbe0caf29	-0.13738693
248	0xbe8278c8	-0.25482774
249	0xbb1334ea	-0.002246196
250	0x3f17dfee	0.59326065
251	0xbf64de03	-0.89401263
252	0xbe8766de	-0.2644567
253	0x3fb0d4a2	1.381489
254	0xbfca6093	-1.5810722
255	0xbcf6fcb4	-0.030149795

bias f4 [600]
0	0xc12f9682	-10.974245
1	0xc1307f62	-11.031099
2	0xc139f089	-11.621224
3	0xc03e5590	-2.9739723
4	0xc1345c64	-11.272556
5	0xc00800cf	-2.1250494
6	0xc0bf7dc4	-5.9841022
7	0xbfbfb394	-1.4976678
8	0xc080c679	-4.0242276
9	0xbf8d63dd	-1.1046101
10	0xc01c3839	-2.4409316
11	0xc135bb67	-11.358253
12	0xbfd85416	-1.6900661
13	0x3e4c7bbf	0.1996908
14	0xc0d2b687	-6.584781
15	0xbfd19e4f	-1.6376437
16	0xbfabe238	-1.3428411
17	0xc145da32	-12.36577
18	0xc113802b	-9.218791
19	0x3f8578bd	1.0427471
20	0xc00f27da	-2.2368073
21	0xbf3289b8	-0.6974139
22	0xbfc33877	-1.5251607
23	0xc0940790	-4.625923
24	0xc11fc3bd	-9.985288
25	0xc0bb04cd	-5.844336
26	0xc0182c04	-2.3776865
27	0xc00e6169	-2.2246954
28	0xc13f301d	-11.949246
29	0xc12bbd7d	-10.733762
30	0xc08a33c4	-4.318819
31	0xbfc86d91	-1.5658437
32	0xc0abac46	-5.3647795
33	0xc1377307	-11.465583
34	0xbfb54f32	-1.4164793
35	0xc1417546	-12.091131
36	0xc145c163	-12.359714
37	0xbfd60ff9	-1.6723624
38	0xc05bc6a6	-3.4339995
39	0x3fcc6159	1.5967208
40	0xc11c65fa	-9.774897
41	0xc00846fc	-2.1293325
42	0xbe8433cf	-0.25820777
43	0xc050ec2d	-3.264415
44	0xc1443396	-12.262594
45	0xc139e67a	-11.618769
46	0xc13f1acc	-11.944042
47	0xc12bbd22	-10.733675
48	0xbf9a201b	-1.2041048
49	0xc14968da	-12.588099
50	0xc140506a	-12.019632
51	0xc072352b	-3.784495
52	0xc1337e9c	-11.2184105
53	0xc0f7f4c9	-7.748631
54	0xc11ec035	-9.921926
55	0xc147c7fb	-12.486323
56	0xc0dabfbd	-6.8359056
57	0xc1105568	-9.020851
58	0xc0709984	-3.7593699
59	0xc141e4b7	-12.118339
60	0xbff9f84c	-1.9528899
61	0xc0321882	-2.7827458
62	0xc003fc2d	-2.0622666
63	0xc0845034	-4.1347904
64	0xc13cb3cd	-11.793897
65	0xc1092756	-8.5721035
66	0xc08029e1	-4.005112
67	0xbfd50933	-1.6643432
68	0xc13047ea	-11.017557
69	0xc12a75ee	-10.653791
70	0xc02d668c	-2.709384
71	0xc1404095	-12.015767
72	0xc13fa160	-11.976898
73	0xc12f7642	-10.966372
74	0xc094aae3	-4.64586
75	0xc11e7282	-9.902956
76	0x3ffbefae	1.968252
77	0xc148b9da	-12.545374
78	0xc12973cb	-10.59077
79	0xc12208bc	-10.127132
80	0xc07f3b8a	-3.988009
81	0xc120e080	-10.05481
82	0xc0ba066b	-5.8132834
83	0xc1471ffe	-12.445311
84	0xbf82f35a	-1.0230515
85	0xc1191b48	-9.56916
86	0xc101d602	-8.114748
87	0xbfff77dc	-1.9958453
88	0xc1280468	-10.501076
89	0xc11a0cb1	-9.6280985
90	0xc1049cc2	-8.288271
91	0xc0b1c7af	-5.5556254
92	0x4000cad2	2.0123792
93	0xc1054b40	-8.330872
94	0xc091da57	-4.557903
95	0xc13d5c78	-11.835075
96	0xbfb0ce5a	-1.3812973
97	0xc138b651	-11.544511
98	0xc03359bc	-2.802352
99	0xbfced579	-1.6158897
100	0xc13a2114	-11.633076
101	0xc0abdb7c	-5.3705425
102	0xc093deec	-4.620962
103	0xc112dcdd	-9.178922
104	0xc144b568	-12.294289
105	0xc1233a2d	-10.201703
106	0xc1269915	-10.412374
107	0xc104a38a	-8.289927
108	0xc1282e67	-10.511329
109	0xc147ad97	-12.47988
110	0xc040f47c	-3.0149221
111	0xc004c545	-2.0745404
112	0xc1496ed5	-12.589559
113	0xbfcdb6a0	-1.6071358
114	0xbfacaa53	-1.3489479
115	0xc1425136	-12.144827
116	0xc12efb35	-10.93633
117	0xc1168c58	-9.409264
118	0xc1406d63	-12.026706
119	0xbfd28428	-1.6446581
120	0xc135860c	-11.345226
121	0xc1400c70	-12.0030365
122	0xc1477c59	-12.467858
123	0xc08255e4	-4.0729847
124	0xc12d06d9	-10.814172
125	0xbff331c2	-1.899956
126	0xbf92a677	-1.1457051
127	0xc01c825f	-2.4454572
128	0xc0a0e828	-5.0283394
129	0xc047a733	-3.11958
130	0xc0e04d22	-7.0094156
131	0xc12d2a53	-10.822833
132	0xc1307b6b	-11.030131
133	0xc1351fc0	-11.320251
134	0xc1273638	-10.450737
135	0xc14334d0	-12.200394
136	0xc13a642b	-11.649455
137	0xc13c2729	-11.759561
138	0xc149204a	-12.570383
139	0xc1437513	-12.216083
140	0xc1321f6a	-11.132669
141	0xc0d1e5db	-6.5593085
142	0xc144b2a1	-12.293611
143	0xc146e709	-12.431405
144	0xc0d42d09	-6.6304975
145	0xbfa247d4	-1.267817
146	0xbfaffb6a	-1.37486
147	0xbff839a0	-1.9392586
148	0xbffaaa04	-1.9583135
149	0x3f81811b	1.0117525
150	0xc0294fcd	-2.6454957
151	0xc1352db3	-11.323657
152	0xc13d2937	-11.822562
153	0xc0a8fca6	-5.280841
154	0xc0386826	-2.8813567
155	0xc11faec3	-9.980166
156	0x3e4851b6	0.1956242
157	0xc10ca16f	-8.7894125
158	0xc060737e	-3.507049
159	0xc0a547b8	-5.1650047
160	0xc02feb4b	-2.7487361
161	0xc12d1791	-10.8182535
162	0xc0135663	-2.3021476
163	0xc00d74e5	-2.2102597
164	0xc13a40c6	-11.640814
165	0xc14326e6	-12.196997
166	0xc127ab47	-10.479316
167	0xbfa29a70	-1.270338
168	0xc092b50b	-4.5846
169	0xc00e9f57	-2.2284753
170	0xc06f27ca	-3.7368035
171	0xbfa0af1f	-1.2553443
172	0xc03053bb	-2.7551105
173	0xc0849c91	-4.144112
174	0xc135d153	-11.363605
175	0xc148efaf	-12.5585165
176	0xc1443e65	-12.265233
177	0xbfbca8aa	-1.4738972
178	0xc13dfb8c	-11.873913
179	0xc118a8fa	-9.541254
180	0xc1362bb3	-11.385669
181	0xc1441288	-12.254524
182	0xc03c863e	-2.9456935
183	0xc08748ab	-4.2276206
184	0xc133a1f6	-11.227041
185	0xbf30fee6	-0.69138944
186	0xc06c8a10	-3.6959267
187	0xc10ca491	-8.790177
188	0xbfd77341	-1.6832048
189	0xbf763ad8	-0.9618354
190	0xc147fb12	-12.498796
191	0xc0229c14	-2.5407763
192	0xc0629218	-3.5401669
193	0xc1446f8f	-12.277236
194	0xbf94731e	-1.1597631
195	0xbfc03e83	-1.5019077
196	0xc1323d75	-11.140004
197	0xc13974d9	-11.591027
198	0xbfe3e609	-1.7804576
199	0xc093c317	-4.6175647
200	0xc00c7216	-2.1944633
201	0xc113213f	-9.195617
202	0xbfd4d7f5	-1.6628405
203	0xc13c4ec8	-11.769234
204	0xc145a804	-12.353519
205	0xbfbed2d5	-1.4908091
206	0xc1235461	-10.2081
207	0xbfe9e8ac	-1.8274131
208	0xc1163c7e	-9.389769
209	0xc091429c	-4.539381
210	0xc0129090	-2.2900734
211	0xc0a8f2b8	-5.2796288
212	0xc04eab48	-3.2292042
213	0xc123e2c8	-10.2428665
214	0xc08b1e92	-4.3474817
215	0xc0c13da7	-6.038776
216	0xc04f82b9	-3.2423537
217	0xc13fef25	-11.995885
218	0xc016f0ff	-2.3584592
219	0xc126f268	-10.434181
220	0xc0a94be5	-5.2905145
221	0xc1113874	-9.0762825
222	0xc140c4be	-12.048033
223	0xc03e0f5a	-2.969687
224	0xc13c06ed	-11.751691
225	0xc12cb7ec	-10.794903
226	0xbf8cc70d	-1.0998245
227	0xc1094d71	-8.581407
228	0xc0db39ad	-6.8507905
229	0xc12b0d37	-10.690726
230	0xc0811d6b	-4.034841
231	0xc12cd9aa	-10.803141
232	0xc04931f0	-3.143673
233	0xc088a2d5	-4.269877
234	0xbfe6fd32	-1.8046019
235	0xc12ccd2f	-10.800094
236	0xc13bc224	-11.734898
237	0xbff75a97	-1.9324521
238	0xc110fd7f	-9.061889
239	0xc13a80d8	-11.656456
240	0xc0fddd6a	-7.933278
241	0xbeeba944	-0.46027577
242	0xc142b945	-12.170232
243	0xc0181b66	-2.3766723
244	0xc1163293	-9.387347
245	0xc12cf5bd	-10.809995
246	0xc1346428	-11.274452
247	0xc00249fd	-2.035766
248	0xc139ecef	-11.620345
249	0xc0f4827a	-7.6409273
250	0x3f7317f0	0.949584
251	0xc08dc216	-4.429942
252	0xc13f4e29	-11.956582
253	0x3fce421e	1.6113927
254	0xc1484749	-12.517404
255	0xc028aa70	-2.6354027

weight f4 [200, 600]
0	0x3d9635c6	0.07334475
1	0x3e8703d5	0.2637011
2	0x3bf803df	0.007568821
3	0x3d636a02	0.05552102
4	0x3d6e0fa7	0.058120396
5	0xbf333b7c	-0.7001264
6	0xbddc8f0d	-0.10769472
7	0xbec533ed	-0.3851618
8	0xbee81421	-0.45327857
9	0xbef89b16	-0.4855582
10	0xbf57712a	-0.8415705
11	0x3db722c6	0.089421794
12	0xbea4022b	-0.32032904
13	0x3f8d4a4a	1.1038296
14	0xbd232339	-0.039828513
15	0xbde87979	-0.11351294
16	0xbef0083a	-0.46881276
17	0x3d596528	0.053074986
18	0x3f221480	0.6331253
19	0x3f12e553	0.5738117
20	0x3efa1330	0.48842764
21	0x3f8118cf	1.0085696
22	0xbed9ea2d	-0.42561474
23	0xbe4cfc50	-0.20018125
24	0x3db86ecb	0.09005507
25	0xbe183c61	-0.14866783
26	0xbee3d85a	-0.44501
27	0x3e261481	0.16218759
28	0x3d7f289d	0.06229459
29	0x3ebf3384	0.3734399
30	0xbeb54e1b	-0.35411152
31	0xbe8a7fd6	-0.27050656
32	0x3f8b898c	1.0901351
33	0x3d927661	0.07151485
34	0xbf070858	-0.52747107
35	0x3d823b92	0.063590184
36	0x3d7bcd9a	0.061475374
37	0xbee97785	-0.45599
38	0xbe6830a0	-0.22674799
39	0x3f1e3111	0.6179362
40	0x3db23658	0.087017715
41	0xbefd78e3	-0.49506292
42	0x3fa94003	1.322266
43	0xbea4371a	-0.3207329
44	0x3da46793	0.08027568
45	0x3e187c0a	0.14891067
46	0x3d8f3445	0.069923915
47	0x3db55afd	0.08855245
48	0xbeb0c263	-0.34523305
49	0x3d59d1dc	0.053178653
50	0x3d87ee3a	0.06637235
51	0xbedc7422	-0.43057352
52	0x3e1fb238	0.15595329
53	0x3edeccf2	0.43515736
54	0x3e3a7789	0.18209662
55	0x3cc36f6f	0.023856847
56	0xbd032561	-0.03201807
57	0x3dbaa284	0.09113029
58	0xbe744c91	-0.23857333
59	0x3c5b50ed	0.013385993
60	0xbed3c301	-0.41359714
61	0xbf2047ed	-0.6260975
62	0xbeeb9845	-0.4601461
63	0x3d397be4	0.045284167
64	0x3d7809ed	0.06055634
65	0x3f59c761	0.85069853
66	0x3f4034d8	0.75080633
67	0xbe9afb38	-0.3026979
68	0x3e5ecc86	0.21757707
69	0x3e81a66a	0.25322276
70	0xbf31e588	-0.6949086
71	0x3d87d9c7	0.066333346
72	0x3d360783	0.044440757
73	0x3e7dd82c	0.24789494
74	0x3f3433d5	0.7039159
75	0x3d23a80c	0.039955184
76	0x3f04e66a	0.51914084
77	0x3d879646	0.06620459
78	0x3ed73143	0.4202977
79	0x3d4cd39a	0.050006486
80	0xbef4d7f1	-0.47821
81	0x3e37d6e2	0.17953065
82	0x3f628b34	0.8849366
83	0x3d776a17	0.06040391
84	0xbec7e2b1	-0.3904014
85	0x3df35454	0.11881319
86	0x3d858d9a	0.06521149
87	0xbf080424	-0.5313132
88	0x3eb37aa9	0.3505452
89	0x3d531039	0.051529143
90	0x3d52b9c9	0.05144671
91	0xbe0b3373	-0.13593845
92	0x400579c7	2.0855577
93	0x3d7ca91c	0.061684713
94	0x3feefea9	1.8671466
95	0x3e1401da	0.14453831
96	0xbea8825d	-0.3291196
97	0x3e335a36	0.17514881
98	0x3f293d31	0.66108996
99	0xbe62fd20	-0.22166872
100	0x3e33a3c2	0.17542937
101	0x3fe074d5	1.7535654
102	0xbea3e795	-0.3201262
103	0x3e27f170	0.16400695
104	0x3d2d0061	0.04223669
105	0x3ecafdf0	0.39646864
106	0x3eaca5c6	0.33720225
107	0x3ebdf8de	0.37103933
108	0x3d499c0c	0.049221084
109	0x3c874b5e	0.01651543
110	0x3dc9c309	0.09851653
111	0xbe3594f3	-0.17732601
112	0x3c5a9701	0.013341666
113	0xbed64e46	-0.41856593
114	0xbe701fe3	-0.23449664
115	0x3cb04de5	0.021521518
116	0x3e8719ca	0.26386863
117	0x3f12bfdc	0.57324004
118	0x3de4fab1	0.11180628
119	0xbf03fb11	-0.5155497
120	0x3d883fa4	0.066527635
121	0x3d23a34d	0.039950658
122	0x3d6f7da2	0.058469422
123	0x3fc4e29c	1.5381656
124	0x3da8dbf6	0.08245079
125	0x3e92e38f	0.28689238
126	0x3f3bfe2f	0.7343473
127	0xbef01c0d	-0.468964
128	0xbe88a048	-0.26684785
129	0xbf2cf64f	-0.6756334
130	0x3d489abc	0.04897569
131	0x3ea67fae	0.32519287
132	0x3d911adf	0.070852034
133	0x3e654704	0.22390372
134	0x3eb1b962	0.34711748
135	0x3de45b57	0.11150234
136	0x3d8126ff	0.06306266
137	0x3c9ff6a5	0.019526789
138	0x3d470bc8	0.04859522
139	0x3dbba24a	0.091618136
140	0x3ec50c5a	0.38485986
141	0xbce23390	-0.027612478
142	0x3d153307	0.036425617
143	0x3d6645a1	0.056218747
144	0xbd0fd909	-0.03511909
145	0xbee32269	-0.4436219
146	0xbebf778e	-0.373959
147	0xbe5a7ed0	-0.21337438
148	0xbec50831	-0.38482812
149	0x3f2cbafe	0.6747283
150	0xbe541c15	-0.20713837
151	0x3e8c37f6	0.27386445
152	0x3c1f3bbd	0.009718833
153	0xbe3e1723	-0.18563513
154	0x3f7643c7	0.9619717
155	0x3ef84c7f	0.48495862
156	0xbe483d4a	-0.1955463
157	0x3d7237f9	0.05913541
158	0x402523d2	2.5803113
159	0xbe942e29	-0.28941467
160	0x3da51172	0.08059968
161	0x3d1b2e34	0.03788586
162	0xbf5b43a9	-0.85650116
163	0xbf08b951	-0.5340777
164	0x3e474cb0	0.19462848
165	0x3c41e683	0.011834743
166	0x3dc3ad0e	0.09554492
167	0xbdf14b56	-0.11781947
168	0xbe782034	-0.24231035
169	0xbf3beec8	-0.73411226
170	0x3f93e0d2	1.1552985
171	0xbed0918a	-0.40736037
172	0x3f0c3de9	0.5478197
173	0xbe57c126	-0.21069774
174	0x3d3ce200	0.046113968
175	0x3c226695	0.009912153
176	0x3db1eee0	0.0868814
177	0xbe367d24	-0.17821175
178	0x3ce52e59	0.027976202
179	0x3ed460b5	0.41480032
180	0x3cbeaa6f	0.023274628
181	0x3da370a1	0.07980467
182	0x3f79d1d2	0.97585785
183	0xbeb16d10	-0.3465352
184	0x3e1ba411	0.15199305
185	0x3f76fe02	0.96481335
186	0xbec7052d	-0.38871136
187	0x3f30cceb	0.6906268
188	0x3f965708	1.174531
189	0x3e8aa37f	0.27077863
190	0x3d87a70f	0.06623661
191	0x3e21159b	0.15730898
192	0xbf213fef	-0.6298818
193	0x3c42d0bb	0.0118905855
194	0xbf063a55	-0.5243276
195	0xbec0129c	-0.37514198
196	0x3e35c62e	0.17751381
197	0x3dec879e	0.115493044
198	0xbdb6d41c	-0.089271754
199	0xbee80db8	-0.45322967
200	0xbe9f2c07	-0.31088278
201	0x3d43c379	0.04779384
202	0xbe6418fb	-0.22275154
203	0x3d289d3a	0.041165568
204	0x3d803407	0.062599234
205	0xbee65926	-0.4498989
206	0x3e0f51c9	0.13996042
207	0xbdbca49a	-0.09211083
208	0x3c4ecc30	0.012621924
209	0x4015f680	2.3431702
210	0xbeb01763	-0.34392843
211	0xbe01f8c5	-0.12692554
212	0xbea1e31b	-0.3161858
213	0x3ed95170	0.42444944
214	0xbe8fc202	-0.28077704
215	0xbdc2bf8c	-0.09509191
216	0xbdf8cc46	-0.12148337
217	0x3dbd7916	0.09251611
218	0xbf0be69a	-0.54648745
219	0x3eab74f1	0.33487657
220	0xbe39cb1f	-0.18143891
221	0x3ef1ab72	0.47201115
222	0x3d276185	0.040864486
223	0x3e26c29e	0.16285178
224	0x3dd77c10	0.1052171
225	0x3e80cb00	0.25154877
226	0xbebec768	-0.3726151
227	0x3e577df3	0.2104414
228	0x3db5032c	0.088384956
229	0x3cab3898	0.02090101
230	0xbea14577	-0.3149831
231	0x3c813a6b	0.015774926
232	0xbf331a20	-0.6996174
233	0xbdab7052	-0.08371033
234	0xbe90b41a	-0.28262407
235	0x3e883d92	0.26609474
236	0x3dd1c7e9	0.10243208
237	0xbed1df6c	-0.4099077
238	0x3ee88623	0.45414838
239	0x3d24df9b	0.04025231
240	0x3db9df57	0.09075802
241	0xbf1aa197	-0.60402817
242	0x3d6f8d5b	0.058484416
243	0x3ec67218	0.38758922
244	0x3da89ce0	0.082330465
245	0x3ea66410	0.32498217
246	0x3e43d800	0.19125366
247	0x3fa7ef30	1.3119869
248	0x3e08a9e2	0.13346055
249	0x3b18df20	0.0023326352
250	0x3f2544c7	0.6455807
251	0xbf0118d9	-0.5042854
252	0x3dd20e1a	0.10256596
253	0x3ef52dd4	0.47886527
254	0x3ca0ea46	0.01964296
255	0xbed2422d	-0.41066113

bias f4 [200]
0	0xbec1ca87	-0.3784983
1	0x3e8749a8	0.26423383
2	0xbf2be509	-0.67146355
3	0xbf2c891a	-0.673967
4	0xbef29923	-0.4738246
5	0xbf342709	-0.7037206
6	0xbf36db6d	-0.7142857
7	0x3d057d90	0.03259045
8	0xbe3e8d37	-0.18608557
9	0xbf8fdeff	-1.1239928
10	0xbf3741dc	-0.7158487
11	0xbf0ac11f	-0.5420093
12	0xbf3c26dd	-0.734968
13	0x3edca1a4	0.43092072
14	0xbf3bcef1	-0.7336264
15	0xbf264e51	-0.6496325
16	0xbf14d8d7	-0.5814337
17	0x3e85a42f	0.26101825
18	0xbf24c873	-0.6436836
19	0x3c9b5684	0.018962152
20	0x3ed173eb	0.4090875
21	0x3eb66701	0.3562546
22	0x3ea81129	0.32825592
23	0xbf343fe1	-0.7040997
24	0x3ecbeb85	0.39828125
25	0xbf2fcf8b	-0.6867606
26	0xbf29945d	-0.6624201
27	0xbe499ffc	-0.19689935
28	0xbf01938c	-0.50615764
29	0xbf443fb5	-0.7665971
30	0xbf2fc94e	-0.6866654
31	0xbf3451bf	-0.70437235
32	0xbf3267fd	-0.69689924
33	0xbf2b5396	-0.66924417
34	0xbf1fe105	-0.6245273
35	0xbf2c13af	-0.67217535
36	0xbf380793	-0.7188656
37	0xbf49bb18	-0.7880111
38	0xbf2ce8f3	-0.6754295
39	0xbf2c6fc1	-0.6735802
40	0x3e86d5cb	0.26334986
41	0x3ebc4ed6	0.36778897
42	0xbf33330a	-0.69999754
43	0xbf33cdef	-0.70236105
44	0xbf35dcd5	-0.7104009
45	0xbf3162e9	-0.6929155
46	0xbf39cb36	-0.725757
47	0x3e5e2eec	0.21697587
48	0x3e4a7465	0.19770963
49	0xbf2d36a5	-0.67661506
50	0xbf2af269	-0.6677614
51	0xbf2278d3	-0.63465613
52	0xbf2c6872	-0.6734687
53	0xbf211adf	-0.6293163
54	0xbf41c4fa	-0.7569119
55	0xbf334f61	-0.70043
56	0xbf3222ff	-0.6958465
57	0x3d8cd85a	0.06877203
58	0xbf3b4ea6	-0.73166883
59	0xbf296257	-0.6616568
60	0x3ea78b8c	0.32723653
61	0xbf3414bb	-0.7034413
62	0x3eadb432	0.3392654
63	0x3c984896	0.0185893
64	0x3e3ecdba	0.18633166
65	0xbf021b85	-0.5082324
66	0xbe45294b	-0.19254033
67	0xbf3918ab	-0.72303265
68	0x3eac4f72	0.33654362
69	0xbf2b9545	-0.6702464
70	0xbd8ca0e8	-0.06866628
71	0xbf380069	-0.71875626
72	0xbf2e25fb	-0.68026704
73	0xbf2a2501	-0.66462713
74	0x3ed43aff	0.4145126
75	0xbf8b18a5	-1.0866896
76	0x3e9ab64f	0.30217215
77	0x3ec3fdc3	0.38279542
78	0xbf2bbb1a	-0.6708237
79	0xbf49fb17	-0.7889876
80	0x3e621028	0.22076476
81	0xbdb3aea6	-0.08773546
82	0xbf34a136	-0.7055849
83	0xbf407ba6	-0.7518867
84	0x3e13ce5c	0.14434189
85	0xbf236802	-0.6383058
86	0xbf22c078	-0.63574934
87	0xbf387e30	-0.72067547
88	0xbf33af1c	-0.7018907
89	0xbf311757	-0.6917624
90	0xbf0dc1eb	-0.5537402
91	0xbe4a5a0e	-0.19760916
92	0xbd55125a	-0.052019455
93	0xbf37f654	-0.7186024
94	0x3eb11ee7	0.3459389
95	0xbf3495ce	-0.70541084
96	0xbf26b835	-0.6512483
97	0xbf26032b	-0.64848584
98	0x3d583bb5	0.052791316
99	0x3ea8022f	0.32814166
100	0x3e8a6baf	0.2703528
101	0xbe557003	-0.2084351
102	0xbf3a0c6c	-0.72675204
103	0x3ea667c7	0.3250105
104	0xbf32c7a6	-0.6983589
105	0xbefbb7cf	-0.49163672
106	0xbf397047	-0.72436947
107	0xbf2c8aa9	-0.6739908
108	0xbf2dcb33	-0.6788818
109	0xbf0ec4fd	-0.5576933
110	0x3d9d4d6c	0.07680783
111	0xbf340918	-0.70326376
112	0xbebf1c0f	-0.37326095
113	0xbf446e6f	-0.7673101
114	0xbf3e524d	-0.7434433
115	0x3d5c1065	0.053726573
116	0xbe57d93d	-0.21078964
117	0xbecd8e66	-0.40147704
118	0xbf27d2ec	-0.65556216
119	0xbf244dd8	-0.6418128
120	0xbf3a5265	-0.72781974
121	0xbf31b7f5	-0.6942132
122	0xbf3288f2	-0.6974021
123	0x3ec192a9	0.37807205
124	0xbf0258ff	-0.5091705
125	0xbea551ed	-0.32289067
126	0xbf2f8dc2	-0.6857568
127	0xbf350485	-0.7071002
128	0xbf37f0d3	-0.71851844
129	0xbee9c5ce	-0.45658726
130	0x3e6594ce	0.22420046
131	0x3ed1d82d	0.40985242
132	0xbf2efbdb	-0.6835305
133	0xbf4635c1	-0.7742577
134	0xbf37497e	-0.71596515
135	0xbf51898c	-0.81850505
136	0xbf23da73	-0.640052
137	0xbf2bbdbe	-0.670864
138	0xbf275bd6	-0.65374506
139	0xbec235bb	-0.37931618
140	0xbf41735e	-0.7556666
141	0xbbfdd77f	-0.0077466364
142	0x3ea07a83	0.3134347
143	0xbe6d72fa	-0.23188391
144	0x3dbe4134	0.0928978
145	0xbf36a7a7	-0.7134957
146	0x3e21f695	0.1581672
147	0x3f1ea45c	0.6196954
148	0xbf38ae6e	-0.7214116
149	0x3e983209	0.29725674
150	0x3eb091e9	0.3448632
151	0x3e8b4623	0.27201948
152	0xbf2ea302	-0.6821748
153	0xbf29d6c8	-0.66343355
154	0xbf32e85e	-0.69885814
155	0xbf4f7930	-0.8104429
156	0x3eb7e9c4	0.35920537
157	0xbf21e026	-0.6323265
158	0xbf42161e	-0.75815
159	0x3e80bba5	0.2514316
160	0xbd4e81a4	-0.050416604
161	0x3e74d4a2	0.23909238
162	0x3e500c47	0.20317183
163	0x3e068430	0.13136363
164	0x3f1164ff	0.5679473
165	0xbf3e7ee8	-0.74412394
166	0xbf2f89b8	-0.6856952
167	0xbf2ee107	-0.68312114
168	0x3e922b1f	0.28548524
169	0xbf2c8fc3	-0.6740686
170	0x3eb45c06	0.35226458
171	0xbf38a65c	-0.72128844
172	0x3e85e744	0.26153004
173	0xbf24356d	-0.6414402
174	0xbf2b39f6	-0.66885316
175	0xbf2741df	-0.65334886
176	0xbf3cd9c9	-0.73769814
177	0xbe12d650	-0.14339566
178	0x3eafae46	0.34312648
179	0xbf395343	-0.7239267
180	0xbf31e172	-0.6948463
181	0x3eaef0d1	0.34168103
182	0x3ed48c33	0.41513214
183	0xbe6a9339	-0.22907723
184	0xbf01cbf0	-0.5070181
185	0xbf48ce45	-0.7843974
186	0xbf30ad5c	-0.69014525
187	0x3ec9254f	0.39286277
188	0xbe9a979e	-0.301938
189	0x3d1958dd	0.037438262
190	0xbf369584	-0.7132189
191	0xbf369db6	-0.713344
192	0xbf2ab301	-0.6667939
193	0xbf088f64	-0.53343797
194	0x3f15b881	0.58484656
195	0x3eb24850	0.34820795
196	0x3eca5a13	0.39521846
197	0x3eb8ee4b	0.36119303
198	0xbc1e427c	-0.009659406
199	0xbf2a6c2a	-0.66571295

weight f4 [1, 200]
0	0x3c70e6d0	0.0147034675
1	0x3ff5aa15	1.919253
2	0x3ec9550d	0.393227
3	0x3ebb2f36	0.36559457
4	0x3fb75cf4	1.4325242
5	0x3ec3273d	0.38115874
6	0x3ea9dc87	0.33176062
7	0x3cba45be	0.022738334
8	0x3cd3fef8	0.025878415
9	0x3e0befea	0.13665739
10	0x3ec2da50	0.38057184
11	0xbf1230b0	-0.5710554
12	0x3eb05f52	0.34447724
13	0xbd0cb2f2	-0.034350343
14	0x3ebe46ec	0.37163484
15	0x3ed937c4	0.42425358
16	0x3ef99bfd	0.48751822
17	0xbccdd4c4	-0.025125869
18	0x3ec52a56	0.38508862
19	0x3cd82a63	0.026387399
20	0xbd0fd2a6	-0.035113
21	0xbd103000	-0.035202026
22	0xbcb083ca	-0.021547217
23	0x3ec62524	0.3870021
24	0xbd0c3b08	-0.034235984
25	0x3eb130cd	0.34607545
26	0x3ec4df8f	0.38451812
27	0x3f5df816	0.86706674
28	0x3d7a8378	0.061160535
29	0x3eb417bd	0.3517436
30	0x3ec58b83	0.38583001
31	0x3ec66c9c	0.38754737
32	0x3ec12a28	0.37727475
33	0x3eb7872d	0.35845318
34	0x3ed127ae	0.40850586
35	0x3ec2de19	0.38060072
36	0x3ebc9520	0.36832523
37	0x3e9292e5	0.28627697
38	0x3eb39c01	0.3507996
39	0x3eb980cc	0.36231077
40	0x3d7a0a88	0.0610452
41	0xbd170238	-0.03686735
42	0x3ec788d6	0.38971585
43	0x3eb51631	0.35368493
44	0x3eb6df0f	0.35717055
45	0x3eadaf6a	0.33922893
46	0x3f2cafaa	0.6745554
47	0xbcaa4dbf	-0.020789025
48	0xbcbdab9f	-0.023153124
49	0x3ed71141	0.4200535
50	0x3ed13de4	0.4086753
51	0x3ef15d66	0.4714157
52	0x3ec459fd	0.38349906
53	0x3eef64b5	0.4675652
54	0x3eb0ea9b	0.3455399
55	0x3eccff41	0.40038493
56	0x3ead648c	0.33865774
57	0x3e5c356a	0.21504751
58	0x3eb88e25	0.36045948
59	0x3ec171bd	0.37782088
60	0xbce56226	-0.028000902
61	0x3ec826cf	0.3909211
62	0xbcdb9e3a	-0.026808847
63	0x3cc32be7	0.023824645
64	0x3cac1877	0.02100776
65	0x3dcef311	0.10104955
66	0x3c86f2c5	0.016473183
67	0x3e919e08	0.2844088
68	0xbcbfa45b	-0.0233938
69	0x3eb9ea0f	0.36311385
70	0x3cc1304f	0.023582606
71	0x3eb96c4f	0.36215445
72	0x3ebb4b0e	0.365807
73	0x3ecc1f80	0.39867783
74	0xbce252f4	-0.027627446
75	0xbca6bd13	-0.02035383
76	0x3caaeb18	0.020864055
77	0xbd18c3ec	-0.03729622
78	0x3ebb5038	0.3658464
79	0x3e8f01e9	0.27931145
80	0xbfa7a938	-1.3098516
81	0xbeb3d293	-0.35121593
82	0x3ec4ecdd	0.38461962
83	0x3eb470d0	0.3524232
84	0x3cf0ca16	0.029393237
85	0x3ec8d8ce	0.3922791
86	0x3ed388ff	0.41315457
87	0x3ebe306a	0.37146312
88	0x3ec42fb4	0.38317645
89	0x3eba6c4b	0.36410746
90	0x3f012931	0.5045348
91	0xbf653b97	-0.8954405
92	0x3cdea54b	0.027178427
93	0x3eb40fed	0.351684
94	0xbd02a3ad	-0.031894375
95	0x3ecb3551	0.39689115
96	0x3ec7aed0	0.3900056
97	0x3ec1b4fb	0.3783339
98	0x3cbcdb2a	0.023053724
99	0xbccf497e	-0.025303598
100	0xbcb088cd	-0.021549607
101	0x3cfd26c4	0.030902274
102	0x3ea76d52	0.32700592
103	0xbcbd6b6e	-0.023122516
104	0x3ec27ade	0.37984365
105	0x3f045159	0.51686627
106	0x3eabe649	0.3357413
107	0x3ec420d6	0.38306302
108	0x3eb5b33e	0.35488313
109	0x3f00f086	0.5036701
110	0x3fe8cc76	1.8187397
111	0x3ec1d6ab	0.3785909
112	0x3f3a80fb	0.7285306
113	0x3e85a98a	0.2610591
114	0x3e9f8621	0.3115702
115	0x4049e236	3.1544318
116	0x3cc6383e	0.02419674
117	0x3f26faba	0.6522633
118	0x3ec23f71	0.37939027
119	0x3ec6ece4	0.38852608
120	0x3eb685f3	0.3564907
121	0x3eb6184b	0.3556541
122	0x3ec40f81	0.3829308
123	0xbd0ab63a	-0.03386519
124	0x3f160037	0.5859408
125	0x4033e119	2.8106139
126	0x3eb7c889	0.35895184
127	0x3ecaa3e7	0.39578173
128	0x3ec2a777	0.3801839
129	0x3f310e02	0.69162
130	0x3d01a090	0.031647265
131	0xbd0db741	-0.034598593
132	0x3ebf13d1	0.37319806
133	0x3e8b879a	0.27251893
134	0x3eb8b440	0.3607502
135	0x3e8aa311	0.27077535
136	0x3ee45e63	0.4460326
137	0x3ec66041	0.3874531
138	0x3ec8f397	0.39248344
139	0x3f3479b7	0.7049822
140	0x3eae4acd	0.34041443
141	0x3cb51f8d	0.022109771
142	0xbcc3b166	-0.023888301
143	0x3f505910	0.813859
144	0x3d961d82	0.07329847
145	0x3eb51d5e	0.35373968
146	0xbc8444a8	-0.01614602
147	0x3e427fd8	0.18994081
148	0x3e8e2115	0.27759615
149	0xbcce7cb5	-0.02520595
150	0xbcf498c4	-0.029858
151	0x3c33d696	0.010976454
152	0x3eb9592b	0.36200842
153	0x3ec24deb	0.37950072
154	0x3ece1445	0.4024984
155	0x3e090b46	0.13383207
156	0xbccb973c	-0.024852388
157	0x3ecd3f78	0.40087485
158	0x3eafb223	0.34315595
159	0xbc9fc9f9	-0.019505488
160	0x3c0f1449	0.008732864
161	0xbc836679	-0.016040074
162	0xbc880b96	-0.016607087
163	0xbc8d5e8a	-0.017256994
164	0x3e01e385	0.12684448
165	0x3eb723cf	0.35769507
166	0x3ec4d7db	0.38445935
167	0x3ebc1143	0.3673192
168	0xbcd5bd3c	-0.02609121
169	0x3ebf67af	0.37383792
170	0xbd093157	-0.03349432
171	0x3e91aab0	0.28450537
172	0xbce39d3a	-0.027784932
173	0x3ec71c3d	0.38888732
174	0x3ebb3f7f	0.3657188
175	0x3ecf7f8f	0.40527007
176	0x3ec17d04	0.37790692
177	0x40395e33	2.8963745
178	0xbcceef27	-0.025260521
179	0x3ec3b241	0.38221934
180	0x3ebe3aa1	0.37154105
181	0xbcf4856d	-0.029848779
182	0xbd0341c8	-0.032045156
183	0x3d0eecf4	0.034893945
184	0x3f076d24	0.5290091
185	0x3e98df6f	0.29857966
186	0x3ecd701e	0.401246
187	0xbcc8ec8c	-0.024526857
188	0x3db75fff	0.08953857
189	0x3c6cbd35	0.014449407
190	0x3ecc9a8d	0.39961663
191	0x3eb36371	0.35036805
192	0x3ebec3a4	0.37258637
193	0x3f0366d4	0.5132878
194	0x3ecf11bc	0.40443218
195	0xbce0d7c6	-0.027446639
196	0xbcbef476	-0.023309927
197	0xbcfb16e1	-0.030650558
198	0x3ccc1ce5	0.024916122
199	0x3ef0be5b	0.4702023
