python/bsc/third_meeting/3rd_prompt/model_f.pt (torch, 3167 bytes, 3 tensors)

weight f4 [32, 3]
-0.45015177 -0.03718023 -0.52794987 -0.20921493 -0.24033968 0.37839487 0.33033842 -0.29022917
0.2518784 -0.2100277 -0.2761497 0.1866984 0.6484866 0.6250441 0.6703217 0.2568459
-1.1055206 -0.58545375 0.048733663 0.4970056 -0.07575199 2.684195e-05 0.048723992 -0.03891484
0.38537163 0.09594365 0.030036211 0.35358655 0.35750055 0.189217 -0.09729469 -0.06483039
-0.12129784 -0.2982808 0.17558897 -0.11822516 -0.1412221 0.17160624 -0.44581112 -0.51525784
-0.32909513 -0.33126318 0.00047742442 -0.11086229 -0.03673838 -0.13686961 0.27850777 -0.5709595
0.3179925 0.37316766 0.5428086 -0.06695995 -0.20337893 -0.004057339 0.63990366 0.48239505
0.86060363 0.29850954 0.6857591 -0.008628837 0.02718142 -0.70923793 0.08592312 -0.44105333
0.27868724 -0.32556078 -0.5925328 0.051757902 -0.120540954 0.0873251 -0.38814798 0.1394343
-0.24112792 0.02079135 0.14775409 -0.46477148 0.40978616 -0.3553102 -0.4484051 0.07668212
0.18089041 0.51133907 -0.0059546875 0.07110294 0.33666033 -0.08732727 -0.08523889 -0.13695991
0.56511205 0.298478 0.16068777 -0.0044772625 0.703423 -0.3100316 0.1789202 -0.42544484
00000000: 4b7a e6be 4c4a 18bd b927 07bf 703c 56be
00000010: 9b1b 76be f9bc c13e 1e22 a93e eb98 94be
00000020: 35f6 803e 8011 57be 7e63 8dbe de2d 3f3e
00000030: 3803 263f e402 203f 349a 2b3f 4e81 833e
00000040: b381 8dbf 4ce0 15bf f39c 473d 8577 fe3e
00000050: dc23 9bbd a62a e137 cf92 473d 2b65 1fbd
00000060: 6e4f c53e 1b7e c43d 800e f63c 4c09 b53e
00000070: 500a b73e 1ac2 413e 7042 c7bd ccc5 84bd
00000080: 006b f8bd 43b8 98be 98cd 333e 0820 f2bd
00000090: 879c 10be 8cb9 2f3e 5b41 e4be f0e7 03bf
000000a0: 287f a8be 549b a9be d24e fa39 c50b e3bd
000000b0: fc7a 16bd 8c27 0cbe 9298 8e3e 672a 12bf
000000c0: eacf a23e d50f bf3e 81f5 0a3f 4c22 89bd
000000d0: 9142 50be 6df3 84bb bad0 233f 7cfc f63e
000000e0: 8550 5c3f 3ed6 983e e98d 2f3f f75f 0dbc
000000f0: 92ab de3c 9e90 35bf 76f8 af3d bed1 e1be
00000100: 18b0 8e3e e7af a6be 3bb0 17bf 1800 543d
00000110: 2dde f6bd 81d7 b23d 55bb c6be ddc7 0e3e
00000120: 3dea 76be 9f52 aa3c d94c 173e 87f6 edbe
00000130: 7ecf d13e 38eb b5be 5a95 e5be 840b 9d3d
00000140: 563b 393e 1ee7 023f 8a1f c3bb 6b9e 913d
00000150: be5e ac3e a4d8 b2bd ba91 aebd 383f 0cbe
00000160: 2fab 103f 1cd2 983e 568b 243e 00b6 92bb
00000170: 8813 343f 76bc 9ebe db36 373e e8d3 d9be

bias f4 [32]
-0.21552497 -0.27373666 -0.36345094 -0.105949715 0.0063588684 0.41848862 0.5959279 -0.46521518
0.00045296393 -0.32782555 0.10147208 0.009519786 -0.27993897 -0.043746322 1.3559754 -0.06340638
0.5331063 0.080073275 0.5825743 0.45071 -0.5740869 -0.78635246 -0.57993287 -0.47192386
-0.21950036 0.47657913 -0.04036328 -0.060767323 -0.14877968 -0.18587182 0.0395107 -0.0755808
00000000: 94b2 5cbe 3627 8cbe 3e16 babe 2afc d8bd
00000010: 0e5e d03b 2444 d63e bb8e 183f af30 eebe
00000020: ca7b ed39 c0d8 a7be 98d0 cf3d e0f8 1b3c
00000030: 2954 8fbe 582f 33bd 9a90 ad3f 34db 81bd
00000040: a879 083f 75fd a33d 9723 153f 76c3 e63e
00000050: 5cf7 12bf 654e 49bf 7b76 14bf 01a0 f1be
00000060: b4c4 60be 2e02 f43e f753 25bd 28e7 78bd
00000070: b359 18be 2f55 3ebe f9d5 213d 1bca 9abd

weight f4 [1, 32]
-0.17018925 -0.0007627027 0.12352281 0.003380219 0.35234025 -0.13229728 0.14655514 0.14909633
0.2448136 0.30076405 -0.019577876 0.016368087 0.03252778 -0.13060117 -0.26222676 -0.002158127
0.27287775 0.056459706 0.31109315 0.2867223 -0.0022140897 0.02307577 -0.079668075 -0.00049586187
0.062010493 -0.094083816 -0.07218329 0.25221562 0.052273154 0.24899685 0.24076049 -0.055927325
00000000: 1746 2ebe 1df0 47ba 87f9 fc3d aa86 5d3b
00000010: f165 b43e f078 07be 8d12 163e b5ac 183e
00000020: 6bb0 7a3e bffd 993e c861 a0bc 5e16 863c
00000030: d93b 053d 50bc 05be 9642 86be 5d6f 0dbb
00000040: a2b6 8b3e 4b42 673d 9a47 9f3e 44cd 923e
00000050: 431a 11bb 6609 bd3c 0429 a3bd bafc 01ba
00000060: b7fe 7d3d 04af c0bd d5d4 93bd 6822 813e
00000070: 601c 563d 08f9 7e3e eb89 763e 0d14 65bd
