python/bsc/third_meeting/3rd_prompt/model_h.pt (torch, 3167 bytes, 3 tensors)

weight f4 [32, 3]
000000 32 84 5d 42 55 d8 5f 42 40 c5 51 42 e6 34 5c 42
       55.379097 55.96126 52.442627 55.05166
000010 6f c2 5e 42 d9 af 4f 42 26 0b 5c 42 14 94 5c 42
       55.689877 51.921726 55.010887 55.144608
000020 73 59 4c 42 54 f9 5c 42 a6 43 5f 42 d4 47 4c 42
       51.087353 55.243484 55.816063 51.070145
000030 11 f3 5b 42 1d 2f 61 42 03 00 51 42 d1 42 5a 42
       54.98737 56.29601 52.25001 54.56525
000040 c8 4e 5f 42 bf d2 4b 42 a4 26 5c 42 56 01 60 42
       55.826935 50.955807 55.037735 56.001305
000050 13 9d 4d 42 3a e0 5b 42 ca 10 60 42 b6 46 4f 42
       51.403393 54.96897 56.016396 51.819054
000060 7f 71 5d 42 49 c8 5f 42 1e 5a 4f 42 fa 67 2c be
       55.360836 55.94559 51.838005 -0.16836539
000070 19 16 52 c1 e2 3a f5 40 da 60 5b 42 75 67 5f 42
       -13.130395 7.663438 54.84458 55.851032
000080 0a f3 4f 42 e6 bc 5d 42 6c bc 5e 42 6f f9 4f 42
       51.987343 55.43447 55.684006 51.993587
000090 39 7b 5d 42 fa e2 5e 42 21 e8 4d 42 50 0c e4 bd
       55.370335 55.721657 51.47669 -0.11135161
0000a0 ae f1 b9 be 59 65 e0 be de a2 c1 bf 3c c4 3c c1
       -0.363172 -0.43827322 -1.5127828 -11.797909
0000b0 4c 36 00 41 22 22 82 3d 0b dc 56 be 3d 95 23 bd
       8.013256 0.063541666 -0.20982377 -0.039937247
0000c0 a2 dc da bd 53 91 76 be 2c 1a 27 be 18 bd 8f be
       -0.106866136 -0.24078874 -0.16318578 -0.28073955
0000d0 f9 0e b9 be 62 6b d0 be 76 30 5b 42 b4 00 60 42
       -0.36144236 -0.40706927 54.797325 56.000687
0000e0 e4 f8 4c 42 e4 5e 5a 42 cd 62 5e 42 d9 05 4c 42
       51.243057 54.592667 55.596485 51.00571
0000f0 14 8b 5c 42 1d 69 5c 42 b2 c7 4c 42 01 bf 41 c1
       55.13582 55.10265 51.195015 -12.109132
000100 f1 e8 f2 bc 54 62 ad 40 c5 c4 1b be 0e c9 00 bf
       -0.02965209 5.418253 -0.1521178 -0.50306785
000110 c4 95 61 be e6 16 5d 42 71 5e 5e 42 67 ce 4d 42
       -0.22029787 55.27236 55.592228 51.451565
000120 62 eb 5c 42 09 cf 5c 42 43 81 4d 42 02 9c f7 be
       55.229866 55.202183 51.376232 -0.48361212
000130 07 f5 d3 be b6 5e f0 3a a3 6a 40 40 86 74 66 c1
       -0.4139788 0.0018338773 3.0065086 -14.403448
000140 3e 8a bd 40 1e af 5d 42 ec bd 60 42 82 80 50 42
       5.9231253 55.421013 56.18547 52.125496
000150 46 b2 8b be 4e 32 50 be 02 4e 32 bf 7d 58 9c bf
       -0.2728445 -0.2033169 -0.6965028 -1.2214504
000160 69 91 26 c1 5d 2d de 40 b5 5d c7 be ad 0e ad be
       -10.410501 6.9430375 -0.3893868 -0.3380026
000170 8e 1f 7b be c6 67 5c 42 e4 45 60 42 4e f6 4f 42
       -0.24523756 55.10134 56.068253 51.990532

bias f4 [32]
000000 6d cb 60 42 e5 31 61 42 70 18 60 42 27 fa 60 42
       56.198658 56.298725 56.023865 56.24429
000010 20 27 61 42 da 9c 61 42 e6 e4 5f 42 74 b5 60 42
       56.288208 56.403175 55.973534 56.1772
000020 5e 94 5f 42 db f3 e6 41 11 43 60 42 8d b1 5e 42
       55.89489 28.86907 56.065495 55.67339
000030 cf 11 63 42 6f 69 62 bd 6f e6 dd 41 7e 4e 11 bf
       56.76739 -0.05527633 27.737516 -0.56760395
000040 8e b1 99 bc e6 0b ed bc 7e 0a 61 42 66 2b 62 42
       -0.018761422 -0.028936338 56.260246 56.54238
000050 72 1a 61 42 d3 ac af 41 27 19 03 bf 8f b4 61 42
       56.275826 21.959387 -0.51210254 56.426327
000060 5b 0e 62 42 e4 84 a0 be d7 b4 d5 41 94 2a 61 42
       56.51402 -0.31351388 26.7133 56.29158
000070 7b 19 c6 be a7 9e c4 41 35 10 08 be cf f2 61 42
       -0.38691315 24.577467 -0.13287432 56.487118

weight f4 [1, 32]
000000 b5 41 59 42 71 9c 5a 42 ff da 59 42 54 63 5b 42
       54.314167 54.652775 54.463863 54.847
000010 65 82 59 42 60 4f 5c 42 0a 0b 5b 42 d8 7a 5a 42
       54.37734 55.077515 54.76078 54.619965
000020 94 fb 59 42 9d 8c cd c2 f2 a5 5a 42 3d 34 5a 42
       54.49568 -102.774635 54.662056 54.551014
000030 c6 9b 5a 42 9f a8 9b bd f0 f5 cd c2 b3 17 7b 3c
       54.652122 -0.07600521 -102.98035 0.015325475
000040 77 07 29 3e 42 6c 84 bd 03 64 5b 42 5b 8e 5c 42
       0.16506754 -0.06465961 54.847668 55.13902
000050 e7 63 5a 42 96 00 a3 c2 a1 0f 01 3d b1 0a 5b 42
       54.59756 -81.501144 0.031509046 54.76044
000060 1c b1 5b 42 11 b5 a7 3d f5 c3 cc c2 d8 43 59 42
       54.92296 0.081888326 -102.38273 54.316254
000070 68 67 f6 bd 18 1f c6 c2 f6 ff 72 bd 83 e9 59 42
       -0.12031442 -99.06073 -0.059326135 54.47804
