python/bsc/third_meeting/3rd_prompt/network_f_hidden_sizes_[32, 64, 128]_activations_['ReLU', 'ReLU', 'ReLU']_lr_0.01_batch_size_64_epochs_50.pt (torch, 49059 bytes, 7 tensors)

weight f4 [32, 3]
0	0xbdcf7de4	-0.101314336
1	0xbf283018	-0.65698385
2	0x3de6342c	0.1124042
3	0xbfa20526	-1.2657821
4	0xbf75ef78	-0.96068525
5	0xbf5b1d29	-0.8559137
6	0x3d939735	0.07206575
7	0xbeeabf77	-0.458492
8	0xbd5fe756	-0.05466398
9	0xbebf0dde	-0.37315267
10	0xbf0519a9	-0.5199228
11	0xbc4a1900	-0.012335062
12	0xbf37535f	-0.7161159
13	0xbe334855	-0.17508061
14	0x3daebc52	0.08532013
15	0xbdeb70fc	-0.114961594
16	0xbec86651	-0.3914056
17	0xbedd8940	-0.43268776
18	0xbd3348a5	-0.04377045
19	0x3d30bb54	0.0431474
20	0xbeae2d5b	-0.34018978
21	0x3d26b47f	0.04069948
22	0xbe9cf585	-0.30656067
23	0xbea01db0	-0.3127265
24	0x3efa5e38	0.48900008
25	0xbdb6c788	-0.08924776
26	0xbdae7634	-0.08518639
27	0xbe3d92c0	-0.18513012
28	0xbdc20205	-0.094730414
29	0x3d759b0e	0.059962325
30	0xbf02e43e	-0.5112952
31	0x3d272f02	0.040816315
32	0xbe220a43	-0.15824227
33	0x3ee50e1d	0.4473733
34	0x3daed1f2	0.08536138
35	0x3eaa995c	0.3332013
36	0xbea4464d	-0.32084885
37	0xbe0ff172	-0.14056948
38	0x3bc0b4c1	0.0058809225
39	0xbdafd9a7	-0.08586436
40	0xbefa171f	-0.48845765
41	0x3e8de07d	0.27710333
42	0xbea126c1	-0.3147488
43	0xbedfc56c	-0.43705308
44	0xbf0a6d9c	-0.540735
45	0xbdc77f51	-0.097410806
46	0xbdb4dc17	-0.08831041
47	0xbdd60b41	-0.10451365
48	0xbf085219	-0.5325027
49	0x3bed3d00	0.007239938
50	0xbe56489c	-0.20926136
51	0x3e703d7b	0.23460953
52	0x3ed87091	0.4227338
53	0x3ee7d83f	0.4528217
54	0x3a5671e8	0.00081804255
55	0x3e8503e1	0.25979522
56	0x3ee6d0f8	0.45081306
57	0xbe184448	-0.14869797
58	0xbdfdd4a1	-0.12394071
59	0xbeb06bf4	-0.34457362
60	0xbd73de20	-0.059538007
61	0xbdb95d78	-0.09051031
62	0xbf135634	-0.5755341
63	0x3c0af56e	0.008481367
64	0xbded9633	-0.11600914
65	0x3ddd6024	0.10809353
66	0x3ea4adbf	0.32163808
67	0x3e561c55	0.20909245
68	0x3e7bc938	0.24588478
69	0x3f0779fa	0.52920496
70	0x3f059d25	0.5219291
71	0x3eff7fb0	0.49902105
72	0x3ca04c84	0.019567735
73	0x3f055006	0.5207523
74	0x3ec94e7f	0.393177
75	0x3b1b0fc0	0.002366051
76	0xbeacc522	-0.3374415
77	0xbe35d11c	-0.1775555
78	0xbf056f97	-0.521234
79	0x3cf2e546	0.029650342
80	0xbe0aa592	-0.13539723
81	0xbe85fe88	-0.26170754
82	0xbeec19e6	-0.4611351
83	0x3ea9b0b6	0.33142632
84	0x3e3d1658	0.18465555
85	0x3eb39514	0.35074675
86	0xbe8054ba	-0.2506464
87	0xbf1501e9	-0.5820604
88	0xbf215281	-0.63016516
89	0xbea7caa7	-0.327718
90	0xbeddfab4	-0.43355334
91	0x3acc2800	0.0015575886
92	0xbe50f36e	-0.20405361
93	0xbf409535	-0.7522767
94	0x3e13df16	0.1444057
95	0x3e122d82	0.14275172

bias f4 [32]
0	0xbe7b6b7c	-0.24552721
1	0x3edc7227	0.4305584
2	0xbe8c4839	-0.27398852
3	0xbd4dbc03	-0.05022813
4	0x3c9b06ab	0.018924078
5	0xbcbc8403	-0.023012167
6	0xbdd3ee7b	-0.10348221
7	0x3ea98854	0.33111823
8	0xbdba5d5f	-0.090998404
9	0x3eb0a317	0.34499428
10	0x3e6ce3b1	0.23133732
11	0x3c550176	0.013000837
12	0x3ec71b3e	0.38887972
13	0xbf1103b8	-0.566463
14	0xbce65900	-0.02811861
15	0x3f7630cb	0.961682
16	0xbeb26b3a	-0.34847432
17	0xbea74b74	-0.32674754
18	0x3d60fbcd	0.054927636
19	0x3f0d464d	0.55185395
20	0xbf123d71	-0.57125
21	0xbee4c48e	-0.4468121
22	0xbe8abb5f	-0.27096078
23	0x3e33b898	0.17550886
24	0xbb904e74	-0.0044038836
25	0xbd218883	-0.03943683
26	0x3d6df66d	0.058096338
27	0x3d7dd1c2	0.06196762
28	0xbdddbec4	-0.10827401
29	0x3f18bf0c	0.59666514
30	0xbdeb9ef4	-0.11504927
31	0x3d37a0fc	0.04483126

weight f4 [64, 32]
0	0xbec9ea1a	-0.39436418
1	0xbce156c8	-0.0275072
2	0xbec92ec7	-0.392935
3	0x3e14496f	0.14481138
4	0xbe8b87ac	-0.27251947
5	0xbe321fc6	-0.17394933
6	0xbef5175d	-0.47869387
7	0xbe4ff7ce	-0.20309374
8	0xbed2043f	-0.41018865
9	0xbeb50de4	-0.3536216
10	0xbe4265d8	-0.18984163
11	0xbe700fbf	-0.23443507
12	0xbec693f7	-0.38784763
13	0xbeb095b6	-0.3448922
14	0xbdbf4b30	-0.09340513
15	0xbe882078	-0.26587272
16	0x3e0ff9c3	0.1406012
17	0xbea49b06	-0.32149523
18	0xbe97acc3	-0.29623994
19	0xbec20486	-0.37894076
20	0x3de13e32	0.10998191
21	0xbef58930	-0.47956228
22	0xbecf3982	-0.40473562
23	0xbe8c8d8e	-0.27451748
24	0xbeb930b0	-0.36169958
25	0xbe08d751	-0.13363387
26	0xbe92b1be	-0.28651232
27	0xbe0a9b0a	-0.13535705
28	0xbe9eaf52	-0.30993134
29	0x3eac512a	0.33655673
30	0xbd75045e	-0.059818618
31	0xbea9b918	-0.33149028
32	0x3d8017c9	0.06254537
33	0x3e1a6281	0.15076639
34	0xbe5a4d2c	-0.21318501
35	0x3e21091b	0.1572613
36	0x3dd25cf8	0.10271639
37	0xbe2b2e7a	-0.16716948
38	0xbccbb9a3	-0.024868792
39	0xbcdb8a77	-0.026799424
40	0xbc68cb84	-0.014208678
41	0x3dca68fa	0.09883304
42	0x3d91f790	0.07127297
43	0xbd8e8bd0	-0.06960261
44	0xbe46712c	-0.19379109
45	0x3d18bb4b	0.03728799
46	0xbcc5d528	-0.024149492
47	0xbe5f2d0c	-0.21794528
48	0x3ded419a	0.11584778
49	0xbe2195d3	-0.1577981
50	0xbddf3e3b	-0.109005414
51	0xbe0878e2	-0.13327363
52	0xbe116dfa	-0.14202109
53	0xbe7f06bc	-0.24904913
54	0xbceafbad	-0.028684461
55	0xbe0a5443	-0.13508706
56	0xbde05572	-0.109537974
57	0xbd2af11c	-0.041733846
58	0xbdf61b7c	-0.12016961
59	0x3d0328ef	0.03202146
60	0x3da60a81	0.08107472
61	0xbe107933	-0.14108734
62	0x3d1cc4e8	0.038273722
63	0x3dbb7635	0.091534056
64	0xbcb63bc7	-0.022245301
65	0xbe8103c1	-0.25198177
66	0x3d9fb3dd	0.07797978
67	0x3d896a34	0.0670971
68	0xbcab9b00	-0.020947933
69	0x3ca388df	0.019962726
70	0x3df67ee7	0.120359235
71	0x3e1c1e76	0.15245995
72	0x3e253523	0.16133551
73	0x3debdb39	0.11516423
74	0xbd78c8cc	-0.06073837
75	0x3d9a9d22	0.07549502
76	0xbe15af88	-0.14617741
77	0xbc3fb2b9	-0.011700326
78	0x3d42186c	0.04738657
79	0xbde620ee	-0.112367496
80	0xbd019268	-0.031633765
81	0x3d94d9c9	0.07268102
82	0x3cdc7eb6	0.02691589
83	0x3e8ca499	0.27469328
84	0xbd3cfdf4	-0.046140626
85	0x3dabb2a0	0.083836794
86	0x3e5fe8fc	0.2186622
87	0x3e715c73	0.23570423
88	0x3cffb3f1	0.031213732
89	0xbe21bccd	-0.15794678
90	0x3d1f8447	0.03894451
91	0x3ddbca3d	0.10731933
92	0x3dc576b0	0.096417785
93	0x3ddf8813	0.10914626
94	0xbd844cec	-0.06459984
95	0xbe175e71	-0.1478212
96	0x3e166153	0.14685564
97	0x3da1ca6f	0.07899939
98	0x3d650cdc	0.055920467
99	0x3cad9f54	0.021194138
100	0xbe5d04c9	-0.21583857
101	0xbd1735aa	-0.036916412
102	0x3cbb2231	0.022843452
103	0x3e04ac81	0.1295643
104	0x3e154781	0.14578058
105	0xbe31f730	-0.17379451
106	0x3db1ccfc	0.08681676
107	0xbdee59ea	-0.116382435
108	0x3dcc4819	0.09974689
109	0xbdcc65ed	-0.09980378
110	0xbd8987bb	-0.06715342
111	0xbf1d4437	-0.6143221
112	0x3e2e8e85	0.17046554
113	0xbb08863b	-0.002083196
114	0xbdf326a4	-0.118726045
115	0xbe6868c6	-0.22696218
116	0xbd9096e8	-0.07060033
117	0xbd0498f0	-0.032372415
118	0x3e23101b	0.15924112
119	0xbdbba1fd	-0.09161756
120	0x3dd3247b	0.103096925
121	0xbd83b0b7	-0.0643019
122	0xbe63fd5c	-0.22264618
123	0x3cd93b38	0.026517496
124	0xbddfbe8d	-0.109250166
125	0x3e69df68	0.22839129
126	0xbd424a2c	-0.047434017
127	0xbe6ae6fe	-0.22939679
128	0x3e0f5281	0.13996316
129	0xbe9e23fb	-0.30886826
130	0x3bd1471b	0.0063866503
131	0xbd6de4a2	-0.05807937
132	0xbe27e535	-0.1639603
133	0x39d63600	0.00040857494
134	0xbdfaffbb	-0.12255808
135	0x3daca5dd	0.084300734
136	0x3e012e5d	0.12615342
137	0x3caed04a	0.021339554
138	0xbd59c92c	-0.053170368
139	0x3c6e2ceb	0.0145370765
140	0xbc16e983	-0.009210947
141	0xbda39321	-0.07987047
142	0x3de9dfca	0.114196375
143	0xbf3eef7e	-0.74584186
144	0xbdcd95f5	-0.10038368
145	0xbe254925	-0.16141184
146	0xbe2cef3b	-0.16888134
147	0xbd104077	-0.03521773
148	0x3e2b0629	0.16701569
149	0xbd01a878	-0.031654805
150	0xbe1f8167	-0.15576707
151	0x3e142705	0.1446801
152	0xbdc71c31	-0.09722174
153	0x3d60d73a	0.054892756
154	0xbe187005	-0.14886482
155	0xbe5fe645	-0.21865185
156	0x3e0b119a	0.13580933
157	0x3df4caae	0.119527206
158	0xbce2be00	-0.02767849
159	0xbe169982	-0.14706996
160	0xbd8c244b	-0.0684286
161	0x3e007a43	0.12546639
162	0xbe6df4af	-0.2323787
163	0xbe25f79b	-0.16207735
164	0x3aa0a358	0.0012255711
165	0xbd03766c	-0.032095358
166	0xbe03c925	-0.128697
167	0xbe59ac64	-0.21257168
168	0xbe825c42	-0.25461012
169	0xbe1e0426	-0.1543127
170	0xbe740cf3	-0.23833065
171	0xbe22dcbc	-0.15904516
172	0x3d8c64f2	0.06855191
173	0xbe675b64	-0.22593457
174	0x3d6540c0	0.055969954
175	0xbcc76fa3	-0.024345225
176	0xbd82870c	-0.063734144
177	0xbd100e93	-0.03517015
178	0x3d8ff35f	0.07028841
179	0xbe31b6c5	-0.17354877
180	0x3e0255f9	0.12728108
181	0xbd11cb59	-0.035594318
182	0x3d2f773f	0.04283833
183	0xbe24ef3f	-0.1610689
184	0x3cf0fd43	0.02941764
185	0xbd885cb6	-0.06658308
186	0xbe241a77	-0.1602572
187	0xbe2cafd3	-0.16863947
188	0x3d2c57b2	0.04207582
189	0x3de109ef	0.10988223
190	0x3d8b6ec2	0.06808235
191	0x3cc781c6	0.024353873
192	0xbe17a9de	-0.14810893
193	0xbe5cf00b	-0.21575944
194	0x3de9c07a	0.11413665
195	0xbe573b9b	-0.21018831
196	0xbd714940	-0.058907747
197	0x3d944113	0.072389744
198	0x3c1a1e11	0.009406582
199	0x3d00d449	0.03145245
200	0x3d1a7d09	0.0377169
201	0xbd83441a	-0.06409474
202	0xbdb6ab7d	-0.089194275
203	0xbdd2c7d0	-0.102920175
204	0xbdae9221	-0.085239656
205	0xbd4e14a1	-0.050312642
206	0x3d405834	0.046959117
207	0x3da8ca90	0.08241761
208	0x3df8227a	0.12115951
209	0xbd0a25c5	-0.033727426
210	0x3b28dd55	0.002576669
211	0x3de7354b	0.11289462
212	0x3daeb19a	0.085299686
213	0xbdd8fd25	-0.105951585
214	0x3ded8fb9	0.115996785
215	0xbb67f61c	-0.0035394495
216	0x3d792787	0.06082871
217	0xbd8bab3b	-0.06819769
218	0xbd235544	-0.039876238
219	0xbcffaa55	-0.03120915
220	0x3dbb5b3d	0.09148262
221	0xbdcf2782	-0.101149574
222	0x3cbf2300	0.023332119
223	0xbe556659	-0.20839824
224	0xbdab5bb6	-0.08367102
225	0xbde8f08c	-0.11374006
226	0xbb2a01c0	-0.0025940984
227	0xbe226da4	-0.15862137
228	0x3c5f58f0	0.013632044
229	0x3d236eac	0.039900467
230	0xbcdbaf88	-0.026817098
231	0xbe2182fa	-0.1577262
232	0xbdbd0899	-0.092301555
233	0xbda9d016	-0.08291642
234	0xbd24e89c	-0.040260896
235	0xbdce078c	-0.10060033
236	0x3ca9d258	0.020730183
237	0xbe24190f	-0.16025184
238	0xbe002c9f	-0.12517022
239	0xbdc36be2	-0.095420614
240	0xbd0f62e4	-0.03500642
241	0x3d1b24b0	0.037876785
242	0xbd343b94	-0.04400213
243	0xbe1cb3b2	-0.15302923
244	0x3e08aeb9	0.13347901
245	0xbcb17558	-0.0216624
246	0x3dee0b4e	0.1162325
247	0xbe036925	-0.12833078
248	0x3dad5f26	0.08465414
249	0x3d2acb98	0.04169807
250	0x3e172a73	0.14762287
251	0x3c930140	0.017944932
252	0xbd1f66e4	-0.038916484
253	0x3cfa7a00	0.030575752
254	0xbd4d4a40	-0.05011964
255	0xbd63ec92	-0.055645533

bias f4 [64]
0	0xbdf5cd23	-0.12002017
1	0x3bf2f2a4	0.007414179
2	0xbe6802db	-0.2265734
3	0x3da6a7c6	0.08137469
4	0xbe404afc	-0.18778604
5	0xbe890da2	-0.26768214
6	0xbe2e395f	-0.17014073
7	0x3cde1a10	0.027112037
8	0xbdbd8dac	-0.092555374
9	0x3d1c56f0	0.038168848
10	0xbdef8cd2	-0.11696781
11	0xbd9bba0d	-0.07603846
12	0xbe2941ba	-0.16528979
13	0x3c24657f	0.010033964
14	0x3d045d78	0.0323157
15	0xbd0c2893	-0.034218382
16	0xbe37a8fb	-0.17935555
17	0xbe14e18c	-0.14539164
18	0x3d6cfe4c	0.057859704
19	0xbe66c181	-0.22534753
20	0xbe4198ae	-0.18905899
21	0xbdd0615a	-0.10174818
22	0xbe095e6a	-0.13414922
23	0xbdfa8177	-0.12231725
24	0xbd011c63	-0.031521212
25	0xbc8a2e4f	-0.016867785
26	0xbdcd78e2	-0.10032822
27	0x3d836993	0.06416621
28	0xbdca9db0	-0.09893358
29	0x3d404c69	0.04694787
30	0x3d9124aa	0.07087071
31	0xbe58ed95	-0.2118438
32	0xbdce6b2b	-0.100790344
33	0xbdef822b	-0.116947494
34	0xbc59b7c0	-0.013288438
35	0x3d9b9c64	0.075981885
36	0xbdc521cb	-0.09625586
37	0x3dc374c7	0.09543758
38	0xbe1f50b2	-0.15558127
39	0xbd5124a9	-0.051060352
40	0xbe96bf9c	-0.2944306
41	0xbd8224df	-0.06354689
42	0xbe81d708	-0.25359368
43	0x3daad6eb	0.083417736
44	0xbdacd51b	-0.08439084
45	0x3cf59f78	0.029983267
46	0xbc18fcb0	-0.009337589
47	0xbda95936	-0.08268969
48	0x3dbe73ec	0.09299454
49	0xbeb9f94c	-0.3632301
50	0xbd09d271	-0.03364796
51	0xbd3e478e	-0.04645496
52	0xbe1cc6d5	-0.15310223
53	0xbd710bc8	-0.058849126
54	0x3d02f742	0.031974085
55	0xbc1ac3ca	-0.009446094
56	0xbdd8fa72	-0.10594644
57	0x3caaf86f	0.020870415
58	0xbd998eac	-0.074979156
59	0x3d22a177	0.039704766
60	0xbe8517c5	-0.25994697
61	0xbe184dab	-0.14873378
62	0x3d8c09e1	0.06837822
63	0xbe861a5a	-0.2619198

weight f4 [128, 64]
0	0xbcf26a30	-0.02959165
1	0xbd528ccc	-0.051403806
2	0xbeb07a6a	-0.34468395
3	0xbd1fe01c	-0.039032087
4	0xbde41714	-0.11137214
5	0x3dae714c	0.085177034
6	0xbe2b945c	-0.16755813
7	0x3dfb96c4	0.12284616
8	0xbe8f6d74	-0.28013194
9	0xbca4db30	-0.020124048
10	0xbd83780a	-0.0641938
11	0xbd47ba24	-0.048761502
12	0x3ddbeb94	0.10738292
13	0xbd8a92a2	-0.06766249
14	0x3d8977be	0.06712292
15	0x3c458220	0.01205495
16	0x3ec4db2d	0.38448468
17	0x3ddf9b8c	0.1091834
18	0xbd78a6bc	-0.060705885
19	0xbdfdaa62	-0.123860136
20	0xbbde0fe0	-0.006776795
21	0xbd36ede8	-0.04466048
22	0xbdab2eba	-0.08358522
23	0x3e4c9fc4	0.19982821
24	0xbe82a077	-0.2551305
25	0xbf20085d	-0.6251276
26	0x3c397c60	0.011321157
27	0xbdd68f48	-0.104765475
28	0xbc960538	-0.018313035
29	0xbcb47818	-0.022029921
30	0xbdfae404	-0.12250522
31	0x3dbac3fe	0.09119414
32	0xbf2ebda8	-0.6825814
33	0x3d7e047c	0.062015995
34	0x3d9a0332	0.07520141
35	0xbc410300	-0.0117805
36	0x3d7cf6fc	0.06175898
37	0xbeb96751	-0.36211637
38	0x3cf472f0	0.029839963
39	0xbf22c4fd	-0.6358183
40	0xbec98807	-0.39361593
41	0xbe9c7ff3	-0.30566368
42	0x3dcf1734	0.101118475
43	0x3d778cb0	0.060436904
44	0x3dabd4ea	0.083902195
45	0xbf083d80	-0.5321884
46	0x3d94b876	0.07261746
47	0x3d683670	0.05669254
48	0x3d1548b0	0.036446273
49	0x3d9c932a	0.07645257
50	0x3d644d30	0.055737674
51	0x3dd1f422	0.10251643
52	0xbd0729d8	-0.03299889
53	0xbf234ee0	-0.6379223
54	0xbef79784	-0.48357785
55	0xbf21ba4f	-0.6317491
56	0x3e5bb98a	0.21457496
57	0x3daf0238	0.08545345
58	0xbd870e8a	-0.0659457
59	0xbf0c99e5	-0.54922324
60	0xbdb443d4	-0.08802
61	0xbeb5577c	-0.35418308
62	0x3eae685f	0.34064004
63	0x3d312f24	0.043257847
64	0x3de697ee	0.11259447
65	0xbdd01ac0	-0.10161352
66	0xbdaf8e2c	-0.08572039
67	0xbdc38340	-0.09546518
68	0x3b72db00	0.0037056804
69	0xbdf578fc	-0.119859666
70	0xbdf6c868	-0.12049943
71	0xbdfd90a6	-0.12381105
72	0xbd694850	-0.05695373
73	0x3d826976	0.06367771
74	0x3dd0bcea	0.101922825
75	0x3dea2234	0.11432305
76	0xbd9c02a0	-0.07617688
77	0xbda3e9d2	-0.08003582
78	0x3daa8e7c	0.08327958
79	0x3d810a9c	0.06300852
80	0xbd50a358	-0.050937027
81	0xbdfb2de8	-0.12264615
82	0xbde2d858	-0.110764205
83	0xbd6e3af4	-0.05816169
84	0x3cf1f5e8	0.029536203
85	0xbce57090	-0.028007776
86	0xbd9fe1ea	-0.078067616
87	0x3b539400	0.003228426
88	0x3d73d77c	0.059531674
89	0x3d600300	0.05469036
90	0xbdcf65d2	-0.101268426
91	0xbd3e9c5c	-0.046535835
92	0xbdf92690	-0.12165558
93	0x3bbbb680	0.005728543
94	0x3d1abdf0	0.037778795
95	0x3d8dec82	0.06929876
96	0x3c01d980	0.007925391
97	0x3d91042c	0.07080874
98	0x3df00e30	0.11721456
99	0xbb57f500	-0.0032952428
100	0xbdbe3862	-0.09288098
101	0xbdbef6c6	-0.09324412
102	0x3d8febee	0.07027422
103	0xbc2036a0	-0.009778649
104	0x3dce97ba	0.10087533
105	0xbdcaab90	-0.09896004
106	0x3d981c64	0.0742729
107	0xbd3ff828	-0.04686752
108	0x3d1fe48c	0.03903632
109	0xbd9e5d96	-0.07732694
110	0xbd0438d8	-0.032280773
111	0xbcf3d288	-0.029763475
112	0x3d38c3f0	0.045108736
113	0xbd7a7ae4	-0.061152354
114	0x3db276a6	0.08714037
115	0xbdaf964e	-0.0857359
116	0xbdac4f3a	-0.08413549
117	0x3d110e44	0.035413995
118	0xbd7832bc	-0.06059526
119	0xbd97c76a	-0.07411082
120	0xbd748750	-0.059699357
121	0x3d396e74	0.045271352
122	0xbd984a00	-0.074359894
123	0xbc075090	-0.008258954
124	0x3d92f404	0.071754485
125	0x3de265a6	0.11054544
126	0xbcda3258	-0.026635334
127	0xbab8b800	-0.0014092922
128	0xbe1f355d	-0.155477
129	0x3e0fc8e2	0.14041474
130	0x3df17446	0.117897555
131	0xbd2b7d78	-0.041867703
132	0xbbed4793	-0.0072411983
133	0x3d17494e	0.036935143
134	0x3d04c4db	0.0324143
135	0x3aa68400	0.0012704134
136	0x3d9e6728	0.07734519
137	0x3d0d7497	0.034535017
138	0x3c734888	0.014848836
139	0x3d96b826	0.07359342
140	0x3c0d1c00	0.008612633
141	0x3c9b636c	0.018968306
142	0x3bea3a9c	0.0071481
143	0xbc9c4fc1	-0.019080998
144	0xbd761be2	-0.060085185
145	0xbdcb5869	-0.09928972
146	0x3dbf5772	0.09342851
147	0x3d60cc56	0.05488237
148	0x3c0cf84b	0.0086041195
149	0xbd0f2011	-0.03494269
150	0x3c9b5afd	0.018964285
151	0xbe1dc3b7	-0.1540669
152	0xbdc9ec3f	-0.098595135
153	0x3e3bc36c	0.18336266
154	0x3dfbcb2f	0.122946136
155	0x3cef5dc7	0.029219521
156	0x3d06b33e	0.032885782
157	0x3c63b12c	0.013897222
158	0xbdce1548	-0.10062653
159	0x3d61872f	0.05506056
160	0xbca8a5c1	-0.02058685
161	0xbd9fd73e	-0.07804726
162	0xbcf73208	-0.030175224
163	0x3d12958c	0.03578715
164	0x3d792557	0.060826626
165	0x3dbcb937	0.092150144
166	0x3cedd387	0.029031528
167	0x3d880893	0.066422604
168	0xbd26d7c6	-0.04073312
169	0xbd22adcd	-0.03971653
170	0x3e4a1d48	0.19737732
171	0xbafd04bb	-0.0019303778
172	0xbd4a83e0	-0.049442172
173	0x3d0a0f2e	0.033705883
174	0xbdea36ac	-0.11436209
175	0xbd723f60	-0.05914247
176	0x3deaa92f	0.114580505
177	0x3e1813d4	0.14851314
178	0x3c8eac4b	0.01741614
179	0xbd394770	-0.045234144
180	0xbd6b403a	-0.057434298
181	0x3e2e6a96	0.17032847
182	0x3dd5b00d	0.1043397
183	0x3d9af38a	0.07565983
184	0xbde0d4f0	-0.109781146
185	0xbd7e8e88	-0.062147647
186	0x3e3347ba	0.1750783
187	0x3e276137	0.16345678
188	0xbd9e8d65	-0.077418126
189	0xbd2a473a	-0.041571833
190	0xbdfafd29	-0.12255318
191	0x3e35e2e0	0.17762327
192	0xbe984d01	-0.2974625
193	0x3d0f0c81	0.034924034
194	0x3e4f4b22	0.20243505
195	0xbdbf5131	-0.09341658
196	0x3cb6164d	0.02222743
197	0x3e32f5f3	0.17476635
198	0x3de315c5	0.110881366
199	0x3d9c5180	0.076327324
200	0x3e22f829	0.15914978
201	0x3d20156a	0.039082922
202	0xbd0487b4	-0.03235598
203	0x3d115414	0.035480574
204	0xbc7ea08c	-0.015541207
205	0x3d451ddb	0.048124176
206	0x3e3cf538	0.18452919
207	0x3d6cc3bc	0.057803854
208	0x3ce9457d	0.028475517
209	0xbe14b34a	-0.14521518
210	0x3d0ef2e4	0.034899607
211	0xbcd8250b	-0.026384851
212	0xbe03f70f	-0.12887214
213	0x3ce49420	0.027902663
214	0x3d0a0f7f	0.033706184
215	0xbe1209b8	-0.1426152
216	0xbd85881c	-0.065201014
217	0x3e50a51d	0.20375486
218	0x3d9e631b	0.077337466
219	0xbd47f887	-0.048821
220	0xbcea8f1e	-0.028632697
221	0x3da099dd	0.07841847
222	0x3cee672e	0.029101934
223	0x3d544e5e	0.05183255
224	0x3e4f909b	0.20270006
225	0x3cc2ff08	0.023803249
226	0xbd650d50	-0.0559209
227	0x3e029a02	0.12754062
228	0xbd062f1e	-0.03275978
229	0xbdebe8b9	-0.11518998
230	0x3d0a5a72	0.03377766
231	0x3e037773	0.12838535
232	0x38ec2c00	0.000112615526
233	0x3e6fa157	0.2340139
234	0x3e4b2c62	0.1984115
235	0x3dc67925	0.09691075
236	0xbd80edea	-0.062953785
237	0x3da7d367	0.08194619
238	0x3c5442e0	0.012955397
239	0xbe798808	-0.24368298
240	0x3c3f4557	0.011674247
241	0x3e403419	0.18769874
242	0xbd0b4843	-0.03400446
243	0xbdd9e53e	-0.106394276
244	0xbd26204b	-0.04055814
245	0x3e678d4f	0.22612499
246	0x3d269129	0.04066578
247	0x3d7221b4	0.059114173
248	0x3ddd3ed3	0.108029984
249	0x3e3df2f9	0.18549718
250	0x3dfea6ab	0.12434133
251	0x3da01bdb	0.07817813
252	0x3cc962f3	0.024583315
253	0x3e0915eb	0.13387267
254	0x3c68bcce	0.014205171
255	0x3c73771d	0.014859942

bias f4 [128]
0	0xbe9ddbbc	-0.30831707
1	0xbd872d8a	-0.06600483
2	0x3e243303	0.16035084
3	0x3e1ea84b	0.15493886
4	0xbbe5cb79	-0.007012781
5	0xbdfcab61	-0.123373754
6	0xbceca639	-0.028887855
7	0xbc45edcb	-0.01208062
8	0x3cce1c6f	0.025160043
9	0x3dc88ea8	0.097928345
10	0xbd3ad98a	-0.045617618
11	0x3da57867	0.080796055
12	0xbd8544a8	-0.06507236
13	0xbcaef29d	-0.021355921
14	0x3cc230fa	0.023704994
15	0x3a123021	0.000557663
16	0xbde06adb	-0.10957881
17	0xbdacb48e	-0.084328756
18	0xbbd1b88e	-0.0064001745
19	0xbd832810	-0.06404126
20	0xbe0849d0	-0.13309407
21	0xbd8a8001	-0.06762696
22	0xbb9aa6ee	-0.0047196066
23	0xbcf1b00f	-0.029502897
24	0xbb083a9d	-0.002078689
25	0x3df211ba	0.11819787
26	0xbd88c7fc	-0.06678769
27	0x3d482724	0.048865452
28	0xbde70fdd	-0.112823226
29	0x3e0b8627	0.13625394
30	0xbdbecfd2	-0.09316982
31	0xbe085b5c	-0.13316101
32	0x3e189e0a	0.14904037
33	0xbe2bf2b2	-0.167918
34	0xbe2c0c45	-0.16801555
35	0xbe2bf91f	-0.16794251
36	0x3d0f93e0	0.035053134
37	0x3ca27939	0.019833194
38	0xbe02db15	-0.12778886
39	0x3e501f7d	0.20324512
40	0xbe819780	-0.25310898
41	0x3dbd532c	0.092443794
42	0xbe3a1f22	-0.18175939
43	0xbcddfca4	-0.027098008
44	0x3da4b63c	0.08042571
45	0xbc9a4613	-0.018832242
46	0xbbbefc17	-0.0058283913
47	0xbed03429	-0.40664795
48	0x3d75b946	0.059991144
49	0x3e2eec86	0.17082414
50	0xbb9eb83c	-0.00484374
51	0xbd75b275	-0.059984643
52	0x3d1154c5	0.035481233
53	0xbb5b3b90	-0.003345225
54	0x3da0b254	0.078465134
55	0x3d05af2d	0.032637764
56	0x3db3aab7	0.08772796
57	0xbb0b6123	-0.0021267615
58	0xba079910	-0.00051726494
59	0x3c9e0b0c	0.019292377
60	0xbd3773cc	-0.044788167
61	0x3de2825b	0.110600196
62	0x3e00dd1e	0.1258435
63	0xbdebcb22	-0.11513354
64	0xbdab0d65	-0.08352164
65	0xbcfbbbea	-0.030729253
66	0xbdc604a0	-0.09668851
67	0xbdfdf58b	-0.12400349
68	0x3e50a177	0.20374094
69	0x3d6f3fde	0.058410518
70	0xbd238d45	-0.039929647
71	0xbac1a109	-0.0014772724
72	0xbd4b0ca0	-0.049572587
73	0x3c1c57c6	0.009542411
74	0xbe476538	-0.19472206
75	0xbce74f31	-0.028236004
76	0xbda5cc16	-0.08095567
77	0x3e172c03	0.14762883
78	0xbd9fa640	-0.077953815
79	0xbc891a05	-0.01673604
80	0x3e299599	0.16560973
81	0xbcd15c17	-0.025556607
82	0x3c907bd0	0.017637163
83	0x3d1aaf5e	0.0377649
84	0x3de7c07b	0.113160096
85	0x3e3c27e5	0.18374594
86	0x3d0a6b4f	0.033793744
87	0xbaceb34f	-0.0015769991
88	0x3c389e83	0.011268261
89	0x3c465661	0.012105555
90	0xbda5cca3	-0.08095672
91	0x3e102431	0.14076306
92	0xbdea694c	-0.11445865
93	0x3e1824b0	0.14857745
94	0xbb19609c	-0.002340353
95	0x3c727433	0.014798212
96	0xbd4bafca	-0.049728192
97	0xbdef6614	-0.11689392
98	0x3c540031	0.012939499
99	0xbda89af8	-0.08232683
100	0x3ca557de	0.0201835
101	0xbdc8fd42	-0.0981393
102	0x3d055c15	0.03255852
103	0x3c65e473	0.014031517
104	0xbc99f312	-0.018792663
105	0x3d33faa9	0.04394022
106	0xbd940368	-0.07227212
107	0xbb05c7fc	-0.002041339
108	0x3de8042d	0.113289215
109	0xbdaddb30	-0.08489072
110	0x3db8fcbd	0.09032581
111	0xbb816e04	-0.0039498825
112	0x3ab759c3	0.0013988543
113	0x3cb88260	0.022523105
114	0x3de21e0b	0.110408865
115	0x3d0f56de	0.034994952
116	0x3bcc733f	0.0062393243
117	0xbcf015fa	-0.029307354
118	0x3c6cdb74	0.014456619
119	0x3da78271	0.081791766
120	0xbe39f9d3	-0.18161707
121	0xbd808676	-0.062756464
122	0xbe43cc4a	-0.19120899
123	0xbdb003f2	-0.085945025
124	0x3e151051	0.14557005
125	0x3c87f483	0.016596084
126	0x3db807f6	0.089858934
127	0x3d31fcfd	0.04345416

weight f4 [1, 128]
0	0xbdc3a542	-0.09553005
1	0x3d5515a6	0.0520226
2	0x3daa56a8	0.083173096
3	0x3e189788	0.14901555
4	0xbcc2ca95	-0.02377824
5	0x3a2a3234	0.0006492466
6	0x3dbd42c2	0.09241249
7	0x3d0e25d7	0.034704056
8	0x3b98cd41	0.00466314
9	0x3cbf6341	0.023362758
10	0x3cb787e5	0.022403667
11	0x3d3c93ac	0.04603927
12	0xbcc7485b	-0.024326494
13	0x3d1f822e	0.03894251
14	0x3d82d3d5	0.0638806
15	0x3d5a74f0	0.053334177
16	0xbaa039e5	-0.0012224285
17	0xbdbc97a1	-0.092086084
18	0x3d88dd30	0.06682813
19	0x3c8a1214	0.016854323
20	0x3d1b60ab	0.037933987
21	0x3caaf1ac	0.020867191
22	0x3cc90b14	0.024541415
23	0x3b429ec9	0.0029696694
24	0xba0458bf	-0.00050486246
25	0x3c759332	0.014988707
26	0xbce19d13	-0.02754072
27	0xbcacbba6	-0.021085571
28	0x3c029182	0.007969262
29	0x3deb76db	0.11497279
30	0xbd168ed3	-0.0367573
31	0x3a8a24bf	0.0010539516
32	0x3d7108a6	0.05884614
33	0x3d51975c	0.05116974
34	0xbc2e27f7	-0.010629646
35	0x3cee32fd	0.029077047
36	0xbac03559	-0.0014664336
37	0xba8e0c95	-0.001083749
38	0xbd081775	-0.033225495
39	0x3e21010b	0.15723054
40	0xbe383e6e	-0.17992565
41	0x3d2d8ecf	0.04237252
42	0x3c8b44bc	0.017000549
43	0x3d3c9282	0.04603816
44	0x3ddb7a5d	0.10716698
45	0x3d284d88	0.041089565
46	0x3c96b851	0.018398436
47	0x3e824f91	0.2545133
48	0x3e14c190	0.14526963
49	0x3df7955c	0.12089035
50	0x3c863513	0.01638273
51	0x3bc9be90	0.00615675
52	0x3e088171	0.13330628
53	0x3c806cf5	0.015676955
54	0x3da7eb63	0.08199193
55	0xbc103ab2	-0.008803057
56	0x3b2b71fb	0.0026160467
57	0x3d07f46b	0.03319208
58	0x3d36e0a3	0.044647824
59	0x3d3f1cc6	0.0466583
60	0xbd473c9e	-0.048641793
61	0x3b5041ab	0.0031777422
62	0x3d56daf3	0.0524549
63	0xbd7b5892	-0.061363764
64	0x3d1cdde8	0.038297564
65	0x3daee7e8	0.08540326
66	0x3aaa3cbc	0.0012988071
67	0x3cd4054f	0.025881438
68	0x3e101eb5	0.14074214
69	0x3da402ae	0.080083236
70	0x3caa6825	0.020801613
71	0x3cd08213	0.02545265
72	0x3a6ad9db	0.00089588546
73	0x3d71e0fa	0.059052445
74	0x3d644179	0.055726502
75	0x3d6dbbad	0.05804031
76	0x3cf10233	0.029419994
77	0x3b9d7a6d	0.004805854
78	0xbd9dcaf6	-0.07704727
79	0xbc1f5bcc	-0.009726476
80	0xbebe2b62	-0.37142473
81	0x3d92b1d5	0.07162825
82	0x3ad57d4d	0.0016287953
83	0xbb42ec98	-0.0029743072
84	0x3d95634c	0.0729433
85	0x3da186b3	0.0788702
86	0x3aad6fc9	0.0013232167
87	0x39cacc28	0.0003868055
88	0x3cc3c178	0.023895964
89	0x3bff8800	0.007798195
90	0x3a3efad8	0.00072853034
91	0x3e1b66b9	0.15175904
92	0x3d56aa2a	0.052408375
93	0x3e0b6387	0.13612185
94	0xba4deb6c	-0.000785521
95	0x3c0e5612	0.008687513
96	0x3b552360	0.0032522306
97	0xbd0e8c66	-0.034801863
98	0x3d6cc6c7	0.057806756
99	0xbc02af26	-0.007976329
100	0x3b3f56aa	0.0029195943
101	0x3c8ae230	0.016953558
102	0x3b1f8b8a	0.0024344646
103	0xbcb91f47	-0.022597922
104	0x3d571c34	0.05251713
105	0x3d405f34	0.046965793
106	0x3d6576a1	0.056021336
107	0xba00785a	-0.0004900746
108	0x3e1b10f5	0.15143187
109	0x3d61855e	0.05505883
110	0x3d57866e	0.052618437
111	0x3d8beff1	0.068328746
112	0x3d6dafe3	0.058029067
113	0x3d1ae0a3	0.037811887
114	0x3e3177ca	0.17330852
115	0x3e0af187	0.13568698
116	0x3d348810	0.04407507
117	0x3bac10cf	0.005251027
118	0x3ccb1393	0.024789607
119	0x3c8d3d77	0.017241223
120	0x3b35402c	0.0027656658
121	0x3c22f96f	0.009947165
122	0xbdec468a	-0.11536892
123	0xbb9df600	-0.0048205853
124	0x3e119e5f	0.1422057
125	0x3d0472fe	0.032336228
126	0x3aebbb04	0.0017984812
127	0x3d18c3bd	0.037296046
