python/bsc/third_meeting/3rd_prompt/network_g_hidden_sizes_[64, 128, 256, 512]_activations_['LeakyReLU', 'LeakyReLU', 'LeakyReLU', 'LeakyReLU']_optimizer_Adam_lr_0.001_batch_size_64_epochs_100.pt (torch, 703875 bytes, 9 tensors)

weight f4 [64, 3]
000000 3a dd 0a bf bf 3e 78 3e db 44 1a be c3 1b 8d 3e
       -0.54243815 0.24242686 -0.15065329 0.27560243
000010 ca 69 ba 3e 7e 10 07 3f 7a 92 05 be c9 a7 f1 3d
       0.36408836 0.5275954 -0.13044158 0.117995806
000020 d6 9f b6 be 7c 31 e6 bd df a6 98 3d f5 8a 15 3e
       -0.3566882 -0.11239907 0.07453703 0.14603789
000030 43 25 b5 3e 6d ae 43 3e 5c f1 21 bd 6a 80 60 be
       0.3537999 0.19109507 -0.03953682 -0.21923986
000040 35 7f bd 3e 00 7a d3 be 45 08 27 bf eb 22 85 bd
       0.37011114 -0.41304016 -0.65246993 -0.06500801
000050 08 fd e3 3e 7a c0 c5 3e 3d 8e 8f bd 55 c4 cc 3e
       0.44528985 0.3862341 -0.07009552 0.3999354
000060 80 74 5b 3e 0b 34 84 be 64 43 96 be c7 01 ff bc
       0.2143116 -0.25820956 -0.2934829 -0.031128777
000070 73 9f c6 3e 29 08 d4 be 83 a3 79 3e 58 41 ca be
       0.38793525 -0.41412476 0.24378781 -0.39502978
000080 6b a7 89 3e 54 32 67 be 8c b4 bc 3b f4 7b 27 be
       0.26885542 -0.22577792 0.0057588276 -0.16355878
000090 34 2a bc 3e cb 0d a8 be 2e bd cd 3e e4 cd b6 3e
       0.36750948 -0.32823023 0.40183395 0.35703957
0000a0 2d 86 07 3f ed e1 dc be 81 db de be 5a 82 09 3f
       0.5293911 -0.43141118 -0.43526843 0.53714526
0000b0 de 12 38 be 7e 5d 44 be 06 dc 42 3e c6 e2 e3 3e
       -0.17975947 -0.1917629 0.19029245 0.44508952
0000c0 f6 6e 82 be c0 c3 3c 3e 04 5d 9c 3d 11 23 f4 3e
       -0.2547528 0.18434048 0.07634929 0.47683004
0000d0 60 6e 68 be 09 b1 e3 be 42 4f 58 3e e1 89 da 3e
       -0.22698355 -0.44471005 0.21123984 0.42683318
0000e0 f2 65 a0 bd b4 c6 04 3e 5c a8 ae bd 9b d4 4f 3e
       -0.078319445 0.12966424 -0.08528206 0.20295946
0000f0 53 e0 a1 be 6b 1b 77 3e 0d 87 19 3e 3b b3 04 3f
       -0.31616458 0.24131553 0.14992924 0.51835984
000100 7d 12 7d bc cf ba a3 be fd ba ac 3d 3e a2 4b 3e
       -0.0154463025 -0.3197846 0.08434103 0.19886109
000110 84 6a 77 be 84 4d da 3e ed d1 8d 3e 5b 8e d7 be
       -0.24161726 0.42637265 0.27699223 -0.42100796
000120 e2 78 13 be f6 49 08 3f 76 53 d0 be 53 69 fb be
       -0.14401582 0.53237855 -0.40688676 -0.49103794
000130 25 16 02 3b 8c 4d f7 3e 68 7e 98 be e5 14 03 3f
       0.0019849625 0.4830135 -0.2978394 0.5120376
000140 9e ea b2 3e 33 f3 18 3f c6 6d 87 be e1 eb b2 be
       0.34944624 0.5974609 -0.26450938 -0.34945586
000150 fe ba 8e be d3 73 76 be 08 de 11 bc 4d 42 68 be
       -0.2787704 -0.24067621 -0.008903034 -0.22681542
000160 c3 6b b4 3e 21 f2 95 3c ff ff de be 61 17 32 3e
       0.35238466 0.018303933 -0.43554685 0.17391731
000170 2e 06 87 3e 29 b3 81 3e 42 49 8e be 15 58 89 be
       0.26371902 0.25332 -0.27790266 -0.26825014
000180 77 83 c3 3e 29 51 71 bd 7f 5c b4 be a5 dd 06 3f
       0.38186237 -0.05891529 -0.3522682 0.5268195
000190 9f 56 0a 3f 5c fe 39 be c8 73 b4 3e bd a3 ce 3e
       0.54038423 -0.18163437 0.35244584 0.40359297
0001a0 ac 48 d2 be 74 74 44 3e f2 ee 51 3e 26 27 ae 3e
       -0.4107107 0.19185048 0.20501307 0.34014243
0001b0 f3 5a e3 3e 4c 20 ce 3d 32 d9 2b 3e 4b 12 d3 be
       0.44405326 0.10064754 0.16782072 -0.41224894
0001c0 75 17 07 3f 3d 8c 1c 3e fe 1a bd be c5 15 0d 3f
       0.5277017 0.15287872 -0.36934656 0.5511134
0001d0 ed 2d a0 3d f7 38 86 bd 85 ad a3 be ba 4a 99 3e
       0.0782126 -0.06553834 -0.31968322 0.29939824
0001e0 2e c4 0a bf 0a e2 9d be fa 31 73 bd 8a eb d3 bd
       -0.54205596 -0.30836517 -0.059373833 -0.1034766
0001f0 03 3e f2 3d 5d ee f1 bb 05 fa dc be 4b 89 5b be
       0.11828234 -0.0073831514 -0.431595 -0.21439092
000200 78 7d 4d bd d8 91 e1 be 03 dc 01 bf c0 b2 0b 3f
       -0.050168484 -0.44056582 -0.50726336 0.54569626
000210 14 5e a5 3e f7 70 a4 be 43 c5 99 be 9e 37 27 be
       0.32298338 -0.32117435 -0.3003331 -0.1632981
000220 05 15 80 3d 5e 01 c0 be 8b 23 c1 be c7 d7 a0 3e
       0.06254009 -0.37501043 -0.3772243 0.31414625
000230 67 19 3b 3e 95 4e c1 3e ee ed 24 3e cb b3 e3 be
       0.18271409 0.37755266 0.16106388 -0.4447311
000240 8b cb aa be ad 16 b4 be 65 12 c6 3e d4 fe f7 3e
       -0.33358416 -0.3517355 0.3868591 0.48436606
000250 0f e1 ef be 3f eb 1e be 88 fa cd 3e a5 e8 5d 3d
       -0.46851394 -0.15519427 0.40230203 0.054176945
000260 06 78 b4 be 07 2d 8f 3d c6 10 ec be 88 be 1d be
       -0.3524782 0.0699101 -0.46106547 -0.15404713
000270 88 01 dc 3d a3 6c 06 be 46 ea 69 3e 99 6e b6 3e
       0.107424796 -0.13127379 0.22843274 0.35631254
000280 8c e4 d3 be ca 2a 8c 3e 42 63 6c bd d0 c4 30 3e
       -0.41385305 0.27376395 -0.057711847 0.17262578
000290 74 4f 1b be 75 0d 03 3c 3d ae d6 3d 91 ec 68 bd
       -0.15167028 0.007998814 0.10482452 -0.056866232
0002a0 5e 6a f9 be 15 00 02 3f 8d 9f fb 3e e8 32 37 be
       -0.48713964 0.50781375 0.49145165 -0.17890513
0002b0 2e 25 0f be 74 e4 7f 3e e5 5d 7c bd fd af ad be
       -0.13979027 0.24989492 -0.061612982 -0.3392333
0002c0 14 b1 eb be 19 98 91 3e 57 64 e6 be c6 51 ef 3e
       -0.46033537 0.28436354 -0.44998428 0.46742076
0002d0 e1 22 56 be 0f 48 87 be 3d 50 66 3e 0b 92 1c 3e
       -0.20911743 -0.26422164 0.22491546 0.15290086
0002e0 cf f2 0f 3f 31 c1 07 bf 8c 77 9c 3c cf 0e 13 3e
       0.5622987 -0.5302916 0.019099973 0.14361118
0002f0 2e b9 b0 bd bd 26 99 3e d1 82 fe 3e 50 3f 65 be
       -0.0862907 0.29912367 0.4970918 -0.22387433

bias f4 [64]
000000 4d e6 ad be 94 75 44 bf 2b d8 a5 be 2e 64 e0 3e
       -0.33964768 -0.7674191 -0.32391486 0.4382643
000010 cc 6c 1d bf a8 46 80 be 13 8a fd be f6 7f 50 be
       -0.61494136 -0.25053906 -0.49519405 -0.20361313
000020 d7 69 25 3f a0 73 bb 3e 25 8b 96 bd 31 d9 13 bf
       0.64614624 0.36611652 -0.073507585 -0.5775328
000030 32 37 d9 3d eb 1a 2f bf dd 29 22 3f 96 3a 15 3f
       0.10606231 -0.6840045 0.6334513 0.5829252
000040 e8 4d f3 3e 4d b8 b5 be af d3 c1 be 7c 96 47 3f
       0.47520375 -0.35492173 -0.37856814 0.77963996
000050 38 bc 4a bf 4a 7f 43 3f e3 c2 08 3f 9c db 81 be
       -0.7919345 0.763661 0.53422374 -0.2536286
000060 36 7f f1 3e 59 2b 84 be a7 ac 8e be d1 d3 46 3e
       0.47167367 -0.25814322 -0.27866098 0.19416739
000070 bc 7d 22 3f aa c5 f8 3d 23 24 80 3e c3 06 ca be
       0.63473105 0.121470764 0.2502757 -0.39458284
000080 98 5d 27 3f 48 28 12 bf 20 5d 3c bf 5b 02 31 bf
       0.6537719 -0.57092714 -0.735796 -0.6914422
000090 dd bf e0 be 0d 92 48 bf f6 17 fa be 3c 0d c7 be
       -0.4389638 -0.78347856 -0.48846406 -0.38877285
0000a0 fd 3b 0d bf f3 b0 66 3f f8 3c 0e 3e e1 64 94 be
       -0.5516966 0.90113753 0.13890445 -0.28983214
0000b0 09 54 86 3e 85 3a 65 bd 91 64 37 3f f7 aa f9 be
       0.2623599 -0.05596401 0.7163783 -0.48763248
0000c0 7a 14 fc 3e 5f d5 90 be d0 d0 ec be 14 2f 9d bc
       0.49234372 -0.2828779 -0.4625306 -0.019187488
0000d0 47 10 2d 3f 88 b9 a6 be 16 7d 7b 3f 9d 6b 81 be
       0.6760296 -0.32563424 0.9823774 -0.25277415
0000e0 b0 9e 1f bf f8 cf 00 3f 83 fd 4a 3f b7 8e 79 3e
       -0.6235151 0.50317335 0.7929308 0.24370848
0000f0 1a 18 d0 be e0 cb b9 3e c8 c0 e5 be 48 a0 f0 be
       -0.40643388 0.36288357 -0.44873643 -0.46997285

weight f4 [128, 64]
000000 50 50 58 3d 58 31 02 be 4b 0c a3 bd 1d 13 7f bd
       0.052810967 -0.12714136 -0.07961329 -0.062274087
000010 a6 2d 24 bd 3e a7 11 bd 33 00 4e 3d 2d c5 d9 bc
       -0.040082596 -0.035559885 0.05029316 -0.026583279
000020 f5 f8 96 bd 1e 65 04 be 77 e5 3b 3c bb 94 f2 bd
       -0.073717035 -0.12929198 0.011468283 -0.11844774
000030 60 90 4e 3d aa 45 ed bd 18 79 e6 bc eb 49 df bc
       0.050430655 -0.11585553 -0.028133914 -0.027256927
000040 4f a4 08 bd 9e 7c 0d be f3 49 b5 bd 1e 70 2a 3e
       -0.033359822 -0.13817069 -0.08851995 0.16644332
000050 f1 40 2e be 0b 5b 8a 3c 2f 92 e7 3d 9c f1 13 bd
       -0.1701696 0.016889116 0.11307179 -0.03611909
000060 0e 01 d0 bd 34 cd c7 bc cd 77 cc bd fe f6 7c 3d
       -0.10156451 -0.02438984 -0.09983788 0.061758988
000070 fc ae 17 3e b5 9c 19 be 9a 4f dd bd 68 ea cf 3c
       0.14812845 -0.15001185 -0.108061984 0.025380328
000080 62 89 cb bc 8e ab af bd 4c c9 25 be 4d 27 06 be
       -0.024845783 -0.08577643 -0.1619007 -0.1310093
000090 b2 6d 1a 3d 20 fd 0c be 10 40 02 be 8e e8 a3 be
       0.03770227 -0.13768435 -0.1271975 -0.32013363
0000a0 10 be 8f 3d 50 a6 ab 3e ca 5b 50 3d 1f e3 9b 3d
       0.070186734 0.33525324 0.050868787 0.07611679
0000b0 53 81 be bc bb 1b 98 3d 61 f4 e1 3d 80 b9 f2 3b
       -0.023255026 0.07427164 0.1103294 0.007407367
0000c0 9e e0 a5 bd 4a f5 72 be 91 2d 22 be 01 58 b9 3d
       -0.08099483 -0.23726383 -0.15837695 0.090499885
0000d0 6a d5 76 3e 63 bb 65 bd 4b 58 60 3e 4e e6 50 be
       0.24104849 -0.05608691 0.21908681 -0.20400354
0000e0 e6 2c cf bd 44 17 54 3d 82 c1 ff bc 93 17 d0 bc
       -0.101159856 0.05178 -0.031220201 -0.025401866
0000f0 6e a2 a5 bc 16 5a 68 3d 90 f0 c3 bd 41 b8 ba 3c
       -0.020219054 0.056726538 -0.09567368 0.022792937
000100 bf ff 24 bd e7 7b ed bd de 6f 06 be a9 01 da ba
       -0.04028296 -0.11595898 -0.13128611 -0.0016632575
000110 00 a2 b9 bc 91 fa f5 bc dd 84 00 3d 78 04 d0 3d
       -0.022660255 -0.030026706 0.03137671 0.10157102
000120 6c 8c 2f 3e 5b d1 03 3e f1 60 07 be 70 fa ab bd
       0.1714341 0.12872832 -0.13220574 -0.083973765
000130 0b 8c c7 bd a2 24 0d be e4 0a fa bd 5f 72 79 3d
       -0.09743508 -0.13783506 -0.122091085 0.06090009
000140 54 93 44 3d b9 bc 04 3e 3d e9 d6 bc 5d 24 8f 3d
       0.047992066 0.12962617 -0.026234264 0.069893576
000150 09 58 d1 bd f1 54 d6 3d 51 1a e7 3e 18 f2 8b bc
       -0.102218695 0.1046542 0.45137265 -0.017083213
000160 d0 f3 e0 bd d3 77 56 bc 20 83 a3 bd 59 93 97 bd
       -0.109840035 -0.013090092 -0.079839945 -0.07401151
000170 ba 45 4a 3d bb 36 17 3d 87 39 93 3d ca b9 59 3d
       0.049382903 0.03691743 0.07188707 0.053155698
000180 92 da 16 3d 49 61 c5 3c a2 b5 52 be 01 d3 27 3d
       0.03682954 0.02409424 -0.205771 0.040972713
000190 6e e0 8a bb 31 69 72 bd 52 82 c4 3c d3 2b 99 3d
       -0.00423818 -0.05918235 0.023987923 0.07479062
0001a0 0d 3e 15 be ec 00 b3 3e 28 ff 64 3c 8a 83 13 be
       -0.14574452 0.3496164 0.01397685 -0.14405647
0001b0 7e 13 97 3e 4a 57 72 bd f5 5d 47 bc e6 29 ab 3d
       0.2950706 -0.059165277 -0.012168397 0.08357601
0001c0 84 8a 3f be 34 42 b3 3d c7 87 53 be 18 4a b8 3b
       -0.18705183 0.087528616 -0.20657264 0.005624067
0001d0 5f 09 30 3e e3 b9 af bd c9 14 2b 3f f0 76 49 3d
       0.17191075 -0.08580377 0.6682859 0.049185693
0001e0 b1 3b d5 3c a7 1b ab 3d 6e c9 75 3d b9 1f 82 3d
       0.02602944 0.08354884 0.06000655 0.06353707
0001f0 fa 5b 03 be 5c a3 9e bd a3 60 94 be 7e fc 42 3d
       -0.12828055 -0.07746002 -0.28979978 0.047604077
000200 d0 df de bd eb 47 86 3d 7f 35 5f 3d 47 8e 89 bd
       -0.108825326 0.06556686 0.054494377 -0.067165904
000210 86 9f 16 3e 78 3f b8 bd 6b db e4 3c 57 81 ad 3d
       0.14709291 -0.08996481 0.027936658 0.08471935
000220 09 84 5e be e2 33 c0 3d 9f 78 02 be 48 67 4b 3d
       -0.21730055 0.09384896 -0.12741326 0.049659044
000230 37 16 bb bc 30 9e 01 3e dd 24 29 bd 6a ae b0 3c
       -0.022837741 0.12658 -0.04129492 0.021567542
000240 7e a6 fd bd 97 54 cf 3b ed 51 ad 3d 55 c7 81 bd
       -0.123852715 0.0063272226 0.08462892 -0.06336848
000250 a6 b0 11 3e e7 1d 75 3d f2 d7 3e bd 12 8b 59 b9
       0.14227542 0.05984297 -0.04659266 -0.0002074654
000260 1e 35 4e 3d f8 0e 0e bd c2 0a 2a 3e e9 55 9f bb
       0.050343625 -0.034682244 0.16605666 -0.004862536
000270 db bc 4c bd 53 59 c0 bd 63 65 46 bd 20 c0 02 be
       -0.049984794 -0.09392037 -0.048436534 -0.12768602
000280 39 c3 e6 bd dc 0e 28 bd cc 00 0d 3e ca 31 f8 b9
       -0.112677045 -0.041029796 0.13769835 -0.00047339342
000290 0a 40 02 3e 90 b8 b1 3d 20 2c 35 3d 5b b4 9c bd
       0.12719741 0.08677781 0.044231534 -0.076515876
0002a0 23 b3 59 bc 87 ac 49 be 1e 17 48 3d 52 39 61 3d
       -0.013287338 -0.1969472 0.04885017 0.054986306
0002b0 ec 52 3f bc dc 4e 3e bc 88 32 10 3d 7b 07 81 bc
       -0.011677485 -0.011615481 0.03520444 -0.015750637
0002c0 71 78 21 be 50 76 fb bd 0f f1 16 3d 70 68 2e 3d
       -0.15768601 -0.12278426 0.036850985 0.042580068
0002d0 2e 53 52 be 7d e7 a6 bc 5d cc 78 be 98 17 de 3d
       -0.20539543 -0.020374054 -0.24296708 0.10844344
0002e0 93 9f 9d 3d 5d 7b e1 bd a5 95 99 bc 23 73 af bc
       0.07696452 -0.11009858 -0.018748114 -0.021417206
0002f0 1a 26 b4 bd 84 fe 30 3d 2b 87 67 3e cb fb 48 3c
       -0.0879633 0.043211475 0.22610156 0.012267063
000300 c1 f9 00 3d 96 90 e7 3d 36 03 a9 3d c1 b6 20 be
       0.031488184 0.113068745 0.082525656 -0.15694715
000310 8a 47 95 3d d1 d0 f0 3b 27 36 2e bd 9f 26 e7 bb
       0.072890356 0.0073491116 -0.042532112 -0.0070541645
000320 5d 79 2d be db 00 51 3d e0 16 19 3d ea 4c cc 3d
       -0.16940828 0.051026206 0.03737533 0.09975608
000330 b7 eb 03 be 91 6c 3a bc 48 98 00 3e 25 be 13 bd
       -0.12882887 -0.011378423 0.1255809 -0.036070008
000340 34 9e 94 3d 2d 60 f5 3d 7b 3f 12 3d c0 c9 de 3c
       0.07256737 0.11981235 0.03570507 0.027195811
000350 ee 5c fd ba 3b f3 0d 3d 8d bd 2e be 76 b2 bb 3d
       -0.0019330063 0.03465579 -0.17064495 0.09164898
000360 3f 72 3d 3d 27 bd b6 bd 57 f1 08 3e 79 d8 63 3b
       0.04625153 -0.08922797 0.13373314 0.003476648
000370 29 bc 0f 3d 00 ad ab bd 5e ca 74 3d 59 1c d3 3c
       0.035091553 -0.083826065 0.059763305 0.025770353
000380 b6 b5 e6 3c b2 5c 60 3d 73 f3 e1 3c e7 c1 7b 3d
       0.028162818 0.0547759 0.027581906 0.061464217
000390 45 ab 14 bd 01 d3 82 3d 62 01 e7 bc c8 1b 1f 3e
       -0.036296148 0.06387902 -0.028198902 0.15537941
0003a0 89 d2 89 bc 65 79 86 be c2 74 75 3d 0d 88 35 3d
       -0.016824024 -0.26264492 0.059925802 0.0443192
0003b0 69 c0 53 be 04 8f 30 3d c1 03 6c bd 17 47 20 3e
       -0.20678867 0.04310514 -0.057620768 0.15652119
0003c0 a3 c2 80 bb fb 59 6f bd ce be f2 3c 13 bb 61 bd
       -0.0039294525 -0.05843542 0.029631998 -0.05511005
0003d0 1c a8 2e be 88 0b b2 3b 90 8a 8e be 3f 6a 5e 3c
       -0.17056316 0.0054335035 -0.2784009 0.013575136
0003e0 69 60 69 3d 38 d1 95 bd 2f 26 27 bc ec a1 c0 3d
       0.05697671 -0.07315296 -0.010201975 0.09405884
0003f0 df 4c ad bd 04 dc c6 bd 43 9a d6 3d 6e 2d ea 3d
       -0.084619276 -0.097099334 0.10478642 0.11434446

bias f4 [128]
000000 e5 32 9b 3e 3e f1 89 3e c5 63 0c be 11 65 94 be
       0.30312267 0.26941866 -0.13709934 -0.28983358
000010 79 17 ba 3d 3d 15 4d 3d 9e 7c 07 be 03 df a7 3e
       0.09086508 0.050069083 -0.13231131 0.32787332
000020 66 c4 67 3e ec a1 9d bd c4 33 b4 3e a7 b3 6a be
       0.22633514 -0.076969 0.35195744 -0.22920094
000030 b8 48 9d be 84 12 86 3e 01 e3 8b be b3 6f 17 3e
       -0.30719543 0.26186 -0.27321628 0.14788704
000040 6e 7a 37 be ef 43 a3 be 88 9b 80 be 6a a4 3e be
       -0.17917797 -0.31887767 -0.2511866 -0.18617406
000050 1b 35 5c 3e be 4b d0 bd 16 fe 63 3e fc 78 a2 be
       0.21504633 -0.10170697 0.22264895 -0.3173293
000060 66 74 fc bd 21 18 88 be 26 6f 36 be fc fb 59 3c
       -0.12326889 -0.2658091 -0.17815837 0.013304707
000070 50 0f 3a 3d 82 9f e0 bd 00 81 5d 3d 0b a6 f0 bb
       0.04542476 -0.10967924 0.054078102 -0.0073440126
000080 fb 5b 56 be fc 30 3a be 1c 4b 88 be dd 29 62 3e
       -0.20933525 -0.18182749 -0.26619804 0.22086282
000090 bf 82 8a 3e e1 b8 c1 bc e6 d5 97 3e db a1 62 be
       0.27052876 -0.023647727 0.2965538 -0.22132055
0000a0 92 7c 25 bd 2c ea 36 be 32 93 cb 3d c9 ee 15 3e
       -0.040402003 -0.17862767 0.09940185 0.1464187
0000b0 f0 42 42 be 3e 11 93 be 54 3e 2f be 13 1a 8f bd
       -0.18970847 -0.28724092 -0.1711362 -0.06987395
0000c0 1f 3b 36 be d1 ab f7 3e a3 48 8e be b5 f4 b6 be
       -0.1779599 0.48373273 -0.27789792 -0.35733572
0000d0 95 c7 4a be 8a 7f a9 be 0d 9b 4a 3d 02 3e aa bd
       -0.19802697 -0.33105117 0.049464274 -0.08312608
0000e0 9f 0a 82 be 10 cf a9 bc 04 6b 73 3e 0e 84 a8 be
       -0.25398728 -0.020728618 0.23771292 -0.3291325
0000f0 4e d0 6f be e6 c7 9c be a5 f5 1a be a5 0f a5 be
       -0.23419306 -0.3062126 -0.15132768 -0.32238498
000100 65 ff 8a be dd b0 a9 be cc 84 48 be 4b fd 81 be
       -0.27147976 -0.33142748 -0.19581908 -0.2538856
000110 55 90 41 3e d0 98 99 be e3 39 9b bd bd 3d 8b bc
       0.18902715 -0.299994 -0.075794004 -0.016997213
000120 02 d5 32 be 53 91 b9 3d 31 1d 93 be dc f7 91 be
       -0.17464069 0.090609215 -0.2873321 -0.28509414
000130 61 c6 a2 3e 6f 0a 66 3e 24 6f a0 be 7c 08 b9 bd
       0.31791976 0.22464918 -0.31334794 -0.090348214
000140 33 95 92 bd d5 96 d3 bd 25 9a 24 be df f5 fd 3d
       -0.07157364 -0.10331503 -0.16074426 0.12400412
000150 a2 da e3 3d 89 db 34 be db fc ad be 7c f1 8b be
       0.11125685 -0.17661871 -0.33981976 -0.27332675
000160 02 ac 79 3e e6 71 06 3d 8b f1 be bd 35 97 49 be
       0.24382022 0.032823466 -0.093234144 -0.19686587
000170 c0 1d 85 3e 66 c4 c5 bc 05 be 99 3e 65 c6 f6 bd
       0.2599926 -0.024141502 0.30027786 -0.120495595
000180 46 2e a9 be da 5e 95 3e 3a 87 9e be 67 38 30 bd
       -0.33043116 0.29173928 -0.30962545 -0.04302254
000190 6b 46 d8 bd 2f 89 6b 3e b4 3b c5 3d af 31 2c be
       -0.10560306 0.2300155 0.09630528 -0.16815828
0001a0 7f d8 04 be 83 2e ee 3d 60 47 1c 3e 84 b0 73 3e
       -0.12973212 0.11629965 0.15261602 0.23797804
0001b0 98 3f 78 3e b0 b6 25 bc 05 56 a3 bd 06 44 e6 bc
       0.24243009 -0.010114357 -0.07975391 -0.028108608
0001c0 7c a1 d7 be 45 8d 5f be e2 0b 7e bd 8d 64 c4 bc
       -0.4211539 -0.21831234 -0.06202305 -0.023973728
0001d0 a4 8c bb be 36 8b 65 be cd b2 7d 3e 44 21 09 be
       -0.36630738 -0.22416386 0.24775238 -0.13391596
0001e0 6e 10 80 be 45 4d 7c bd d0 0d 91 3e 80 e3 5a be
       -0.25012535 -0.061597127 0.2833085 -0.21375847
0001f0 ef 31 98 be 3b f8 a5 be 5b aa 19 be a8 db eb 3d
       -0.29725596 -0.32415947 -0.15006392 0.115165055

weight f4 [256, 128]
000000 a8 b8 cb bd d4 a7 74 3d e3 f5 ac 3d ea d9 a4 3d
       -0.0994733 0.059730366 0.08445337 0.08049376
000010 0f 99 ed bd fa 70 ca bc b2 06 9c bc 3c ae 02 3c
       -0.11601459 -0.024712075 -0.019046161 0.007976111
000020 e8 46 a9 bc ca 89 97 3d d8 7c 85 bc 63 a4 91 3d
       -0.020663694 0.07399328 -0.016294882 0.071114324
000030 6e 46 fc 3b a5 45 30 3d 7a 16 12 3c 27 49 61 3c
       0.0076988256 0.04303517 0.008916492 0.013750351
000040 92 86 78 3c c8 39 97 3d f4 b5 a2 3d ad db 25 bb
       0.015168803 0.07384068 0.07944861 -0.002530794
000050 5f 25 dd bd 9d 22 83 3d 88 18 9d 3b 2f 7d e8 3d
       -0.107981436 0.06403086 0.004794184 0.11352002
000060 38 43 6f bc a3 06 0c 3d 08 37 21 3d 04 e6 f6 3c
       -0.014603429 0.034186017 0.039359123 0.030138977
000070 9b d6 77 bd 53 e0 eb 3c 1a 98 4b 3c 98 62 61 3c
       -0.060507398 0.02879349 0.012426401 0.013756417
000080 19 42 59 bd b7 6b 13 bd f1 81 a2 3d 48 aa ad 3d
       -0.05304155 -0.035991397 0.079349406 0.08479744
000090 ee 8c 1c 3d 8d fb bb 3c 21 9a 8b bd d0 48 83 bd
       0.03822034 0.022947097 -0.06816507 -0.06410372
0000a0 a7 67 54 3d 04 9a ab bb b6 d4 80 3b b1 3e d7 bd
       0.051856663 -0.005236866 0.003931607 -0.10510004
0000b0 81 e6 58 3d a6 83 2a 3e 2b 90 d3 3d f6 38 85 3c
       0.0529542 0.16651782 0.10330232 0.016262513
0000c0 2f f0 0c bd 1d a7 0e be 0c 83 80 3d 8d ac 00 3e
       -0.034408744 -0.13930936 0.06274995 0.12565823
0000d0 1e 1c 4a 3d 01 e3 fe 3c 1e 02 83 3d 7e 22 c9 3d
       0.04934322 0.031114103 0.06396888 0.09821032
0000e0 99 4c d1 ba c0 0c b7 3d 92 a7 d4 3d 5e 2a 75 3d
       -0.0015968262 0.08937979 0.10383524 0.059854858
0000f0 af 8f 4a 3c f6 47 f5 3d c9 0c 47 3d 6c 0c c3 3d
       0.012363358 0.11976616 0.048596177 0.09523854
000100 8b ee 00 3b 39 06 06 3e 2a f4 71 3d cd c6 63 3d
       0.0019673433 0.13088311 0.059070744 0.055609513
000110 26 f4 eb 3c 50 9e 22 3e 1e 02 68 3d 4a 33 a7 3d
       0.028802942 0.15880704 0.056642644 0.081640795
000120 11 ff b5 3d 04 69 01 be 77 9a 0f bd d4 f1 77 3d
       0.08886541 -0.12637717 -0.03505942 0.06053336
000130 ae 5a 02 3d 4e 40 83 3d 3f 30 30 3c ef 21 bf 3d
       0.03182476 0.064087495 0.01075369 0.09332644
000140 9d 13 78 3d a1 3d 9b ba 36 29 02 3e 47 b9 2d bd
       0.06056558 -0.0011843928 0.12711033 -0.042413022
000150 b0 f6 39 bd a9 7a e5 3d a1 be 14 3e 2e 6e 36 bd
       -0.045401275 0.11205036 0.14525844 -0.04453867
000160 6a 3c 92 3d b6 78 02 be 50 a5 fd 3c fd 3e a5 3d
       0.07140429 -0.1274136 0.030962616 0.08068655
000170 71 72 06 3b 22 8c 7d ba 63 76 e3 bc 66 fd 87 bc
       0.002051499 -0.00096720655 -0.027766412 -0.016600322
000180 a3 3a 44 3d a0 8b 45 bd 0f 94 f9 3c 92 d1 14 3d
       0.047907483 -0.04822886 0.030466108 0.036332674
000190 3b 40 37 bd a3 a3 a0 3d 9e c3 d9 bd 2d fd ad 3c
       -0.04473899 0.07843711 -0.10633014 0.021238888
0001a0 c0 9a 57 3d 90 3f 2f 3d 87 e6 82 bd d6 ba f6 bc
       0.052637815 0.042785227 -0.06391626 -0.030118387
0001b0 50 80 48 bd 65 b5 91 3d 66 a2 e0 3d ee 79 79 bd
       -0.048950493 0.071146764 0.10968475 -0.060907297
0001c0 0e 73 89 3e bd 4e aa 3d c5 51 bb 3c ea 86 a7 bd
       0.26845592 0.083157994 0.02286614 -0.0818003
0001d0 93 1c c9 3d 46 bf 0f 3e 40 b2 ec 3c a1 66 91 3d
       0.09819903 0.14037809 0.02889359 0.07099653
0001e0 de b8 75 3d c3 4e f4 bb f5 3b 09 3d 44 4a 36 3d
       0.059990756 -0.007455678 0.033504445 0.04450442
0001f0 1e dd ac 3c 55 1b 9b 3d dd 6f a8 3d 9e 18 c7 bd
       0.02110153 0.075735725 0.08224461 -0.09721492
000200 7d 41 1e 3d af 6e 31 be 92 a4 85 3d b5 8e 38 3d
       0.038636673 -0.17327379 0.0652553 0.04505797
000210 77 8c aa bd 8e d3 9d bd 1d 1a ad bd 38 1d 0b be
       -0.08327573 -0.077063665 -0.08452246 -0.13585365
000220 24 e2 9b 3d 92 fd bd bc 04 30 23 be c3 98 c3 3c
       0.07611492 -0.0231922 -0.15936285 0.023876553
000230 a8 a2 99 3d 8a 79 e9 3b bd 15 1a 3e 29 50 86 3c
       0.07501727 0.0071250843 0.15047355 0.016395645
000240 74 6b c4 3c 77 e2 c8 3d d7 13 60 bd fd f3 81 3d
       0.023977019 0.0980882 -0.05470642 0.06345365
000250 78 9d 10 3d 91 21 85 bd 85 28 df bd fc ca 83 3d
       0.035306424 -0.06500543 -0.108964 0.064352006
000260 2e fd e4 bc 82 f0 e1 bc e9 59 22 bd 13 cb 94 bd
       -0.027952757 -0.027580503 -0.039636526 -0.07265296
000270 83 4a a6 bd 46 2b 3b 3d bf 2b 00 bd 1c 08 80 bc
       -0.08119681 0.045695566 -0.03129172 -0.015628867
000280 06 7b 86 bc be 26 1b 3c 5e 7a 95 3d 99 45 5d be
       -0.016416084 0.009469686 0.0729873 -0.2160858
000290 ce cc 94 bd 76 29 68 3d d2 6f 65 bd 08 4a 8d bd
       -0.07265626 0.056680165 -0.056014843 -0.06898886
0002a0 39 99 61 3c fe 67 d1 bb 1c 28 49 bd 90 fa 7c 3d
       0.013769441 -0.0063905707 -0.049110517 0.061762393
0002b0 a5 e3 60 3d 2c 07 2a 3e ea 67 90 bd ef 60 45 3d
       0.0549046 0.16604298 -0.0705107 0.048188146
0002c0 76 c4 be bc 37 ab b1 be f4 18 a4 3d d7 fc 03 3d
       -0.02328704 -0.3470094 0.08012572 0.03222355
0002d0 ef 67 32 bd 7b 77 25 3d 07 ab 27 bd 59 a5 88 bd
       -0.04355615 0.04039715 -0.04093459 -0.066721626
0002e0 80 11 50 bb 99 e9 33 3d d5 96 9d bd 01 d0 d0 3d
       -0.0031748712 0.043923948 -0.076947846 0.101959236
0002f0 f2 ce 59 3d 3d 69 9c 3c 1e 2a 0e bd 77 c6 bd 3d
       0.053175874 0.01909315 -0.034708135 0.0926637
000300 68 ab 29 ba 4b ad 4d bc c7 88 9d 3d 06 dd 9a bd
       -0.000647238 -0.012553523 0.07692104 -0.07561688
000310 1f dc b1 3d e4 90 74 3d 56 31 e2 3c 52 02 0e ba
       0.08684563 0.05970849 0.027611416 -0.0005417216
000320 85 1f 7d 3d fc f7 3c 3c 85 df 8c bd db 18 fc bb
       0.061797637 0.011533733 -0.068785705 -0.0076933927
000330 1e 38 ae 3d 5f 6d 11 be d2 83 42 3d 46 11 43 3b
       0.08506797 -0.14201878 0.047488995 0.0029764934
000340 80 79 9f bd 21 d7 08 3d 79 41 47 bd 17 a7 7d 3d
       -0.07786846 0.033408288 -0.048646424 0.061926927
000350 8d d2 7f bd 66 53 c9 3d 17 e4 95 3d e1 74 31 bd
       -0.062456656 0.0983036 0.07318895 -0.043324355
000360 65 cf 25 be da e0 ba 3a f4 66 de 3b 61 37 9a 3d
       -0.16192396 0.0014257685 0.0067871753 0.07530094
000370 03 fa 35 be 43 86 fd 3c 63 02 18 3d 65 88 94 bd
       -0.17771153 0.03094781 0.03711165 -0.07252578
000380 f3 80 ce bc 9d f1 dc bd aa 52 cd 3d cd d7 7c bc
       -0.025207972 -0.107882716 0.100255325 -0.01543231
000390 4a ae f1 3c 25 24 3b be 8b 86 2c 3e 87 7a c6 3d
       0.029502053 -0.18275507 0.16848199 0.09691339
0003a0 af 6f a3 3d c5 ef 69 bd 81 f0 04 bd af 3f c9 3c
       0.07980286 -0.057113428 -0.032455925 0.0245665
0003b0 06 96 3d be 89 8e 61 bd dc 5e 30 bc df e2 9b bd
       -0.1851426 -0.055067573 -0.010764804 -0.076116316
0003c0 c6 2c 81 3e ba 6a e9 3c 85 fd 02 bd 1a 09 00 bd
       0.25229472 0.028493274 -0.031980056 -0.03125868
0003d0 46 74 58 3e df 2e aa 3c 75 df 92 3d 1f ea b4 3b
       0.21138105 0.020774303 0.07171527 0.0055210735
0003e0 b6 75 af bc 25 ba b2 3d 02 14 04 3d cf fd c4 bc
       -0.021418434 0.087269105 0.032245643 -0.024046807
0003f0 99 df aa 3c f9 dc 04 3e 8d 7a f0 3c e5 7c 02 bc
       0.020858573 0.1297492 0.029355312 -0.0079643475

bias f4 [256]
000000 b7 ea eb bd ce 8a 5b be df a3 85 3d b7 ea 7e 3d
       -0.11519378 -0.21439669 0.065253966 0.06223556
000010 3d c5 24 3d 94 4c 8f bd 11 c1 da bd 67 9b 55 be
       0.040227164 -0.06997028 -0.10681356 -0.20860063
000020 8d 0a 20 3e 38 f2 72 3e 81 cf 36 be ec 74 5d bd
       0.15629025 0.23725212 -0.17852594 -0.054066584
000030 61 03 1e 3e fe bf dc bd 88 c2 15 be c1 a5 00 3d
       0.15430976 -0.10778807 -0.14624989 0.031408075
000040 92 c3 f1 38 9e d2 96 bd 71 c9 b9 bd 5d 94 57 be
       0.00011528203 -0.07364391 -0.09071625 -0.2105269
000050 76 0d 89 3d c1 de f7 3d b1 38 76 be 3a 50 65 3d
       0.066920206 0.12103034 -0.24045064 0.055984713
000060 6f 51 ad 3d 46 98 02 3e 08 cf 2c be 65 c0 6a be
       0.08462798 0.127534 -0.16875851 -0.22924955
000070 d2 21 05 be 92 d6 f6 3d 48 c3 07 be d5 98 9d 3d
       -0.13001183 0.12052645 -0.13258088 0.07695166
000080 52 17 61 be 52 f7 75 3e c8 a0 c9 bd bb d1 e9 3d
       -0.21981552 0.24020126 -0.0984512 0.11416956
000090 f5 8f a4 bd d5 2f ea bd b2 b1 52 bd 00 d7 31 be
       -0.0803527 -0.114349045 -0.051438995 -0.17367172
0000a0 1f 64 3b 3d 43 8e 72 bd 9a e1 e2 3d c7 5c 48 be
       0.04574978 -0.059217703 0.11078186 -0.19566642
0000b0 88 c1 ca bd bd 76 1f be 8e 4a fd 3d 54 f8 39 be
       -0.099001944 -0.15572639 0.12367736 -0.18161136
0000c0 1a 70 e1 3d 34 f9 f3 bd 0c 6e 04 3d c0 fd 93 3d
       0.1100771 -0.11912766 0.03233151 0.07226133
0000d0 5c fb 52 be 11 05 46 bd 54 0b 25 be ba 54 a0 3d
       -0.20603698 -0.048344675 -0.16117603 0.0782866
0000e0 e7 23 33 be f9 2e ae bd 27 af 35 bd 05 ac 0f be
       -0.17494164 -0.08505053 -0.04435649 -0.14030464
0000f0 98 46 b7 bd 34 bb 0b 3e bd 10 ff bd cb bc eb 3c
       -0.089490116 0.13645631 -0.124543644 0.028776547
000100 26 31 32 be 47 05 37 3e ac 0c 40 be e6 aa 64 be
       -0.17401561 0.17873107 -0.18754834 -0.22330818
000110 f3 a8 c9 3d f2 09 f3 bd 0f 30 bb bd ea 7b 12 3e
       0.09846678 -0.11867131 -0.09140026 0.14305082
000120 e0 e9 83 be 3c aa 31 be a6 96 d6 bd af 9d c2 bd
       -0.2576437 -0.17350096 -0.10477953 -0.09502732
000130 5e bc 3c be 1a 94 05 be 5f a5 2e be f3 0e 12 be
       -0.18431231 -0.13044778 -0.17055272 -0.14263515
000140 5b ae 91 be 18 0b 4a 3d 0b 61 82 be a1 34 f6 bd
       -0.28453335 0.049326986 -0.25464663 -0.12021757
000150 c4 8d 2c 3d 91 0b b4 bd e0 37 07 3e 98 c8 4c 3e
       0.042127386 -0.087912686 0.13204908 0.19998395
000160 ad 56 87 be 30 58 42 be 00 60 bf bd ec 1c a5 bd
       -0.26433316 -0.18978953 -0.093444824 -0.08062157
000170 12 14 5c be c1 23 da bd 7a 81 16 be e4 7d 11 be
       -0.21492031 -0.10651351 -0.14697829 -0.1420818
000180 e7 a4 e9 3d ee 95 85 be 3c ef 5b be 33 a3 2b be
       0.11408406 -0.2609095 -0.2147798 -0.16761474
000190 39 e5 23 be 15 b2 5b be 30 65 44 be bc 5d c8 bd
       -0.1600541 -0.21454652 -0.19179225 -0.097835034
0001a0 96 e0 c0 bc 85 a1 b2 bd 10 7b ce be d4 2e ea bd
       -0.02354459 -0.08722214 -0.40328264 -0.11434713
0001b0 b7 df 39 be 50 ff 16 be ee 64 00 be 1c 68 b9 3d
       -0.18151747 -0.14745831 -0.12538502 0.090530604
0001c0 11 b7 f9 3d 9c 80 34 be ea 3e 33 3e c1 89 1c be
       0.1219312 -0.17627186 0.17504469 -0.15286924
0001d0 55 19 0f be a6 5d ab bd 88 f7 f6 bd f7 ef 0d be
       -0.13974507 -0.083674714 -0.120589316 -0.1386107
0001e0 1b 0f 34 be 91 58 35 be bf 51 3c be 47 3e 29 be
       -0.17583887 -0.17709567 -0.18390559 -0.16527663
0001f0 d2 31 88 be 36 1e 14 be b6 92 1c 3e 2c b0 9c 3d
       -0.2660051 -0.1446465 0.15290341 0.076507896
000200 d4 e8 07 3e c7 2b 12 be dc 43 6a be 29 24 86 be
       0.1327241 -0.14274512 -0.22877449 -0.26199463
000210 94 85 c7 bd 94 49 14 be 9e b0 14 be a3 db d5 bd
       -0.09742275 -0.14481193 -0.14520499 -0.10442283
000220 16 65 32 3d a9 73 28 be 42 45 30 bd 6c bb 47 be
       0.043553434 -0.16450371 -0.0430348 -0.1950509
000230 bf be 2e 3e a9 33 12 3e 4f 54 88 be 51 47 75 be
       0.17064951 0.1427752 -0.26626822 -0.23952986
000240 5e 49 ba 3d 64 96 f5 3d cb 2f 97 3c d4 da a9 be
       0.09096025 0.11991575 0.018455407 -0.33174765
000250 08 c0 b5 3e 6e b5 54 be f7 8f 7b be a0 07 27 be
       0.3549807 -0.20772335 -0.24566637 -0.16311502
000260 60 2a aa bd c4 7e 46 3d b7 8b 19 be b1 06 e9 bd
       -0.08308864 0.048460737 -0.14994703 -0.113782294
000270 6b ea 49 bd a8 94 33 3e 30 db 5c 3d bf ba 40 3d
       -0.049295824 0.17537177 0.05391997 0.047053095
000280 70 5b 58 be fa 33 ed 3d e7 47 55 be 49 36 86 3d
       -0.2112863 0.11582179 -0.2082821 0.06553323
000290 52 a4 21 3e 10 25 19 be b5 9e ee 3d 2f 1b 56 be
       0.1578534 -0.14955544 0.11651365 -0.20908807
0002a0 17 db 1b 3e 3b 08 58 3e 80 d3 34 be 87 8f f7 3c
       0.15220295 0.2109689 -0.17658806 0.030219806
0002b0 06 a2 24 be 73 8c 12 be 6b 3c 7b be bf ed 8d bd
       -0.16077432 -0.1431139 -0.24534766 -0.06930112
0002c0 e1 0b 26 be db 5b 83 bd 24 e8 cf bd f8 57 4d be
       -0.16215469 -0.064140044 -0.10151699 -0.20053089
0002d0 fc 85 39 bd fe 28 8f be 94 5e 2d 3e 9e 47 97 3d
       -0.045293793 -0.27960962 0.1693061 0.07386707
0002e0 61 3f 0c 3e 31 c5 5c be 2c 4d 06 be 03 54 f8 3d
       0.13696052 -0.21559598 -0.13115376 0.12125399
0002f0 cc 03 2e be 54 5b 82 be 11 bb ac bd 0a 15 c9 bd
       -0.16993636 -0.25460303 -0.084341176 -0.09818466
000300 b4 d8 6d bd c7 a9 6e be 68 90 0e 3c d9 e4 41 be
       -0.058067992 -0.23306952 0.008701421 -0.18934955
000310 6d 2c 37 be 15 af 39 3d 41 65 1a 3e 24 68 e6 bd
       -0.17888041 0.045332987 0.15077688 -0.11250332
000320 64 16 15 3e ae 32 27 3e 7f 3d 22 be 2d 93 35 be
       0.14559323 0.16327927 -0.15843771 -0.17731924
000330 3d 62 35 3e 74 9c 42 3e 0f ea b1 bd 59 00 dd 3b
       0.17713256 0.19004995 -0.08687221 0.006744426
000340 5f f2 1d bd 74 bb 32 be e8 1e 46 3e 81 16 78 3c
       -0.03856122 -0.1745432 0.19347727 0.015142084
000350 7d 1c 44 be a5 5f ce 3d d3 10 df bd ef de f5 bd
       -0.19151492 0.100768365 -0.10891881 -0.12005412
000360 f0 56 41 3e 44 42 b3 bd 40 13 6c be 7c 3e f2 bd
       0.1888082 -0.087528735 -0.23054218 -0.11828324
000370 1e 3d ac bd 6c 21 11 be a2 6f 31 be a1 7f 1f 3e
       -0.08410095 -0.14172906 -0.17327741 0.1557603
000380 83 f6 74 be 2a d8 6e be 3b 7a 49 3e dc 39 0b 3e
       -0.23922162 -0.23324648 0.19675533 0.1359629
000390 6d bc d5 bd b7 11 6b be 1f b0 43 be 10 e6 78 be
       -0.1043633 -0.22955976 -0.19110154 -0.24306512
0003a0 d2 0d 00 be 4b 8b 59 be b3 69 05 be 84 cf 31 be
       -0.12505272 -0.21244542 -0.13028602 -0.17364317
0003b0 9f c2 25 bd b3 4b a5 3d e2 14 3c be 3e 80 1d be
       -0.04046881 0.08071079 -0.18367341 -0.15380952
0003c0 e7 81 4a be e3 7f 47 be 5d ac 47 be b0 62 35 be
       -0.19776116 -0.19482379 -0.19499345 -0.17713428
0003d0 fe ac 0f be 4f cf ca 3d e5 0d 4b bd af ef 89 3e
       -0.14030835 0.09902822 -0.049573798 0.26940677
0003e0 f5 61 0e 3e 38 d8 2a be 46 a6 ba bd 2b 00 14 be
       0.13904555 -0.16684043 -0.091137454 -0.14453189
0003f0 f1 d9 38 3e 7c ff 24 be 0c 2a 49 be 8d e5 24 be
       0.18051888 -0.16113085 -0.19644946 -0.16103192

weight f4 [512, 256]
000000 9a de 53 bd 44 44 ba ba f2 68 9e 3c ba 28 08 bb
       -0.05172596 -0.0014211019 0.019337151 -0.0020776228
000010 13 d1 78 bd d2 d2 ba bd 42 1f e2 bd 8f ed 99 bd
       -0.060746264 -0.09122242 -0.11041118 -0.07516014
000020 22 bd c9 3c 9d 00 83 bd 33 31 40 bd f2 b7 73 be
       0.024626318 -0.06396601 -0.04692192 -0.23800638
000030 4c 4a 52 bd e4 35 b3 39 8e 3f ac bd 03 28 94 3d
       -0.051340386 0.00034181692 -0.084105596 0.07234194
000040 e1 19 c5 bd 66 c6 b2 bd e2 89 2d bd e9 7c 7c bd
       -0.09624077 -0.08729248 -0.042367823 -0.06164256
000050 ce a5 60 bd f7 71 ed bb 09 8b b4 bc 64 5d 58 bd
       -0.054845624 -0.0072462517 -0.022038953 -0.05282344
000060 af b1 d4 3c ef 75 64 3c 4c 6e e7 bc bb 40 59 bb
       0.025963632 0.013944133 -0.028250836 -0.0033150155
000070 5a d0 a8 bd e8 fc 7a 3d b7 02 79 bd 46 61 cd 3d
       -0.08242865 0.061276346 -0.060793605 0.10028319
000080 16 de 19 bd 1c 29 b4 bd 4d 60 af bd 6f 0a 18 be
       -0.037565313 -0.087969035 -0.0856329 -0.1484773
000090 79 8d 95 bd 6e ee b6 bc de 08 98 3c 80 e1 a7 bd
       -0.073023744 -0.022330489 0.018558916 -0.081973076
0000a0 70 05 e9 bd 80 cd cb bd a8 2d d5 3c 4c b1 1c bd
       -0.1137799 -0.099513054 0.026022747 -0.03825502
0000b0 af d2 aa bd 0f 92 60 bd be 7a 70 3d 0f 3f e1 bd
       -0.08340966 -0.054826792 0.058710806 -0.109983556
0000c0 16 dc 8b bb c2 c2 31 bd 26 d0 3e 3d 8f e6 05 3d
       -0.0042681796 -0.043398626 0.046585225 0.03269058
0000d0 a7 af 74 bd 69 80 c9 bd 04 9e cf bc 29 83 c0 bd
       -0.059737828 -0.098389454 -0.025343902 -0.09400017
0000e0 17 46 dd bd 30 1a b4 bc bd d1 68 bd dd f3 76 bd
       -0.10804384 -0.021985143 -0.056840647 -0.06029116
0000f0 80 52 22 3c e1 c5 fa 3c 7e 35 e4 bd 1e 7e 10 bd
       0.009907365 0.030611934 -0.11143015 -0.035276525
000100 80 29 92 bd 22 89 4a bc 76 6a 0d bb fd 4d ab bd
       -0.07136822 -0.012361797 -0.0021578348 -0.083644845
000110 ae 73 f6 bc 4d 6a 36 bd e9 62 a3 bd cf c7 80 bc
       -0.030084457 -0.04453497 -0.0797785 -0.015720276
000120 30 e4 3e bd 64 20 e3 bc 78 55 07 bd 17 92 e2 bd
       -0.046604335 -0.027725406 -0.033040494 -0.11063021
000130 f3 2c cb bd 5f ed 8a bd 16 4b 9a bc 38 53 20 bd
       -0.09920683 -0.06783556 -0.018834632 -0.039141864
000140 ec 5f 6e bd 82 f7 83 bb 26 c2 bf bd 1b 05 79 bd
       -0.058196947 -0.004027308 -0.09363203 -0.060795885
000150 22 ea 8c 3c b0 48 ca bd 96 8d db bc b3 c9 a0 bd
       0.017201487 -0.09877145 -0.026800912 -0.07850971
000160 40 cf 0f be a0 41 fd bd 62 43 09 bd 8e a4 28 bd
       -0.14043903 -0.123660326 -0.033511527 -0.041172557
000170 fe 1f 68 bd 73 20 06 bb c2 11 ce bd 8f b2 9b bd
       -0.056671135 -0.0020466119 -0.10061981 -0.07602417
000180 23 4b 0e 3d fb 8c a0 bd 35 39 d4 bd 57 f9 04 bc
       0.034739625 -0.0783939 -0.10362474 -0.008116088
000190 21 44 e7 bc 46 38 af bd 4e b5 5a bd 5c a5 6f bd
       -0.028230729 -0.08555655 -0.053395562 -0.05850731
0001a0 22 62 8a bd 71 71 c1 bd f9 bd 52 be 56 ec fc bd
       -0.067569986 -0.09445465 -0.20580281 -0.12349765
0001b0 af bd 6d bd 73 8d d8 bd a8 6a cc bd 06 f9 be 3d
       -0.058042224 -0.10573854 -0.099812806 0.09324841
0001c0 12 ab 56 3d b5 5d a7 bd a4 6a e6 bc cc c3 fa bc
       0.05240924 -0.0817217 -0.028127022 -0.030610941
0001d0 77 1a 95 bd fc e9 aa 3b 49 29 97 bc 93 83 0b bd
       -0.072804384 0.0052158814 -0.018452303 -0.034061026
0001e0 1f 6c 99 bd c7 e6 93 bb 78 68 20 bd 63 2b e2 bd
       -0.074913256 -0.004513595 -0.03916213 -0.110434316
0001f0 d1 66 21 bd 4b 4a f3 bd 9e bb 5a 3d 8d 61 53 3d
       -0.039404694 -0.11879405 0.053401582 0.051606704
000200 d1 17 2c 3d 7a 88 96 bd 60 dd 82 bd 94 6b 98 bd
       0.0420149 -0.073502496 -0.0638988 -0.07442394
000210 39 dc d2 bd 09 9f 66 bd 92 7c 8b bd 92 02 60 bd
       -0.102959104 -0.05630401 -0.06810869 -0.05468995
000220 69 e7 e2 bc df 23 d1 bd 14 ea 44 bd 90 5e 38 bc
       -0.027698236 -0.1021192 -0.048074797 -0.011253014
000230 ad e5 93 3d d1 e6 23 3d c4 3a 33 bd 4d d9 de bc
       0.072215416 0.040015046 -0.043757215 -0.027203226
000240 5e e4 7a bd 8a 92 40 3d 6f 72 53 3d 67 c7 ac bd
       -0.061252944 0.04701475 0.051622804 -0.084364705
000250 0b 7f 3f bd 41 26 9a bd 16 b2 c0 bc 3d 7e d4 bc
       -0.046752017 -0.075268276 -0.023522418 -0.025939101
000260 01 d2 a4 bd 10 89 08 3d 4b 30 dc bd 9f 34 23 bd
       -0.080478676 0.033333838 -0.10751399 -0.039845105
000270 ef c3 87 bc ab cd 54 3d 90 f7 0e 3b 9a 11 f9 bb
       -0.01657292 0.051953953 0.002181504 -0.007600975
000280 50 c5 df bd 56 c4 a1 3c 42 b1 d7 bd a1 ac 91 3b
       -0.10926306 0.01974694 -0.10531856 0.004445628
000290 8c 1d b5 bd 93 23 bc bd 1f 46 6a bd 85 95 cd bd
       -0.08843526 -0.09186473 -0.05719578 -0.10038284
0002a0 52 e8 4f 3d 51 4d 60 bd 66 30 3a bd 09 93 7f 3d
       0.050758667 -0.054761235 -0.045456313 0.062396083
0002b0 be 34 be bd 76 6d 76 bd 7b e0 b4 bd a7 c4 ef bc
       -0.092874035 -0.060162984 -0.08831879 -0.029268576
0002c0 59 53 db bd d2 88 b4 bc 93 04 86 bd cf 97 10 bd
       -0.10709257 -0.022037897 -0.06543841 -0.035301026
0002d0 3a 37 7f bd 10 49 28 bd 8c c3 f7 bc fb 8d 82 3d
       -0.062308528 -0.041085303 -0.030244611 0.06374737
0002e0 ae 46 5f 3d d1 78 12 bd 67 de 12 be e2 a1 c6 ba
       0.054510765 -0.03575975 -0.14342652 -0.0015154446
0002f0 e5 3f e7 b9 f4 2f 5a bd 0e be a4 bd a8 80 92 bd
       -0.0004410736 -0.053268388 -0.080440626 -0.071534455
000300 33 cf be bd b2 12 f1 bd 80 7a 07 bd f3 3c e7 bd
       -0.09316864 -0.11771144 -0.03307581 -0.11290922
000310 25 5e dd bd 64 eb f3 bc 1b 7e a1 bd da cb 50 bd
       -0.10808972 -0.029775329 -0.07885381 -0.050975658
000320 8a 37 bc bb f5 b8 68 3d eb 68 c1 bc 69 0a dd bd
       -0.0057439255 0.056817014 -0.0236096 -0.10793001
000330 61 1c 7c bc a7 8b 0a bc 80 ca 36 bd 0a 42 ab 3d
       -0.015387625 -0.008456147 -0.044626713 0.08362205
000340 b8 f8 3c bc 66 63 d3 bc f9 fb fe bd 50 c0 d5 bd
       -0.011533909 -0.025804233 -0.12450404 -0.10437071
000350 eb 7b 84 bd f6 22 5c 3d 62 8c aa bc 6a a0 bc bd
       -0.06468948 0.05374428 -0.020818893 -0.09210284
000360 c1 fa b3 3d f2 3f a6 bd 09 7b 8a bd a8 b3 9f bd
       0.08788062 -0.08117665 -0.06761748 -0.077979386
000370 24 bb c1 bc b6 07 9a bd 39 68 29 bc 7b 3c c7 bc
       -0.023648806 -0.07521002 -0.01033979 -0.024320832
000380 2a 94 3a 3b de e7 85 bd 04 6c c7 3d dc 28 9d bd
       0.002846966 -0.06538366 0.09737399 -0.07673809
000390 6c e6 15 bd 1c 2c 3d be 6e 6c 5d bd e9 4b a9 bd
       -0.0365967 -0.18473858 -0.054058485 -0.08266432
0003a0 87 c0 9a 3b 29 37 f6 bc d1 67 bd b9 81 19 d5 bd
       0.004722658 -0.0300556 -0.00036126238 -0.10405255
0003b0 05 99 0c bd b4 43 d2 3c 1a 0b b5 bd 9a 78 df bd
       -0.03432562 0.025667049 -0.08840008 -0.10911675
0003c0 68 1c 3f bb d0 2d 22 bd 14 71 4a bd db 19 52 bc
       -0.0029161219 -0.03959447 -0.049424246 -0.012823547
0003d0 d5 fa cb bd 20 4c fa ba 29 c8 ff bc d7 c5 92 3c
       -0.09959952 -0.0019096173 -0.031223373 0.017916603
0003e0 1c d1 c3 3c f6 59 9a bd cb 91 c7 bc 70 ab a7 bd
       0.023903422 -0.0753669 -0.024361512 -0.08186996
0003f0 fb 87 b4 3c 4e 0b 98 bd 36 73 6b bd 1b 44 e6 bd
       0.022037497 -0.07424031 -0.05748292 -0.11243459

bias f4 [512]
000000 db ea 87 3d 06 32 93 bd 73 81 fe bc f2 dc 41 bd
       0.06636592 -0.071872756 -0.031067586 -0.04732985
000010 9d b1 ad bb 64 75 bf 3c c5 6b 6a 3d cb 02 13 3d
       -0.005300714 0.023371406 0.057231683 0.035891335
000020 5e b5 9a bd 33 ca 96 3d 10 e4 5d bd 5c b9 83 3d
       -0.07554124 0.07362785 -0.054172575 0.06431839
000030 f8 d9 c7 bd 62 32 04 bc d5 ad 8d 3d 8e 64 df bd
       -0.09758371 -0.008068653 0.069179215 -0.10907851
000040 1a 82 a5 bb f1 52 82 bd e6 ff a4 bd 6f 36 c9 bd
       -0.0050509097 -0.06363476 -0.08056621 -0.098248355
000050 9f 5d f9 bc 71 54 19 bc e9 46 8b bd ff a9 61 3d
       -0.03044015 -0.009358511 -0.068006344 0.05509376
000060 75 46 d5 bc 5a 18 33 bd bf e6 4c bd 2c 7c b6 bc
       -0.026034573 -0.043724395 -0.050024744 -0.022276007
000070 22 29 79 bb 14 37 19 3d 79 08 9d bd df 26 f2 bd
       -0.0038018902 0.037406042 -0.07667632 -0.1182382
000080 ba 5d b7 3d fb f9 71 bd 3a 30 8a bd 17 72 df bd
       0.08953424 -0.05907629 -0.0674748 -0.10910433
000090 fc 4b 4d 3d 92 79 a3 bb 26 3f 62 bc 86 f1 c8 bd
       0.050121292 -0.0049888575 -0.013809001 -0.09811692
0000a0 6a ac 30 bb bb 75 50 bd 72 6d 7d bb c0 19 f6 bd
       -0.0026958236 -0.050893527 -0.003866997 -0.1201663
0000b0 75 de 02 be fe 43 dd bd 9e 15 77 bd 88 61 b6 bd
       -0.12780173 -0.10803984 -0.06032335 -0.08905321
0000c0 c4 6e 2f bd d6 88 19 be 2e 0c b1 3b aa 26 1b bd
       -0.042830244 -0.14993605 0.0054030633 -0.03787867
0000d0 9a 86 98 3c d5 b7 32 3d 43 b8 a4 bd f8 7a d2 3c
       0.01861887 0.043632347 -0.08042958 0.025693402
0000e0 b4 f5 52 3d 59 7b 39 3a 30 37 a6 bc 7b de 5b bd
       0.051503852 0.000707557 -0.020289987 -0.05367897
0000f0 a3 31 82 bd 3a bf be 3d 6a e7 6b bc 93 23 c1 bd
       -0.06357124 0.09313817 -0.014398435 -0.09430613
000100 36 d7 8a 3d 34 4c 30 bd 72 20 8b bd 7f fa cb bc
       0.067793295 -0.043041423 -0.06793298 -0.02489972
000110 5f e1 12 3d dd 53 a8 3c b7 8f 2b 3c 74 ad 5a 3d
       0.035859462 0.020547802 0.010471276 0.053388074
000120 99 aa 2a 3c 4c ea 8e bd 42 49 99 bd d2 09 8c bc
       0.01041665 -0.06978282 -0.07484676 -0.017094526
000130 d3 5d 44 3d ae c2 07 bd 7d a0 69 bd ed 5c 9e 3d
       0.04794104 -0.033144645 -0.05703782 0.07732568
000140 45 60 85 3d c9 48 2d 3d d9 91 3a 3c db 4b 88 3d
       0.065125026 0.04230574 0.011387312 0.06655093
000150 1e b5 d3 bd c8 97 83 bc 84 dd 9d bc 71 e6 1f bd
       -0.1033728 -0.016063586 -0.019270666 -0.039038125
000160 84 93 a4 3d 9c 90 00 bd 6a 34 51 bc 08 c6 62 3e
       0.08035949 -0.03138791 -0.012768844 0.22145855
000170 7b cd e0 ba ec b4 da bd 34 57 d1 bd d8 11 19 3c
       -0.0017151082 -0.10679039 -0.10221711 0.009342633
000180 15 9b 48 3c 11 c7 0b bd 8f 18 67 bd ba 45 4d 3d
       0.012244006 -0.03412539 -0.056419905 0.050115325
000190 19 f4 5e 3b c7 df 7d bc 6e df 4d 3d 86 5d 82 3d
       0.0034020005 -0.015495247 0.050261907 0.063654944
0001a0 5d 7c 4b bd ab 08 26 bc f4 4c ca 3d f2 a4 b2 bc
       -0.04967915 -0.010133903 0.09877959 -0.021807168
0001b0 37 f0 43 bc 8f ff 0d 3d b3 e2 b5 bb c5 a2 ac bc
       -0.011959127 0.034667548 -0.0055507063 -0.021073708
0001c0 83 88 3c bd 82 21 ea bd a1 de 24 be ce 70 07 bd
       -0.046028625 -0.11432172 -0.16100551 -0.033066563
0001d0 2c 23 e7 bd 59 31 0a bd a1 2c ab bc 59 b5 ef bc
       -0.112860054 -0.033738468 -0.020895304 -0.029261278
0001e0 6a da 34 bc 88 d8 5f 3d fc 75 bb bd ba f7 b7 3d
       -0.011038402 0.05464986 -0.09153363 0.08982797
0001f0 6a bc a9 bc b6 c3 ae bd 20 83 11 bd b9 0a cd bd
       -0.020719726 -0.08533423 -0.03552544 -0.10011811
000200 cd a7 26 bd 38 e9 01 bd 0b bc 3d bd e3 ad aa bc
       -0.04068737 -0.031716555 -0.04632191 -0.020834869
000210 fd ea 92 bd 8a ec 9a bd ec 7f 2e be 93 76 91 ba
       -0.07173727 -0.075646475 -0.17040986 -0.001109796
000220 df b9 00 be 20 a8 61 3c 79 07 07 bc 24 6d e6 bd
       -0.12570904 0.013772994 -0.008241528 -0.11251286
000230 15 e4 d7 bd af 5e ea bd 37 16 28 3d 84 d4 20 3d
       -0.1054155 -0.11443841 0.04103681 0.03926517
000240 bb 51 08 be cc f2 7b bc 06 ed 08 bd d6 69 54 bd
       -0.13312428 -0.0153777115 -0.03342917 -0.051858746
000250 a8 37 a7 bc 62 af a1 3d 8c 9e 09 bb a8 80 d0 bd
       -0.020412281 0.0789478 -0.0020999042 -0.10180789
000260 2f fd 80 3d 8f d7 58 3d 1c bc f2 bc 64 15 58 bd
       0.06298291 0.052939948 -0.029630713 -0.052754775
000270 19 0f 71 bd ef 72 d4 bc b6 fd 40 3d 64 51 40 bd
       -0.05885229 -0.02593371 0.047116958 -0.04695262
000280 54 93 b9 bd d5 21 3a 3d b6 61 69 3b 72 39 6b bc
       -0.09061304 0.04544242 0.0035611219 -0.014356958
000290 fa cf fb bd 3b e4 13 be 7b 58 70 3b 5a 56 d8 3c
       -0.12295528 -0.14442532 0.0036673832 0.026408363
0002a0 fb 52 90 3c 64 1c 4e bc ca 13 0a be e5 2c 46 bd
       0.017617693 -0.012580011 -0.13484111 -0.04838266
0002b0 dc 59 76 3d d5 be 68 bd 94 f5 51 bc 89 56 c0 3c
       0.06014429 -0.056822617 -0.012814898 0.023478763
0002c0 be e8 c3 bd 38 3b 05 3d fe 68 3a bc 0d f6 a6 3c
       -0.095658764 0.03252718 -0.011377571 0.020380998
0002d0 9b 64 4c 3d 94 8b cc 3c 40 ba dd bd 42 89 d2 bb
       0.049900632 0.0249689 -0.1082654 -0.006425054
0002e0 d6 7b b3 3d 38 54 18 3d e4 bc 95 3d 88 d7 2d 3c
       0.08763854 0.037189692 0.07311419 0.010610469
0002f0 74 53 d8 bd c4 1b 1b 3d 37 0a e6 bd 59 a9 cb 3d
       -0.105627924 0.037868276 -0.11232417 0.0994441
000300 c2 73 a3 bc bd 44 bf bc fe 0e d3 3c 4f 3e 93 bd
       -0.019952659 -0.023348207 0.025763985 -0.07189619
000310 3f d1 98 bd bb 7d 0c 3c 91 c3 df bd e8 42 28 bc
       -0.074617855 0.008574898 -0.10925973 -0.010269858
000320 aa a3 e3 bc 41 72 d0 3c ed fb 08 be 56 eb 00 be
       -0.027788002 0.025445106 -0.13377352 -0.12589774
000330 ce 2d c9 3c c6 e3 5a 3d a9 2b 83 3c c2 e4 c9 3d
       0.024557974 0.053439878 0.01601203 0.09858085
000340 81 bd 31 be 55 28 96 bd b2 47 a6 bc 16 ea 54 bd
       -0.17357446 -0.073319115 -0.020297859 -0.051981054
000350 d9 bf fc bb e7 e5 c7 bd 8b 12 07 bb f0 31 48 3d
       -0.0077132997 -0.09760647 -0.0020610418 0.04887575
000360 de 72 24 3d a8 b2 7d bc 7c 4e f4 bc 97 b3 af bd
       0.04014861 -0.0154844895 -0.02982258 -0.08579176
000370 05 4e 22 bc 8e 2d d2 bd 8d 60 29 bc 47 bd be 3a
       -0.009906297 -0.10262595 -0.010337961 0.0014552259
000380 6e 18 d4 3d 4f dc ae bc c1 38 e9 bc 2f 43 97 bd
       0.10356222 -0.021345286 -0.028469445 -0.07385861
000390 be 40 79 bb 47 91 75 bd b6 fb 01 bd 97 68 d3 bd
       -0.0038032974 -0.059953 -0.03173419 -0.10322683
0003a0 db 3c bc bd 82 ba a8 bc 21 59 03 3d 55 f9 88 bd
       -0.09191295 -0.020596746 0.03206742 -0.06688181
0003b0 c3 66 db bd 55 d3 9a 3d 4a 8f 02 bd 27 1f e4 3c
       -0.107129596 0.0755984 -0.031874932 0.027846886
0003c0 e5 b6 bd bd 34 48 cb 3c 15 07 25 be 63 a5 b6 bd
       -0.092634 0.024814703 -0.16115983 -0.08918264
0003d0 23 d8 93 bd f0 68 be 3d 7c 03 a3 bc 68 aa f3 3c
       -0.07218959 0.09297359 -0.019899122 0.029744342
0003e0 b7 98 1e bd 98 49 d8 3c fa 8f fa bd 3d df 47 bd
       -0.03871986 0.02640228 -0.122344926 -0.04879688
0003f0 c2 ae 83 bd b7 25 8e 3c 8b 3c e6 bd ff 84 d1 3b
       -0.06429817 0.017351968 -0.112420164 0.006394028
