python/bsc/third_meeting/3rd_prompt/network_g_hidden_sizes_[64, 128, 256, 512]_activations_['ELU', 'ELU', 'ELU', 'ELU']_optimizer_Adam_lr_0.001_batch_size_64_epochs_100.pt (torch, 702883 bytes, 9 tensors)

weight f4 [64, 3]
0	0xbba80602	-0.0051276693
1	0x3cabd08d	0.020973468
2	0xbdd0285b	-0.10163947
3	0xbf35397d	-0.70790845
4	0xbf06ae65	-0.52609855
5	0xbebc5648	-0.36784577
6	0x3de7601d	0.11297629
7	0x3eccb611	0.39982656
8	0x3ec2bda4	0.3803531
9	0x3ea2d486	0.31802768
10	0x3c899a4a	0.016797204
11	0xbf0179f7	-0.5057673
12	0xbb40d5ff	-0.0029424427
13	0x3f075d72	0.5287696
14	0xbeaf5518	-0.3424461
15	0xbe7828cf	-0.24234317
16	0x3d2da09a	0.04238949
17	0x3ebc08dc	0.3672551
18	0x3eaee26f	0.3415713
19	0x3f00db28	0.50334406
20	0x3d4ba635	0.049719054
21	0xbd06317f	-0.032762047
22	0xbf28d396	-0.65947855
23	0x3bc8a0e0	0.0061226934
24	0xbe493996	-0.19650874
25	0xbc038911	-0.008028285
26	0x3e094df3	0.13408642
27	0xbf108243	-0.56448764
28	0x3ee461d8	0.446059
29	0xbe9495b0	-0.29020452
30	0x3f09bff0	0.538085
31	0xbe4bbf50	-0.19897199
32	0xbee369a8	-0.44416547
33	0xbeb7da62	-0.359088
34	0x3f20a685	0.6275409
35	0xbea1f4e9	-0.31632164
36	0x3e949234	0.29017794
37	0x3e79661c	0.24355358
38	0xbe5adf69	-0.21374287
39	0x3d6810f8	0.056656808
40	0xbeb3c287	-0.3510935
41	0x3ed268d5	0.41095605
42	0x3f01cb36	0.507007
43	0xbef41748	-0.47674012
44	0xbe4275e2	-0.18990281
45	0x3edfed26	0.43735617
46	0x3eca85c2	0.39555174
47	0x3eb064dc	0.3445195
48	0x3ead6257	0.3386409
49	0xbef4a4d3	-0.47782
50	0x3e518449	0.20460619
51	0xbf1c6db2	-0.6110488
52	0x3ec035ae	0.37540954
53	0xbe826ce8	-0.25473714
54	0x3ebcf70c	0.36907232
55	0x3d08912c	0.03334157
56	0xbe2a8490	-0.16652131
57	0xbeeca051	-0.46216062
58	0xbf3e7a32	-0.74405205
59	0xbec3238f	-0.38113067
60	0x3e83110f	0.25598952
61	0x3e1e1fdf	0.15441845
62	0xbe94e0fc	-0.290779
63	0xbe9c7ca4	-0.30563843
64	0x3df3622b	0.118839584
65	0xbef4fddd	-0.47849932
66	0x3efabfcc	0.48974454
67	0xbdd10246	-0.10205512
68	0xbe27e793	-0.16396932
69	0x3eb9e330	0.36306143
70	0xbee0721b	-0.43837056
71	0x3e0f3564	0.1398521
72	0xbeb0645f	-0.34451577
73	0xbebaa7c1	-0.3645611
74	0x3f11bce5	0.56928855
75	0x3dbb704e	0.0915228
76	0xbf2412f3	-0.64091414
77	0xbe5282e9	-0.20557751
78	0xbddf593e	-0.109056935
79	0xbe9e2c0b	-0.30892977
80	0x3ebd896a	0.370189
81	0xbddfa5b9	-0.10920281
82	0xbf2b3897	-0.66883224
83	0x3e34ad20	0.17644167
84	0x3edd96bc	0.43279064
85	0x3e14e4ec	0.14540452
86	0x3e2d371e	0.16915557
87	0x3e3d49f3	0.1848524
88	0x3e210d38	0.15727699
89	0x3df65c8c	0.12029371
90	0xbd56e8ba	-0.05246804
91	0xbec4cc2f	-0.3843703
92	0x3ed58939	0.41706255
93	0xbf08f7f1	-0.5350333
94	0x3ea3b10b	0.3197101
95	0xbeca3b56	-0.39498395
96	0x3b4b8e38	0.003106011
97	0x3f07fa97	0.53116745
98	0x3f102d35	0.5631898
99	0xbeeea85b	-0.4661282
100	0xbef19182	-0.47181326
101	0x3ebc773b	0.36809716
102	0x3ee25b29	0.44210175
103	0xbe229f35	-0.15881045
104	0xbebaec7a	-0.36508542
105	0x3f09e54b	0.538655
106	0x3e90ba82	0.28267294
107	0x3d8cac72	0.06868829
108	0xbf0da024	-0.5532248
109	0xbe5058e3	-0.20346408
110	0xbde68d7a	-0.11257453
111	0xbe46fe6c	-0.19432992
112	0xbf0cf34e	-0.55058753
113	0xbe5c21bf	-0.21497248
114	0xbe912179	-0.2834585
115	0x3ee01375	0.43764845
116	0x3ca0802e	0.01959237
117	0x3f08685d	0.53284246
118	0x3c963d46	0.018339764
119	0xbecd24af	-0.4006705
120	0xbf017153	-0.50563544
121	0xbe853dae	-0.2602362
122	0xbee6d559	-0.45084646
123	0xba6742a1	-0.0008821879
124	0xbdf13f5e	-0.117796645
125	0x3e17dda7	0.14830647
126	0x3e898a13	0.26863155
127	0xbe749d81	-0.23888208
128	0xbee0b44f	-0.43887565
129	0x3ead4f49	0.33849552
130	0xbe1a2fdb	-0.15057318
131	0xbe200dbd	-0.1563024
132	0x3eb0729f	0.3446245
133	0x3ef34231	0.47511438
134	0x3eb26f4e	0.34850544
135	0x3e9b8a79	0.30379084
136	0xbefa3ef2	-0.48876148
137	0x3e8433d7	0.258208
138	0x3e83d5ac	0.25748956
139	0x3f008e80	0.5021744
140	0xbe82c382	-0.25539786
141	0x3f0c553e	0.5481757
142	0xbf005b76	-0.5013956
143	0x3e3ac550	0.18239331
144	0x3f07b35a	0.53008044
145	0x3f1698fd	0.5882719
146	0xbe933065	-0.2874786
147	0xbedf8728	-0.43657804
148	0x3db65d62	0.0890453
149	0x3f04eb12	0.5192119
150	0xbdc6c79d	-0.09706042
151	0xbf16cbc5	-0.5890468
152	0xbebe654e	-0.37186664
153	0xbdba6f9a	-0.091033176
154	0xbe29d573	-0.1658533
155	0x3e67eb38	0.22648323
156	0xbf443f87	-0.76659435
157	0xbea87549	-0.3290198
158	0xbe5dcc03	-0.21659856
159	0xbf3877e7	-0.72057956
160	0xbf040764	-0.5157378
161	0xbea3bf1b	-0.3198174
162	0xbf1b11a3	-0.60573786
163	0xbf066021	-0.5249043
164	0xbd6a8d99	-0.057263944
165	0x3da5aeeb	0.080900036
166	0x3edaca65	0.4273254
167	0xbe3f093f	-0.18655871
168	0xbf0bc7c0	-0.5460167
169	0xbe38e86a	-0.18057409
170	0xbe8add28	-0.27121854
171	0x3e9d6268	0.3073914
172	0xbd7ce78c	-0.061744258
173	0x3cf1a21a	0.029496241
174	0xbe92f656	-0.28703564
175	0xbf24786b	-0.64246243
176	0x3da73bac	0.081656784
177	0x3ef774f2	0.4833141
178	0x3ece8bd6	0.4034106
179	0xbdb10f79	-0.08645529
180	0x3e92d1fb	0.28675827
181	0xbeaeb80a	-0.34124786
182	0x3e51c06b	0.20483558
183	0x3e98ac87	0.29819128
184	0xbf36f6d6	-0.7147039
185	0xbe21832c	-0.15772694
186	0xbd524767	-0.051337626
187	0xbdd2774f	-0.102766626
188	0x3e175cea	0.14781538
189	0xbed9f841	-0.42572215
190	0xbec4a00e	-0.38403362
191	0xbe5993d7	-0.21247803

bias f4 [64]
0	0x3ee8d0aa	0.45471698
1	0xbcd33ecc	-0.02578678
2	0xbeb117a3	-0.34588346
3	0xbd0079b7	-0.031366076
4	0xbe097295	-0.13422616
5	0x3eb9c2c4	0.36281407
6	0xbd2da531	-0.042393867
7	0xbeccd229	-0.4000409
8	0x3f203db0	0.6259413
9	0x3ea4d789	0.3219569
10	0xbeed5249	-0.4635184
11	0x3ebb6e20	0.36607456
12	0xbec61456	-0.3868739
13	0xbe5693b3	-0.2095478
14	0xbe586024	-0.21130425
15	0x3e7c2c02	0.24626163
16	0xbebdcc5e	-0.37069982
17	0xbe85bac8	-0.26119065
18	0x3e9e0015	0.30859438
19	0xbed8518e	-0.4224972
20	0xbebf0054	-0.37304938
21	0xbec920c7	-0.3928282
22	0xbe1e9028	-0.15484679
23	0x3ef868b7	0.4851739
24	0xbe2e5cdf	-0.17027615
25	0xbef270b2	-0.47351605
26	0x3edeec5d	0.43539706
27	0xbf059a58	-0.52188635
28	0x3e205ff2	0.156616
29	0x3a86f189	0.0010295372
30	0x3f2d0f44	0.6760142
31	0x3ec66722	0.3875056
32	0xbe81beed	-0.25340977
33	0xbe814656	-0.25248975
34	0x3f14f299	0.58182675
35	0xbe8a2fdb	-0.26989636
36	0xbe13fe57	-0.14452492
37	0x3edbfebe	0.4296779
38	0xbf059b91	-0.521905
39	0x3f32c633	0.6983368
40	0xbf16f79d	-0.5897158
41	0x3e8794e3	0.2648078
42	0xbe732f6f	-0.23748563
43	0xbea62d7a	-0.3245657
44	0xbea1d2e9	-0.31606224
45	0x3eabb27e	0.33534616
46	0xbeaf4af5	-0.34236875
47	0x3f37b002	0.7175294
48	0xbe581445	-0.21101482
49	0x3d2b49d3	0.04181845
50	0xbf0a8573	-0.5410988
51	0x3ec6ea91	0.38850835
52	0xbef4c5f8	-0.47807288
53	0xbe9cb7bf	-0.30608937
54	0xbf148060	-0.58008385
55	0x3e258c25	0.16166742
56	0xbeb27e26	-0.3486187
57	0x3ed1efcf	0.41003272
58	0x3eff5ab0	0.49873877
59	0xbe9c7f28	-0.30565763
60	0x3e8b62d3	0.27223834
61	0xbee0e303	-0.43923196
62	0x3f3a0825	0.7266868
63	0xbc9b86e2	-0.018985216

weight f4 [128, 64]
0	0xbe33bddb	-0.17552893
1	0x3cc2609e	0.023727711
2	0x3e0139d5	0.12619717
3	0x3d102748	0.03519371
4	0x3df0237e	0.117255196
5	0xbdc47227	-0.09592085
6	0x3d9645e4	0.07337549
7	0x3ded7e49	0.115963526
8	0xbdfee3b2	-0.12445773
9	0xbdbb1709	-0.09135253
10	0xbdd52a44	-0.10408452
11	0x3dcdd538	0.10050434
12	0x3e1ca579	0.15297498
13	0x3b3a1622	0.002839454
14	0x3d3a5f0f	0.04550081
15	0x3e057173	0.13031559
16	0x3d07059f	0.032964345
17	0x3e1e4a26	0.15457973
18	0xbd277670	-0.040884435
19	0x3daa5032	0.08316077
20	0xbda812db	-0.082067214
21	0xbde94f14	-0.11392036
22	0x3d25d392	0.040484972
23	0xbd4ab935	-0.049493033
24	0xbdb2a6ed	-0.08723245
25	0x3cf0bb79	0.029386269
26	0xbc75c85d	-0.015001384
27	0x3d41783b	0.0472338
28	0xbcfa1fc5	-0.030532727
29	0x3d17e6de	0.037085406
30	0x3da475ca	0.08030279
31	0xbdb01450	-0.08597624
32	0x3dd20971	0.10255707
33	0x3e0dac06	0.13835153
34	0xbd0c1d61	-0.034207705
35	0x3df2d87d	0.11857698
36	0x3e222025	0.15832575
37	0x3e25d680	0.16195107
38	0x3ce10dd2	0.02747241
39	0xbdc96465	-0.09833602
40	0x3bfe3b02	0.007758499
41	0x3d8c8009	0.06860358
42	0xbb3725c4	-0.0027946094
43	0x3d37f70b	0.044913333
44	0x3da2cd3c	0.079493016
45	0x3c85a615	0.016314546
46	0xbd526fae	-0.051376037
47	0x3b9346da	0.00449453
48	0xbd31aa3f	-0.04337525
49	0x3deddba4	0.11614159
50	0x3d96a372	0.073553935
51	0x3ce346d5	0.027743736
52	0x3d2c9e0a	0.042142905
53	0xbb12eb62	-0.002241813
54	0x3dc6b45f	0.09702372
55	0x3dec8b0a	0.11549957
56	0x3df00a21	0.11720682
57	0xbd68edd0	-0.05686742
58	0x3cbd110f	0.023079423
59	0x3d4df01c	0.050277814
60	0xbdfe5d14	-0.12420097
61	0x3db0c239	0.08630795
62	0xbe3d3d11	-0.18480326
63	0x3d135577	0.035970178
64	0x3e2c24c2	0.16810897
65	0xbe5a2d01	-0.2130623
66	0xbe0eea8a	-0.13956657
67	0x3ca4cf04	0.020118244
68	0xbcabb488	-0.020960107
69	0xbd38c98c	-0.045114085
70	0xbbddaab3	-0.0067647337
71	0xbe4d626c	-0.20057076
72	0x3d3d1be6	0.046169184
73	0x3d50f67e	0.051016323
74	0xbd57072e	-0.05249708
75	0x3d76cc64	0.060253516
76	0xbdf58c0f	-0.11989605
77	0xbd3005fe	-0.042974465
78	0xbd91557e	-0.070963845
79	0x3d3d47db	0.046211105
80	0xbe508a59	-0.20365275
81	0x3c72dcb0	0.014823124
82	0x3d9bce21	0.07607675
83	0xbe23fbb0	-0.1601398
84	0xbd161097	-0.036636915
85	0x3cd3d65c	0.02585905
86	0x3c17045d	0.009217349
87	0xbcff9151	-0.031197222
88	0xbd31cda2	-0.043408997
89	0xbe81426a	-0.25245982
90	0xbe536905	-0.2064553
91	0xbe3cb1b8	-0.1842717
92	0xbd4531bf	-0.048143145
93	0x3dac7a85	0.08421806
94	0xbdb15c4f	-0.086601846
95	0x3d3c0657	0.045904484
96	0xbe03ae78	-0.12859523
97	0xbe783127	-0.242375
98	0xbcfd3374	-0.030908324
99	0xbdf5ab65	-0.119955815
100	0xbdcb25d4	-0.099193245
101	0xbda0e8c6	-0.07856898
102	0xbdaa001c	-0.08300802
103	0x3e0e1636	0.1387566
104	0xbe55f7b1	-0.20895268
105	0xbc9a1535	-0.01880894
106	0xbded5886	-0.1158915
107	0xbe08e02a	-0.13366762
108	0xbe0fd6c4	-0.1404677
109	0xbe4bf693	-0.1991828
110	0x3dbefd90	0.09325707
111	0x3d570df6	0.05250355
112	0x3cf1f2d8	0.029534742
113	0xbd4d3f2d	-0.050109077
114	0xbe7d50a4	-0.24737793
115	0xbc95bd96	-0.018278878
116	0xbdf867f4	-0.121292025
117	0xbe1710b0	-0.1475246
118	0xbe8ce07a	-0.27515012
119	0xbdd11d0a	-0.10210617
120	0xbe4e1ea4	-0.20128876
121	0xbd8f980e	-0.07011424
122	0xbe5c441d	-0.21510358
123	0x3dcc642f	0.09980046
124	0x3d049dd0	0.032377064
125	0xbe0f2d23	-0.13982062
126	0x3d31ac88	0.04337743
127	0x3b22995a	0.0024810643
128	0x3c89ed52	0.016836796
129	0xbda28a82	-0.079365745
130	0x3d909468	0.07059556
131	0xbcb37f97	-0.021911426
132	0xbd38918c	-0.04506068
133	0x3ce5fd1e	0.028074797
134	0x3cd788fe	0.02631044
135	0x3bf9b99d	0.007621004
136	0xbe207e8b	-0.15673272
137	0xbd8fdf1e	-0.07024978
138	0xbd4c6713	-0.049902987
139	0xbd872ca5	-0.06600312
140	0xbd449cd3	-0.04800112
141	0x3d926100	0.071474075
142	0xbdf2eff7	-0.11862176
143	0x3d3c6f08	0.046004325
144	0xbe4e1f31	-0.20129086
145	0x3e3bf6d6	0.18355879
146	0xbdcf107a	-0.101105645
147	0x3d015928	0.031579167
148	0x3d81b03b	0.063324414
149	0x3da357f9	0.07975764
150	0x3d0b8be5	0.03406896
151	0xbe146d51	-0.14494826
152	0x3dd7e415	0.1054155
153	0x3ce86998	0.028370664
154	0x3cfaa896	0.030597966
155	0xbe000947	-0.12503539
156	0x3def1134	0.11673203
157	0xbde715d4	-0.1128346
158	0x3d1a894f	0.037728604
159	0x3dc4d785	0.096114196
160	0x3d5dcee1	0.054152373
161	0xbe06937f	-0.13142203
162	0xbd0f17d9	-0.034934852
163	0x3d86c067	0.065796666
164	0xbca1dcdc	-0.019758634
165	0x3c980664	0.018557735
166	0xbd5cad41	-0.053876165
167	0x3dfa1233	0.122105025
168	0xbd58a4e6	-0.052891634
169	0xbd6c6d35	-0.057721335
170	0xbccbdc08	-0.024885193
171	0x3cd01287	0.02539946
172	0xbd1802de	-0.03711211
173	0xbd9edf1b	-0.07757398
174	0xbd10ac7b	-0.03532074
175	0xbd998160	-0.074953794
176	0xbd809f2e	-0.06280361
177	0xbd31600a	-0.04330448
178	0x3d3dc044	0.046325937
179	0x3c3acff9	0.011402124
180	0x3b61b7d6	0.003444185
181	0xbcecca85	-0.028905163
182	0x3db15241	0.08658267
183	0x3da05fba	0.078307584
184	0xbd51588c	-0.051109836
185	0xbd9453a5	-0.072425164
186	0xbd2d80d5	-0.042359192
187	0xbccb6d4d	-0.024832392
188	0x3d3a31dc	0.045457706
189	0xbd7c4a65	-0.061594386
190	0xbe512029	-0.20422424
191	0xbda63c8c	-0.08117017
192	0x3e8bf9ce	0.27339023
193	0xbdc8b018	-0.09799212
194	0xbd87c8e9	-0.066301174
195	0xbdbeb67d	-0.093121506
196	0x3cf1420a	0.029450435
197	0x3da0f0a1	0.07858396
198	0xbd1fb27b	-0.03898857
199	0xbdadfd17	-0.08495539
200	0x3e36401a	0.1779789
201	0xbe110a5d	-0.1416411
202	0xbcba0350	-0.022706658
203	0x3beaf18b	0.0071699074
204	0xbd7b2f07	-0.061324146
205	0xbdc54aa8	-0.0963338
206	0xbcbb4d15	-0.022863904
207	0x3cf5a4f6	0.029985886
208	0xbd8eb35b	-0.06967803
209	0xbdd8fe37	-0.10595363
210	0xbcc259eb	-0.023724517
211	0xbe303124	-0.17206246
212	0xbddb30b8	-0.10702652
213	0x3c951b5d	0.018201524
214	0xbc60d0fb	-0.0137217
215	0xbb66b2da	-0.0035201819
216	0xbcbdacb0	-0.023153633
217	0xbdf3ef75	-0.11910907
218	0x3c9e2446	0.019304406
219	0xbd0e3099	-0.034714315
220	0xbd34a2e9	-0.044100676
221	0x3d94d21f	0.0726664
222	0xbdedd1a1	-0.11612249
223	0x3dc52fbc	0.09628245
224	0xbd8e70b7	-0.069550924
225	0xbb3dd968	-0.0028968696
226	0xbc6591f0	-0.014011845
227	0x3d73662c	0.05942361
228	0xb9f7c9b0	-0.0004726178
229	0xbd28dc73	-0.04122586
230	0xbe6b4163	-0.22974162
231	0x3e1d7f87	0.15380679
232	0xbd8226b9	-0.06355042
233	0x3cc48932	0.023991201
234	0xbe1f9696	-0.15584788
235	0xbdb96b70	-0.09053695
236	0xbdea288f	-0.11433517
237	0x3c1a182f	0.00940518
238	0xbda8caf1	-0.08241833
239	0x3cf2339d	0.029565627
240	0x3dc20590	0.09473717
241	0xbcd1c935	-0.025608638
242	0xbe0cff1d	-0.13769193
243	0x3d48c34f	0.049014386
244	0xbd87724a	-0.06613596
245	0xbe6b4d20	-0.2297864
246	0xbe072360	-0.13197088
247	0x3db60244	0.08887151
248	0xbcbd8ed0	-0.023139387
249	0xbd18b1c8	-0.03727892
250	0xbe367307	-0.17817317
251	0xbd0791ab	-0.033097904
252	0xbc55d0f0	-0.013050303
253	0xbd5ec623	-0.054388177
254	0x3dc8e64d	0.098095514
255	0xbdd42fc5	-0.10360674

bias f4 [128]
0	0xbe329735	-0.17440493
1	0x3e33b5f1	0.17549874
2	0x3d984116	0.07434289
3	0x3e5d9529	0.21638931
4	0x3d639cca	0.055569448
5	0x3d9e1b96	0.07720105
6	0x3d0b8f1a	0.03407202
7	0xbdc9dc4f	-0.09856474
8	0x3bea7b13	0.007155785
9	0xbe4bb93e	-0.19894883
10	0x3bea003d	0.0071411417
11	0xbd2770af	-0.040878948
12	0x3e4de3b0	0.20106387
13	0x3dc90ac1	0.09816504
14	0xbd07f459	-0.033192012
15	0x3dbb8a81	0.09157277
16	0x3e42b8c1	0.1901579
17	0xbe0af482	-0.13569835
18	0x3e388fe8	0.18023646
19	0xbe0d35f7	-0.13790117
20	0xbdcb8a59	-0.09938497
21	0x3e10a5f5	0.14125808
22	0x3e261c89	0.16221823
23	0xbe1f5482	-0.15559581
24	0xbd39fd83	-0.045407783
25	0xbe627100	-0.22113419
26	0xbd849046	-0.064728305
27	0xbdeaac7d	-0.11458681
28	0x3e779708	0.24178708
29	0xbe317091	-0.17328097
30	0x3dc949a6	0.098285004
31	0x3e35c1d9	0.17749728
32	0xbd150252	-0.036379166
33	0xbccaded0	-0.024764448
34	0x3c4db403	0.012555125
35	0xbe408fe0	-0.18804884
36	0x3cea3b0b	0.028592607
37	0x3e27db66	0.16392288
38	0x3cbd5eaa	0.023116428
39	0xbd01e935	-0.031716544
40	0xbe65338b	-0.22382943
41	0xbde6f02d	-0.11276279
42	0xbe4caf99	-0.1998886
43	0xbe25a042	-0.16174415
44	0xbdc14e3c	-0.0943875
45	0x3e12fd09	0.14354338
46	0xbdf7554d	-0.12076817
47	0xbda521d8	-0.08063096
48	0xbe2cb1ce	-0.16864702
49	0xbddb54d7	-0.10709541
50	0x3e5ba37c	0.21449083
51	0x3d7de882	0.061989315
52	0x3e6066e5	0.21914251
53	0x3e460476	0.19337639
54	0xbcecb998	-0.028897092
55	0xbdb2320b	-0.08700951
56	0xbd6563bf	-0.05600333
57	0xbe0593c7	-0.13044654
58	0x3e77aa72	0.24186113
59	0xbd2d4fdf	-0.0423125
60	0xbdd76c44	-0.10518697
61	0xbe1d199d	-0.15341802
62	0xbde24d44	-0.110498935
63	0x3e75d363	0.24006419
64	0xbd97beab	-0.07409414
65	0xbdbf11d7	-0.093295746
66	0xbdca0502	-0.098642364
67	0x3e7cb7b5	0.24679454
68	0x3c3a02db	0.01135322
69	0x3e537f1b	0.20653956
70	0x3dd6479f	0.104628794
71	0x3cd15870	0.025554866
72	0xbd0dfe97	-0.034666624
73	0x3b62b620	0.0034593418
74	0xbe10174a	-0.14071384
75	0xbe25759a	-0.16158143
76	0xbe3cbf4d	-0.1843235
77	0xbe376222	-0.17908528
78	0x3e0df2a1	0.13862087
79	0xbe0a1a8b	-0.13486688
80	0x3e64d10f	0.22345375
81	0xb9c7017a	-0.00037957338
82	0xbdc04dad	-0.093898155
83	0x3d5ffb42	0.054682977
84	0x3cc3a5cf	0.023882775
85	0x3e387eca	0.18017116
86	0x3cb18e05	0.021674166
87	0x3dfa6cfe	0.1222782
88	0x3e087d53	0.13329057
89	0xbd86bdd8	-0.065791786
90	0xbd7aa66b	-0.061193865
91	0x3bab6190	0.005230136
92	0x3c7ab3e7	0.015301681
93	0x3e017259	0.12641276
94	0xbdaa431a	-0.0831358
95	0x3e522554	0.20522052
96	0x3e388a4e	0.18021509
97	0xbdeb106d	-0.11477742
98	0xbd46160b	-0.048360866
99	0xbd4e4c56	-0.05036577
100	0x3cef0062	0.029174987
101	0x3e4ec28e	0.20191404
102	0x3d292eb1	0.041304294
103	0x3e84463d	0.25834838
104	0x3e7771c8	0.24164498
105	0x3d885419	0.06656665
106	0x3dc7a4dd	0.09748242
107	0xbe28a6cf	-0.16469882
108	0xbd281812	-0.04103858
109	0xbdebf788	-0.11521822
110	0x3e61818f	0.22022079
111	0x3e7c41a3	0.24634413
112	0xbd881d24	-0.06646183
113	0x3e628e91	0.22124697
114	0xbdab8366	-0.08374672
115	0xbe3fa1a8	-0.1871401
116	0xbcc960f6	-0.024582367
117	0xbe09b001	-0.13446046
118	0x3d0df25e	0.034654967
119	0x3c8932ea	0.01674791
120	0xbd5ea886	-0.054359935
121	0xbe17e6b6	-0.14834103
122	0x3e132264	0.14368588
123	0xbc976924	-0.018482752
124	0x3b1fd954	0.0024391012
125	0x3e0fe0c4	0.14050585
126	0x3e093afe	0.1340141
127	0x3e3749e8	0.17899287

weight f4 [256, 128]
0	0xbdc82318	-0.097723186
1	0x3db921d1	0.09039653
2	0x3d60e812	0.05490882
3	0xbd0cbb8b	-0.034358542
4	0x3d510dd6	0.051038586
5	0x3d913074	0.0708932
6	0xbd831a1a	-0.06401463
7	0xbca33016	-0.01992039
8	0xbc3e5d2b	-0.011618893
9	0xbdb2d986	-0.087328956
10	0x3c78697b	0.015161867
11	0xbc1e835f	-0.009674876
12	0x3cc89685	0.024485836
13	0xbe7f38ca	-0.24924007
14	0xbd6d69f8	-0.057962388
15	0xbda7c26d	-0.08191381
16	0xbbb31e7e	-0.0054662814
17	0xbd0dfa27	-0.034662392
18	0xbd8f55a0	-0.069987535
19	0xbc8c7f94	-0.017150678
20	0xb9ca4562	-0.00038580137
21	0xbdd5f9b3	-0.10448017
22	0xbc5f9a5e	-0.013647644
23	0xbd73133a	-0.059344508
24	0x3dc1af44	0.094572574
25	0xbd677577	-0.056508508
26	0x3da99685	0.082806624
27	0xbd350b24	-0.044200078
28	0xbd68b753	-0.056815457
29	0x3c65c43b	0.014023836
30	0x3dd4be7b	0.10387894
31	0xbb4ab9f4	-0.003093359
32	0xbe0c9e8d	-0.13732357
33	0xbd0a747d	-0.033802498
34	0x3bcd4869	0.0062647355
35	0x3da34006	0.07971196
36	0x3cc0ddcd	0.023543263
37	0xbc095133	-0.008381176
38	0xbc356b68	-0.011072971
39	0x3d05f095	0.03270014
40	0xbde0de0f	-0.10979854
41	0xbd2ce1af	-0.042207416
42	0xbcf3ad37	-0.029745681
43	0x3c131f49	0.008979627
44	0xbd0ef685	-0.034903068
45	0xbe0f955c	-0.1402182
46	0xbb39ffc1	-0.00283812
47	0xbd8ae9db	-0.06782886
48	0xbbd6ee32	-0.006559157
49	0xbcb58b55	-0.022161165
50	0xbd771644	-0.06032397
51	0xbd0375ed	-0.032094885
52	0xbceb34fb	-0.028711786
53	0xbc64df6a	-0.013969282
54	0xbd4f39b7	-0.05059215
55	0x3c0bd812	0.008535402
56	0x3d707d0e	0.05871301
57	0x3d82fee9	0.063962765
58	0x3d4043c9	0.046939645
59	0x3d6a0a01	0.057138447
60	0x3ca0d8c4	0.019634612
61	0x3d882f34	0.06649628
62	0x3d3d8151	0.046265904
63	0x3d92ff6c	0.07177624
64	0xbd2f62b3	-0.042818736
65	0x3d96a6b2	0.07356013
66	0xbdc0df37	-0.09417575
67	0xbc531fb7	-0.012885979
68	0xbd851ad1	-0.064992554
69	0xbd5806d9	-0.052740905
70	0xbdb010a8	-0.08596927
71	0xbd82fc8d	-0.063958265
72	0xbce4c41a	-0.02792554
73	0x3d26f30b	0.040759128
74	0xbd534747	-0.051581647
75	0x3d145d3a	0.03622172
76	0x3d921b3a	0.07134099
77	0x3d9c0a22	0.0761912
78	0xbd0fbfd6	-0.03509506
79	0x3d3b9c37	0.045803275
80	0x3d7fe3a1	0.062472943
81	0x3c712fd6	0.014720878
82	0xbe057362	-0.13032296
83	0x3d414ed4	0.047194317
84	0x3d128e24	0.035780087
85	0x3dcc7599	0.099833675
86	0x3c98e270	0.018662661
87	0x3d72ac6a	0.059246458
88	0xbd714123	-0.05890001
89	0xbd442346	-0.047885202
90	0x3d18a542	0.037266977
91	0xbd66e045	-0.056366224
92	0xbd22ab53	-0.03971417
93	0xbde9406f	-0.11389243
94	0x3d9453e2	0.07242562
95	0xbc95adbe	-0.018271323
96	0x3da7d87e	0.081955895
97	0x3c7caa30	0.015421435
98	0xbce053bb	-0.027383676
99	0xbd9feea4	-0.07809189
100	0x3d96bb5c	0.07359955
101	0x3d3e34fb	0.046437245
102	0xbd5161c0	-0.051118612
103	0x3d4c38b5	0.049858768
104	0xbcd4b23a	-0.025963891
105	0xbcbb750f	-0.022882966
106	0x3c8cc2c4	0.017182715
107	0xbdb34fe1	-0.0875547
108	0xbcaf2c61	-0.021383466
109	0x3becaa43	0.007222445
110	0xbcff6fd0	-0.031181246
111	0xbce8119c	-0.02832871
112	0xbe43c6b2	-0.19118765
113	0x3cdc7004	0.026908882
114	0xbda10c51	-0.07863677
115	0x3cb8f32d	0.022576893
116	0xbdb7da92	-0.08977236
117	0xbc668d98	-0.0140718445
118	0xbd894272	-0.067021266
119	0x3d41619f	0.04721224
120	0xbcfc3641	-0.030787589
121	0x3ce8cbc0	0.028417468
122	0x3c92af2d	0.017905796
123	0xbd69e966	-0.05710735
124	0x3d4c7c18	0.049923033
125	0xbb1b295e	-0.002367578
126	0xbcbc3c7b	-0.022978058
127	0x3dbede35	0.093197264
128	0x3bba5c84	0.0056872983
129	0xbe399907	-0.18124782
130	0x3d0471c6	0.032335065
131	0xbdc3aa39	-0.09553952
132	0xbe616606	-0.22011575
133	0xbe088f91	-0.13336016
134	0xbe482d2d	-0.19548483
135	0x3d6f55de	0.0584315
136	0x3c337cdd	0.010955063
137	0x3d897517	0.06711786
138	0x3d863191	0.06552423
139	0xbd7a057d	-0.06104039
140	0xbde66cdb	-0.11251231
141	0x3d25ffde	0.040527217
142	0xbdb8bd69	-0.09020502
143	0xbe27f680	-0.16402626
144	0xbe6d00cc	-0.23144835
145	0x3db87b9a	0.0900795
146	0xbe00fe6e	-0.12597057
147	0xbca385d6	-0.019961279
148	0xbce043ec	-0.027376138
149	0xbe04615e	-0.12927768
150	0xbd5352c4	-0.051592603
151	0xbc417a48	-0.011808939
152	0x3da45bb1	0.08025301
153	0x3b611053	0.0034342005
154	0x3d6b07be	0.05738043
155	0x3c8ef1ea	0.017449338
156	0xbe2c394c	-0.16818732
157	0x3a2185a4	0.00061615766
158	0xbe4d5d60	-0.20055151
159	0xbe74b616	-0.23897585
160	0x3da86da1	0.08224035
161	0xbd923809	-0.07139594
162	0x3cb1373d	0.021632785
163	0xbda1d2c3	-0.07901528
164	0x3d9e7e7f	0.07738971
165	0xbdb8899a	-0.090106204
166	0xbc82496d	-0.015904153
167	0x3dbba28d	0.091618635
168	0x3db076f5	0.08616439
169	0x3bdcce41	0.0067384546
170	0x3d963cea	0.07335837
171	0x3d460d9a	0.048352815
172	0xbd987f61	-0.074461706
173	0xbdd11cde	-0.10210584
174	0xbd30d646	-0.043173097
175	0xbda272d2	-0.079320565
176	0x3d831092	0.06399645
177	0xbd2e0d83	-0.042493355
178	0xbdde50e1	-0.1085527
179	0xbdea0458	-0.1142661
180	0xbe0827d6	-0.13296446
181	0xbe319abc	-0.17344183
182	0x3d7044f0	0.058659494
183	0xbdac6190	-0.08417046
184	0xbdaa3213	-0.08310332
185	0x3c2ae3e8	0.010430314
186	0xbe623803	-0.2209168
187	0x3ddfb39f	0.10922932
188	0x3d06d494	0.032917574
189	0x3c7a12e1	0.01526329
190	0x3ddcb7eb	0.10777267
191	0xbe593ae1	-0.21213867
192	0xbd4a67ae	-0.049415283
193	0x3d176403	0.036960613
194	0xbcc2343c	-0.023706548
195	0xbe6f240f	-0.23353599
196	0x3d96cd89	0.073634215
197	0xbe810601	-0.25199893
198	0x3d2b4e38	0.041822642
199	0x3c8d410e	0.017242935
200	0x3dbe6542	0.09296657
201	0x3dba4f99	0.09097213
202	0xbd55a62a	-0.05216042
203	0x3b9b6c6f	0.004743151
204	0xbdd0cbbc	-0.10195109
205	0xbd741d50	-0.059598267
206	0x3b3df314	0.0028983997
207	0x3dd6a8f8	0.10481447
208	0xbe266be6	-0.16252097
209	0x3c8fac45	0.0175382
210	0x3d1b31c0	0.037889242
211	0xbd20ac2f	-0.039226707
212	0x3db87783	0.0900717
213	0xbe5f03d7	-0.21778809
214	0x3d640fdc	0.055679187
215	0xbe360825	-0.17776544
216	0xbe3d627f	-0.18494605
217	0x3dafec95	0.08590046
218	0x3de5b888	0.11216837
219	0x3db48635	0.088146605
220	0xbc13b4f1	-0.009015308
221	0xbe2150ff	-0.15753554
222	0x3c8c6afc	0.017140858
223	0xbe0c266e	-0.13686535
224	0xbe6f3edd	-0.23363824
225	0xbd940a13	-0.07228484
226	0xbcee1aaa	-0.029065449
227	0xbb82b1e6	-0.0039884923
228	0xbd34d5df	-0.044149276
229	0xbd62b31b	-0.05534659
230	0x3bc3406d	0.005958608
231	0xbdb62d96	-0.088954136
232	0xbe6f2f3e	-0.23357865
233	0xbd403064	-0.04692115
234	0xbe428658	-0.1899656
235	0x3db668b6	0.08906691
236	0xbd8426b2	-0.06452693
237	0x3d8d0912	0.06886496
238	0xbdbee676	-0.09321301
239	0xbe75e2f9	-0.24012364
240	0x3df6e90c	0.12056169
241	0xbe00a96b	-0.12564628
242	0x3e094e42	0.13408759
243	0x3dcda4d3	0.10041203
244	0x3c732a8c	0.014841687
245	0xbd0da3ae	-0.034579925
246	0xbe2cf6b7	-0.16890989
247	0xbd1fbe27	-0.038999703
248	0xbca847a0	-0.020541966
249	0x3bc53f0b	0.006019478
250	0xbe2f415c	-0.17114776
251	0xbc097eef	-0.00839208
252	0xbc35d4ea	-0.011098126
253	0xbe88abc6	-0.26693553
254	0xbdc8250b	-0.097726904
255	0xbd7546e4	-0.05988206

bias f4 [256]
0	0x3db2f459	0.08738012
1	0xbc67f1bb	-0.014156754
2	0xbdf5d81a	-0.12004109
3	0xbd1a2f7c	-0.03764294
4	0xbd6b93ed	-0.05751412
5	0x3cbf75a9	0.023371534
6	0xbd9a3171	-0.075289614
7	0xbcf8ef5a	-0.03038757
8	0x3e13a2ac	0.14417523
9	0xbdec9ab8	-0.11552948
10	0x3e16a998	0.14713132
11	0x3d197bcc	0.037471578
12	0x3d3eb3ce	0.046558194
13	0x3dc4addc	0.096034735
14	0xbd16a0ae	-0.03677433
15	0x3d0c520e	0.03425794
16	0xbc0235cf	-0.007947399
17	0x3d0add6f	0.03390258
18	0x3d2da022	0.042389043
19	0xbd600978	-0.05469653
20	0x3c8a8b88	0.016912237
21	0xbdd986d7	-0.10621422
22	0xbc2da3f8	-0.010598175
23	0x3d3f217d	0.046662796
24	0xbdcc9ebc	-0.09991214
25	0x3d5f4c28	0.054515988
26	0x3c90513a	0.017616857
27	0xbdb88f32	-0.09011687
28	0xbd95eea4	-0.07320908
29	0xbd4ea70c	-0.050452277
30	0x3e1c7dae	0.15282318
31	0xbb5abaea	-0.003337557
32	0xbe05e795	-0.13076623
33	0xbdac9d43	-0.08428433
34	0xbe344fef	-0.17608617
35	0x3c81ddcb	0.01585283
36	0xbd6911c0	-0.056901693
37	0x3e19d36b	0.15022056
38	0xbd66827e	-0.05627679
39	0x3d6083c5	0.054813165
40	0x3de52ffd	0.11190794
41	0x3bc1d147	0.0059148404
42	0x3d4ce839	0.050026152
43	0xbc100cf1	-0.008792148
44	0xbd88a2ad	-0.06671653
45	0x3cba7536	0.022760969
46	0xbdf5886d	-0.11988912
47	0x3e069e6f	0.13146375
48	0xbd122871	-0.0356831
49	0x3e49cb1f	0.19706391
50	0xba7807e4	-0.0009461625
51	0x3c70286d	0.014658076
52	0x3d7183a3	0.05896343
53	0xbdbf26b9	-0.09333558
54	0xbd386484	-0.045017734
55	0xbe3f6f80	-0.18694878
56	0x3d203d0b	0.039120715
57	0xbdf1bb43	-0.118032955
58	0xbd8c88c5	-0.06862024
59	0xbd4250a5	-0.04744019
60	0x3d9c0a11	0.076191075
61	0x3e083718	0.13302267
62	0x3bf18f62	0.007371829
63	0xbc606f12	-0.013698356
64	0x3d241c12	0.040065832
65	0x3d859a12	0.06523527
66	0xbc8a8f48	-0.016914025
67	0x3d34629c	0.044039354
68	0xbd8f16c8	-0.06986767
69	0x3ca103ac	0.019655071
70	0xbddb5905	-0.107103385
71	0xbdc4fc24	-0.096184045
72	0xbd61f1ec	-0.055162355
73	0xbd358399	-0.044314954
74	0x3e1655fa	0.14681235
75	0x3d247a04	0.040155426
76	0x3bc117df	0.0058927382
77	0xbda059b7	-0.07829612
78	0x3e4aa839	0.19790734
79	0x3e06640f	0.13124107
80	0xbdca2fc8	-0.09872395
81	0xbe396fa5	-0.18108995
82	0xbd86c2d0	-0.06580126
83	0x3d778e59	0.060438488
84	0x3db0bc67	0.08629685
85	0xbc87ad12	-0.016562019
86	0x3e6f69f6	0.23380265
87	0xbd55463c	-0.052068934
88	0xbd5e7094	-0.05430658
89	0xbd8d1510	-0.06888783
90	0x3d90ccd3	0.07070317
91	0x3dd8c616	0.10584657
92	0xbd60d095	-0.05488642
93	0x3d21dc16	0.03951653
94	0x3e5a45ea	0.21315733
95	0xbb23f620	-0.0025018528
96	0xba2665cc	-0.00063475664
97	0x3d82fabc	0.0639548
98	0x3ce3c45d	0.027803594
99	0x3dae4ddc	0.08510944
100	0x3e4210d9	0.1895174
101	0x3e64311a	0.22284356
102	0x3d421574	0.04738374
103	0x3dbed303	0.09317591
104	0x3e151d1c	0.14561886
105	0xbda00881	-0.07814122
106	0xbc4eebc1	-0.01262945
107	0xbe000f70	-0.12505889
108	0x3dabc6f7	0.08387559
109	0xbd44c87c	-0.04804276
110	0xbd191633	-0.037374686
111	0x3e104abb	0.14091007
112	0xbd0e34f1	-0.034718458
113	0xbe3bf16b	-0.18353812
114	0x3d8ed406	0.06974034
115	0x3d8dc829	0.06922943
116	0xbcef6bf4	-0.02922628
117	0xbe172a88	-0.14762318
118	0xbd48e885	-0.049049873
119	0x3cecb59b	0.02889519
120	0x3d68ab00	0.056803703
121	0x3b78c913	0.0037961646
122	0x3e1cf3de	0.15327403
123	0xbd33c937	-0.043893065
124	0xbc826687	-0.01591803
125	0xbd66c026	-0.05633559
126	0x3e10ead4	0.1415208
127	0x3e094935	0.13406833
128	0x3cc35ad7	0.023847027
129	0xbbcb694e	-0.0062076217
130	0x3d30ef1b	0.04319678
131	0x3dfa57ad	0.12223754
132	0x3c44ed2e	0.012019439
133	0x3dbb687f	0.091507904
134	0xbd953709	-0.07285888
135	0xbd944560	-0.07239795
136	0xbd4dd25b	-0.05024944
137	0x3e23f5b3	0.16011696
138	0x3e26d52b	0.16292255
139	0xbd41038e	-0.04712253
140	0xbdd12df1	-0.10213841
141	0x3e12563f	0.14290713
142	0xbd58b4c1	-0.052906755
143	0x3d995dc2	0.07488586
144	0xbdb2768c	-0.08714017
145	0xbdcc01cf	-0.099612825
146	0xbdc95ee7	-0.09832554
147	0x3d71be3e	0.05901932
148	0xbc88e74e	-0.016711857
149	0x3df88c50	0.121361375
150	0xbbd9e5b7	-0.0066496986
151	0xbd601622	-0.054708607
152	0xbd6f1366	-0.05836811
153	0x3da06d70	0.078333735
154	0xbdc668fa	-0.096879914
155	0xbd97527c	-0.073887795
156	0xbc91b48d	-0.017786289
157	0xbd63a9e5	-0.055581946
158	0x3de2199e	0.11040042
159	0xbbcc778b	-0.0062398366
160	0xbe104451	-0.1408856
161	0xbd7a9462	-0.061176665
162	0xbdc3a370	-0.095526576
163	0xbc23e625	-0.010003601
164	0x3e46f9ca	0.19431224
165	0xbc991435	-0.018686393
166	0xbe11b03a	-0.14227381
167	0x3d602935	0.054726798
168	0xbd8bd9e8	-0.06828672
169	0x3cd91790	0.026500493
170	0xbdf7a117	-0.12091272
171	0xbdb2b3d9	-0.087257095
172	0xbb52747e	-0.0032112892
173	0xbd8ab066	-0.067719266
174	0x3e01d3e3	0.12678485
175	0xbdea8910	-0.11451924
176	0x3e263995	0.16232903
177	0xbd3c6117	-0.04599103
178	0x3e642d62	0.22282937
179	0xbdb0c7a8	-0.086318314
180	0xbd3cabd3	-0.0460623
181	0xbc99f371	-0.01879284
182	0x3e08848d	0.13331814
183	0xbd478bfa	-0.048717476
184	0x3d7797a0	0.060447335
185	0x3dd85fb3	0.10565128
186	0xbd766668	-0.060156256
187	0xbd9c9b82	-0.07646848
188	0x3e484586	0.19557771
189	0xbde0155d	-0.10941575
190	0x3daadd4e	0.08342992
191	0xbd0a172c	-0.033713505
192	0x3decaaac	0.115559906
193	0xbdfe92bd	-0.12430332
194	0xbc9623dd	-0.018327648
195	0x3cf503b6	0.029908996
196	0xbafc7c53	-0.0019263126
197	0xbc9a2c0e	-0.018819835
198	0x3e1d840c	0.15382403
199	0xba9d0025	-0.0011978192
200	0x3e0ed38e	0.13947889
201	0xbdb2c34d	-0.08728657
202	0x3e1dc4b2	0.15407065
203	0xbdd6985d	-0.1047828
204	0x3d160496	0.036625467
205	0x3cc50b79	0.024053322
206	0xbda996e9	-0.08280737
207	0xbc8c9ee0	-0.017165601
208	0x3bc6e650	0.006069936
209	0xbe24919c	-0.1607117
210	0xbd1ade8b	-0.03780989
211	0x3e538cf7	0.20659243
212	0x3e07546a	0.13215795
213	0xbc779230	-0.015110537
214	0xbdcd3c51	-0.1002127
215	0x3e1ab053	0.15106325
216	0xbc5338f8	-0.012892
217	0x3e3030bb	0.17206089
218	0x3d539a98	0.051661104
219	0x3e2ce1f7	0.16883074
220	0xbd85c399	-0.06531448
221	0x3de8809b	0.113526545
222	0x3e496b9a	0.19669953
223	0x3e17b1af	0.14813875
224	0xbd352ba2	-0.044231065
225	0x3d769963	0.060204875
226	0xbc129986	-0.008947736
227	0x3d214229	0.039369736
228	0xbe05a4dc	-0.1305117
229	0xbc383f61	-0.011245579
230	0xbce7642f	-0.028246013
231	0x3cbe61ea	0.023240048
232	0xbddf917c	-0.10916421
233	0x3a307cc9	0.00067324616
234	0x3d2e28bc	0.042519316
235	0x3d62200d	0.055206347
236	0xbd9ee3e7	-0.07758313
237	0x3d85cf56	0.06533687
238	0x3dd2e22a	0.102970436
239	0x3d383712	0.044974394
240	0x3daa66ff	0.08320426
241	0x3de6ca5b	0.11269065
242	0x3db5d40d	0.08878336
243	0xbd5694b6	-0.052387916
244	0xbc084c66	-0.008318996
245	0xbd5e89b3	-0.05433054
246	0x3dc2186d	0.09477315
247	0x3e0920e3	0.13391452
248	0xbd245ddb	-0.04012857
249	0x3e807a14	0.25093138
250	0x3ceb70eb	0.028740367
251	0xbddf1935	-0.1089348
252	0xbcf1c433	-0.0295125
253	0xb92e6bd8	-0.00016634108
254	0x3a477bc6	0.0007609691
255	0xbc8d998c	-0.01728513

weight f4 [512, 256]
0	0x3cb6f257	0.022332354
1	0x3df67c4a	0.12035425
2	0x3d7fb9e1	0.062433127
3	0x3b677f2c	0.0035323603
4	0x3dc8971c	0.09794447
5	0xbba1366d	-0.004919818
6	0x3c02ead8	0.007990561
7	0x3d2263ad	0.03964584
8	0xbc9ac753	-0.018893873
9	0x3da6aedd	0.08138821
10	0xbd3fae3b	-0.04679702
11	0xbd1984bc	-0.0374801
12	0x3d42044e	0.047367387
13	0xbc4c8f00	-0.012485266
14	0x3d845445	0.06461386
15	0x3de9ceba	0.11416383
16	0xbc591b77	-0.013251177
17	0x3d0bd544	0.034138933
18	0xbd804ba0	-0.06264424
19	0xbd861ee4	-0.06548861
20	0x3cdd5012	0.02701572
21	0x3cf1d0c2	0.029518489
22	0x3d27a650	0.040930092
23	0x3caae2fe	0.020860191
24	0x3d1c1fbe	0.03811621
25	0x3dabde99	0.083920665
26	0x3de2a164	0.11065939
27	0x3d37e767	0.044898417
28	0x3db88ceb	0.09011253
29	0x3cd4d243	0.025979167
30	0x3d09a31a	0.03360281
31	0x3d7488b1	0.05970067
32	0x3d6545e2	0.05597485
33	0x3ddd8cd2	0.10817875
34	0x3dabb2e7	0.08383732
35	0x3d7a314a	0.061082162
36	0x3c70b06a	0.014690498
37	0xbcadf407	-0.021234525
38	0x3d77b72f	0.060477432
39	0xbd63748e	-0.055531077
40	0xbd2a2418	-0.041538328
41	0x3d79781f	0.060905572
42	0xbc86fea1	-0.016478838
43	0x3da72fa4	0.081633836
44	0x3d9e57fe	0.07731627
45	0x3d25bba9	0.04046217
46	0x3d1b4f7e	0.037917607
47	0x3cdc61e9	0.026902156
48	0x3c55999a	0.01303711
49	0xbd606696	-0.054785334
50	0xbd689da8	-0.056790978
51	0x3cd88802	0.026432041
52	0x3d13c0a4	0.03607239
53	0x3d5b01ec	0.05346863
54	0x3d8fdb12	0.07024206
55	0x3c12e2c7	0.008965201
56	0x3a124d05	0.0005580935
57	0xbaf8662a	-0.0018951346
58	0x3ced1805	0.028942117
59	0x3ccd9301	0.025094511
60	0xbcb177d4	-0.021663584
61	0x3cf94011	0.030426057
62	0x3c1282d7	0.008942327
63	0x3d28ff0c	0.041258857
64	0xbd2caeb6	-0.042158805
65	0x3d9ed580	0.07755566
66	0x3dde9970	0.1086911
67	0x3d859b5a	0.065237716
68	0x3dbf8e59	0.093533225
69	0xbd004a80	-0.03132105
70	0x3de76472	0.11298455
71	0x3d11bb68	0.035579115
72	0x3de3d95b	0.11125442
73	0x3d8e528c	0.06949338
74	0x3d10bd3d	0.03533672
75	0xbddea614	-0.10871521
76	0xbc1d64ea	-0.009606579
77	0x3d9714b6	0.07376997
78	0x3d8dd60f	0.06925594
79	0x3cc9a060	0.024612606
80	0x3d26f03e	0.040756457
81	0x3cac31d3	0.021019852
82	0x3dc1f0aa	0.09469731
83	0x3d6b2c83	0.057415497
84	0xbc8385e4	-0.016055055
85	0x3d3a8559	0.045537326
86	0x3dae57ba	0.08512826
87	0x3d0902b3	0.03344984
88	0xbc679f6e	-0.014137132
89	0x3d5d4c77	0.054028
90	0xbd9ab1e6	-0.07553463
91	0x3c888de9	0.01666923
92	0x3c953675	0.018214444
93	0x3b6d6814	0.0036225365
94	0xbda171e8	-0.07883054
95	0x3d654343	0.05597235
96	0x3dbfbbfb	0.09362026
97	0xbc7b7b8f	-0.015349283
98	0xba639147	-0.0008681011
99	0xbd6432ab	-0.055712383
100	0xbbb521a2	-0.005527691
101	0x3c87a9c6	0.016560446
102	0xbd8b1b1a	-0.067922786
103	0x3c5e9e71	0.01358758
104	0x3d950eba	0.072781995
105	0xbab90d90	-0.0014118422
106	0xba9afcd4	-0.0011824616
107	0xbc5895ed	-0.013219339
108	0x3cff4331	0.031159969
109	0x3d4b2d08	0.049603492
110	0x3d3245eb	0.04352371
111	0x3ae8b4f4	0.0017754124
112	0x3cabb491	0.020960124
113	0x3dc8f2da	0.09811945
114	0xbca06f5d	-0.019584352
115	0xbd00acad	-0.031414676
116	0x3d9b671c	0.07588026
117	0x3db86f98	0.0900566
118	0x3d40c983	0.047067177
119	0x3cb78c3d	0.022405738
120	0xbd9d7088	-0.07687479
121	0x3da8cc1f	0.08242058
122	0xbc5c400a	-0.0134430025
123	0x3dd28725	0.10279683
124	0x3d34a122	0.04409898
125	0x3dddbcdd	0.108270384
126	0x3d188a0b	0.037241023
127	0x3c5b2d97	0.013377569
128	0x3dbb3150	0.09140265
129	0x3ca3c56f	0.019991605
130	0x3c6f846d	0.014618975
131	0x3d07d364	0.033160582
132	0xbcfd201c	-0.0308991
133	0x3db85c01	0.09001923
134	0x3d0c710b	0.034287494
135	0x3c8233f0	0.015893906
136	0x3dc6bad0	0.097036004
137	0x3d47d4ce	0.04878693
138	0x3d42c501	0.04755116
139	0x3ca646c1	0.02029741
140	0xbbfa4961	-0.007638142
141	0x3d2a9b8c	0.041652247
142	0x3d22d6f8	0.03975579
143	0xbd08a257	-0.033357944
144	0x3c8ab2d0	0.016930968
145	0x3bd50bc8	0.0065016486
146	0x3dce6e4b	0.100796305
147	0x3c7d90a0	0.015476376
148	0x3c4759f0	0.012167439
149	0x3c12717e	0.008938191
150	0x3d13f59a	0.036122896
151	0x3c3ede8a	0.011649737
152	0xbc1bf7c5	-0.009519522
153	0xbd0c7bb8	-0.034297675
154	0x3cef002f	0.029174892
155	0x3d8ad511	0.067789204
156	0x3dc52e59	0.09627981
157	0x3d5d15a4	0.053975716
158	0x3da703bc	0.08155009
159	0x3c1f985b	0.009740914
160	0x3cb4d174	0.022072531
161	0x3d824281	0.06360341
162	0x3ddf0641	0.10889865
163	0x3ca32ed8	0.019919798
164	0xbce6f1e8	-0.028191522
165	0x3d7ed1f3	0.062211942
166	0x3cb50516	0.022097152
167	0xbd001d25	-0.031277794
168	0x3b9d44c3	0.004799457
169	0xbd39c023	-0.04534925
170	0x3daf999d	0.08574221
171	0x3c934fb3	0.01798234
172	0x3dadc503	0.08484843
173	0x3d16a1d8	0.03677544
174	0x3cdcc55d	0.026949579
175	0x3cf25211	0.029580148
176	0xbd3011d4	-0.042985752
177	0xba8f2720	-0.0010921694
178	0x3d6a48e0	0.057198405
179	0x3d91cede	0.07119535
180	0x3d9d555b	0.07682296
181	0x3d2804e1	0.041020278
182	0xbd3d3800	-0.046195984
183	0x3c28ba4f	0.010298326
184	0x3ca0060e	0.019534137
185	0x3d043c8a	0.032284297
186	0xbbae35d1	-0.005316474
187	0x3dd739c8	0.10509068
188	0x3d281fdb	0.041046005
189	0xbb2f6e49	-0.0026768616
190	0xbd8eba56	-0.069691345
191	0x3dcfcdcf	0.10146677
192	0xbd8ef7eb	-0.0698088
193	0x3bb10642	0.0054023573
194	0xbd8b8450	-0.06812346
195	0x3d17e069	0.03707925
196	0x3d8ce963	0.068804525
197	0x3d1a688c	0.03769736
198	0x3d6d13c9	0.057880197
199	0x3d661904	0.0561762
200	0xbd8192f7	-0.063268594
201	0x3d7ad1ae	0.061235122
202	0xbd3abea9	-0.045591984
203	0x3dc36f34	0.09542695
204	0x3daa733e	0.08322762
205	0xbd0e632b	-0.034762543
206	0x3c911bf4	0.017713524
207	0xbc6ae9b6	-0.014337948
208	0x3dab587d	0.08366487
209	0x3d01ea48	0.03171757
210	0x3caef4d9	0.021356987
211	0x3d6c37dd	0.057670463
212	0x3d7164f2	0.05893416
213	0x3db49b8c	0.08818731
214	0xbc2b5acc	-0.010458659
215	0x3ca30969	0.019901948
216	0xbd379896	-0.04482325
217	0xbd5ba2b2	-0.053621955
218	0x3d92d00c	0.07168588
219	0xbd138113	-0.036011767
220	0x3d6cc53e	0.057805292
221	0x3dc31b5b	0.09526702
222	0x3d20af95	0.039229948
223	0x3bf1d14e	0.0073796874
224	0x3dad7ab7	0.084706716
225	0x3b163634	0.0022920491
226	0x3e00bb65	0.12571485
227	0xbd612e5f	-0.054975864
228	0x3de0d2b4	0.109776884
229	0x3dc67b72	0.09691514
230	0x3b68043e	0.003540292
231	0xbc800c55	-0.01563088
232	0x3da5f771	0.08103836
233	0x3ddd82cc	0.10815963
234	0x3c955c21	0.018232407
235	0x3df7e2b8	0.1210379
236	0x3d9c1d88	0.0762282
237	0x3ccd8283	0.025086647
238	0x3d21ec72	0.039532132
239	0x3c8fcf27	0.017554833
240	0x3d277a7b	0.04088829
241	0x3db9734d	0.09055195
242	0x3d8c415b	0.06848403
243	0xbb5433ac	-0.0032379432
244	0xbcc8d8a2	-0.024517361
245	0x3de1993b	0.110155545
246	0x3c9fb8df	0.019497333
247	0x3d3aa491	0.0455671
248	0x3d47776c	0.048697874
249	0x3db9059c	0.09034273
250	0xbbd143be	-0.0063862493
251	0x3da34bc4	0.079734355
252	0xbd07ff17	-0.033202257
253	0x3dc355f8	0.095378816
254	0x3b8dddaf	0.0043294053
255	0x3cc277ca	0.02373876

bias f4 [512]
0	0xbcacdf52	-0.021102581
1	0x3c1f99e6	0.009741282
2	0xbc873df1	-0.016509028
3	0xbcb9f041	-0.02269757
4	0xbd5565e9	-0.052099142
5	0xbcb0a620	-0.02156359
6	0x3d11e1bc	0.035615668
7	0x3c843ad0	0.016141325
8	0xbda4280c	-0.08015451
9	0xbc80e706	-0.01573516
10	0xbdaa83ba	-0.08325906
11	0xbc531c22	-0.012885125
12	0x3cc2c7b3	0.023776865
13	0xbd5a5afb	-0.053309422
14	0xbc4b455a	-0.012406671
15	0x3b885b4a	0.004161273
16	0xbd18d1ef	-0.037309583
17	0x3d1547a0	0.03644526
18	0x3d778355	0.060427982
19	0xbcc3d3e8	-0.023904756
20	0xbdc201cd	-0.09473
21	0x3c22ad61	0.009929032
22	0x3a95b3e9	0.0011421415
23	0xbcd0f3e9	-0.02550693
24	0xbd745e62	-0.059660323
25	0xbda89a6b	-0.08232578
26	0xbcf9efb3	-0.030509805
27	0xbce27f5e	-0.027648624
28	0xbd4778e0	-0.04869926
29	0x3d5a2471	0.05325741
30	0xbd836477	-0.064156465
31	0xbd353139	-0.044236396
32	0xbda17599	-0.07883758
33	0x3cf4f129	0.02990015
34	0x3d148ff5	0.0362701
35	0xbd7d6247	-0.061861303
36	0xbbddd19e	-0.006769373
37	0x3c316f2c	0.010829728
38	0xbd7e6d5d	-0.062116016
39	0xbba7768f	-0.005110569
40	0xbbf4e32f	-0.0074733715
41	0xbcf9a524	-0.030474253
42	0xbd880b44	-0.06642774
43	0xbd7165c0	-0.058934927
44	0xbdb0166f	-0.08598029
45	0xbd438b1a	-0.04774008
46	0xbcc85eeb	-0.024459323
47	0x3cbb37a2	0.022853676
48	0xbd1352f9	-0.0359678
49	0xbdccacc8	-0.09993893
50	0xbc758702	-0.014985802
51	0x3c806acb	0.015675923
52	0x3d1413d3	0.03615172
53	0xbc14edea	-0.009089926
54	0xbcc04f57	-0.023475332
55	0xbd1d0ce1	-0.03834236
56	0xbc3a0394	-0.011353392
57	0xbc053b5a	-0.008131826
58	0xbd238360	-0.03992021
59	0x3d043979	0.032281373
60	0x3c638aff	0.01388812
61	0xbd6e819c	-0.058229074
62	0xbd987a84	-0.07445243
63	0xbda5df81	-0.080992706
64	0x3cb21d0e	0.02174237
65	0xbdb9d1a6	-0.090731904
66	0xbd746a5d	-0.05967175
67	0x3ca3ba2d	0.019986236
68	0xbd04f541	-0.032460455
69	0xbc50784e	-0.012723995
70	0x3b0d765c	0.002158544
71	0xbc571d41	-0.013129533
72	0xbd97e4b4	-0.074166685
73	0xbcfdc24c	-0.030976437
74	0xbcabf31b	-0.020989945
75	0xbbfff8d1	-0.0078116436
76	0xbd7996ed	-0.06093495
77	0xbd28fd9d	-0.04125749
78	0xbdc1e0f7	-0.09466737
79	0xbd5f778b	-0.054557364
80	0xbd9fb6a4	-0.07798508
81	0x3c8559e8	0.016278222
82	0xbd6339c0	-0.055474997
83	0x3b282661	0.0025657641
84	0x3c3d644b	0.011559556
85	0xbd7e044b	-0.062015813
86	0x3d12468c	0.03571181
87	0xbda8c9ec	-0.082416385
88	0xbba2d1a2	-0.004968838
89	0xbc8c2ed9	-0.017112182
90	0x3ca00d73	0.019537663
91	0xbdb18576	-0.08668034
92	0xbdb14847	-0.08656364
93	0x3c96760b	0.018366834
94	0x3cb018ec	0.021496259
95	0x3d70046b	0.058597963
96	0xbd8751ae	-0.06607376
97	0xbb9ed406	-0.0048470525
98	0xbd31a044	-0.04336573
99	0xbcef4654	-0.02920834
100	0xbd91a765	-0.07112006
101	0x3bb2e4f4	0.0054594222
102	0x3d1b9c84	0.03799106
103	0x3ca2a133	0.019852256
104	0xbd5fe2e4	-0.05465974
105	0x3d3ef9c7	0.046624925
106	0xbca6083f	-0.020267604
107	0xbd4b6450	-0.049656212
108	0xbd16216d	-0.03665297
109	0xbd4015a9	-0.046895657
110	0x3c373462	0.011181923
111	0x3d1b92f4	0.037981942
112	0xbdc323a3	-0.095282815
113	0x3d219412	0.03944785
114	0x3d30548a	0.043049373
115	0x3b764f6b	0.0037583958
116	0xbd3edd1e	-0.046597593
117	0xbc30c809	-0.01078988
118	0x3c6985cc	0.014253091
119	0xbd9359e7	-0.07194882
120	0xbd614b7c	-0.055003628
121	0xbd5b9b41	-0.05361486
122	0xbbb3a51d	-0.0054823295
123	0xbda5194f	-0.08061468
124	0xbcbb849e	-0.022890385
125	0xbd29ad9d	-0.041425336
126	0x3a482fa6	0.00076364947
127	0x3d4acaa1	0.04950965
128	0x3b4237e3	0.0029635362
129	0x3ce2a978	0.0276687
130	0xbd72495a	-0.059151985
131	0x3c29fa55	0.010374625
132	0xbd2ce9fe	-0.04221534
133	0x3ca57cc7	0.0202011
134	0xbba00058	-0.0048828535
135	0xbd895289	-0.067051955
136	0xbd9f02c9	-0.07764203
137	0xbd29b898	-0.041435808
138	0xbd504ba7	-0.050853398
139	0x3d161825	0.03664412
140	0x3d17f1b0	0.037095726
141	0xbc9ce0c4	-0.019150145
142	0x3c1a0017	0.0093994355
143	0xbd5c91de	-0.053850047
144	0xbd46601e	-0.04843151
145	0x3caa0fe7	0.020759536
146	0xbd7dae1b	-0.061933618
147	0xbd7d384a	-0.06182126
148	0x3d0dd12e	0.034623317
149	0xbd9632ff	-0.073339455
150	0xbd89c0ed	-0.06726251
151	0x3cf34252	0.02969471
152	0x3d837fc5	0.064208545
153	0x3cabc42f	0.020967571
154	0xbd7c7cae	-0.06164234
155	0xbd3ee3c8	-0.046603948
156	0xbbbf3236	-0.005834843
157	0x3b072539	0.0020621552
158	0xbd3aa337	-0.04556581
159	0x3cb20b32	0.021733854
160	0xbcc8881d	-0.024478966
161	0xbb62443c	-0.0034525534
162	0x3c7a62f0	0.015282378
163	0x3c916581	0.017748596
164	0xbd857547	-0.065165095
165	0xbd0780b2	-0.033081718
166	0x3b7bf42f	0.0038445105
167	0x3c34210f	0.01099421
168	0x3b09148f	0.0020916795
169	0xbd9e5976	-0.07731907
170	0x3c4aba14	0.012373466
171	0xbd615be0	-0.05501926
172	0xbd6161d7	-0.055024948
173	0xbd0b33ed	-0.033985067
174	0xbd124037	-0.03570577
175	0xbc60790e	-0.013700737
176	0xbd96ef25	-0.07369832
177	0xbcb14505	-0.021639356
178	0x3c881b58	0.016614601
179	0xbd4c0088	-0.049805194
180	0xbba9ab45	-0.0051778876
181	0x3caf0fef	0.021369902
182	0xbd2a4185	-0.04156639
183	0xbc7235f6	-0.014783373
184	0xbda04fe2	-0.078277364
185	0xbd7e48a9	-0.062081013
186	0xbd5db528	-0.054127842
187	0xbd3d9d33	-0.046292495
188	0x3d2b6129	0.041840706
189	0x3c065638	0.008199267
190	0xbcdf2d42	-0.02724326
191	0x3b160745	0.0022892517
192	0xbbf99b3c	-0.0076173823
193	0xbcb23aee	-0.021756615
194	0xba62ffe2	-0.00086593453
195	0x3d17e952	0.037087746
196	0xbd03c0bf	-0.03216624
197	0xbdaf988c	-0.08574018
198	0xbd4c2f5e	-0.04984986
199	0xbd1f7994	-0.038934305
200	0x3d0470ca	0.032334127
201	0xbc91005f	-0.017700372
202	0x3d32fe1d	0.043699373
203	0xbcd26f98	-0.025687978
204	0xbd90dae0	-0.07072997
205	0xbda9ed25	-0.08297185
206	0xbd23a6ea	-0.039954104
207	0xbd292e98	-0.0413042
208	0x39c88d70	0.00038252352
209	0xbd9d20bf	-0.076722614
210	0x3b2bbc32	0.0026204702
211	0xbc8d888e	-0.017277028
212	0xbcf9dd1e	-0.030500945
213	0x3c74abb6	0.014933517
214	0x3c0ca505	0.008584266
215	0xbc88124f	-0.016610293
216	0xbce302da	-0.02771132
217	0xbda6d27b	-0.08145615
218	0xbd9a07ed	-0.07521043
219	0xb78e369e	-1.6953152e-05
220	0xba2b968e	-0.0006545567
221	0xbd95eb78	-0.07320303
222	0xbcd5bd14	-0.026091136
223	0x3b1a0371	0.0023500586
224	0x3c8a77b1	0.016902776
225	0xbd08ca3b	-0.033395987
226	0xbd998be3	-0.074973844
227	0x3d74009e	0.0595709
228	0x3cdf4b3f	0.02725756
229	0xbcfee030	-0.03111276
230	0xbcddc529	-0.027071552
231	0xbda1daab	-0.07903036
232	0x3be7d9dc	0.0070755314
233	0x3d03ca82	0.03217555
234	0xbd751fce	-0.059844784
235	0x3d120ba4	0.035655633
236	0xbbb4a39f	-0.005512669
237	0x3b2ff426	0.0026848405
238	0xbd25efd1	-0.04051191
239	0xbd942ee4	-0.07235506
240	0xbdb4d49b	-0.08829614
241	0xbd69ccf0	-0.05708021
242	0x3c7f6f9f	0.015590577
243	0x3d6bde7e	0.057585232
244	0xbdaaa9d8	-0.083331764
245	0x3d50bee2	0.05096329
246	0x3ceb6953	0.028736746
247	0xbdafa2d2	-0.085759774
248	0x3c90e90b	0.017689249
249	0x3cbd2e42	0.023093347
250	0xbd9b8633	-0.07593956
251	0x3cd787a3	0.026309794
252	0xbd88a8ce	-0.06672822
253	0xbcb524f3	-0.022112345
254	0xbd1982f7	-0.037478413
255	0xbcdfe3a5	-0.027330229
