python/bsc/third_meeting/3rd_prompt/networkf.pt (torch, 47321 bytes, 7 tensors)

weight f4 [32, 3]
0	0x3f012cd9	0.5045906
1	0x3eee0066	0.4648468
2	0x3e30d3eb	0.1726834
3	0x3cee77c4	0.029109843
4	0xbf0a8ba8	-0.5411935
5	0xbf2abec2	-0.66697323
6	0xbeac5b13	-0.33663234
7	0xbda6ace3	-0.08138444
8	0xbec1f92e	-0.37885422
9	0x3dc54fce	0.09634362
10	0xbe26d4d5	-0.16292126
11	0xbf2bbd03	-0.67085284
12	0xbea2a722	-0.31768137
13	0xbf335d85	-0.70064574
14	0x3e1c0101	0.15234758
15	0x3cdbc5b5	0.026827672
16	0xbe3f164e	-0.18660852
17	0xbe5945c3	-0.21218018
18	0x3de4c48f	0.11170303
19	0x3eda7e54	0.42674506
20	0xbdd9089a	-0.10597344
21	0x3b634923	0.0034681044
22	0xbe864169	-0.2622178
23	0xbf1b67a0	-0.60704994
24	0xbf5b65c3	-0.8570215
25	0xbe925054	-0.2857691
26	0xbf551977	-0.8324198
27	0x3e04e36a	0.12977377
28	0xbc6a2513	-0.014291066
29	0xbf105bd3	-0.5639011
30	0xbf2576ce	-0.64634407
31	0x3ddcc52b	0.10779794
32	0xbe368bdb	-0.17826788
33	0xbdf4a94e	-0.11946355
34	0xbed8be74	-0.42332804
35	0xbf38afd5	-0.721433
36	0xbe072c5d	-0.13200517
37	0x3e54c7a2	0.20779279
38	0xbdfb69e2	-0.12276055
39	0x3dfa3a8c	0.12218198
40	0x3e93d003	0.28869638
41	0xbe390fc3	-0.18072419
42	0xbe50cea6	-0.2039133
43	0xbefd5cf2	-0.49484974
44	0x3e446f6f	0.19183134
45	0xbeded8e1	-0.4352484
46	0xbebe3b33	-0.3715454
47	0xb83f64ef	-4.563195e-05
48	0xbec4fbfc	-0.384735
49	0xbe174a1a	-0.14774361
50	0x3e9208b3	0.28522262
51	0xbca339f9	-0.019925104
52	0xbdaea359	-0.0852725
53	0xbd80528e	-0.06265746
54	0x3e5fb473	0.2184618
55	0x3d8be0f2	0.06830014
56	0xbf1535e1	-0.5828534
57	0xbe57e603	-0.21083836
58	0xbf083be6	-0.532164
59	0x3ea90bd3	0.33016834
60	0x3dd4c459	0.10389013
61	0x3cad1ceb	0.021131953
62	0x3e8d25ac	0.27567804
63	0xbf2c3743	-0.6727182
64	0xbf13bf8a	-0.5771414
65	0xbef1a7b1	-0.4719825
66	0xbd36c9e0	-0.044626117
67	0xbf0b1cec	-0.54341006
68	0xbedef52a	-0.4354642
69	0xbf0bffc4	-0.5468714
70	0x3cfe0784	0.031009443
71	0xbd7140d3	-0.05889971
72	0xbea8e0be	-0.32983965
73	0x3cde3c8f	0.027128486
74	0xbe00e7d7	-0.1258844
75	0xbcbeec21	-0.023305954
76	0xbe94bed2	-0.29051834
77	0xbe4c11e9	-0.19928707
78	0x3ea83b85	0.3285791
79	0x3e220f8c	0.15826243
80	0x3f0ad2ef	0.5422811
81	0x3d9427bd	0.07234142
82	0xbd4425af	-0.0478875
83	0x3e94aaac	0.29036462
84	0xbed05099	-0.4068649
85	0xbea00ac6	-0.3125822
86	0x3e93565b	0.28776821
87	0xbe989643	-0.2980214
88	0xbf7196f8	-0.94370985
89	0x3e34001c	0.17578167
90	0xbe1bfb4b	-0.1523258
91	0x3c30f209	0.010799893
92	0x3f098d63	0.53731364
93	0xbdddb041	-0.108246334
94	0xbf0bfb5a	-0.5468041
95	0x3dfea63b	0.1243405

bias f4 [32]
0	0x3c9247cc	0.017856501
1	0xbf3f7b96	-0.7479795
2	0x3eded905	0.43524948
3	0xbd5dfc2a	-0.05419556
4	0x3ec16911	0.37775472
5	0xbf076969	-0.5289522
6	0xbe8030e2	-0.25037295
7	0xbd1c1440	-0.03810525
8	0x3e66ab2e	0.22526237
9	0x3e2a8b1c	0.16654629
10	0xbe75d2b4	-0.24006158
11	0x3e22c49b	0.15895312
12	0xbc73d898	-0.014883183
13	0x3e6fe83e	0.23428437
14	0x3e8db078	0.27673697
15	0xbd3f5cfc	-0.046719536
16	0x3ea905ac	0.3301214
17	0x3f8132a3	1.0093578
18	0xbf146c33	-0.579776
19	0xbf0b7ab7	-0.54484123
20	0xbe18b27d	-0.14911838
21	0x3e3c43fb	0.18385307
22	0xbe6a6c74	-0.22892934
23	0xbebabf2f	-0.36473987
24	0x3e7e3c3a	0.24827662
25	0x3d4e90b5	0.050430972
26	0x3ebc45d8	0.36772037
27	0xbe860cbc	-0.2618159
28	0xbcceaabd	-0.025227899
29	0xbed7d105	-0.42151657
30	0xbcbbbd5d	-0.022917444
31	0x3deafea5	0.11474351

weight f4 [64, 32]
0	0x3da43715	0.080183186
1	0x3d9b34f3	0.07578459
2	0xbe562f27	-0.20916425
3	0xbe84dd2a	-0.25949985
4	0xbe83abd9	-0.25717047
5	0xbe74bca0	-0.2390008
6	0xbda1a62f	-0.07893025
7	0xbe1cd0f4	-0.15314084
8	0x3dc8e42b	0.098091446
9	0xbdd23376	-0.10263722
10	0x3d9fb873	0.07798853
11	0x3d90358f	0.070414655
12	0xbe3f637e	-0.18690297
13	0xbda630d9	-0.08114786
14	0x3d6517bf	0.05593085
15	0xbdb959d4	-0.090503365
16	0xbd9ed2a2	-0.07755019
17	0xbe63e187	-0.22254
18	0xbdb56b89	-0.08858401
19	0xbaa85a91	-0.0012844374
20	0xbe65da90	-0.22446656
21	0xbda5c93f	-0.08095025
22	0x3d9a04aa	0.07520421
23	0x3e044ebf	0.12920664
24	0xbdfcc1c2	-0.12341644
25	0xbe00fb9c	-0.12595981
26	0xbc826734	-0.015918352
27	0xbe2077f1	-0.15670754
28	0xbe5dc711	-0.21657969
29	0xbb271d54	-0.0025499659
30	0x3d4abfec	0.049499437
31	0x3d516517	0.051121797
32	0x3c6829c9	0.014170119
33	0xbdf38bd7	-0.11891907
34	0xbe4ff03f	-0.2030649
35	0x3e5b3b89	0.2140943
36	0xbe3733d4	-0.17890865
37	0xbe33ec29	-0.17570557
38	0xbe0c4dc5	-0.13701542
39	0x3e18bc42	0.14915565
40	0xbd6787b5	-0.056525905
41	0xba3d72aa	-0.0007226864
42	0x3bdd84b8	0.006760206
43	0xbddf7cba	-0.109124616
44	0xbd11f0e2	-0.035630114
45	0x3d8a87ae	0.0676416
46	0x3e60157d	0.21883197
47	0x3d648978	0.055795163
48	0xbe130526	-0.14357433
49	0xbe889c2b	-0.26681647
50	0x3e1f93df	0.15583752
51	0xbd82e529	-0.06391365
52	0xbdebb308	-0.11508757
53	0x3e807d79	0.25095728
54	0x3e2b80af	0.16748308
55	0xbd47a565	-0.048741717
56	0xbd9e77fa	-0.077377275
57	0xbdb84942	-0.08998348
58	0xbdffb6cf	-0.1248604
59	0x3d4887bb	0.048957568
60	0xbe52c40b	-0.20582597
61	0x3d6046c0	0.054754972
62	0xbe3d0bac	-0.18461484
63	0xbd0361d4	-0.032075718
64	0xbd9e5026	-0.07730131
65	0xbe335d1c	-0.17515987
66	0x3dadf846	0.0849462
67	0x3cbd0b68	0.023076728
68	0xbc2616e0	-0.01013729
69	0x3d8d575a	0.069014266
70	0xb9b93769	-0.00035327233
71	0xbce928c0	-0.028461814
72	0xbd834a77	-0.064106874
73	0x3e0bc3e9	0.13648953
74	0xbe23b5ad	-0.15987273
75	0xbdf412d1	-0.119176514
76	0xbdeb1c11	-0.114799626
77	0xbe3ce045	-0.18444927
78	0xbdb8bd24	-0.09020451
79	0xbe138283	-0.14405255
80	0xbca7c175	-0.02047799
81	0xbdb7b483	-0.08969977
82	0xbe23b2be	-0.15986153
83	0xbe367dcb	-0.17821424
84	0xbe40886d	-0.18802042
85	0x3dd1e64a	0.10249002
86	0xbdd473f5	-0.103736795
87	0xbe472847	-0.19448958
88	0x3d90779f	0.07054066
89	0xbd5ef3fe	-0.054431908
90	0xbd25c4c4	-0.040470853
91	0x3dec3fb1	0.11535586
92	0x3d7782c7	0.060427453
93	0x3dbc6ab4	0.092000395
94	0xbe254888	-0.1614095
95	0x3dcfacb0	0.101403594
96	0x3d4c0eb4	0.04981871
97	0xbe44fe2b	-0.19237582
98	0xbe006ea9	-0.12542213
99	0x3cce1026	0.025154185
100	0xbd0704ff	-0.03296375
101	0x3dda1ce5	0.106500424
102	0x3c23bc35	0.0099936025
103	0x3dc07ef7	0.093992166
104	0xbd642502	-0.055699356
105	0xbe446c6f	-0.19181989
106	0xbde1b30f	-0.11020481
107	0xbd0f7faf	-0.035033878
108	0xbd57fa77	-0.052729096
109	0xbd455a20	-0.048181653
110	0x3c3bd882	0.011465194
111	0xbdc90a00	-0.098163605
112	0xbe037dd5	-0.1284097
113	0xbea7501f	-0.32678315
114	0xbc034a24	-0.008013282
115	0x3dce53b0	0.10074556
116	0x3be5c43b	0.007011918
117	0xbde61e26	-0.11236219
118	0x3e142fe9	0.14471401
119	0xbc155196	-0.00911369
120	0xbe10bdd2	-0.1413491
121	0xbd7f4a69	-0.062326822
122	0xbd277a23	-0.040887963
123	0xbce83d3b	-0.02834951
124	0xbe1dac82	-0.15397838
125	0xbe5e6d88	-0.2172147
126	0xbdb5dd5d	-0.08880112
127	0xbe2b40e4	-0.16723973
128	0xbe362d37	-0.17790686
129	0xbce30948	-0.027714387
130	0x3e086f01	0.13323595
131	0xbe2091f7	-0.15680681
132	0xbda50d11	-0.08059133
133	0x3d016de7	0.03159895
134	0x3d9695a3	0.0735276
135	0xbe023e03	-0.12718968
136	0xbd8ee2ca	-0.0697685
137	0xbe169825	-0.14706476
138	0xbd38ebff	-0.04514694
139	0xbe7a9ff8	-0.24475086
140	0xbe06c1e3	-0.131599
141	0x3d262d19	0.040570352
142	0x3d062393	0.03274877
143	0xbe672150	-0.22571301
144	0xbe804c96	-0.2505843
145	0xbc3867c0	-0.011255205
146	0x3cf36cf7	0.029715044
147	0xbe29d97a	-0.16586867
148	0x3c8c16d7	0.017100735
149	0x3df991a2	0.121859804
150	0xbd4eef6c	-0.0505213
151	0xbdbaa2ab	-0.09113058
152	0x3dc48441	0.09595538
153	0x3c6a78eb	0.014311056
154	0xbca083df	-0.019594131
155	0xbc7fa290	-0.015602723
156	0xbde2c46b	-0.1107262
157	0xbd067f28	-0.03283611
158	0xbcb7fb27	-0.022458626
159	0xbe16ad79	-0.14714612
160	0xbdf73a43	-0.120716594
161	0x3d7f435f	0.06232011
162	0x3e21d03f	0.15802096
163	0x3ccd791b	0.025082162
164	0xbd1093c4	-0.03529717
165	0x3d8511cc	0.06497535
166	0xbe37752c	-0.17915791
167	0xbde2bad0	-0.11070788
168	0xbe0fae3a	-0.14031306
169	0x3dbc1382	0.09183408
170	0x3c323412	0.010876672
171	0x3dae6902	0.085161224
172	0xbd374a66	-0.044748686
173	0xbcaee473	-0.021349167
174	0x3cdff614	0.027339019
175	0xbe5dc0fe	-0.21655652
176	0xbe30dcc2	-0.17271712
177	0xba167600	-0.0005739629
178	0xbd8f1e4b	-0.069882
179	0xbe2c8697	-0.16848217
180	0x3cca4817	0.024692578
181	0xbe2794f9	-0.16365422
182	0x3d099260	0.03358686
183	0xbd0af96f	-0.033929285
184	0xbbcdfbf8	-0.0062861405
185	0x3cfab130	0.030602068
186	0x3ce2a0b1	0.027664514
187	0xbe148c77	-0.14506708
188	0xbdfeac89	-0.12435252
189	0xbd685ef8	-0.056731194
190	0x3d4b1c38	0.04958746
191	0xbdd2f4be	-0.10300587
192	0x3e1f94b1	0.15584065
193	0xbe1ac721	-0.15115024
194	0xbe8fced4	-0.28087485
195	0xbd494939	-0.049142096
196	0xbddcc5ff	-0.10779952
197	0xbcbf48e3	-0.023350185
198	0xbe1a1853	-0.15048341
199	0xbe36fcdc	-0.17869896
200	0x3e877376	0.26455277
201	0xbe703dcc	-0.23461074
202	0xbcaa6519	-0.02080016
203	0xbdcefe9e	-0.10107158
204	0x3c00946b	0.007847886
205	0xbe2e5c90	-0.17027497
206	0xbe23d585	-0.1599942
207	0xbd9f405f	-0.0777595
208	0x3bfac0e4	0.007652389
209	0x3d6e4125	0.058167595
210	0xbdef29b3	-0.11677875
211	0xbe030b31	-0.12797238
212	0xbe37ea96	-0.17960581
213	0xbeb94755	-0.36187235
214	0xbe153c7b	-0.14573853
215	0xbe190cd6	-0.14946303
216	0xbcc5b7b8	-0.024135455
217	0xbe226409	-0.15858473
218	0x3e0cb269	0.13739933
219	0xbdb4e81f	-0.08833336
220	0xbdb08fcd	-0.08621178
221	0x3ca12422	0.01967055
222	0x3dbd0b5a	0.09230681
223	0xbe59115f	-0.21198033
224	0xbe1dcabc	-0.15409368
225	0x3e5f48d9	0.21805133
226	0xbe917ce5	-0.284156
227	0x3dd0e796	0.102004215
228	0x3d2bf6fc	0.04198359
229	0xbd1b37a7	-0.03789487
230	0xbd29cd56	-0.04145559
231	0xbd35e045	-0.044403333
232	0xbe625e18	-0.22106206
233	0xbddad19d	-0.10684512
234	0xbe5d515c	-0.21613067
235	0xbe21d802	-0.15805057
236	0x3d70d6cb	0.058798593
237	0x3db606e8	0.08888036
238	0xbd72a851	-0.05924255
239	0x3dbfad6e	0.09359251
240	0xbd9f95a1	-0.07792211
241	0xbe64fc1e	-0.223618
242	0xbe24add0	-0.16081929
243	0xbe3bb529	-0.18330826
244	0xbdf6d275	-0.1205186
245	0xbe97283b	-0.2952288
246	0xbdefd9a6	-0.11711435
247	0x3c298623	0.010346922
248	0xbcd09fbf	-0.025466798
249	0x3d252081	0.0403142
250	0xbd24cc9f	-0.040234204
251	0xbe63e343	-0.22254662
252	0x3da46cf1	0.080285914
253	0x3d8e6427	0.06952696
254	0x3cbe5624	0.023234434
255	0xbdb74912	-0.08949484

bias f4 [64]
0	0x3d8f6da1	0.07003332
1	0xbd2d4f05	-0.042311687
2	0xbe13980c	-0.1441347
3	0xbc918089	-0.017761486
4	0xbdf4a275	-0.11945049
5	0xbe4a8b2a	-0.1977965
6	0xbbd9ce79	-0.006646928
7	0x3d5b7609	0.053579364
8	0xbe317162	-0.17328408
9	0xbdc98056	-0.09838931
10	0xbe481041	-0.1953745
11	0x3c88dc51	0.016706618
12	0xbda6b6b3	-0.08140316
13	0xba8fb04c	-0.0010962575
14	0xbd18c25c	-0.03729473
15	0xbe346104	-0.17615134
16	0xbc4fe442	-0.012688698
17	0xbe0919c5	-0.13388737
18	0xbe4d9abf	-0.20078562
19	0xbca7ed1e	-0.020498808
20	0xbd97bf8c	-0.074095815
21	0xbe32ffc6	-0.17480382
22	0xbe6484e2	-0.22316316
23	0xbb89c087	-0.0042038593
24	0xbdae1352	-0.08499779
25	0xbcc6e799	-0.024280356
26	0xbe3d63d6	-0.18495116
27	0x3e510503	0.20412068
28	0xbd86f623	-0.065899156
29	0xbb421e12	-0.0029619974
30	0xbd142bc6	-0.036174558
31	0xbe51fdce	-0.20506975
32	0xbd93a7c0	-0.0720973
33	0xbe29df8c	-0.16589183
34	0xbe47b843	-0.19503884
35	0x3d838f1d	0.06423781
36	0xbe2cf789	-0.16891302
37	0xbdb798b8	-0.08964676
38	0xbe038590	-0.12843919
39	0xbe6a7cc9	-0.22899164
40	0xbded8db8	-0.11599296
41	0xbd1acd61	-0.03779352
42	0x3d8d5a44	0.069019824
43	0xbe447e65	-0.1918884
44	0xbdf69739	-0.12040562
45	0xbe5a38b5	-0.21310695
46	0xbe4b562a	-0.19857088
47	0xbcdc082d	-0.026859367
48	0xbcedc629	-0.029025154
49	0xbca76e52	-0.020438347
50	0x3ccd8a01	0.02509022
51	0xbee1488e	-0.44000667
52	0xbda04b9c	-0.07826921
53	0x3d209020	0.03919995
54	0xbdba05d0	-0.0908314
55	0x3dca5a6b	0.09880527
56	0x3c7f963f	0.015599786
57	0xbd7d5d9e	-0.06185686
58	0x3d389b1d	0.045069803
59	0xbe05775b	-0.13033812
60	0xbd426e59	-0.047468517
61	0xbda492c7	-0.08035808
62	0xbe5d6064	-0.21618801
63	0x3d49eb6c	0.04929678

weight f4 [128, 64]
0	0xbd9105dd	-0.070811965
1	0x3de91d28	0.11382514
2	0xbe00e2e8	-0.12586558
3	0xbd6ff653	-0.058584522
4	0xbb092476	-0.0020926273
5	0xbc30a99b	-0.010782625
6	0xbd7f2054	-0.06228669
7	0x3c8e8718	0.017398402
8	0xbcfc6c80	-0.030813456
9	0xbdcbc7f6	-0.09950249
10	0xbccedf06	-0.02525283
11	0xbd1a74a4	-0.037708893
12	0xbd4e1017	-0.050308313
13	0xbe1d7dba	-0.15379992
14	0xbe271729	-0.16317429
15	0xbd9ed60d	-0.07755671
16	0x3cee2347	0.029069556
17	0xbded4237	-0.11584895
18	0xbddbc10f	-0.107301824
19	0xbdce98ea	-0.1008776
20	0xbd2d056c	-0.0422415
21	0x3df1423c	0.11780211
22	0xbd4b01c2	-0.049562223
23	0x3cfa743a	0.030573
24	0xbe2c4949	-0.16824831
25	0x3d6ecdf9	0.0583019
26	0xbd717984	-0.058953777
27	0xbd86deb5	-0.06585447
28	0xbde6019e	-0.11230777
29	0x3c13fe61	0.009032817
30	0x3c65db2c	0.014029305
31	0xbe2837c9	-0.1642753
32	0x3d89a096	0.067200825
33	0x3b376ba1	0.0027987736
34	0x3ce2e1c0	0.027695537
35	0xbe090851	-0.13382079
36	0xbe176d9a	-0.14787903
37	0x3d54a48a	0.05191473
38	0xbcb3124f	-0.021859316
39	0xbd3fe1e9	-0.046846304
40	0xbcaa8beb	-0.020818671
41	0xbd0e7ba4	-0.03478588
42	0xbe300e6f	-0.17193006
43	0xbd97b901	-0.074083336
44	0x3dde1a12	0.10844816
45	0xbe0e2130	-0.13879848
46	0xbd4eaf79	-0.050460313
47	0x3d4a3679	0.049368355
48	0xbd38eb6a	-0.045146383
49	0xbe06c12e	-0.1315963
50	0xbde438fe	-0.11143683
51	0x3daaacda	0.0833375
52	0x3be0f47d	0.006865083
53	0xbe27abd5	-0.16374142
54	0xbcbf2d58	-0.023337051
55	0xbdd6537c	-0.10465142
56	0xbdeb517e	-0.11490153
57	0xbe0766ac	-0.1322276
58	0xbddeae5b	-0.108730994
59	0xbe2355dc	-0.15950722
60	0x3d614710	0.05499941
61	0xbcf81753	-0.03028456
62	0xbd28ffc3	-0.04125954
63	0xbdab8c14	-0.08376327
64	0x3db37c71	0.0876397
65	0x3dcaec1c	0.099083155
66	0xbd2ac9fc	-0.041696534
67	0x3debb5c8	0.115092814
68	0x3d927d0f	0.07152759
69	0xbd525bbc	-0.051357016
70	0x3da7c3a6	0.08191614
71	0x3dd78f93	0.105254315
72	0xbd95ba3e	-0.073109135
73	0xbcf65f87	-0.030074848
74	0x3e253ae0	0.1613574
75	0xbb4f0947	-0.0031591223
76	0x3deea8ee	0.116533145
77	0x3ddb125a	0.1069686
78	0x3e31bb52	0.17356613
79	0x3dd024b2	0.10163249
80	0x3d4c1f7c	0.049834713
81	0xbdc80d89	-0.097682066
82	0xbd6175ce	-0.055043988
83	0xbd9adcb2	-0.075616255
84	0x3d377b59	0.044795368
85	0xbd3f1874	-0.04665418
86	0x3d9fe0ab	0.07806524
87	0x3df621ed	0.120181896
88	0x3d2453f0	0.04011911
89	0xbd592e6c	-0.053022787
90	0x3d1a9294	0.037737444
91	0x3d7a0213	0.061037134
92	0x3d9cc7f3	0.07655325
93	0x3c22ff07	0.009948499
94	0x3dd4fd4c	0.10399875
95	0x3d234026	0.0398561
96	0xbc56e130	-0.013115212
97	0xbd9fd58c	-0.07804403
98	0x3e267902	0.16257098
99	0xbdd483e1	-0.103767164
100	0xbe0d1317	-0.13776813
101	0x3dc6a7d4	0.096999794
102	0x3e4fbd5c	0.20287079
103	0x3e2e73eb	0.17036407
104	0xbce7df3b	-0.028304687
105	0xbd3a3f02	-0.045470245
106	0xbdac7b01	-0.08421899
107	0x3e23c60f	0.15993522
108	0x3dad574c	0.08463916
109	0x3c8f3fd7	0.017486496
110	0x3e5355fb	0.20638268
111	0x3cbda717	0.023150964
112	0xbdf7934b	-0.12088641
113	0x3e0cd77c	0.13754076
114	0xbd40a405	-0.04703142
115	0xbe07d66a	-0.13265386
116	0x3b83e095	0.004024575
117	0x3e06ff76	0.13183388
118	0xbd80ad55	-0.062830605
119	0xbd316f29	-0.0433189
120	0xbde5e848	-0.11225945
121	0x3d4b1b4c	0.04958658
122	0xba187da0	-0.00058170594
123	0x3d99bb79	0.07506461
124	0xbd8306d3	-0.06397786
125	0x3e2a78ea	0.16647688
126	0xbd9471d1	-0.07248271
127	0xbd5218fc	-0.05129336
128	0xbdd61349	-0.10452897
129	0x3d71c0b6	0.059021674
130	0xbd34222b	-0.043977898
131	0xbe04c0ca	-0.12964168
132	0x3c92ea27	0.017933918
133	0xbe38dfde	-0.18054149
134	0x3d24eabb	0.04026292
135	0x3d4315c5	0.047628183
136	0xbdfd9f6c	-0.12383923
137	0x3ad7adf3	0.0016455039
138	0xbc419796	-0.011815926
139	0xbcfb8c63	-0.03070659
140	0xbe1d63d2	-0.1537011
141	0x3cf3bd2d	0.029753292
142	0xbe39a208	-0.18128216
143	0xbe1b08d2	-0.15140083
144	0xbda45e73	-0.08025827
145	0xbc9d01e2	-0.019165937
146	0xbda8c7df	-0.082412474
147	0xbe079779	-0.13241376
148	0xbc1cd622	-0.009572538
149	0xbdb83442	-0.089943424
150	0x3c5598c5	0.013036911
151	0xbe362356	-0.17786917
152	0xbd38e8e0	-0.045143962
153	0xbe45b052	-0.19305542
154	0xbdabf7ee	-0.08396898
155	0x3d87f74c	0.06638965
156	0xbc70e48c	-0.014702927
157	0xbe2b2240	-0.16712284
158	0x3ce427b4	0.027850963
159	0xbc4a31f8	-0.012341015
160	0xbdd4e44a	-0.10395105
161	0xbe3578d4	-0.17721874
162	0xbb6b8fda	-0.0035943897
163	0xbd8bdc7a	-0.06829162
164	0xbd916432	-0.07099189
165	0xbd17bf6e	-0.037047796
166	0xbd8a7154	-0.06759897
167	0xbe2fd667	-0.17171632
168	0xbe10b973	-0.14133243
169	0x3d4f8e68	0.05067292
170	0xbaa448ab	-0.0012533864
171	0x3cbc1929	0.022961216
172	0x3ce43cf0	0.027861089
173	0xbdc73dc4	-0.09728578
174	0xbdfdb5a5	-0.123881616
175	0xbe3936bf	-0.1808729
176	0xbc98d1d5	-0.018654743
177	0xbba17ba6	-0.00492807
178	0xbe118e57	-0.14214455
179	0x3d43c39c	0.04779397
180	0xbe2d2364	-0.16908032
181	0x3c9ebac7	0.019376172
182	0x3d267a04	0.040643707
183	0xbda737ed	-0.08164964
184	0xbd19d0ef	-0.03755277
185	0x3c79efb9	0.015254908
186	0xbe0a736d	-0.13520594
187	0x3d179cc7	0.03701475
188	0xbc143d29	-0.009047785
189	0x3cb0f24a	0.021599907
190	0xbe06da9f	-0.13169335
191	0xbda3d170	-0.079989314
192	0xbd86df7c	-0.06585595
193	0x3f9cea88	1.2259073
194	0xbd80f58a	-0.06296833
195	0x3e9218b6	0.28534478
196	0x3dec6cde	0.11544202
197	0xbd1f55ec	-0.0389003
198	0x3e181ec7	0.1485549
199	0x3dc91579	0.09818549
200	0xbd044a34	-0.032297328
201	0x3cfaa988	0.030598417
202	0xbde08378	-0.10962576
203	0xbe8513ee	-0.25991768
204	0xbdce2a85	-0.10066704
205	0x3c2598a0	0.010107189
206	0xbc80dad9	-0.015729355
207	0x3c6c34a4	0.014416847
208	0xbfeb5f10	-1.8388386
209	0x3dbef641	0.09324313
210	0xbe65912c	-0.2241866
211	0x3bb7c500	0.005608201
212	0xbd85db90	-0.06536019
213	0xbd958a6a	-0.07301791
214	0xbd467dfd	-0.048459996
215	0x3adb6a4c	0.0016740053
216	0xbde2829b	-0.11060067
217	0xbb8aedc0	-0.004239768
218	0xbdd2fa68	-0.103016675
219	0x3f4e5054	0.8059132
220	0x3c56c4c1	0.013108433
221	0x3f0b041a	0.54303133
222	0xbce049fe	-0.027379032
223	0xbe0e286e	-0.1388261
224	0xbbf4b8e0	-0.007468328
225	0x3db46177	0.088076524
226	0x3dfcc6ad	0.12342582
227	0xbe98cd95	-0.29844347
228	0xbde61b8b	-0.11235722
229	0x3dc50024	0.096191674
230	0x3cd95fe8	0.02653499
231	0x3d8008dc	0.0625169
232	0x3b32b5fb	0.0027269113
233	0xbd4b0ca0	-0.049572587
234	0xbd921225	-0.07132367
235	0x3cbc59c0	0.022992015
236	0xbdcee538	-0.10102314
237	0xbe0f1a63	-0.1397491
238	0xbddad053	-0.10684266
239	0xbdfdd092	-0.12393297
240	0xbdd90be0	-0.10597968
241	0xbbb60f20	-0.0055560023
242	0xbd18d00a	-0.037307777
243	0x3dcebfda	0.100951865
244	0xbdb13224	-0.08652142
245	0xbeb58b29	-0.35457733
246	0xbd2519bc	-0.040307745
247	0xbd9e390c	-0.077257246
248	0xbdada5f0	-0.08478916
249	0xbe42ddd2	-0.1902993
250	0x3e3129de	0.17301127
251	0x3daf85fc	0.08570477
252	0x3e4a0b81	0.19730951
253	0x3d482092	0.048859186
254	0xbe98ffcb	-0.29882655
255	0xbd7a85dc	-0.061162814

bias f4 [128]
0	0xbd1b2698	-0.037878603
1	0x3dd8811e	0.10571502
2	0xbd32c0f1	-0.043641035
3	0x3ea2976c	0.3175615
4	0x3d57a4b9	0.052647326
5	0xbe055f4d	-0.13024636
6	0xbeaeffd1	-0.34179547
7	0xbe27cf65	-0.16387708
8	0xbe06f3f2	-0.13178995
9	0xbcae88be	-0.021305438
10	0x3d56b98c	0.052423045
11	0xbe27f8da	-0.16403523
12	0x3d0df908	0.034661323
13	0xbd6f94d8	-0.058491558
14	0x3d716a41	0.058939222
15	0x3e54b5be	0.20772454
16	0xbcf7dd00	-0.030256748
17	0xbdb4e6c1	-0.08833075
18	0x3d5859c0	0.052819967
19	0xbdb17809	-0.08665473
20	0x3c60339a	0.013684178
21	0xbdd6ec8a	-0.10494335
22	0x3e130206	0.1435624
23	0xbcfc9ad9	-0.030835556
24	0xbc4904c0	-0.012269199
25	0xbdfa417b	-0.12219521
26	0xbe007caf	-0.12547563
27	0x3d54c8c3	0.051949274
28	0xbe85572d	-0.26043072
29	0xbdaa1065	-0.08303908
30	0x3e5b430e	0.21412298
31	0x3e4eb0c5	0.2018462
32	0x3df37734	0.118879706
33	0x3d61d305	0.055132885
34	0xbe334f96	-0.17510828
35	0x3d30d78c	0.04317431
36	0x3db36471	0.08759392
37	0xbe264cc4	-0.16240221
38	0x3cf52a1d	0.029927308
39	0xbd3f81f4	-0.046754792
40	0xbe2d4b23	-0.16923194
41	0x3d87bd49	0.066279
42	0x3d40449f	0.046940442
43	0x3e23cc03	0.15995793
44	0x3dab88f1	0.08375729
45	0x3ceceb56	0.02892081
46	0x3d65574c	0.055991456
47	0xbdbcaba6	-0.09212427
48	0x3c772820	0.01508525
49	0xbe0bd9a5	-0.13657244
50	0x3d99bdce	0.075069055
51	0x39ee9209	0.00045503702
52	0xbe22ae09	-0.15886702
53	0x3e4ed5e0	0.20198774
54	0xbccee8e2	-0.025257532
55	0xbda33354	-0.079687744
56	0xbe1fe714	-0.15615493
57	0xbc637307	-0.013882405
58	0x3e075a56	0.13218054
59	0x3cd07c13	0.025449788
60	0x3d7560bc	0.059906706
61	0xbe89ed42	-0.26938826
62	0x3d9af65e	0.07566522
63	0xbd84c814	-0.064834744
64	0xbccd7511	-0.025080236
65	0x3d43d61c	0.047811612
66	0x3e05b761	0.13058235
67	0xbd7738be	-0.060356848
68	0x3d164505	0.036686916
69	0x3dc6d9fa	0.097095445
70	0x3ca881fd	0.020569796
71	0x3d9b362f	0.07578694
72	0xbe8f1579	-0.2794607
73	0xbd72bbf1	-0.059261266
74	0xbb6f8a7d	-0.0036551051
75	0xbda758b4	-0.08171216
76	0xbd8a25aa	-0.06745465
77	0xbd9a7a4d	-0.07542858
78	0xbdfbb31b	-0.12290021
79	0xbd925a07	-0.071460776
80	0x3c98316f	0.01857826
81	0xbd52dee1	-0.051482085
82	0xbc7b31f7	-0.015331737
83	0xbcf98b79	-0.030462014
84	0xbd95b302	-0.07309534
85	0x3df63dd1	0.12023509
86	0xbdda14b4	-0.1064848
87	0x3e2203eb	0.15821807
88	0xbd9b1b01	-0.0757351
89	0xbb1754d4	-0.0023091333
90	0xbe1c1b68	-0.1524483
91	0x3e06d34a	0.13166538
92	0x3e1eaad4	0.15494853
93	0xbd0c98bf	-0.034325358
94	0xbc9626fa	-0.018329132
95	0x3e55f77f	0.20895194
96	0xbdaf07be	-0.085463986
97	0xbe3118c6	-0.17294607
98	0xbb3f28d6	-0.0029168627
99	0xbdb3a92c	-0.08772501
100	0x3db17d90	0.08666527
101	0xbdd60397	-0.104499035
102	0xbcf590bb	-0.02997624
103	0xbdc08848	-0.094009936
104	0xbdda08a2	-0.10646178
105	0x3d5858ba	0.05281899
106	0x3d912b2c	0.070883125
107	0xbd252221	-0.04031575
108	0xbd02957f	-0.03188085
109	0x3de0a7d0	0.10969508
110	0xbd88062c	-0.06641802
111	0xbd983f24	-0.07433918
112	0x3ebc3826	0.36761588
113	0x3d31d514	0.043416098
114	0xbd94ef5e	-0.07272218
115	0xbc36426a	-0.011124233
116	0xbcea6cc5	-0.028616318
117	0xbe40b14f	-0.18817638
118	0x3dac7dfc	0.08422467
119	0xbd295b88	-0.041347057
120	0xbd1da7b0	-0.038489997
121	0x3df2b990	0.118517995
122	0x3e00bf91	0.12573077
123	0xbe22dcdb	-0.15904562
124	0xbda17e4c	-0.07885417
125	0xbce08402	-0.027406696
126	0x3dc338ae	0.09532295
127	0xbe2d25ac	-0.16908902

weight f4 [1, 128]
0	0x3d73d9cf	0.05953389
1	0x3dc79a41	0.097462185
2	0x3d5c4b24	0.053782597
3	0xbb54e3d0	-0.003248442
4	0x3dee073d	0.11622474
5	0x3d1c9987	0.038232353
6	0xbe424808	-0.1897279
7	0x3cb936d6	0.022609156
8	0x3cb79f4e	0.02241483
9	0x3d5aadc8	0.053388387
10	0x3d063a9d	0.03277074
11	0x3c9cf406	0.019159328
12	0x3b0c01dc	0.0021363413
13	0x3d12f4e5	0.03587808
14	0x3aa6caf2	0.0012725277
15	0x3e2271ba	0.15863696
16	0xbdab7281	-0.08371449
17	0x3a7a97ed	0.0009559382
18	0x3e314a2e	0.17313454
19	0xbc877580	-0.01653552
20	0x3b8d8ea0	0.0043199807
21	0x3ced7068	0.028984264
22	0x3db3c3f3	0.08777609
23	0x3b36abb1	0.0027873332
24	0x3bff7150	0.0077954903
25	0xbce115f9	-0.027476298
26	0x3c46f49e	0.012143282
27	0x3b7bd567	0.0038426758
28	0x3defdb25	0.117117204
29	0x3b9d63fd	0.0048031793
30	0x3e31bcd0	0.17357183
31	0x3df53358	0.11972684
32	0x3e11fa92	0.14255741
33	0x39423580	0.00018521212
34	0x3d808520	0.062753916
35	0xbbc964ea	-0.006146063
36	0x3d978f9f	0.074004404
37	0x3d3e8cf1	0.04652113
38	0x3b748905	0.0037313115
39	0x3d697d9e	0.057004564
40	0x3d629a02	0.055322655
41	0xbd0735cd	-0.033010293
42	0x3d5465fe	0.05185508
43	0x3deca3b8	0.115546644
44	0x3e169d5f	0.1470847
45	0x3bcf517b	0.006326852
46	0x3da9f4c0	0.082986355
47	0x3d407eba	0.046995856
48	0x3d8341a3	0.064090036
49	0xbb95914a	-0.004564439
50	0x3dc15d13	0.094415806
51	0x3d3018ef	0.04299253
52	0x3d54a2dd	0.05191313
53	0x3df0d93b	0.117601834
54	0x3c88fa20	0.016720831
55	0x3aeeff58	0.0018234057
56	0x3d4f26c5	0.050574083
57	0x3d3f8b3a	0.046763636
58	0x3d66bc90	0.05633217
59	0x3d6eb8a6	0.058281563
60	0xbbca9b7b	-0.0061830855
61	0xbe1c1f17	-0.15246235
62	0x3de63109	0.112398215
63	0x3d327a19	0.043573473
64	0x3d719198	0.05897674
65	0x3bf14863	0.0073633655
66	0x3de23e90	0.11047089
67	0x39377077	0.00017494136
68	0x3d035015	0.032058794
69	0x3c971189	0.018440979
70	0x3e0eedf8	0.13957965
71	0x3de05241	0.10953189
72	0x3de4d64d	0.11173687
73	0x3bd5ca9d	0.0065243975
74	0xbaddd93b	-0.0016925702
75	0x3c35252c	0.011056226
76	0xb90be09a	-0.00013339744
77	0x3b143f12	0.00226206
78	0x3d31e0bd	0.043427218
79	0xbbd703bc	-0.0065617245
80	0x3d8074fb	0.06272312
81	0xbccae9d0	-0.024769694
82	0x3b7887e8	0.0037922803
83	0x3c1c31a4	0.00953332
84	0x3bcfdb55	0.006343285
85	0x3d04d58b	0.032430213
86	0x3c93082a	0.017948229
87	0x3e0eb597	0.13936459
88	0xbbc1ee11	-0.0059182723
89	0xbb6b4103	-0.0035896904
90	0x3c923573	0.017847752
91	0x3e3648e4	0.17801243
92	0x3d9259a0	0.07146001
93	0x3d264751	0.040595356
94	0xbc87471c	-0.0165134
95	0x3df51dc0	0.11968565
96	0xbcfba368	-0.030717567
97	0x3ccbd26d	0.024880612
98	0x3bc8cca6	0.0061279116
99	0xbbf1c9fe	-0.0073788157
100	0xbb477c35	-0.0030439023
101	0xbcc01269	-0.023446279
102	0x3b7ea3b0	0.003885489
103	0x3bc880ad	0.006118855
104	0xbd6a301d	-0.05717479
105	0xbcf06b83	-0.02934814
106	0x3db8b244	0.090183765
107	0xbce2a2cf	-0.027665524
108	0xbc1dcd52	-0.009631472
109	0xbb9a7452	-0.0047135735
110	0x3d7ddd39	0.061978552
111	0x3d56a915	0.052407343
112	0xbea241c6	-0.31690806
113	0x3c05630e	0.008141292
114	0x3d00b683	0.031424057
115	0x3cc89fda	0.024490286
116	0xb99307eb	-0.00028043924
117	0x3d6fe296	0.0585657
118	0xbbe2f9ab	-0.0069267354
119	0x3d49fb0a	0.049311675
120	0x3c7e609e	0.015525965
121	0xbbafdb53	-0.0053667217
122	0x3deee9b9	0.11665673
123	0x3e0cb3c2	0.13740447
124	0xbaa575bb	-0.0012623587
125	0x3d27ff63	0.04101504
126	0x3d462f1f	0.048384782
127	0xbc976d5d	-0.018484766
