python/bsc/third_meeting/3rd_prompt/networkf.pt (torch, 47321 bytes, 7 tensors)

weight f4 [32, 3]
00000000: 6c4b 9bbc a6e0 8dbd fe80 eebc 3585 d3be
00000010: 625d 59be b755 603e d32f 1ebd fa7e e3be
00000020: ad0b 753e b811 24be 645a b6be 8c0f a73d
00000030: 35cd 053c 9e10 babe 8614 843e ea2b 41be
00000040: ddc0 843e 013e e4bd 3fd2 91be f40c 53be
00000050: 7ee3 353e 6819 dfba fcad 9a3e 8858 c73e
00000060: 83d4 9a3e 878e 713d a931 203e 5262 163e
00000070: 5e74 c73c 7632 d0be 848a 1b3f 6632 903e
00000080: 7940 e63e 6d17 8c3e 4354 cbbc 6d53 6ebc
00000090: 8185 ad3e 3ba1 053f 832b c43e 0ad0 70be
000000a0: aa45 29bf 8f95 8ebb f97d 88be a563 6bbc
000000b0: cff9 f8be ebaf 8cbe 3c3b 82be e2d5 303e
000000c0: fd79 05be 8934 babe d384 0b3c d206 98be
000000d0: 374a 273d 9bcb 14bf 2be1 c1bc a02d cfbe
000000e0: 0992 afbe 56d7 42bf aae4 27be 96ac f5bd
000000f0: 0217 c43c 3053 8d3e fee8 23be 7793 bcbd
00000100: d09f 0fbe e5d0 36be 1b9e 28be 5050 293e
00000110: ca20 3bbe 3d0f 6cbc 14f4 a23e 0270 15bf
00000120: 575f 05bf 8e78 b73d 4a9d 7e3d 52b9 833e
00000130: 8229 e03e 65e2 f63e 2a39 d5bd b1d9 efbe
00000140: 779d adbd 7764 15be ff5d 743e c917 573d
00000150: 7d7c 5a3d 9d0a 05bf 829c 11bf ef59 b4be
00000160: b187 08bf 8c31 35bd 798f 5e3d 175d adbe
00000170: 2375 3dbf 30e2 493e e2f2 93be dfbb 24bf
-0.018956862 -0.06927614 -0.029114243 -0.41312566 -0.21227029 0.21907698 -0.038619827 -0.44432813
0.23930235 -0.16022384 -0.35615838 0.08157262 0.008166601 -0.36340803 0.25796908 -0.18864408
0.25928393 -0.11144639 -0.28480718 -0.2061041 0.17762563 -0.0017021121 0.30210865 0.3893473
0.3024026 0.058973815 0.15643944 0.14685944 0.02434748 -0.406635 0.60758233 0.2816345
0.44971064 0.27361622 -0.024820453 -0.014546257 0.33890918 0.52199143 0.38314447 -0.2351686
-0.66121924 -0.004351325 -0.2665861 -0.014367019 -0.4862809 -0.27477965 -0.25435817 0.1726909
-0.13034816 -0.36368206 0.0085155545 -0.29692703 0.04084226 -0.5812318 -0.023666939 -0.40464497
-0.34291103 -0.76109827 -0.16395822 -0.11995809 0.023936752 0.2760253 -0.16006848 -0.09207814
-0.14025807 -0.17853124 -0.16466562 0.16534543 -0.18274227 -0.01440793 0.31826842 -0.58374035
-0.520986 0.08958541 0.06216172 0.25727326 0.43781668 0.482196 -0.10411294 -0.46845773
-0.084773 -0.14589106 0.23863982 0.052512918 0.053341378 -0.5196932 -0.56879437 -0.35224864
-0.5333205 -0.044236705 0.054336045 -0.33860084 -0.7400686 0.1971519 -0.28896242 -0.6434917

bias f4 [32]
00000000: 3cc4 853f 0297 40bd af7e b13e 8826 b0bd
00000010: 9937 a8be cae7 cbbe 8544 cdbc d510 593e
00000020: ce6d 153e bef0 27be c8a2 6cbe 7544 d9be
00000030: c279 493e fd5e 7d3d 52a7 ed3d 4609 203c
00000040: 311a 04bf 181f c7be 5e41 90be b257 283f
00000050: 25e9 19be a05c adbe 675e 76be 7dfa 13bf
00000060: 48f2 b63e a0f8 733e 0035 a23e 15e2 febe
00000070: e3cf 32bf 31b1 bbbe 3b5c 23bf a783 27bf
1.0450511 -0.047019012 0.34666964 -0.08601099 -0.32854918 -0.3982528 -0.025057087 0.21197827
0.14592668 -0.1640043 -0.23108971 -0.4243504 0.19675353 0.061858166 0.116041794 0.009767836
-0.51602465 -0.3889091 -0.2817487 0.6575881 -0.15030344 -0.3385973 -0.24059449 -0.5780409
0.3573172 0.23825312 0.3168106 -0.49781862 -0.6984846 -0.36658624 -0.6381261 -0.6543526

weight f4 [64, 32]
00000000: 3d09 8c3e 348d ad3d aa71 083c b61c 85bd
00000010: e878 86be d450 0ebd 7282 91bd e85a 27be
00000020: 8341 babd 2a13 01bf f9e0 dabe f9c2 1b3c
00000030: 6138 cabe 4d16 d83f 7a03 95bd 4ee3 7c3d
00000040: 01c0 b9bd 5ea1 d4bd b288 48be 1304 f0be
00000050: 30fb 5abc b7dc ffbc 545c 973d 15ec c4be
00000060: 4835 0f3e 0d3d a4be cf4f 373e a18b 3bbe
00000070: 2ef6 92be 425c 8abd e142 c53d 34a7 053c
00000080: 0d01 13be 5778 c4bd b521 51bc b2a4 d33d
00000090: 89f8 8bbd 50bc 183e 981c e7bc 79c0 2bbd
000000a0: 4c3b 8dbc 3b83 25bd 300a 0ebe 0cb3 47bd
000000b0: 74ba 0abe a6a9 893d d898 303e 72c2 00be
000000c0: a948 2e3e ddc4 783c 1831 b23d eb58 5f3d
000000d0: 9a7b 9b3d c63b 243d 3223 47bd bc7f 15bd
000000e0: 09ac 0ebe 9ecd b03d 1524 153e e225 7bbd
000000f0: 2eef a8bb 3569 1d3e 5e00 1c3e 0042 afbd
00000100: b31c 31be d446 2e3d 4417 32be 5dbe 05bc
00000110: 3ad5 423d 5448 0cbe ca10 47be b234 34bd
00000120: c162 e0bd c9b1 60be 1f1d e3bd 3268 66be
00000130: 1aa4 533d e0a4 49be 4ac4 29be 1d9d 35bc
00000140: 2082 0dbe 452f 9f3a 5f8b 073e 401c 1ebe
00000150: 2e5a 54bd 487a e6bd b1d4 b13d 89dc ef3c
00000160: 613e 55be 10df 853c 705e b43d ca0f 4dbe
00000170: a726 8aba a3d0 603d aa7e 34be 16ab dd3c
00000180: 000d 12be d9ef f33c 9354 62be 2b84 383d
00000190: 377a 37be b3fb f8bc 0118 0c3c 090c dfbd
000001a0: aeed f2bd 8347 47bb fee3 5ebc 01bb 07bd
000001b0: 09f5 983b eb6f bebd 2c52 853d abe9 0bbe
000001c0: 187b 3bbd a767 cdbd 67de 573d 5805 25bd
000001d0: fa35 44be 39c1 16bd 27c3 6cbe eda2 d13c
000001e0: 8b94 4dbe 60b4 8e3d c96b d9bc 6048 69be
000001f0: f6a3 a1bd b138 cc3c 0080 80bc e884 76bd
00000200: 0330 0e3f a083 ed3d 5718 5bbe 8462 cebd
00000210: a0f8 dd3c 22e0 31be 1b21 09be 05f3 3abe
00000220: ff0c 123e 98bc 3c3e eceb 183d 3d91 e53d
00000230: 4844 6c3d d92d de3c fc6a b7bd b28d 49be
00000240: e365 dbbd c30d 1dbe 6007 d8bd 0121 203d
00000250: c6b1 b53d 038d 1ebe 8a86 a8bd 3872 c9bd
00000260: 5fa4 46be aa04 d3bd 83d4 53be eebd eabc
00000270: f17c 92be 5566 13bd 104b e8bc cf81 bbbd
00000280: f808 05be c928 8f3d 2e30 ccbd b934 55be
00000290: 1d54 313d 0ddb 24be 5dcc 4ebe 60f4 033c
000002a0: ccaa c6bd fee3 14be 75cf d9bd a929 903d
000002b0: 8775 17be b5f2 26be 3f6b 703b 2634 fb3c
000002c0: b231 0abe 49ab 2f3c a4bb 26be 83f4 25be
000002d0: 327e cebd e1af afbc 822f b23d 5d92 37be
000002e0: 5ca7 61bc 2637 40bc 35ba 89bd 6214 783d
000002f0: 8c5a 893d 8638 ea3d db4e 01be b35a 93bd
00000300: bf0c 063d 1131 81be d269 8dbe 752d 8abe
00000310: 01a0 8cbe 8637 26be ec1f 7dbe b9bb a8be
00000320: c608 b0be 9134 f43d b881 e5be 4dbd e1be
00000330: 8563 c5be 3332 37be 2657 433e 3963 72be
00000340: 5b9f 2d3e fbe5 11be f7e3 d03d dc9b 9a3e
00000350: c8fe 70be f0dd 5c3d 6a30 0f39 0171 57bc
00000360: df86 4c3e c7a9 c6bd 5f75 b8bb 18df d2be
00000370: 6e56 eabd 00a5 393c 5a1a ccbd 2dc8 873c
00000380: e222 e8bd afe2 7fbd 0ab2 c6bd 7e39 15be
00000390: efa5 ad3b a6f0 4fbe 5e7a a43d be8a eabd
000003a0: bf51 d93d 65f6 63be 3efc a7bb f114 65be
000003b0: 322a 833d c230 03be e578 b03d 3f0c bc3d
000003c0: ce54 2d3e 6ab6 0a3e 373e 3bbe 2b36 bbbc
000003d0: 299b dd3d d610 5bbd 993c 9ebd 7836 263d
000003e0: 69c2 683b e5d5 55be 645f 7cbd f9f5 5dbe
000003f0: 850a 6cbd 8011 5b3d 40ec afbd 78f6 813d
0.27350798 0.08474198 0.008327881 -0.06499617 -0.2626412 -0.034745052 -0.071049586 -0.16343272
-0.090945266 -0.5041987 -0.42749766 0.009506934 -0.3949614 1.6881806 -0.07276054 0.061740212
-0.09069825 -0.10382341 -0.19583395 -0.46878108 -0.013365552 -0.031233175 0.07390657 -0.38461366
0.13985169 -0.32077828 0.17901538 -0.18314983 -0.28703445 -0.06755878 0.09631897 0.00815754
-0.1435587 -0.095932655 -0.012764384 0.103341475 -0.06834514 0.14915586 -0.028211877 -0.041931603
-0.017240189 -0.040408354 -0.13871074 -0.048754737 -0.13547689 0.06721811 0.17245805 -0.12574175
0.17019905 0.015183655 0.0870077 0.05452816 0.075919345 0.040096067 -0.04861755 -0.03649877
-0.13932814 0.08632968 0.14564545 -0.061315425 -0.0051554656 0.15372165 0.15234515 -0.085575104
-0.17296104 0.042548016 -0.17391688 -0.008163062 0.04756663 -0.13699466 -0.19439998 -0.043995567
-0.10956336 -0.2194282 -0.11089539 -0.22500685 0.05167017 -0.19691801 -0.16578785 -0.011084822
-0.1381917 0.0012144825 0.1323676 -0.15440464 -0.051843815 -0.11253792 0.08683146 0.029279964
-0.20824577 0.016341716 0.08807075 -0.20025554 -0.0010540084 0.05488647 -0.17626444 0.02705912
-0.14262772 0.029777454 -0.22102575 0.04504792 -0.17917715 -0.030393457 0.008550645 -0.108909674
-0.1186174 -0.0030407615 -0.013604162 -0.033137325 0.0046678823 -0.092986904 0.06509814 -0.13663356
-0.04577169 -0.10029536 0.052702334 -0.0402883 -0.19161215 -0.036805365 -0.2312132 0.025590384
-0.20076196 0.069679976 -0.026540654 -0.22781515 -0.07892601 0.024929376 -0.015686035 -0.060185343
0.5554201 0.11597371 -0.21396004 -0.10077384 0.027096093 -0.17370656 -0.13391535 -0.18256767
0.1426277 0.18431318 0.037334368 0.11209343 0.057682306 0.027121471 -0.089559525 -0.19682959
-0.10712793 -0.15337281 -0.10548282 0.039093975 0.08871798 -0.15483479 -0.08228786 -0.098362386
-0.1939864 -0.10303624 -0.20686536 -0.028655019 -0.28610948 -0.035986263 -0.028356105 -0.091556184
-0.12991703 0.06990201 -0.09970127 -0.20820893 0.043293107 -0.16099186 -0.20195146 0.008053869
-0.09700546 -0.14540097 -0.106352724 0.07039196 -0.14790927 -0.16303523 0.0036685017 0.030664515
-0.1349552 0.01072199 -0.16282517 -0.16206555 -0.100826636 -0.02144617 0.08700468 -0.17926927
-0.013772812 -0.011731898 -0.06724969 0.060566314 0.067067236 0.11436562 -0.12627737 -0.07195034
0.032727 -0.25232747 -0.27619797 -0.26987806 -0.27465823 -0.16232118 -0.24719208 -0.3295572
-0.34381694 0.11924089 -0.4482553 -0.44089738 -0.3855249 -0.17890243 0.19076213 -0.23670663
0.1695532 -0.14247887 0.10199731 0.30197036 -0.23534691 0.053922594 0.00013655578 -0.013149501
0.19973324 -0.09700351 -0.005629226 -0.41185832 -0.114422664 0.011330843 -0.09965964 0.016574943
-0.11334778 -0.06247204 -0.09701927 -0.14572713 0.005299322 -0.20306644 0.08031152 -0.11452244
0.10611295 -0.22261961 -0.005126505 -0.2237127 0.064045325 -0.12811568 0.08616809 0.09182023
0.16926882 0.13546148 -0.18285452 -0.022852978 0.1082061 -0.053482853 -0.07726402 0.04057929
0.0035516268 -0.20882376 -0.06161441 -0.21675862 -0.05762722 0.053483486 -0.08589983 0.06345838

bias f4 [64]
00000000: 43b4 43bc aef8 eabd 6e27 cfbd a4f8 4d3c
00000010: dc7f 46bd be9c c23c aafc ffbd c897 c6bd
00000020: 71ef 2ebe 92bc 4fbe c2ac e6bd d2c6 6ebe
00000030: 420e ffbd 5cb6 e5bd 2f5b 64be 01ad 51be
00000040: 74a7 95bd a94a 7f3d 26ee 38bd 96b8 a5bd
00000050: 7770 9f3d 749e 36be 86ee 21bd 83d9 9abe
00000060: ca19 5bbe 7d51 4fbe 658e 1dbe 7b44 dcbd
00000070: cfc8 40be ce3b 45be 2f0f 6fbd 034e 0f3d
00000080: 515e 2dbe c414 49be 397e 6b3c 045e a83a
00000090: 0a96 b3bd 5ab2 87bd 7b5b 97bc e6a9 91bd
000000a0: 4fb8 edbd 761a 31be 0811 a13d 64b9 21bd
000000b0: af3c 18be 588b d3be 1019 c73c a9c5 4fbe
000000c0: 0790 1cbe d0ad 07be 4016 79bd 841b 2fbe
000000d0: 1491 6f3d d844 9a3c ba2c f03c cb84 213e
000000e0: 3f2f 69be 32c1 3ebe 39bc 09be bcbb 28be
000000f0: 0718 0ebd 63e1 d63d 7b4f 1dbe 11eb 11be
-0.011944833 -0.11473213 -0.101149425 0.012571488 -0.04846178 0.023756381 -0.12499364 -0.09696919
-0.17083527 -0.20286778 -0.1126342 -0.23318031 -0.12453891 -0.11216423 -0.22300409 -0.20476152
-0.0730733 0.06232706 -0.04514899 -0.080918476 0.07785123 -0.17833883 -0.039534114 -0.30244073
-0.21396556 -0.20245929 -0.1538635 -0.10755249 -0.18826602 -0.19261095 -0.05836409 0.034986507
-0.1693051 -0.19636828 0.014373356 0.0012845402 -0.08768852 -0.06625815 -0.018476238 -0.07112484
-0.1160742 -0.1729525 0.078645766 -0.039483443 -0.14866899 -0.41317248 0.024303943 -0.20290245
-0.15289317 -0.13249898 -0.060812235 -0.1710034 0.058487967 0.018831655 0.029318202 0.15773313
-0.22771929 -0.18628386 -0.13450707 -0.16477865 -0.034690883 0.10492208 -0.1536235 -0.14249827

weight f4 [128, 64]
00000000: d056 8bbd 3e8e bf3d dd57 513d 35bb 31bc
00000010: d806 413d 66f6 f73d 7837 6f3e 3d0e 2ebc
00000020: e0c8 6fbc c016 4fbc d844 d6bc e116 963d
00000030: 50ab d7bd 4cf1 45bd a0c2 04bd 670c b8bd
00000040: 6ce6 88bd e410 05bd b04c 43bd b5d1 c9bd
00000050: fa63 bb3c c050 57bd 3d9b bb3d 1db4 bdbd
00000060: 56d9 8f39 f06c bfbc 8feb 273d c8f5 c5b9
00000070: ff1c 2c3d 2891 f13c dcb6 77bd 4905 b53d
00000080: 9246 d9bd e952 dfbc 3b9d 3abd b8fc b2bd
00000090: 9ebc e9bd f9bb 98bc 85bd dc3d 30f3 8c3b
000000a0: 4811 14bd c7c2 fe3c e3ef 9e3d 8f08 b93d
000000b0: fe3f ff3a f5fa 8bbd e230 2a3e cc6c 5cbd
000000c0: fb98 3fbd 3825 75bd d79d d73d 09a6 e43c
000000d0: ee9f 4d3d 23fd 893d 96cb 8e3d 65b3 8c3d
000000e0: 1f39 a2bb ae57 b5bd 9033 173c c0bc 19bc
000000f0: 0bd7 1d3e 014c 97bd 2e28 f9bd b8ab 3abd
00000100: 3a53 8d3d d067 e5bc 8cf0 5b3d 4d90 1abe
00000110: bcdc 86bd 18c2 0b3d 5e10 c63d b415 473d
00000120: 203a 69bd 325d 03be c090 773d b097 e3bc
00000130: 6059 ecbc dc51 f9bd ebf8 38bd b7d9 773c
00000140: 1ea2 cfbb f899 32be 9d7e 24bd 6933 3cbe
00000150: ba83 d93d 0064 973c 5403 333d 14dc 0abe
00000160: fa20 cdbd c0a1 b93d 3aba a2bd 9a23 b3bd
00000170: 6c96 f3bd 6865 ffbd c477 233d 17da 25bd
00000180: 177d 0f3c 316d 18be ba92 d33d a22c ba3d
00000190: 8009 5c3d 7458 d5bd ccf2 703d 7e33 eabd
000001a0: f075 8fbd 70f1 19be e05b 933c 0039 1cbc
000001b0: 5906 29be 9845 d1bc ad71 af3c eca7 56bc
000001c0: 8a35 fcbd 04e8 e9bd a7f0 08be 6a50 e53d
000001d0: 44c7 63bd 4838 df3c 1c06 59bd b2ee eabd
000001e0: 8b6d 48bd 2680 96bd 64e9 973d 1c05 10bd
000001f0: a81d e0bd 8832 80bc a8e5 1d3d 00fb 40bc
00000200: 30cd f23c 0016 d239 e1ab 74bd fdd6 3cbe
00000210: ff04 b1bd bbba 69bd d0e9 61bc 6014 0ebe
00000220: f0f6 533d 8e58 293d 4690 253d 283d f1bc
00000230: 9572 3f3b a58a 1bbe 3b40 1e3d 0de2 38be
00000240: 056c 8d3b 2b6a 3bbe 2abc 35be eca2 c2bd
00000250: ae50 1fbd 6587 113c 9062 083c 7f5d 75bd
00000260: 7129 a83c c9b0 86bd 44fb 663d 0d61 033d
00000270: ca76 f73c d9fd c6bd 6243 93bd 772a e6bd
00000280: 8674 09bd e92e 07be 8be4 e4bd 2e88 20be
00000290: 4065 cdbd 6a40 dc3c 410f 8cbd d5ca 89bd
000002a0: 392c eb3b 0e44 22be 3ee3 0e3c ed86 0cbe
000002b0: 42e6 2a3d 101a abbd 1573 6f3d 1dea 813d
000002c0: 9904 85bd 2200 123d 303c b3bd 14b8 b5bd
000002d0: 286b 2b3d c25b 05be d098 8cbc 8377 16be
000002e0: 1bc9 343d c4c3 d8bc 0489 813d 502d d1bc
000002f0: b0f8 20be a334 143d f279 d2bd d6bb fabd
00000300: e4e7 d8bd 5072 abbd be24 ae3d dc84 d43d
00000310: b4ea 3fbd b00b e9bd e8d9 253d 209f 8e3c
00000320: 9e24 ae3d 485a a93c 1832 273d ac9a 893d
00000330: 0c5d b43d e015 6e3d 885b da3c 003a 8cbc
00000340: 22ab ddbd 22bb e2bd 6a3c e53d 6085 053c
00000350: b463 c4bd da6b b5bd beb3 f43d 309b b13c
00000360: 80c6 c3bc c690 b63d 004c 9f3c 28cd 823c
00000370: 28cc dd3d 3668 83bd 64e3 5bbd 9097 d0bc
00000380: 805d 6dbb 1045 6b3c c6d2 ca3d e06d e7bc
00000390: fcb1 c33d 5c2a abbd 64c9 883d 40e9 8cbc
000003a0: a01f b73b 201b d73d c018 6e3b f00e ad3d
000003b0: 7a7a bbbd 4829 4bbd 800b 65bd 24df 7bbd
000003c0: c416 3c3d ac04 653d 08e4 a63c ece0 a7bd
000003d0: 08f3 893c 98f3 513d fc6b 1dbd d090 87bd
000003e0: 903a 4cbd 4413 fbbd c483 b03d 9803 b7bc
000003f0: 6822 423d 84c0 e43d a0ca ef3d b8a9 8a3d
-0.068036675 0.093533024 0.051109184 -0.010847856 0.047125667 0.12107544 0.23361003 -0.010623512
-0.014635295 -0.012639701 -0.026155874 0.073285826 -0.10530722 -0.04832582 -0.03241217 -0.089867406
-0.066845745 -0.03248681 -0.047680557 -0.098544516 0.022874821 -0.052567244 0.09160469 -0.092628695
0.00027437013 -0.023367375 0.04099613 -0.0003775789 0.04201984 0.029488161 -0.060477123 0.08838899
-0.10609163 -0.027261214 -0.045560103 -0.087396085 -0.11412929 -0.01864432 0.107783355 0.004301451
-0.036149293 0.031098736 0.077605985 0.090348355 0.0019474027 -0.06834976 0.1662021 -0.053814694
-0.046776753 -0.059849948 0.105281524 0.027911203 0.05020135 0.06737735 0.06972425 0.06870154
-0.004950657 -0.08854614 0.009228602 -0.00938338 0.15414064 -0.073875435 -0.12165867 -0.04557392
0.0690064 -0.028003603 0.0536962 -0.15094109 -0.065850705 0.03412065 0.096710905 0.048604682
-0.056940198 -0.1282852 0.06044078 -0.027782291 -0.028851211 -0.121738166 -0.04515926 0.015127591
-0.0063364645 -0.17441547 -0.04015981 -0.18378986 0.10620828 0.0184803 0.043704346 -0.13560516
-0.100160554 0.090640545 -0.07945676 -0.08747025 -0.11893925 -0.124705136 0.03990914 -0.04049119
0.008757851 -0.14885403 0.1033072 0.09090544 0.053719997 -0.10417262 0.0588253 -0.114356026
-0.07004917 -0.15033507 0.017988145 -0.009535074 -0.16506328 -0.02554588 0.02141651 -0.013101559
-0.12314899 -0.114212066 -0.13373052 0.111969784 -0.055609956 0.027248517 -0.052984342 -0.11471309
-0.048932593 -0.07348661 0.074175626 -0.035161123 -0.109431565 -0.015649095 0.038549095 -0.011778593
0.029638857 0.00040070713 -0.05973423 -0.18441387 -0.08643531 -0.057062846 -0.013788655 -0.1387496
0.05174917 0.041344218 0.040420793 -0.029448107 0.0029212583 -0.15189607 0.038635474 -0.18054982
0.0043158554 -0.18302219 -0.1774756 -0.09503731 -0.0388953 0.008882378 0.00832428 -0.059903618
0.020527573 -0.06576688 0.05639197 0.032074977 0.03020801 -0.09716386 -0.071905866 -0.11238568
-0.03355839 -0.13201489 -0.111764036 -0.15676948 -0.100290775 0.026886184 -0.06838847 -0.0672814
0.0071769026 -0.15846273 0.008721171 -0.13723345 0.041723497 -0.083545804 0.05845936 0.06343482
-0.064950176 0.035644658 -0.08751714 -0.08873001 0.04185024 -0.13023284 -0.01716271 -0.14694028
0.0441371 -0.026460536 0.06324962 -0.025534302 -0.15719867 0.03618301 -0.102771655 -0.12242858
-0.105911046 -0.08371413 0.08503102 0.103769034 -0.04685469 -0.11379182 0.040491015 0.017409861
0.08503078 0.020672932 0.040819257 0.067189544 0.0880681 0.05812633 0.026654974 -0.0171175
-0.108236566 -0.11070849 0.11193164 0.008149475 -0.09589329 -0.08858462 0.119483456 0.021680444
-0.023898363 0.08914332 0.01944542 0.015966967 0.10829955 -0.06416361 -0.053683653 -0.025462896
-0.003621906 0.0143597275 0.09903483 -0.028250635 0.09555432 -0.08357689 0.06679037 -0.017201066
0.005588487 0.105032206 0.003633067 0.08450115 -0.0915422 -0.049599916 -0.05591917 -0.0614921
0.04592015 0.05591266 0.020372406 -0.08197197 0.01683952 0.0512577 -0.03843306 -0.06619418
-0.049860537 -0.12259534 0.08618882 -0.02234058 0.047396094 0.11169532 0.117085695 0.067706525

bias f4 [128]
00000000: 5ab7 063e 4aa7 9abd 7488 19be 8012 d4bc
00000010: 9d31 e93d 249c 48bd 09c7 09be f81b 42bd
00000020: 7448 f4bd 6992 8a3c b3c4 49be 8bb3 b93d
00000030: 3f1c fd3d b7e6 d7bb 6e1f 0ebe 3bac 403e
00000040: b47d aebd 28c5 a63d 9f72 6cbd 4570 f7bd
00000050: 53d0 c93d f656 19be 88d4 5c3e cf46 523d
00000060: dcb0 cebd d67b a4bd a20e 0a3e 79f8 8a3d
00000070: 6e2b db3e f191 1fbe e3db 0b3d 4612 333e
00000080: 28d6 323e 5b04 71bd c1a5 4d3f a4d8 40bd
00000090: ddda eb3d 33ed 9c3d 02d2 c63c 4408 afbe
000000a0: 67be 15be b6eb 353e 8b58 583e 032a 3c3f
000000b0: e516 163e bddd 8fbd bfb0 4f3e 6c25 fdbc
000000c0: dcca 9abd 698c f63d 51da fb3d 0167 2a3d
000000d0: 208b babd 47a2 00be e6d0 17be 3995 283d
000000e0: 0873 683d 49a4 65bd e26b cdbd c550 283d
000000f0: 5209 2c3d a0bc 7dbd 3731 92bc c03d 923c
00000100: 4ae0 4b3d 6ef7 d1bb 9650 33bd 66b5 0c3e
00000110: c5b4 9dbd 9b9f c63d f138 3e3c 0b6b fdbd
00000120: b6cf 4c3e f728 7abd bf0f 333c 995c 0738
00000130: 5662 0cbe 62f5 a93d ca0b f4bd 67cc 2abd
00000140: 2791 30bb 9c2b 61bc 8544 b7bd 970d 32bd
00000150: 60e7 19be 5b45 093d abd1 1a3e 4257 193d
00000160: f480 1f3e 5898 853d 792b e3bd 251f 283d
00000170: 7232 653e b660 86bc 5a06 12bd 5501 4c3e
00000180: 2cde 5abd 0827 afbd 49bd 20be 09a2 ee3c
00000190: 9d3b 04be 561b 35be ef13 3fbd 9bbf 013e
000001a0: bbc1 fcbd 6dc0 253e c3bd 4abe ab0b 763b
000001b0: c81a d8bd df54 2d3e c5c5 743e 5867 2bbd
000001c0: 900f 823d 90c1 edbd 37e8 003d 02ed d8bd
000001d0: 07e3 d23a a489 7d3d 2eca b8bd e891 b4bc
000001e0: 42e9 0abe 1cdf f13d 0ca6 09bd 3b05 6fbd
000001f0: 606c 233d dd91 b3bd 496e f63d f2bf ccbd
0.1315588 -0.07551439 -0.14993459 -0.025887728 0.11386416 -0.048977032 -0.13454832 -0.047389954
-0.11927882 0.016915517 -0.19703941 0.09067448 0.12358903 -0.0065887826 -0.13879177 0.188157
-0.0852007 0.08143073 -0.0577265 -0.120819606 0.09854188 -0.14974579 0.21565449 0.05133706
-0.10092327 -0.08031432 0.13482144 0.06785674 0.42806572 -0.15583016 0.034145247 0.1748744
0.17464507 -0.058842044 0.80331045 -0.047081605 0.11516354 0.0766243 0.024270061 -0.34185994
-0.14623414 0.17765698 0.21127526 0.73501605 0.14657171 -0.07024715 0.20282267 -0.030901633
-0.075582236 0.120385 0.122975 0.04160214 -0.09108567 -0.12561904 -0.14825782 0.041157935
0.056750327 -0.056064878 -0.10030343 0.041092653 0.042001076 -0.061947465 -0.017845733 0.01785171
0.049774446 -0.0064076697 -0.043778025 0.13741073 -0.07700495 0.09698411 0.011610256 -0.123739325
0.2000111 -0.061074223 0.010929047 3.2272746e-05 -0.13709387 0.08298756 -0.11916311 -0.04169884
-0.0026941986 -0.013743307 -0.08948616 -0.04346999 -0.15029669 0.03351341 0.15119044 0.03743673
0.15576535 0.06523198 -0.11092276 0.041045327 0.22382525 -0.016403537 -0.03565059 0.19922383
-0.053434536 -0.085523665 -0.15697207 0.029129999 -0.12913366 -0.17686209 -0.04664987 0.12670748
-0.12341639 0.16186686 -0.19798951 0.0037543576 -0.10551983 0.16926907 0.23903568 -0.041846603
0.063506246 -0.11609185 0.031471457 -0.10592081 0.0016089388 0.061898842 -0.09022938 -0.02204223
-0.13565543 0.11810133 -0.03360562 -0.058354598 0.039898276 -0.087680556 0.12032754 -0.09997548

weight f4 [1, 128]
00000000: 3a79 6c3c 62b2 d33c 097d c83c 59a6 7abd
00000010: 7223 133d ea55 a4bb a8c4 433b 6da9 ec3c
00000020: ceed cf3c c9d0 313d 6ce0 0d3d 8bac cd3d
00000030: 95bd 9b3d 2dbc 693d 51e6 16bc 423b e03d
00000040: f88c ce3c 8743 b1bb b224 4c3d b516 713d
00000050: 79d2 d33d 124a c5bc b378 c53d e56c 76bc
00000060: 1003 19bb 4b75 92bd bf5e 5d3b f5e2 80bc
00000070: a780 c63d acdc 613d 9b37 aebc 2d5e 953d
00000080: c2b1 8c3d efe3 df3c 6854 a5bd 848c 153d
00000090: 8041 313e 5585 56bb 98fa 8bbb 3e66 53bc
000000a0: e36f a83d 3bb5 d03d 16f7 0b3e 3452 62bf
000000b0: 27e4 213b 7049 1d3d 383a 033e 6b53 713d
000000c0: 13ea 52bc a5cc 593d db5f e43d 8775 cabb
000000d0: 0b47 82bc 46fb bf3c e795 a13e b505 91ba
000000e0: ff5b dc3d e453 383b d408 65bd 55c5 533c
000000f0: 7397 49bc 946a 8f3c 83c5 ad3b 79e6 263b
00000100: d734 cbbc 097f d1bc c790 12bc 4c68 433e
00000110: d434 5c3c 5cb9 c43d 937e d6bb a846 d3bd
00000120: c384 cd3d d0fa 313d e3f8 5d3d 62e0 bc3c
00000130: c34c 6dbd 97e1 e13d 9777 72bd e0cf 213d
00000140: 7bdf 523d 3c1e 2e3d ead3 b6bc d551 513c
00000150: cfca 77bd 1deb 723c b7d7 de3c e7b7 933d
00000160: 795f 0e3e 7518 0bbb 1074 c63c 524d e3bc
00000170: 8922 ee3d 4fb6 69bc cbba 553d da5a 033e
00000180: 649b 3fbb c7e7 13bd 5f38 473d d0a5 8aba
00000190: 53f3 f43c e0ba 9bbd a86d 2a3d 0ffc 163e
000001a0: d825 783c 46b5 1a3e b562 173e ec70 f139
000001b0: ec0e f03c b89c 223e b00c 153e 4244 8f3d
000001c0: 9d66 dcba d670 96bc b16e d33c 65e2 99bd
000001d0: ce22 843c b92a e5bb ca6a 283d 8317 b43d
000001e0: a093 993b a9b2 e43d fa0b 94bd 1f62 f2bc
000001f0: 60e4 ec3b 63f1 17bc 62a2 58bc 8901 0dbd
0.0144332 0.025841895 0.024473684 -0.061193798 0.035922475 -0.0050151246 0.0029871855 0.028889382
0.025381949 0.043412004 0.034637854 0.100426756 0.07604519 0.057064224 -0.009210185 0.109488025
0.025213704 -0.005409661 0.049839683 0.058859546 0.10342879 -0.024083171 0.09642162 -0.015040611
-0.0023347773 -0.07151278 0.0033778397 -0.015733222 0.09692507 0.05514209 -0.02126675 0.07293353
0.06869842 0.027330367 -0.0807274 0.03651096 0.17310143 -0.003273328 -0.0042718165 -0.012902794
0.08224466 0.10190817 0.13668475 -0.8840668 0.002470264 0.038400114 0.12815177 0.058917444
-0.01287319 0.05317368 0.111510955 -0.006178561 -0.015903017 0.023435246 0.3155968 -0.0011064323
0.10759734 0.0028126175 -0.055916622 0.012925466 -0.012304175 0.017506875 0.0053030862 0.0025466962
-0.02480547 -0.02557327 -0.00894565 0.19082755 0.01344033 0.09605667 -0.0065458505 -0.10316211
0.10035088 0.043452084 0.054192435 0.023056213 -0.057934534 0.11029356 -0.05919608 0.039504886
0.05148266 0.042509302 -0.022317845 0.012775858 -0.060496148 0.014826563 0.02720247 0.07212811
0.13903607 -0.0021224294 0.024225265 -0.02774683 0.11627681 -0.014264657 0.052180093 0.12827626
-0.0029236907 -0.036109712 0.048637744 -0.001057798 0.029901182 -0.07604003 0.041608483 0.1474459
0.015145741 0.15108213 0.14783747 0.00046051235 0.02930399 0.15880096 0.14555621 0.06995441
-0.0016815249 -0.018364351 0.025809618 -0.075138845 0.016129877 -0.0069936183 0.041117467 0.08793547
0.0046867877 0.11166889 -0.07228847 -0.029587803 0.007229373 -0.00927386 -0.013222309 -0.034425292
