python/bsc/third_meeting/3rd_prompt/network_f_hidden_sizes_[64, 128, 256, 512]_activations_['ELU', 'ELU', 'ELU', 'ELU']_optimizer_Adam_lr_0.001_batch_size_64_epochs_100.pt (torch, 728811 bytes, 25 tensors)

weight f4 [64, 3]
0.3990074 0.33911726 0.5270974 -0.16426891 -0.5890595 0.14377415 -0.4764564 0.1786841
0.40902185 -0.5343034 0.21778518 0.12829378 0.30821314 0.65148073 -0.33549553 0.40397537
0.100461 0.40599585 0.50486195 -0.12247476 0.2870647 0.04115706 0.5296587 0.13567717
0.4591362 -0.11878786 -0.61332625 -0.45104823 -0.2243361 0.19620627 -0.31261623 -0.008753482
-0.09833408 -0.19508189 -0.21979234 -0.049055777 0.23161267 -0.37144026 -0.15301935 0.50553656
0.6410522 -0.3188704 -0.37157887 0.118483484 0.37065235 0.12504093 0.538937 0.14033689
0.028300876 -0.35035685 -0.2952346 0.32768276 -0.04957031 -0.077068515 -0.5397941 -0.5154531
0.09865837 -0.3894981 -0.4110197 -0.32511643 0.5228022 -0.042070482 0.156705 0.5825436
-0.42577422 0.50987715 0.34072968 -0.3051434 -0.5455436 0.3877563 -0.40224838 0.5488861
0.4779015 -0.14265347 -0.24071881 -0.5209789 -0.18897776 0.40027308 -0.5834535 -0.21777537
-0.046455342 -0.07888373 -0.5040843 -0.45249152 -0.29902112 0.49771565 -0.33862177 -0.18861876
-0.4276419 0.13606484 -0.4807878 -0.5320685 0.17539728 0.044645466 0.55747944 0.06080087
0.2790141 0.13889314 -0.63431156 -0.38922632 0.2322116 -0.3989676 -0.58798563 -0.042398743
0.04226423 0.1323192 -0.46009493 -0.14420612 -0.56055015 -0.37205958 -0.4623235 0.2943733
0.5410583 0.48726526 0.23429188 -0.06175875 -0.39369652 0.069581375 0.42841393 0.42374048
-0.06684286 0.39676282 0.36408833 -0.10539393 -0.067839146 0.55276334 -0.022646781 0.55220795
-0.4022331 0.46792445 0.3451077 -0.21494211 -0.17540921 -0.3496915 0.52143925 0.5627028
0.4390466 0.17943476 -0.18468621 -0.27540016 -0.5190662 0.45798644 0.019945275 0.4146975
0.50821364 -0.43729725 0.05317944 -0.53112453 -0.26141873 -0.48268357 -0.20324579 -0.28068358
-0.15606831 0.4735743 -0.19660982 -0.038165428 0.5284702 0.5752493 0.30676985 0.25244027
-0.6546763 -0.094359584 -0.18031272 0.42791608 0.41150826 -0.243691 0.2522305 0.29604995
0.34415635 -0.20242567 -0.25480527 0.37183255 0.44575104 -0.028074995 -0.41866156 0.10565031
-0.26685145 -0.20773065 -0.010463409 0.45380002 0.40047947 -0.4591309 -0.3710947 -0.07195859
-0.61495256 0.16977133 -0.04374314 0.3054145 -0.20755151 -0.530187 0.002330867 -0.0683818
00000000: b34a cc3e c7a0 ad3e dbef 063f 1c36 28be
00000010: 9acc 16bf 8839 133e 18f2 f3be f7f8 363e
00000020: 506b d13e 1cc8 08bf 1403 5f3e 725f 033e
00000030: 1dce 9d3e 71c7 263f 12c6 abbe dcd5 ce3e
00000040: 7fbe cd3d b0de cf3e a23e 013f 0cd4 fabd
00000050: 25fa 923e 4e94 283d b697 073f f5ee 0a3e
00000060: e613 eb3e 0d47 f3bd f302 1dbf cbef e6be
00000070: 5db8 65be 4cea 483e 3c0f a0be c46a 0fbc
00000080: 6163 c9bd 8cc3 47be 3e11 61be b6ee 48bd
00000090: df2b 6d3e 6b2d bebe 1bb1 1cbe d86a 013f
000000a0: ff1b 243f fb42 a3be 963f bebe 78a7 f23d
000000b0: 25c6 bd3e bb0a 003e c6f7 093f 79b4 0f3e
000000c0: 3dd7 e73c f961 b3be fd28 97be 09c6 a73e
000000d0: 3d0a 4bbd 19d6 9dbd f22f 0abf bcf4 03bf
000000e0: 660d ca3d 4c6c c7be 2d71 d2be a975 a6be
000000f0: 5dd6 053f 1952 2cbd 4777 203e 9421 153f
00000100: 14ff d9be 4f87 023f 1f74 ae3e c13b 9cbe
00000110: bfa8 0bbf fe87 c63e 80f3 cdbe cd83 0c3f
00000120: 81af f43e c013 12be fe7e 76be e05e 05bf
00000130: 6383 41be 98f0 cc3e 355d 15bf 8200 5fbe
00000140: f547 3ebd cb8d a1bd ab0b 01bf f8ac e7be
00000150: 4c19 99be 96d4 fe3e d55f adbe 4725 41be
00000160: e1f3 dabe 9554 0b3e d229 f6be a435 08bf
00000170: 589b 333e 2ade 363d f9b6 0e3f 550a 793d
00000180: f0da 8e3e 013a 0e3e 3e62 22bf ac48 c7be
00000190: e1c8 6d3e 7b45 ccbe 3a86 16bf 4eaa 2dbd
000001a0: 421d 2d3d af7e 073e 9091 ebbe c5aa 13be
000001b0: 3780 0fbf 987e bebe aab5 ecbe 19b8 963e
000001c0: cc82 0a3f d57a f93e 36ea 6f3e bef6 7cbd
000001d0: 9792 c9be ae80 8e3d 1259 db3e 83f4 d83e
000001e0: e9e4 88bd 7f24 cb3e c969 ba3e c6d8 d7bd
000001f0: 40ef 8abd e681 0d3f be85 b9bc 805d 0d3f
00000200: 7ff1 cdbe cb93 ef3e f5b1 b03e c919 5cbe
00000210: 799e 33be c40a b3be 0b7d 053f 4a0d 103f
00000220: b7ca e03e bfbd 373e 621e 3dbe 4001 8dbe
00000230: 86e1 04bf 337d ea3e 4664 a33c 3b53 d43e
00000240: 4a1a 023f 6de5 dfbe afd2 593d c7f7 07bf
00000250: add8 85be 4d22 f7be aa1f 50be c2b5 8fbe
00000260: 5fd0 1fbe 5578 f23e 1654 49be 5a53 1cbd
00000270: d349 073f 8a43 133f f010 9d3e da3f 813e
00000280: de98 27bf 993f c1bd e6a3 38be d117 db3e
00000290: 36b1 d23e 228a 79be 5b24 813e dc93 973e
000002a0: 4335 b03e ad48 4fbe d675 82be d660 be3e
000002b0: 7b39 e43e 88fd e5bc cf5a d6be 315f d83d
000002c0: c1a0 88be 58b7 54be b86e 2bbc 7a58 e83e
000002d0: a50b cd3e 3513 ebbe 2000 bebe 065f 93bd
000002e0: 886d 1dbf 89d8 2d3e 022c 33bd 4a5f 9c3e
000002f0: 6288 54be 56ba 07bf 76c1 183b c20b 8cbd

bias f4 [64]
0.38517556 0.099162154 0.37531897 0.57802266 0.30511495 0.4478714 -0.34797576 -0.070824146
-0.20862475 -0.510354 0.14962259 0.0984411 -0.22004077 -0.22586957 -0.06963629 0.20575373
-0.1004609 0.17538658 -0.099399716 0.55901223 -0.14975204 0.2209525 -0.22609043 0.04891744
0.30701065 0.08751748 -0.018958159 -0.23042358 -0.008191934 0.117726296 -0.3178285 0.21424533
0.09188923 0.24859694 -0.06772017 -0.1705664 0.09087431 -0.26726475 0.2999546 0.30244765
-0.18245953 0.19151945 0.45795113 0.23255707 -0.57501 -0.57849836 0.08247517 0.30962387
0.2027205 0.1546944 -0.35565996 -0.24189323 0.58454394 0.18591265 -0.07834902 -0.43740794
0.4812803 -0.26821297 -0.02204704 0.14344053 -0.33182284 -0.37933373 0.035638407 -0.08513253
00000000: bb35 c53e 8715 cb3d cf29 c03e 4bf9 133f
00000010: 0738 9c3e 664f e53e e129 b2be 400c 91bd
00000020: baa1 55be 8fa6 02bf aa36 193e 7d9b c93d
00000030: 5e52 61be 5a4a 67be 799d 8ebd 1bb1 523e
00000040: 72be cdbd 8a98 333e 1492 cbbd 6d1b 0f3f
00000050: 9958 19be 5f41 623e 4084 67be a75d 483d
00000060: 8030 9d3e 5d3c b33d 244e 9bbc 29f4 6bbe
00000070: 7637 06bc 7c1a f13d 6bba a2be 2163 5b3e
00000080: 6c30 bc3d 3290 7e3e dfb0 8abd f5a8 2ebe
00000090: 4f1c ba3d edd6 88be a693 993e 6bda 9a3e
000000a0: acd6 3abe ad1d 443e 9278 ea3e 7123 6e3e
000000b0: db33 13bf 7818 14bf bee8 a83d 0587 9e3e
000000c0: f695 4f3e 3568 1e3e 1019 b6be dcb2 77be
000000d0: aca4 153f e35f 3e3e 7375 a0bd eff3 dfbe
000000e0: 5f6a f63e 3653 89be fe9b b4bc 13e2 123e
000000f0: afe4 a9be 0838 c2be 94f9 113d f759 aebd

weight f4 [64]
1.0935934 1.0019608 0.8832349 0.9915233 0.96859807 1.1276306 1.0571997 0.9937017
1.0456375 1.0258987 1.0253301 1.0848044 0.9904233 1.0296233 0.7494543 1.1081076
1.0584654 0.9816979 1.0575391 1.0277486 1.058655 1.1129959 1.0545917 1.0325935
0.9629516 0.9458423 0.96673197 1.0838208 1.1283464 1.0932094 1.0980186 1.0121293
0.92680955 1.0502096 0.95415455 0.98808956 1.0583949 1.095241 0.80716795 1.1948599
1.1216519 0.97804886 0.9977205 1.003211 0.963667 1.1422559 1.1010411 1.174619
0.9610334 1.0905542 1.1196426 0.95710474 1.1344377 0.9290245 1.1571606 0.97861475
0.9283745 1.0752167 1.0345509 0.9533244 1.0374233 0.9847542 0.9211001 0.91355586
00000000: defa 8b3f 4040 803f af1b 623f 79d4 7d3f
00000010: 0bf6 773f 3356 903f 5252 873f 3c63 7e3f
00000020: 73d7 853f a650 833f 043e 833f dfda 8a3f
00000030: 628c 7d3f b2ca 833f 3ddc 3f3f 78d6 8d3f
00000040: cb7b 873f 8e50 7b3f 715d 873f 448d 833f
00000050: 0282 873f a676 8e3f dcfc 863f 062c 843f
00000060: ff83 763f b922 723f bf7b 773f a4ba 8a3f
00000070: a86d 903f 49ee 8b3f e08b 8c3f 748d 813f
00000080: 6443 6d3f 456d 863f 7943 743f 70f3 7c3f
00000090: 7c79 873f db30 8c3f 8fa2 4e3f 2bf1 983f
000000a0: 4a92 8f3f 6961 7a3f 9c6a 7f3f 3869 803f
000000b0: e1b2 763f 7135 923f eaee 8c3f ea59 963f
000000c0: 4906 763f 4897 8b3f 7350 8f3f d104 753f
000000d0: 4135 913f 8dd4 6d3f d71d 943f 7f86 7a3f
000000e0: f4a9 6d3f b3a0 893f 2a6c 843f 110d 743f
000000f0: 49ca 843f da18 7c3f 37cd 6b3f ccde 693f

bias f4 [64]
-0.10067472 -0.18288697 -0.28342998 -0.25809255 -0.21088131 -0.11748689 -0.053386595 -0.11725513
-0.2598432 -0.14392695 -0.12263001 -0.06411018 -0.14846769 -0.16822322 -0.25334445 -0.102424845
-0.015126435 -0.1815695 0.014912115 -0.033960905 -0.16262867 -0.14123787 -0.16072896 -0.1870812
-0.1060552 -0.23687541 -0.03401724 -0.09450475 -0.24736506 -0.14341977 -0.012566553 -0.13439164
-0.24435115 -0.00031898406 -0.09794032 -0.25396445 -0.091441505 -0.17525034 -0.1356313 -0.22558424
-0.14225328 0.0106923245 -0.14657298 -0.18605019 -0.2433925 -0.23311223 -0.12512662 -0.10393119
-0.32913825 -0.04421088 -0.14874767 -0.10072348 -0.16715172 -0.2371634 -0.18828402 -0.23831211
-0.12393204 -0.18384509 -0.021754395 -0.32168117 -0.14592306 -0.23930825 -0.31200203 -0.24028586
00000000: 8c2e cebd b946 3bbe bc1d 91be b524 84be
00000010: 45f1 57be f79c f0bd e7ab 5abd 7523 f0bd
00000020: 2b0a 85be 9661 13be 7125 fbbd 334c 83bd
00000030: ea07 18be b542 2cbe 5db6 81be 1ec4 d1bd
00000040: ded4 77bc 5bed 39be f251 743c 971a 0bbd
00000050: 2188 26be a9a0 10be 2296 24be 3792 3fbe
00000060: 7833 d9bd 788f 72be a955 0bbd b58b c1bd
00000070: 444d 7dbe a2dc 12be f2e3 4dbc f69d 09be
00000080: 3037 7abe 513d a7b9 ef94 c8bd a107 82be
00000090: af45 bbbd d374 33be eee2 0abe 8eff 66be
000000a0: d8aa 11be dc2e 2f3c 3a17 16be f183 3ebe
000000b0: e23b 79be f9b4 6ebe 3121 00be e0d9 d4bd
000000c0: cf84 a8be 7816 35bd 4f51 18be 1d48 cebd
000000d0: d229 2bbe f6da 72be 87cd 40be 1708 74be
000000e0: 15d0 fdbd e341 3cbe 4636 b2bc 65b3 a4be
000000f0: db6c 15be 390d 75be bbbe 9fbe 7f0d 76be

running_mean f4 [64]
6.367261 -2.8339932 0.9392067 -0.25798565 3.291735 4.731752 2.765565 3.3141317
-1.5290968 -2.7731016 -1.8156768 -2.1024826 -1.6534091 3.7069342 0.5099465 4.0491214
-3.050717 1.0897831 -4.642557 -4.7729816 2.820632 3.2779918 -2.6791167 2.4966168
0.71587753 -1.3663137 -4.010752 -5.163467 -0.6006157 -2.1877236 -4.300126 3.395293
-0.92824566 -2.3280447 -2.8165278 -2.4542723 -6.497792 6.013549 -0.76225847 4.693691
3.1381867 1.9733136 1.1208453 3.0529878 -0.6221096 5.0086317 -4.5540743 4.4972453
0.70897734 -5.858981 -3.393168 0.82506186 7.269819 -2.2381861 3.0840397 1.0305616
-0.091684684 3.479571 -2.7211556 1.2658379 -2.427528 -2.8837118 0.3228649 -2.8716922
00000000: 9ac0 cb40 2560 35c0 da6f 703f b216 84be
00000010: c9ab 5240 836a 9740 04ff 3040 bc1a 5440
00000020: 72b9 c3bf 7f7a 31c0 1968 e8bf 138f 06c0
00000030: e9a2 d3bf 693e 6d40 db8b 023f 6792 8140
00000040: f33e 43c0 037e 8b3f d48f 94c0 44bc 98c0
00000050: 3c85 3440 9eca 5140 a676 2bc0 92c8 1f40
00000060: c043 373f 5ee3 aebf 1558 80c0 1f3b a5c0
00000070: f3c1 19bf aa03 0cc0 a29a 89c0 7b4c 5940
00000080: 82a1 6dbf affe 14c0 fe41 34c0 cc12 1dc0
00000090: e9ed cfc0 fe6e c040 5f23 43bf b732 9640
000000a0: 0dd8 4840 8a95 fc3f dc77 8f3f 2764 4340
000000b0: 9342 1fbf b646 a040 faba 91c0 6fe9 8f40
000000c0: 8a7f 353f c67c bbc0 aa29 59c0 4137 533f
000000d0: 5ba2 e840 713e 0fc0 e860 4540 71e9 833f
000000e0: 2ec5 bbbd 4bb1 5e40 6a27 2ec0 fa06 a23f
000000f0: 9e5c 1bc0 bc8e 38c0 8c4e a53e cec9 37c0

running_var f4 [64]
4.6620846 3.3018904 3.6518154 2.9798605 5.31393 2.8730133 2.9968903 2.4955277
5.1634064 2.496366 0.91348 0.7449278 1.8044604 6.4868507 2.4818754 2.7059512
1.7653129 0.98788863 4.7918234 3.5823424 2.5549142 6.614305 4.320925 5.199866
2.6280196 4.012561 3.312336 3.895308 3.8039074 1.9938964 4.60168 2.6278486
4.294449 3.0982542 2.9867642 2.0888174 5.6298113 5.170356 1.8362286 3.086231
2.472466 2.75488 3.933134 3.263261 3.6260183 4.565218 3.2111206 3.2519653
3.8172777 4.942594 1.2093941 2.2475116 5.9098825 4.1767597 3.241549 1.7863272
1.9159145 2.8370154 2.1881425 2.141345 4.301212 3.4399 1.1619925 2.44035
00000000: cc2f 9540 2c52 5340 58b7 6940 09b6 3e40
00000010: b70b aa40 73df 3740 0dcd 3f40 bab6 1f40
00000020: a03a a540 76c4 1f40 d3d9 693f 97b3 3e3f
00000030: 8ff8 e63f 4894 cf40 0cd7 1e40 4e2e 2d40
00000040: c6f5 e13f 45e6 7c3f 9e56 9940 1945 6540
00000050: b783 2340 63a8 d340 0545 8a40 4d65 a640
00000060: 7931 2840 e666 8040 50fd 5340 ba4c 7940
00000070: 3873 7340 ff37 ff3f f640 9340 ac2e 2840
00000080: 206c 8940 cc49 4640 2527 3f40 2faf 0540
00000090: 6a27 b440 8e73 a540 8a09 eb3f cf84 4540
000000a0: e23c 1e40 f44f 3040 78b8 7b40 45d9 5040
000000b0: af10 6840 4416 9240 0083 4d40 3320 5040
000000c0: 474e 7440 bb29 9e40 6dcd 9a3f 3bd7 0f40
000000d0: c21d bd40 04a8 8540 8a75 4f40 5fa6 e43f
000000e0: b03c f53f a991 3540 870a 0c40 cc0b 0940
000000f0: 87a3 8940 5227 5c40 2cbc 943f b22e 1c40

weight f4 [128, 64]
0.10934382 -0.20738637 -0.052624866 0.03535649 0.107214056 0.024957873 0.012847464 0.0036089476
-0.12299509 0.059058495 -0.0050716083 -0.16226344 -0.06674723 0.111093625 0.07600014 2.3706089e-06
-0.13301644 0.0032211253 -0.053068247 -0.042537715 -0.15803298 -0.09836536 -0.1283251 -0.17739905
-0.18773302 0.04178345 0.08865406 -0.16978289 0.09911615 -0.1436659 0.03559572 0.07751323
0.0016354333 0.15051682 0.08090807 -0.1468762 0.043351833 0.019231454 -0.13599288 0.046396025
0.043307967 0.012378305 0.053881165 0.04939447 -0.095186025 -0.10696302 -0.049507454 0.044793796
-0.12060533 -0.044654056 -0.12221701 -0.14159466 -0.020800538 -0.0072785285 0.040895686 0.006448426
-0.101495355 -0.026989754 -0.07994381 -0.055046614 0.017336782 -0.23335734 0.13714533 0.12074294
0.127212 0.08037702 -0.013631845 -0.001967438 0.08741305 0.011319604 -0.10794145 0.07422612
0.10107347 0.18888892 0.20825261 -0.071758084 0.064699754 -0.047272664 -0.04389416 0.019290494
0.015974805 -0.039035678 0.0938131 -0.11019022 -0.016472805 0.08289733 0.15201047 0.13144828
-0.012395589 0.14134039 0.13332064 0.07749848 0.0129981255 0.044151485 0.19333883 -0.006950207
0.012917752 0.0075887023 0.0599638 0.07688598 -0.12940313 0.11590369 0.07093753 0.068021275
0.06250834 -0.16011372 0.061721012 0.03934205 0.098410375 0.16627549 0.117625296 0.0008877497
0.010256959 -0.016019464 -0.06578696 -0.048245028 0.22348095 -0.0347162 -0.04737066 0.059625726
0.0976844 0.11078214 0.1640314 -0.029996386 0.19590655 0.12567183 0.012908341 0.05275435
-0.22290596 0.01675533 0.045315307 0.121453464 -0.042717002 -0.2021019 -0.019011216 -0.04726882
0.07917342 -0.05533676 0.034338363 0.07887751 0.032572128 0.11063796 0.08741974 0.009484261
0.013882381 0.011924945 -0.07302403 0.111168094 -0.0371759 0.02584054 0.0126767 -0.019019246
0.037149873 0.012971215 0.02896833 0.13051839 -0.082975775 0.11202129 -0.044149593 -0.07664528
0.056160677 0.11458245 -0.0073088882 -0.07630736 0.2166683 0.030481765 -0.122583196 0.07458311
0.1314238 0.0306462 0.090545274 0.101915136 0.16329928 -0.08791388 0.16469175 -0.2957512
-0.08837573 0.18049273 -0.026697675 0.012520224 -0.05800132 -0.068268426 -0.04048925 0.13214839
0.11964051 0.033929337 -0.032974064 -0.047711775 0.07403515 0.06855715 0.05357466 -0.05121053
-0.00980179 0.050338507 -0.019816224 0.023574362 0.05811525 0.1486216 0.033347655 -0.03910584
0.1664319 -0.05247025 0.068338394 0.05957279 -0.04899859 0.15178454 -0.040894095 0.17947082
0.08774035 0.03815291 -0.10987927 0.047028862 -0.09646992 0.030347697 0.0055924994 0.12037149
0.17134838 -0.01877811 -0.078806825 0.049475417 0.22875659 0.05801211 0.062232584 0.12136975
0.17962891 0.19734912 0.10467877 0.13945787 0.037978966 0.17922592 -0.034732316 0.15307559
0.1501914 -0.04575051 0.1304428 -0.06455062 0.11376647 -0.07195268 0.02734812 -0.080210306
-0.02898101 0.12368141 -0.07508889 0.103668295 -0.04669315 -0.002873849 0.13600643 0.07049964
-0.035345435 -0.07300167 0.11632397 0.07628903 0.14120384 0.13160901 0.11621652 -0.06062489
00000000: a7ef df3d 185d 54be 2c8d 57bd f8d1 103d
00000010: 0b93 db3d 7474 cc3c 2b7e 523c 1884 6c3b
00000020: dae4 fbbd 52e7 713d bc2f a6bb 6328 26be
00000030: c6b2 88bd 0e85 e33d f6a5 9b3d c016 1f36
00000040: 7635 08be 8419 533b 175e 59bd 073c 2ebd
00000050: 66d3 21be c773 c9bd a867 03be 19a8 35be
00000060: 163d 40be 1f25 2b3d 4390 b53d 91db 2dbe
00000070: 68fd ca3d 271d 13be d1cc 113d 42bf 9e3d
00000080: 095c d63a 1521 1a3e 21b3 a53d b766 16be
00000090: b191 313d 488b 9d3c b841 0bbe c209 3e3d
000000a0: b263 313d 60ce 4a3c 7fb2 5c3d db51 4a3d
000000b0: e4f0 c2bd 6e0f dbbd 54c8 4abd b379 373d
000000c0: edff f6bd 2ce7 36bd e94c fabd 31fe 10be
000000d0: e465 aabc b980 eebb 3c82 273d 514d d33b
000000e0: ccdc cfbd 9e19 ddbc 95b9 a3bd 8f78 61bd
000000f0: de05 8e3c 3af5 6ebe d36f 0c3e 1348 f73d
00000100: dd43 023e b59c a43d 1a58 5fbc 22f0 00bb
00000110: 9d05 b33d dc75 393c 6810 ddbd dd03 983d
00000120: 9cff ce3d 196c 413e 2c40 553e e7f5 92bd
00000130: 4e81 843d fba0 41bd 5dca 33bd 1907 9e3c
00000140: 98dd 823c e0e3 1fbd 1521 c03d 69ab e1bd
00000150: faf1 86bc 13c6 a93d a2a8 1b3e 619a 063e
00000160: de16 4bbc 89bb 103e 3585 083e 86b7 9e3d
00000170: 17f6 543c 30d8 343d 9dfa 453e 90be e3bb
00000180: fba4 533c a6aa f83b 9a9c 753d 6676 9d3d
00000190: 4182 04be ea5e ed3d b247 913d bd4e 8b3d
000001a0: 5f04 803d daf4 23be 2ccf 7c3d 2125 213d
000001b0: 618b c93d 1f44 2a3e 88e5 f03d e0b7 683a
000001c0: ce0c 283c 403b 83bc 50bb 86bd 949c 45bd
000001d0: 31d8 643e 9332 0ebd bd07 42bd 1b3a 743d
000001e0: c20e c83d bfe1 e23d d9f7 273e fbba f5bc
000001f0: ba9b 483e 1eb0 003e 827d 533c f214 583d
00000200: 7641 64be 7942 893c 8b9c 393d 98bc f83d
00000210: 06f8 2ebd cdf3 4ebe 69bd 9bbc f39c 41bd
00000220: ad25 a23d cca8 62bd 62a6 0c3d 888a a13d
00000230: 5a6a 053d 2896 e23d 1f09 b33d e063 1b3c
00000240: ed72 633c d860 433c 9f8d 95bd 19ac e33d
00000250: c245 18bd 8aaf d33c efb1 4f3c 40ce 9bbc
00000260: 772a 183d 3885 543c fe4e ed3c 9da6 053e
00000270: 34ef a9bd 6b6b e53d 34d6 34bd 33f8 9cbd
00000280: bd08 663d 34aa ea3d 667f efbb 0847 9cbd
00000290: 4bde 5d3e e5b4 f93c e60c fbbd 08bf 983d
000002a0: f693 063e bd0d fb3c cd6f b93d e2b8 d03d
000002b0: ed37 273e 310c b4bd f4a4 283e b46c 97be
000002c0: 56fe b4bd 16d3 383e 15b5 dabc a021 4d3c
000002d0: cb92 6dbd 51d0 8bbd 0ed8 25bd e851 073e
000002e0: 1506 f53d 7df9 0a3d d00f 07bd 6c6d 43bd
000002f0: be9f 973d b167 8c3d 1a71 5b3d 22c2 51bd
00000300: b097 20bc c02f 4e3d a255 a2bc 051f c13c
00000310: 420a 6e3d 4330 183e 8d97 083d 722d 20bd
00000320: 206d 2a3e 0beb 56bd 00f5 8b3d 9902 743d
00000330: bfb2 48bd 686d 1b3e 9180 27bd 33c7 373e
00000340: 36b1 b33d 3a46 1c3d 6208 e1bd 56a1 403d
00000350: 0592 c5bd bc9b f83c 4941 b73b 5485 f63d
00000360: f375 2f3e 8dd4 99bc 7965 a1bd bca6 4a3d
00000370: 2b3f 6a3e 1b9e 6d3d 98e7 7e3d b490 f83d
00000380: a4f0 373e e315 4a3e d361 d63d 0bce 0e3e
00000390: d58f 1b3d 0087 373e 7943 0ebd d9bf 1c3e
000003a0: c6cb 193e e364 3bbd cc92 053e 1e33 84bd
000003b0: 65fe e83d ed5b 93bd 2a09 e03c 4d45 a4bd
000003c0: 9569 edbc ae4c fd3d 34c8 99bd 0b50 d43d
000003d0: 5141 3fbd 2f57 3cbb 4545 0b3e 1e62 903d
000003e0: 60c6 10bd e681 95bd 433b ee3d 6c3d 9c3d
000003f0: bd97 103e 83c4 063e ed02 ee3d ce51 78bd

bias f4 [128]
0.110627234 -0.088362895 -0.019278442 -0.100810006 -0.10724057 -0.018837135 0.08267784 0.05396457
-0.016119707 -0.059047982 -0.058199648 0.009938388 -0.032267552 0.009149039 0.04969652 0.059870195
0.065230936 0.017403211 -0.020453086 -0.06061638 -0.065689206 -0.06345427 -0.03469811 -0.03118318
-0.016062815 -0.10593553 0.0031386337 -0.0035246417 0.051212665 -0.0712101 0.1163461 0.0776445
-0.008291224 -0.07834695 0.001988881 -0.07507167 0.01426185 -0.113226384 -0.043608084 -0.11919749
0.012767606 -0.06318885 -0.06164136 0.095379256 -0.1066286 0.0023813064 0.10077079 0.063835
0.08015115 -0.036002442 0.008079342 -0.11500041 0.07533783 -0.030783277 0.0083289435 0.05283499
0.093155876 0.076149076 0.052782767 -0.06263969 -0.104667075 -0.11472894 0.095064946 0.022469897
-0.04706542 -0.08686245 0.1242689 -0.0010688832 -0.07234403 0.0007620296 -0.0692974 -0.08552512
0.08753624 0.13461785 0.025667202 0.04623866 -0.023936886 0.07979994 0.07070361 -0.08251449
0.03131704 -0.098262295 0.029666573 0.07958564 -0.034999482 0.13268939 -0.098534144 -0.04834576
0.08373016 -0.08924436 -0.014493963 0.04439302 -0.111510746 0.0057198876 0.026458567 0.05479361
0.031549405 0.034643568 -0.028487982 0.06326821 0.07499188 -0.09623795 -0.024722656 0.12510219
-0.056268487 0.07653107 0.051588524 0.067643814 -0.002369739 0.05547422 0.048889894 -0.0907933
-0.010265768 -0.0813002 0.085063554 0.041172422 -0.028830409 0.11879109 0.11614503 -0.12223033
-0.08593447 0.11838021 0.048430696 -0.07571447 -0.04294074 -0.10792208 -0.08658094 -0.08433275
00000000: 8890 e23d 9bf7 b4bd d3ed 9dbc 7a75 cebd
00000010: f2a0 dbbd 5650 9abc 0053 a93d f409 5d3d
00000020: 7a0d 84bc 4cdc 71bd c162 6ebd 9fd4 223c
00000030: fb2a 04bd dae5 153c 948e 4b3d 733a 753d
00000040: cc97 853d 2e91 8e3c 3b8d a7bc e248 78bd
00000050: 1088 86bd 50f4 81bd 9b1f 0ebd de73 ffbc
00000060: 2a96 83bc baf4 d8bd 89b1 4d3b adfd 66bb
00000070: 5fc4 513d 9ad6 91bd dd46 ee3d 1404 9f3d
00000080: ead7 07bc 5e74 a0bd e357 023b 2dbf 99bd
00000090: 89aa 693c 3ce3 e7bd 649e 32bd d01d f4bd
000000a0: 392f 513c 2869 81bd a77b 7cbd 3356 c33d
000000b0: 1860 dabd b10f 1c3b ea60 ce3d edbb 823d
000000c0: 4926 a43d 4c77 13bd 375f 043c 5685 ebbd
000000d0: b84a 9a3d 362d fcbc 1f76 083c 8169 583d
000000e0: 82c8 be3d 0cf4 9b3d be32 583d 3d49 80bd
000000f0: b15b d6bd 02f7 eabd 69b1 c23d ca12 b83c
00000100: abc7 40bd f1e4 b1bd b180 fe3d c519 8cba
00000110: 1b29 94bd f1c2 473a cceb 8dbd cb27 afbd
00000120: 3346 b33d 43d9 093e 0644 d23c c064 3d3d
00000130: 4a17 c4bc 276e a33d 0ecd 903d 5bfd a8bd
00000140: 4c46 003d be3d c9bd 5007 f33c ccfd a23d
00000150: 9e5b 0fbd badf 073e 45cc c9bd 3406 46bd
00000160: b87a ab3d bfc5 b6bd 1678 6dbc 75d5 353d
00000170: bf5f e4bd e56d bb3b a3bf d83c 446f 603d
00000180: f339 013d 6ae6 0d3d a15f e9bc c392 813d
00000190: 5895 993d 6718 c5bd 2b87 cabc ca1a 003e
000001a0: c979 66bd 52bc 9c3d 7d4e 533d d788 8a3d
000001b0: a04d 1bbb f038 633d c540 483d d6f1 b9bd
000001c0: c031 28bc b880 a6bd cd35 ae3d 6aa4 283d
000001d0: c02d ecbc be48 f33d 72dd ed3d e553 fabd
000001e0: 69fe afbd 5371 f23d 445f 463d 3010 9bbd
000001f0: a1e2 2fbd 4006 ddbd 5951 b1bd a6b6 acbd

weight f4 [128]
0.9253794 1.0920452 1.0866742 1.1874987 1.0675088 1.2101377 1.0184934 1.0434842
0.9953587 0.96830046 1.0853741 1.0040607 0.9755101 0.94127613 1.2517334 0.9781789
0.999513 1.0625486 0.91249526 0.96343756 1.1374961 1.0475525 1.1418161 1.0646256
1.0330067 1.063295 1.0734794 0.9646097 1.004551 1.0975424 1.0188308 1.0971482
0.9429995 1.0229222 0.98788226 1.0326709 1.0421171 0.99152124 1.1217396 0.98216134
0.91443455 0.95761293 1.1091778 1.0295491 0.8537023 1.1228166 1.0071894 0.95548826
0.9981365 1.0598701 1.0290794 1.1328084 1.0898061 1.1316828 1.0288279 1.0496362
1.0105321 1.0482035 1.0283756 1.0004863 0.9899478 1.0069879 1.0288032 1.0458249
1.0160036 1.0079858 0.91700935 0.9960682 1.0040065 1.0121441 0.9899986 0.99712765
1.003054 1.2046907 0.98190767 0.99603134 1.0752246 1.1242313 1.2262305 1.1221437
1.0175207 0.94698566 0.9807895 0.9432981 1.0141342 0.93884236 1.019497 0.98316795
0.95848465 0.91824585 1.0400014 1.029365 0.91127414 1.0257516 0.9950521 0.9503134
1.0870305 1.017769 1.0413463 1.0251067 1.0444641 1.179031 0.96792537 0.98727846
0.98781896 0.95343417 0.947865 1.0196558 1.0381916 1.019008 1.0246952 1.0239216
0.96026444 1.0834843 1.0746099 0.9873587 1.1913728 0.99425936 0.9628771 1.0118456
1.0311111 1.2308627 0.9994716 1.0069413 1.0871952 1.0174923 1.03215 1.0286382
00000000: aae5 6c3f 23c8 8b3f 2418 8b3f f5ff 973f
00000010: 21a4 883f cbe5 9a3f fe5d 823f e490 853f
00000020: d4cf 7e3f 8ae2 773f 8aed 8a3f 1085 803f
00000030: 08bb 793f 79f7 703f cd38 a03f ef69 7a3f
00000040: 15e0 7f3f 9801 883f 4a99 693f d8a3 763f
00000050: 7999 913f 3316 863f 0827 923f a745 883f
00000060: 9039 843f 0d1a 883f c667 893f a9f0 763f
00000070: 2195 803f 457c 8c3f 0c69 823f 5a6f 8c3f
00000080: 6a68 713f 1def 823f dae5 7c3f 8f2e 843f
00000090: 1864 853f 56d4 7d3f 2a95 8f3f ed6e 7b3f
000000a0: 6218 6a3f 1f26 753f 8af9 8d3f 44c8 833f
000000b0: 3c8c 5a3f 74b8 8f3f 95eb 803f e19a 743f
000000c0: e085 7f3f d3a9 873f e0b8 833f deff 903f
000000d0: c47e 8b3f fbda 903f a2b0 833f 7b5a 863f
000000e0: 1e59 813f 882b 863f d0a1 833f ef0f 803f
000000f0: 386d 7d3f fbe4 803f d3af 833f 97dd 853f
00000100: 680c 823f ae05 813f 20c1 6a3f 53fe 7e3f
00000110: 4983 803f f08d 813f 8c70 7d3f c243 7f3f
00000120: 1364 803f 4e33 9a3f 4d5e 7b3f e9fb 7e3f
00000130: f6a0 893f d0e6 8f3f 1ff5 9c3f 68a2 8f3f
00000140: 1e3e 823f a76d 723f 0515 7b3f fc7b 713f
00000150: 26cf 813f f957 703f e17e 823f e5b0 7b3f
00000160: 405f 753f 2912 6b3f c41e 853f 3bc2 833f
00000170: 4349 693f d44b 833f bcbb 7e3f bd47 733f
00000180: d123 8b3f 4146 823f d64a 853f b236 833f
00000190: 00b1 853f 7dea 963f f5c9 773f 48be 7c3f
000001a0: b4e1 7c3f 4314 743f 48a7 723f 1584 823f
000001b0: 76e3 843f db6e 823f 3629 833f dd0f 833f
000001c0: e4d3 753f 9daf 8a3f d18c 893f 8ac3 7c3f
000001d0: e77e 983f c887 7e3f 1d7f 763f 2884 813f
000001e0: 73fb 833f e98c 9d3f 5fdd 7f3f 74e3 803f
000001f0: 3629 8b3f 303d 823f 7e1d 843f 6baa 833f

bias f4 [128]
-0.06561481 -0.21795823 -0.13811482 -0.4279774 -0.05566802 -0.26532936 -0.1845712 -0.08579898
0.10546067 -0.14996818 -0.2083312 -0.11575266 -0.06026957 -0.022892034 -0.11553432 -0.028473673
-0.22694084 -0.1841507 -0.19757406 -0.065908745 -0.42331615 -0.029931402 -0.07519573 -0.18746509
-0.22444694 -0.2464535 0.012909927 -0.24612035 0.004680055 -0.03869718 -0.033570442 -0.18417563
-0.082551524 -0.055203356 0.04687386 -0.11146911 -0.12107272 -0.34768263 -0.24141856 -0.0773011
-0.31049165 -0.28031585 -0.082100384 -0.19733995 0.0017718336 -0.08071447 -0.12393561 -0.3343643
-0.086607754 -0.26279375 0.027345713 -0.04206149 -0.11197676 -0.21993296 -0.097208515 -0.010905895
-0.16755615 -0.09808496 -0.1251682 -0.016335802 0.023450237 -0.07886026 -0.09870403 -0.15195316
-0.054551728 0.0067607844 0.00046686918 -0.06724183 -0.17070614 -0.21742767 -0.22074784 -0.11042903
-0.26220116 -0.26133907 -0.093994536 -0.038008396 -0.015398263 -0.29605716 -0.43472394 -0.017758612
-0.113981746 -0.10109164 -0.20401429 -0.09851246 -0.115027726 -0.27657074 -0.10407375 -0.029922407
-0.12711556 -0.10701542 -0.17533709 0.0044288244 -0.032811556 -0.119845085 -0.13797426 -0.23514685
-0.12585586 -0.22761208 -0.26446643 -0.23445818 0.033547822 -0.13106455 -0.02824081 -0.053364802
-0.16101782 -0.117064334 -0.023210367 -0.06435988 -0.011070687 -0.100624055 -0.26016915 -0.24967967
-0.06623588 -0.3379327 0.11121666 -0.21677439 -0.31827673 -0.033763587 0.0008051916 -0.07745129
-0.098811984 0.2595958 -0.0996463 -0.13185911 -0.090893455 -0.055905204 -0.009017712 -0.08180463
00000000: 0f61 86bd 7130 5fbe f96d 0dbe db1f dbbe
00000010: 2604 64bd 40d9 87be 3c00 3dbe 60b7 afbd
00000020: c4fb d73d 4291 19be c654 55be bb0f edbd
00000030: 3add 76bd 1388 bbbc 429d ecbd 9f41 e9bc
00000040: 2e63 68be 0092 3cbe db50 4abe 2afb 86bd
00000050: e5bc d8be b332 f5bc 3800 9abd d9f6 3fbe
00000060: 6bd5 65be 4e5e 7cbe 2984 533c f906 7cbe
00000070: 265b 993b ef80 1ebd 2981 09bd 8998 3cbe
00000080: c610 a9bd ea1c 62bd cefe 3f3d eb49 e4bd
00000090: f9f4 f7bd 7503 b2be 6d36 77be 0a50 9ebd
000000a0: c3f8 9ebe 8f85 8fbe 3f24 a8bd 7c13 4abe
000000b0: df3c e83a a14d a5bd f4d1 fdbd cc31 abbe
000000c0: 685f b1bd e78c 86be 1e04 e03c ab48 2cbd
000000d0: 1254 e5bd 1b36 61be 4215 c7bd a4ae 32bc
000000e0: d793 2bbe c4e0 c8bd 182c 00be a9d2 85bc
000000f0: b61a c03c 7d81 a1bd 5725 cabd 9c99 1bbe
00000100: a271 5fbd 9289 dd3b 1fc6 f439 16b6 89bd
00000110: 97cd 2ebe 5ca5 5ebe b90b 62be 9e28 e2bd
00000120: 3b3f 86be 3cce 85be 3580 c0bd b1ae 1bbd
00000130: ff48 7cbc ce94 97be 2394 debe 827a 91bc
00000140: 436f e9bd 2209 cfbd 1fe9 50be e7c0 c9bd
00000150: a893 ebbd ae9a 8dbe 9e24 d5bd d61f f5bc
00000160: 952a 02be e72a dbbd 918b 33be ac1f 913b
00000170: 6965 06bd 5771 f5bd 2049 0dbe 56ca 70be
00000180: 5ce0 00be 2413 69be 2568 87be ce15 70be
00000190: 7169 093d c935 06be 4559 e7bc 0d95 5abd
000001a0: dbe1 24be 6dbf efbd ab23 bebc 1dcf 83bd
000001b0: d461 35bc fc13 cebd e434 85be 07ac 7fbe
000001c0: ada6 87bd 8405 adbe 8fc5 e33d 1bfa 5dbe
000001d0: 2bf5 a2be b04b 0abd 7e13 533a c89e 9ebd
000001e0: f05d cabd bee9 843e 5c13 ccbd 1306 07be
000001f0: 5926 babd dbfc 64bd 07bf 13bc 3089 a7bd

running_mean f4 [128]
0.015797533 0.08931059 0.03113658 0.10060777 -0.024160221 0.32783416 0.22147617 0.15871413
-0.020170946 0.070959195 -0.0008530712 0.24343975 -0.26029077 0.013676648 0.18258107 -0.17282894
0.27978933 0.21402186 -0.18096694 -0.03342611 0.05006103 -0.16816667 -0.13447931 0.1876659
0.12031434 -0.038164504 0.027991837 0.12281239 0.24705292 -0.22355714 0.06155756 0.08639734
-0.2815806 -0.043683343 0.028645843 -0.30307364 0.1897045 -0.010309171 0.19381213 -0.19779098
0.114182554 0.030089566 -0.18577631 0.16617997 -0.1579454 -0.32287344 0.23035643 0.28165472
-0.06027331 0.1500133 -0.015829006 -0.3058484 0.20942849 0.18938874 -0.009462156 0.022498516
0.090198934 0.21371041 0.20005688 -0.061918523 -0.0057924343 -0.19023111 0.10889592 0.115705416
0.018732272 -0.25609034 0.0331138 -0.08477314 0.05606479 0.104417205 0.034846015 -0.061875537
0.28534746 0.35394534 -0.090003066 -0.0098487325 -0.25559866 0.18813953 0.23511988 -0.167289
0.17591245 -0.2551728 0.16134895 0.17265533 0.059224248 0.28692323 -0.17488585 0.014574827
-0.10543796 -0.20167103 -0.09405806 0.021711484 0.02322606 0.066766426 0.1572633 0.06843808
0.31301937 -0.07614691 0.10960452 0.20271845 -0.21198842 -0.45921364 0.15785307 0.16843575
0.042771325 -0.14181577 -0.22155972 0.311372 -0.26988292 0.10901882 0.20960033 0.16605167
-0.20460455 0.04231984 0.39216214 0.10157685 0.20996486 0.19809185 0.252109 -0.07826992
-0.101342134 -0.053258963 0.1989769 -0.0758356 -0.21710014 -0.11171585 -0.39374727 -0.2651147
00000000: d469 813c 78e8 b63d 2412 ff3c 720b ce3d
00000010: a8eb c5bc e1d9 a73e a6ca 623e f585 223e
00000020: 8a3d a5bc 0e53 913d a4a0 5fba 4548 793e
00000030: d544 85be 0514 603c 88f6 3a3e 12fa 30be
00000040: 8c40 8f3e 8c28 5b3e 664f 39be d1e9 08bd
00000050: cb0c 4d3d e233 2cbe f2b4 09be 7d2b 403e
00000060: 5d67 f63d 6252 1cbd 234f e53c 1085 fb3d
00000070: 71fb 7c3e 2aec 64be c823 7c3d 17f1 b03d
00000080: 552b 90be 4eed 32bd b0aa ea3c 782c 9bbe
00000090: e541 423e cce7 28bc b076 463e b889 4abe
000000a0: 8bd8 e93d 657e f63c 253c 3ebe 152b 2a3e
000000b0: 70bc 21be ab4f a5be 8ee2 6b3e 0c35 903e
000000c0: 25e1 76bd 169d 193e d5ab 81bc 2998 9cbe
000000d0: 6c74 563e 1fef 413e 2907 1bbc cf4e b83c
000000e0: 38ba b83d e7d6 5a3e b6db 4c3e 479e 7dbd
000000f0: 76ce bdbb f2cb 42be d304 df3d f6f6 ec3d
00000100: 6c74 993c 461e 83be 56a2 073d 8a9d adbd
00000110: 31a4 653d b0d8 d53d b2ba 0e3d 3471 7dbd
00000120: 1019 923e 5338 b53e 8753 b8bd 945c 21bc
00000130: d4dd 82be a6a7 403e 44c3 703e cf4d 2bbe
00000140: 6522 343e 02a6 82be a938 253e 8fcc 303e
00000150: 2095 723d 9ae7 923e 4715 33be 41cb 6e3c
00000160: dbef d7bd da82 4ebe 83a1 c0bd 48dc b13c
00000170: 9444 be3c d6bc 883d a109 213e 4429 8c3d
00000180: 1344 a03e e9f2 9bbd 5678 e03d 6d95 4f3e
00000190: 7e13 59be 0d1e ebbe 3ca4 213e 6c7a 2c3e
000001a0: fc30 2f3d 2738 11be 8de0 62be 276c 9f3e
000001b0: 182e 8abe 4245 df3d 78a1 563e 7309 2a3e
000001c0: db83 51be 9257 2d3d 7ac9 c83e 8607 d03d
000001d0: 0701 573e 97d8 4a3e 6e14 813e fb4b a0bd
000001e0: 778c cfbd 1226 5abd 9ac0 4b3e b24f 9bbd
000001f0: 804f 5ebe 48cb e4bd 3e99 c9be 1dbd 87be

running_var f4 [128]
3.4069874 0.09958745 1.4614064 0.36865515 3.3717067 0.15928458 0.7186095 2.6669552
3.7528563 1.6621852 0.35894254 4.03558 1.2611601 1.4095379 1.0631709 2.4473906
3.3623214 1.1221185 3.6531808 3.112909 0.29783857 0.38179126 3.9155562 1.1887028
0.974261 0.7371662 3.4767215 1.8006294 0.8000143 0.29319707 1.3161523 0.46371555
1.4066243 3.3664715 3.646598 0.4620384 2.6767778 1.7765709 1.0497874 2.522849
0.46880424 2.9471626 0.2532002 0.917317 3.2143552 0.43835947 3.5358288 1.2065803
4.4435277 0.56928337 4.4097967 2.3738358 3.2059875 0.62290674 3.045756 2.9445882
0.54633594 0.52885246 0.7316468 2.747212 1.5346836 2.4425476 3.7558746 3.1671028
2.8465316 0.5647816 2.1015449 0.49285987 0.8737846 1.5829399 0.12657918 1.7411112
2.500417 0.644238 2.6658816 2.611413 0.8148793 0.7244352 0.46353215 0.11383792
1.2090056 1.8376684 1.0797454 1.3001461 3.028227 1.370039 1.0701799 2.345279
1.1431072 2.5052884 2.0727556 0.16889681 3.10603 2.3606942 2.653639 1.7010125
0.2823121 2.6353998 3.6601357 3.1280713 1.2077906 0.9993924 3.5451953 4.399296
3.7764904 1.6906136 0.19587524 1.289244 0.8792105 4.0639653 1.0995917 0.55595356
1.917798 0.5074645 0.5732951 2.0033839 0.38215056 4.896953 2.974542 3.1931329
1.9363563 0.18671373 3.2729805 3.420825 4.8343563 0.7632537 1.4014915 3.2638252
00000000: 150c 5a40 81f4 cb3d 5d0f bb3f 5ec0 bc3e
00000010: 0bca 5740 7f1b 233e cbf6 373f 65af 2a40
00000020: cc2e 7040 7cc2 d43f 51c7 b73e 7923 8140
00000030: b26d a13f bd6b b43f fc15 883f 0ca2 1c40
00000040: 4630 5740 94a1 8f3f b7cd 6940 e739 4740
00000050: 4c7e 983e 257a c33e 7998 7a40 6a27 983f
00000060: 2b69 793f edb6 3c3f 9b82 5e40 067b e63f
00000070: bdcd 4c3f ed1d 963e ae77 a83f 206c ed3e
00000080: 440c b43f 4574 5740 dd61 6940 4c90 ec3e
00000090: 5450 2b40 ad66 e33f 6f5f 863f 5c76 2140
000000a0: 1c07 f03e 509e 3c40 75a3 813e 49d5 6a3f
000000b0: ffb7 4d40 a770 e03e 054b 6240 3971 9a3f
000000c0: 6131 8e40 8ebc 113f 0e1d 8d40 edec 1740
000000d0: e62e 4d40 d176 1f3f abed 4240 2274 3c40
000000e0: acdc 0b3f e062 073f 344d 3b3f 52d2 2f40
000000f0: 8370 c43f b352 1c40 4060 7040 d0b1 4a40
00000100: 932d 3640 8795 103f b67f 0640 2158 fc3e
00000110: 59b0 5f3f c69d ca3f f99d 013e bbdc de3f
00000120: d506 2040 c8ec 243f ce9d 2a40 6421 2740
00000130: ee9b 503f 9674 393f 1654 ed3e db23 e93d
00000140: b2c0 9a3f b838 eb3f 1935 8a3f 306b a63f
00000150: 79ce 4140 705d af3f a8fb 883f 0d19 1640
00000160: 5651 923f a556 2040 07a8 0440 49f3 2c3e
00000170: 32c9 4640 9d15 1740 39d5 2940 c7ba d93f
00000180: 368b 903e 64aa 2840 aa3f 6a40 5232 4840
00000190: e298 9a3f 2ed8 7f3f 7be4 6240 08c7 8c40
000001a0: 05b2 7140 0766 d83f 8593 483e f305 a53f
000001b0: f013 613f 010c 8240 6cbf 8c3f f952 0e3f
000001c0: 687a f53f 32e9 013f 78c3 123f 7137 0040
000001d0: 3da9 c33e d7b3 9c40 e55e 3e40 4a5c 4c40
000001e0: 86da f73f e231 3f3e 8378 5140 ccee 5a40
000001f0: 0cb3 9a40 9864 433f 1364 b33f 83e2 5040

weight f4 [256, 128]
-0.07242641 0.12762193 -0.001754945 -0.015104294 0.11474254 0.016807694 -0.12506196 -0.0017276424
0.08157549 -0.14308259 0.082132615 0.096296445 0.12292824 0.019513795 0.18657686 0.04296954
-0.07581459 0.12273876 -0.07307228 0.036370546 0.06323782 0.15281732 0.09440539 0.0076856925
-0.01561067 0.025363144 0.029135317 -0.006025912 -0.052767415 0.099490024 -0.12049982 -0.05278942
-0.047430445 -0.15892223 -0.010917759 0.032376222 0.03896208 0.0016819771 -0.061201517 0.059097014
-0.00517375 0.12374612 -0.005855826 -0.016760418 0.097041145 0.085490264 0.2044551 -0.09754429
-0.073737256 0.14561033 0.08760209 0.05335789 -0.06114598 0.106359035 0.1037236 0.16601498
0.13632704 -0.060985997 -0.036692414 -0.018726341 -0.07016422 -0.015167161 -0.0036836336 0.12882274
0.005937884 0.065725826 -0.062183604 0.004493625 -0.04636312 0.041272886 -0.08563774 0.11801756
0.047875613 0.092108004 -0.07841432 -0.0054874094 0.11839462 0.04682397 -0.06439535 0.09554762
0.047435895 0.116833 -0.08711601 0.010917007 0.14908265 0.009953974 -0.0055473326 -0.039828856
0.06486467 0.109361924 0.10353599 -0.06261938 0.02659477 -2.0862262e-05 0.0005530979 0.09586731
-0.010470312 -0.063787475 0.055021346 -0.09121717 -0.033427574 -0.09370207 -0.03657502 0.015903732
0.093537614 -0.01713827 -0.019012159 0.06760797 -0.035591185 0.11501576 0.064867906 -0.03606406
0.016178843 -0.08026444 -0.025724228 -0.048871066 -0.023405038 0.047773667 0.016538037 -0.036384437
-0.08550883 -0.113138214 -0.06399449 -0.16166142 0.08706632 0.046979174 0.0839402 -0.01154677
-0.13446124 0.04090735 -0.07503708 -0.040452976 0.07421018 -0.08947145 0.07899683 0.045212984
0.005601385 -0.023674913 -0.07349348 0.061364204 0.03243629 0.0042111515 -0.102955714 0.060581025
0.059764817 -0.058023795 -0.10758305 0.05510572 -0.06935833 0.020900039 -0.056050923 0.04182012
-0.27720317 0.063800886 0.04232379 0.10029346 -0.23437405 0.18435979 -0.12678681 -0.11827456
-0.08528456 -0.18315637 0.113646336 0.11702049 0.04862032 -0.057842378 0.062331818 0.04965757
-0.048493452 0.0020609237 -0.15032895 0.06085552 -0.019254584 -0.00534618 0.034666196 0.05643002
-0.1492214 0.02328096 0.104683354 -0.04785709 -0.009837675 -0.14045973 0.0003237122 0.11208118
0.057862237 -0.04201543 -0.25107944 -0.010310528 -0.08258112 -0.08803522 -0.025386224 0.016531644
0.09991717 0.15306409 0.038374934 -0.0070469696 0.015342264 -0.07397811 0.017178254 0.01758277
-0.08934079 -0.082659274 -0.1406198 0.09381671 0.011264372 0.03365777 0.006080313 -0.06023508
-0.06815732 0.034546625 0.016913164 0.11927222 0.013772951 -0.08347791 -0.018418364 0.000898342
-0.06987163 0.053588197 -0.002069286 -0.104423165 0.08617186 -0.04148629 0.091759644 0.014446574
-0.042410932 -0.009292847 0.01114727 0.08175296 -0.046371225 -0.052135274 -0.0023549248 -0.058579057
0.045166247 -0.049038976 0.12715136 -0.10747752 0.12212743 0.040910497 -0.033141483 0.014651474
0.060011405 -0.015687091 -0.24116299 -0.06944873 0.048636638 0.0072183874 -0.023253841 0.06753581
-0.1015895 0.046567656 -0.2309868 -0.23295425 0.018654713 0.10257256 0.044745464 -0.04385291
00000000: 4c54 94bd 53af 023e 2f06 e6ba 0078 77bc
00000010: 23fe ea3d 4ab0 893c 3e10 00be 0f72 e2ba
00000020: 0d11 a73d 3e84 12be 2535 a83d 1237 c53d
00000030: cdc1 fb3d 65db 9f3c 010e 3f3e d400 303d
00000040: ae44 9bbd 765e fb3d eba6 95bd 48f9 143d
00000050: d582 813d 257c 1c3e 9d57 c13d 43d8 fb3b
00000060: e5c3 7fbc 5ec6 cf3c 30ad ee3c 0375 c5bb
00000070: a522 58bd 6dc1 cb3d 9cc8 f6bd b839 58bd
00000080: 6d46 42bd 82bc 22be 66e0 32bc ee9c 043d
00000090: b496 1f3d c975 dc3a 71ae 7abd b60f 723d
000000a0: 9088 a9bb 9b6e fd3d 3be2 bfbb 254d 89bc
000000b0: 82bd c63d 8515 af3d ae5c 513e 4dc5 c7bd
000000c0: 8f03 97bd e01a 153e b968 b33d ce8d 5a3d
000000d0: 3574 7abd c4d2 d93d 0a6d d43d d5ff 293e
000000e0: 5199 0b3e 74cc 79bd c94a 16bd fc67 99bc
000000f0: 42b2 8fbd af7f 78bc 1e69 71bb 1cea 033e
00000100: 9592 c23b 439b 863d 3cb4 7ebd 423f 933b
00000110: 41e7 3dbd c20d 293d d762 afbd 31b3 f13d
00000120: 3819 443d 1fa3 bc3d b097 a0bd bacf b3bb
00000130: e178 f23d 7eca 3f3d b6e1 83bd 78ae c33d
00000140: 244c 423d 2446 ef3d e169 b2bd 3fdd 323c
00000150: 1fa9 183e fe15 233c 66c6 b5bb 9523 23bd
00000160: c5d7 843d 25f9 df3d ad0a d43d 973e 80bd
00000170: 46dd d93c 5e01 afb7 c6fd 103a 1556 c43d
00000180: ac8b 2bbc 02a3 82bd 105e 613d 11d0 babd
00000190: 5aeb 08bd dfe6 bfbd b0cf 15bd 8b48 823c
000001a0: a690 bf3d 8f65 8cbc 63bf 9bbc 0c76 8a3d
000001b0: 10c8 11bd 628d eb3d 77d9 843d e8b7 13bd
000001c0: 7e89 843c af61 a4bd 9ebb d2bc 072d 48bd
000001d0: ecbb bfbc 52ae 433d c77a 873c d907 15bd
000001e0: 411f afbd 02b5 e7bd 8b0f 83bd 928a 25be
000001f0: d44f b23d 3c6d 403d d7e8 ab3d aa2e 3dbc
00000200: 35b0 09be 778e 273d 0aad 99bd 05b2 25bd
00000210: 82fb 973d cf3c b7bd 17c9 a13d 4031 393d
00000220: d38b b73b e4f1 c1bc c083 96bd 0859 7b3d
00000230: eadb 043d b3fd 893b 72da d2bd cf23 783d
00000240: f4cb 743d 5caa 6dbd 8154 dcbd 89b6 613d
00000250: bd0b 8ebd 8f36 ab3c a795 65bd 934b 2b3d
00000260: 93ed 8dbe 0aaa 823d b65b 2d3d a866 cd3d
00000270: c0ff 6fbe d0c8 3c3e 67d4 01be ef39 f2bd
00000280: aca9 aebd 588d 3bbe 69bf e83d 70a8 ef3d
00000290: 1a26 473d 21ec 6cbd a64f 7f3d bc65 4b3d
000002a0: 12a1 46bd 9010 073b d5ef 19be a343 793d
000002b0: cabb 9dbc 022f afbb 24fe 0d3d 2a23 673d
000002c0: 7fcd 18be b6b7 be3c 3a64 d63d cc05 44bd
000002d0: 332e 21bc add4 0fbe eab7 a939 d18a e53d
000002e0: f400 6d3d 5f18 2cbd 7c8d 80be 7ded 28bc
000002f0: 4a20 a9bd cf4b b4bd c5f6 cfbc 5f6d 873c
00000300: 60a1 cc3d d5bc 1c3e 092f 1d3d 44ea e6bb
00000310: 1f5e 7b3c d681 97bd 69b9 8c3c be09 903c
00000320: 4ef8 b6bd 4449 a9bd a3fe 0fbe fa22 c03d
00000330: 338e 383c bbdc 093d 5d3d c73b 0fb9 76bd
00000340: 1196 8bbd c380 0d3d 7a8d 8a3c fe44 f43d
00000350: f2a7 613c 77f6 aabd 1ce2 96bc b67e 6b3a
00000360: db18 8fbd 4c7f 5b3d dc9c 07bb d0db d5bd
00000370: df7a b03d 87ed 29bd 7bec bb3d 53b1 6c3c
00000380: 16b7 2dbd 0641 18bc 0aa3 363c 196e a73d
00000390: c1ef 3dbd cc8b 55bd 1555 1abb 98f0 6fbd
000003a0: 3e00 393d 18dd 48bd f733 023e 2d1d dcbd
000003b0: f21d fa3d c491 273d 5dbf 07bd bc0c 703c
000003c0: 85ce 753d 3782 80bc 6ef3 76be 233b 8ebd
000003d0: 3637 473d 3988 ec3b d77e bebc 3750 8a3d
000003e0: 280e d0bd babd 3e3d ce87 6cbe 8f8b 6ebe
000003f0: c5d1 983c 9011 d23d 0547 373d 1c9f 33bd

bias f4 [256]
0.023910182 -0.06736796 0.027862975 0.0637707 -0.06456294 -0.018524151 0.06228766 0.002967025
-0.061867755 -0.031364243 -0.060960088 0.00036739264 -0.05159933 0.01743626 0.012681812 0.037458166
-0.06730677 -0.049674366 -0.010943809 -0.005085424 0.077379294 -0.03732557 0.046967678 0.016042816
-0.08600004 -0.015596112 -0.05278257 -0.052946806 0.058276836 -0.016299961 0.008035487 0.019238964
-0.049722847 -0.01673291 -0.004796673 -0.033912502 0.02698931 -0.0042140647 0.07199252 -0.0863436
-0.035719093 0.07398063 -0.00042539134 0.012948215 0.01030122 0.049585298 0.10951381 -0.049491886
0.086108096 0.07179812 -0.0047756564 0.09607467 0.04141082 0.05513504 0.04901081 0.08866825
-0.04685351 0.06606865 -0.012985435 0.027848253 -0.07285737 -0.066813044 -0.0770205 0.058389246
-0.007854244 0.040339313 0.08244814 0.014998358 -0.043146648 -0.029863747 -0.03360233 -0.02685491
-0.07210911 0.0680899 0.073435396 -0.037538692 0.07478931 -0.076937474 -0.004136553 -0.077431455
-0.046890754 -0.079524234 -0.0026131053 -0.049850363 0.05882158 -0.035412785 0.06517274 -0.010931419
0.025932021 -0.076938964 0.028137462 0.08864894 -0.004208705 0.07710345 0.09618734 0.014176383
0.08273256 -0.039783552 0.018742427 0.025084078 0.055809043 -0.011634947 0.06710647 0.021430722
0.0065434184 0.059814684 -0.069823 0.09762863 0.07181909 0.00033777847 -0.011345946 0.06308868
0.07508843 0.010780702 -0.07717265 -0.06408292 -0.053575456 -0.08091886 0.08165713 -0.06263298
-0.071457274 -0.06775484 0.0045604175 0.054917548 -0.03102254 -0.049606606 -0.09546774 0.040369667
0.014333882 0.09586282 0.058322698 -0.06556559 -0.05198606 0.06127666 -0.0560194 0.031496994
-0.11190461 0.057439677 -0.026036652 0.052086424 -0.056946035 -0.0029948622 -0.038828835 0.010341624
0.07816358 0.041574843 -0.022102872 0.05531023 -0.0132913375 -0.042037003 -0.057005674 -0.042222846
-0.030563807 -0.008870303 0.062119473 -0.05000275 -0.08189447 -0.055576846 -0.040700246 0.04727216
0.06319693 0.027171414 -0.010467305 -0.023934431 -0.00038601586 0.080996364 -0.06991899 0.07753627
-0.09183833 -0.032020394 0.047886543 -0.071436465 -0.08592083 -0.0029756315 -0.01966709 -0.04313884
-0.05822032 -0.022687942 0.07050763 -0.09144218 0.047188975 0.049288142 -0.094801456 -0.06617819
-0.02652463 -0.01033472 -0.022483198 -0.08081311 0.06421154 -0.021035124 0.054539785 -0.013472251
0.06679157 0.06458941 -0.008573806 -0.04805235 -0.07687739 -0.06319497 0.06907806 0.059558596
-0.024662599 -0.03747114 -0.064503685 0.022256617 -0.031572826 -0.06790852 -0.038344834 -0.09819128
-0.028385932 -0.0013708865 -0.020938188 -0.011031969 -0.025114525 -0.011730829 0.08622111 0.004833449
-0.06759415 0.07593854 0.06908865 -0.045112494 0.022633053 -0.05709131 0.060421523 0.0107060475
-0.05831685 0.046072945 -0.0049220305 -0.08566557 -0.015720446 0.012060693 0.012273906 0.08933997
0.06528883 -0.09050399 0.06645656 0.0042897724 0.098030135 -0.08356753 -0.016751425 -0.06338951
-0.013950047 0.021603374 -0.07910928 -0.05946581 0.007902433 -0.025495427 -0.0096324375 0.0709068
-0.01938497 -0.057216078 0.030708052 -0.074014015 0.0133843105 0.016935201 0.057212695 0.0057967403
00000000: 49df c33c 37f8 89bd e540 e43c 369a 823d
00000010: 9339 84bd f6bf 97bc 5821 7f3d 6b72 423b
00000020: 0b69 7dbd cb77 00bd 49b1 79bd 9b9e c039
00000030: d259 53bd 7dd6 8e3c 60c7 4f3c bc6d 193d
00000040: 22d8 89bd 5977 4bbd a94d 33bc a1a3 a6bb
00000050: 0979 9e3d b2e2 18bd 2e61 403d 396c 833c
00000060: ca20 b0bd d686 7fbc 8932 58bd c0de 58bd
00000070: b1b3 6e3d 7f87 85bc 46a7 033c 089b 9d3c
00000080: 2faa 4bbd 7513 89bc 692d 9dbb d6e7 0abd
00000090: af18 dd3c 2316 8abb d070 933d ead4 b0bd
000000a0: 2f4e 12bd 2883 973d 0f07 dfb9 c024 543c
000000b0: 73c6 283c f419 4b3d c748 e03d 01b8 4abd
000000c0: 7159 b03d e50a 933d 1c7d 9cbb ccc2 c43d
000000d0: 649e 293d 48d5 613d 8fbf 483d b397 b53d
000000e0: 77e9 3fbd 004f 873d ddc0 54bc 0522 e43c
000000f0: 3f36 95bd 47d5 88bd edbc 9dbd 9029 6f3d
00000100: 16af 00bc d63a 253d 92da a83d acbb 753c
00000110: 8aba 30bd d1a4 f4bc 99a2 09bd d4fe dbbc
00000120: f1ad 93bd b872 8b3d 4c65 963d 2cc2 19bd
00000130: 232b 993d 6591 9dbd ec8b 87bb 6294 9ebd
00000140: 8510 40bd 9add a2bd a240 2bbb e52f 4cbd
00000150: e6ee 703d ff0c 11bd 4979 853d b219 33bc
00000160: 646f d43c 2d92 9dbd 8980 e63c 938d b53d
00000170: 2de9 89bb 6ae8 9d3d defd c43d 0f44 683c
00000180: b06f a93d 14f4 22bd b889 993c 207d cd3c
00000190: 0698 643d 81a0 3ebc 1e6f 893d 7b8f af3c
000001a0: 2c6a d63b 3e00 753d 5cff 8ebd 85f1 c73d
000001b0: e315 933d dc17 b139 59e4 39bc a334 813d
000001c0: f6c7 993d 8ba1 303c b20c 9ebd e83d 83bd
000001d0: f071 5bbd cab8 a5bd da3b a73d b845 80bd
000001e0: 3158 92bd 0dc3 8abd 8e6f 953b 39f1 603d
000001f0: fb22 febc 4c30 4bbd 9784 c3bd aa5a 253d
00000200: a9d8 6a3c ba53 c43d c8e3 6e3d 4147 86bd
00000210: 56ef 54bd 3cfd 7a3d 9974 65bd fe02 013d
00000220: 3f2e e5bd de45 6b3d d14a d5bc 9358 553d
00000230: 3f40 69bd 7345 44bb fc0a 1fbd ea6f 293c
00000240: 3a14 a03d 624a 2a3d 1511 b5bc fb8c 623d
00000250: e9c3 59bc fe2e 2cbd c87e 69bd ddf1 2cbd
00000260: f360 fabc bf54 11bc fd70 7e3d afcf 4cbd
00000270: 4ab8 a7bd 8ca4 63bd 4db5 26bd 74a0 413d
00000280: 646d 813d 9696 de3c 0f7f 2bbc 2412 c4bc
00000290: 2c62 cab9 6ce1 a53d b031 8fbd 56cb 9e3d
000002a0: bc15 bcbd d127 03bd ae24 443d 484d 92bd
000002b0: 43f7 afbd d002 43bb e11c a1bc 5ab2 30bd
000002c0: 6e78 6ebd 10dc b9bc 4e66 903d 0a46 bbbd
000002d0: 3a49 413d 5de2 493d 4427 c2bd 6e88 87bd
000002e0: 2e4a d9bc f552 29bc af2e b8bc 5881 a5bd
000002f0: 5781 833d da51 acbc 1c65 5f3d b7ba 5cbc
00000300: 05ca 883d 7447 843d 2679 0cbc 8ad2 44bd
00000310: e571 9dbd 5d6c 81bd cc78 8d3d b7f3 733d
00000320: 3809 cabc 577b 19bd 821a 84bd 8253 b63c
00000330: 8252 01bd 9f13 8bbd 790f 1dbd 8318 c9bd
00000340: 9d89 e8bc 51af b3ba 9086 abbc 6fbf 34bc
00000350: fabc cdbc aa32 40bc b194 b03d e961 9e3b
00000360: cd6e 8abd aa85 9b3d 5a7e 8d3d e1c7 38bd
00000370: f468 b93c 94d8 69bd 8f7c 773d 6b68 2f3c
00000380: a6dd 6ebd fcb6 3c3d fc48 a1bb 6e71 afbd
00000390: 2ac8 80bc 379a 453c 7e18 493c e0f7 b63d
000003a0: 26b6 853d 285a b9bd 601a 883d 3891 8c3b
000003b0: 06c4 c83d 7425 abbd 493a 89bc 5cd2 81bd
000003c0: bd8e 64bc 8ff9 b03c 0c04 a2bd 6c92 73bd
000003d0: 3579 013c c9db d0bc 5fd1 1dbc 9637 913d
000003e0: 3bcd 9ebc 685b 6abd 748f fb3c a994 97bd
000003f0: de49 5b3c b1bb 8a3c dc57 6a3d 95f2 bd3b
