python/bsc/third_meeting/3rd_prompt/network_f_hidden_sizes_[64, 128, 256, 512]_activations_['LeakyReLU', 'LeakyReLU', 'LeakyReLU', 'LeakyReLU']_lr_0.001_batch_size_64_epochs_100.pt (torch, 703567 bytes, 9 tensors)

weight f4 [64, 3]
000000 1f c7 35 3d 2a e6 b0 3e c6 9d 6a 3b ba 90 29 3e
       0.04437935 0.345506 0.0035799607 0.16559115
000010 94 23 99 3d f0 90 01 3f e4 50 7d be fa 2b e2 bb
       0.07477489 0.5061178 -0.24737889 -0.006902215
000020 67 db cc 3d f9 97 99 3e a5 6e 9d 3e 56 3f 0e 3f
       0.10002785 0.29998758 0.30748478 0.5556539
000030 b5 03 89 be 2c 9a 9a be 56 d0 88 3e 21 ea eb 3d
       -0.2676064 -0.3019575 0.26721448 0.11519266
000040 a8 71 a9 be e1 3e 6a ba 30 f7 ac 3e a0 5d 2f 3e
       -0.33094525 -0.0008935761 0.3378234 0.17125559
000050 3b 4d 02 3e 87 16 45 3d 79 2e 23 be 4a be a1 be
       0.12724774 0.048117187 -0.15935697 -0.31590492
000060 7a 6d e6 3d c6 a5 f1 bc 3b 62 b1 3e a4 fb 9a 3e
       0.1125135 -0.029497992 0.34645256 0.30270112
000070 1d 8a 1b bf 22 b5 05 bf 93 aa 22 3e f2 db 49 be
       -0.6075762 -0.5222951 0.15885381 -0.19712809
000080 3a 2c 87 3e 3c 1a c4 be c7 e8 fd 3e 3b 9f 01 bf
       0.2640093 -0.38301265 0.49591658 -0.5063359
000090 eb fe af bd 95 be 0e 3d 6a 76 31 be e7 34 61 3e
       -0.085935436 0.034849722 -0.17330328 0.21992837
0000a0 f7 86 42 3e 11 da ef 3e 09 ca 4c 3e d2 f7 9e be
       0.18996798 0.4684606 0.19998945 -0.31048447
0000b0 bb ea 9e be 5d ab c8 3e 78 00 b2 3e bd ed e6 3e
       -0.3103846 0.3919324 0.34765983 0.45103255
0000c0 41 96 bf be 64 2c ab 3e e6 d8 8b 3e 29 75 42 be
       -0.37419322 0.33432305 0.27313918 -0.18990006
0000d0 b6 16 c0 3d 2a 88 6a be 11 38 54 be 41 60 2d bd
       0.09379332 -0.22903505 -0.20724513 -0.042328123
0000e0 a5 d3 01 3e 0d 2f 35 3d 64 d4 7a bc 9b ed a1 be
       0.12678392 0.044234324 -0.015309427 -0.3162659
0000f0 2c a0 df bd dc df ef 3e 61 43 77 bd d3 4e f8 3e
       -0.10919222 0.4685048 -0.060366992 0.48497638
000100 3a 9c e5 3e c4 df aa be dd d5 23 bf 16 ff 47 3d
       0.44845754 -0.33373845 -0.63998204 0.048827253
000110 d0 bf 9a 3d 50 3e d8 3e 9b 9b ac be 03 6e 81 3e
       0.075561166 0.4223504 -0.33712468 0.25279245
000120 04 ff 4e be 04 48 2a be c5 a6 9d 3d 80 18 11 be
       -0.20214468 -0.16629034 0.076978244 -0.14169502
000130 f4 e3 d0 be 39 41 26 3e a5 4a 29 bf 94 db aa 3e
       -0.40798914 0.16235818 -0.66129524 0.3337065
000140 6c c5 aa be 91 34 e4 be 54 b8 cc 3d a3 06 35 3d
       -0.33353746 -0.44571355 0.09996095 0.044195782
000150 5d 65 dc 3e 3e c5 ee be fe da c7 be f7 12 29 3e
       0.43046084 -0.4663486 -0.39034265 0.16511141
000160 98 17 a9 be 05 c9 a3 be 38 23 1e 3c bd 2c 90 bd
       -0.33025813 -0.31989303 0.0096519515 -0.07039783
000170 f6 5b 5d 3c 6c 3e a7 bd ec f2 9a 3d a1 2d 4c be
       0.013510695 -0.08166203 0.07565865 -0.19939281
000180 30 ce fa bc 2c 26 a6 bd ac 3b ff bc 9b 37 03 3f
       -0.030615896 -0.081127495 -0.031156383 0.5125672
000190 08 99 c9 3e 34 44 a1 3e f7 d4 dd bd 3f 58 c6 3d
       0.39374566 0.31497347 -0.108316354 0.096848
0001a0 9d 0d 2f be 77 39 d0 be 33 9e b9 3c af 82 dd 3d
       -0.17095037 -0.40668842 0.022658443 0.108159415
0001b0 ed 80 19 3e 8f 10 34 3e a9 54 10 be ee 07 ab be
       0.14990588 0.17584442 -0.14094795 -0.33404487
0001c0 5d 05 b7 3d 11 42 db bd dc 6f 83 be aa a7 ac 3e
       0.0893657 -0.107059605 -0.2567128 0.33721668
0001d0 87 a5 b5 3e 57 c2 60 3d ff c0 28 bf c0 02 3e 3e
       0.3547785 0.054872837 -0.6591949 0.18555737
0001e0 86 f4 93 bd d7 2f b7 bd a7 d8 9c bd e3 57 13 3e
       -0.072243735 -0.089446716 -0.07658511 0.14388995
0001f0 18 7e 8a bd ca a6 56 be d9 58 c2 3c a7 0e 18 be
       -0.06762332 -0.20962062 0.023724006 -0.1484934
000200 f3 fc bc bd 98 03 43 be f2 eb 56 3d 77 b9 c9 3c
       -0.09227934 -0.1904434 0.05247111 0.02462457
000210 b1 cf 24 be cc 7a 31 3e bc bf de be 5e dc 17 bf
       -0.16094853 0.17332 -0.43505657 -0.5932063
000220 d3 da 0f 3e 65 94 1a be 7c 3e 2f 3d a1 ff 72 3c
       0.14048319 -0.1509567 0.0427842 0.0148314545
000230 f2 11 5f be 1e fe 64 be 8a a9 a1 3d 8a f5 15 be
       -0.2178419 -0.22362563 0.07893665 -0.14644447
000240 51 df 47 3e 13 41 3c be d5 0f 6f be 6b 91 d2 be
       0.19518782 -0.18384199 -0.23345883 -0.4112657
000250 6d d2 93 be 85 79 85 3e 34 72 bf be 2f 88 cb be
       -0.2887148 0.26069275 -0.37391818 -0.39752337
000260 06 8c 9f 3e b8 4b a5 be 52 05 a1 3d 7f 6f 80 3d
       0.31161517 -0.3228433 0.07862343 0.06271266
000270 cd 9f b3 be bf 4d 85 be a1 a6 71 3e 5e cb 48 3d
       -0.35082856 -0.26035878 0.2359872 0.04902207
000280 f2 1d 70 be eb 2e d4 bd 93 3c 7d be 3c 65 19 be
       -0.23448923 -0.103605114 -0.24730138 -0.14980024
000290 58 29 02 3e 8c 4a 19 bc 05 24 54 bd 8a 71 cb be
       0.12711084 -0.009356152 -0.051792163 -0.3973506
0002a0 8c 31 0d 3e e0 80 0a bf 96 5e 7d bc d3 12 55 be
       0.13788432 -0.541029 -0.015464446 -0.20807962
0002b0 05 43 40 bc f9 0f 47 be 94 ee aa bc 77 cb 0d 3e
       -0.011734729 -0.19439687 -0.020865716 0.13847147
0002c0 56 9e 9f 3d fa b1 5a be 24 76 bb be c1 38 d1 be
       0.07793872 -0.21356955 -0.36613572 -0.40863612
0002d0 e8 54 37 3e ef a1 93 3e f2 d6 b2 3e c8 1b 45 be
       0.17903483 0.28834483 0.34929615 -0.19248879
0002e0 f6 a1 da 3b 38 f1 6e be 22 ff e5 3e 89 b5 07 3f
       0.0066721393 -0.23334205 0.44921213 0.53011376
0002f0 14 af ea be e0 56 f0 3e 56 6f 91 3e 68 13 ac 3e
       -0.458367 0.4694128 0.28405255 0.33608556

bias f4 [64]
000000 32 4d b3 be 1c be cc bc ef c8 e4 be 39 2f b3 3b
       -0.35019833 -0.024992995 -0.4468455 0.005468276
000010 09 9d b7 3a 19 e0 07 bf 75 a6 67 bc 03 9a 11 3f
       0.0014008592 -0.5307632 -0.014138808 0.5687563
000020 5a 2a 3c bf 35 ee 24 3e 10 ad 92 be 5c 9d 3f 3e
       -0.73502123 0.16106494 -0.2864766 0.18712372
000030 23 64 93 3e 5c b9 bc be 73 49 4c be dd 62 d8 be
       0.28787336 -0.36860168 -0.19949894 -0.42262927
000040 37 4c 5d bd 2e 8e c2 3e 90 ac 11 bf a0 3a 7e 3d
       -0.054027762 0.379991 -0.56903934 0.062067628
000050 a7 fc 02 bf 28 5a 3e 3e 26 7a 2d be 89 f2 bf 3d
       -0.51166767 0.1858908 -0.16941127 0.09372432
000060 35 f4 03 3f c3 1e 6a bd b4 be 04 bf a6 2c 10 bf
       0.51544505 -0.057158243 -0.5185349 -0.5631813
000070 86 04 f2 be 33 61 ff 3d f0 7f c4 bd ef 75 87 bb
       -0.47269076 0.12469711 -0.09594715 -0.004133932
000080 4f a9 5d 3f 83 f0 a2 3d 89 fc 13 be b6 02 02 bf
       0.8658647 0.0795603 -0.14451803 -0.50785387
000090 74 01 5d 3d df f3 12 3e cd a4 8d 3d 8d 42 ea 3e
       0.053956464 0.14350842 0.06916199 0.457539
0000a0 c9 31 28 3f 60 c2 13 bf 38 ad 8e 3e b0 e0 a5 be
       0.65700966 -0.5771847 0.2786653 -0.32397985
0000b0 6e d4 1d be 25 d6 60 3e f5 fd 20 be 37 da 3c 3e
       -0.15413067 0.2195669 -0.15721877 0.18442617
0000c0 e5 86 27 3f 23 cd 94 be 1c 49 a2 be ce 1d 21 bf
       0.6544021 -0.29062757 -0.31696403 -0.62936103
0000d0 99 8a 01 bf 44 b9 1b 3f c1 12 0a be 95 56 29 3f
       -0.5060211 0.6082957 -0.13483717 0.6614774
0000e0 7f 7a d6 be aa fa 61 3d 7c c8 0f bf 56 7b 33 be
       -0.41890332 0.055170693 -0.5616529 -0.17527518
0000f0 49 bf c0 3e 0e bb a6 3d 1d 2d 3d bc 1c a5 87 be
       0.3764594 0.081411466 -0.0115464 -0.26493156

weight f4 [128, 64]
000000 7c 11 52 bd 16 9a 0a bd 6d 44 67 3d 7e 61 c4 3d
       -0.051286206 -0.033838354 0.05646174 0.09588908
000010 14 dc a4 3d 1e 6a 07 bd 9c 9c b1 3c 52 fc 39 bb
       0.08049789 -0.033060186 0.021681122 -0.0028379154
000020 d5 1d 97 3d 9f 57 9c 3d 92 8e 5d 3c ba 72 a9 3b
       0.07378737 0.076339 0.013522761 0.005171147
000030 72 0c 17 be 0f 50 d2 bd 39 06 3f 3d 68 8e 0c be
       -0.14750841 -0.10269176 0.046636794 -0.13726199
000040 4a a6 40 3c e6 3f 00 3d 6c 09 8a bd b5 68 3f bd
       0.011758396 0.03131094 -0.06740078 -0.046730716
000050 1e 45 7e 3d fb 1e 11 3d 0b b0 54 bd 82 82 9d 3b
       0.062077634 0.035429936 -0.0519257 0.0048068175
000060 91 eb bd 3c 4a 8c 0d 3d 84 23 84 bd e9 38 fc 3d
       0.023183616 0.03455762 -0.064520866 0.12315542
000070 79 3b b4 bd ae 60 24 3e 5a a3 a2 bc ad 0b 24 3d
       -0.08800406 0.16052505 -0.019853283 0.040050197
000080 04 2e 66 bd 60 bd ff 3c f1 22 b7 3d 7b 0b 00 bd
       -0.056196228 0.03121823 0.089422114 -0.03126095
000090 08 7f 29 3d 01 84 a8 bd fc 0e a0 bc 1a 74 3e bd
       0.041380912 -0.08228303 -0.019538395 -0.04649744
0000a0 5f f1 09 3e 93 64 33 3c e8 8f 25 3d 07 00 c7 3d
       0.13470982 0.010949272 0.040420443 0.09716802
0000b0 e2 40 c2 bd 6a 6a a4 3d e2 c6 fc 3b ad 3a 46 3d
       -0.09485032 0.08028109 0.0077141384 0.0483958
0000c0 eb 6f c9 bd 98 d5 84 3d c9 c5 2e 3c a2 f1 9c 3d
       -0.098358 0.06486052 0.010667273 0.07663275
0000d0 53 b9 a3 3b 50 6d 18 bd 79 f4 85 bc ab af 1f be
       0.0049964576 -0.037213624 -0.016351925 -0.15594356
0000e0 13 41 21 bd 8e 5d fd 3c 0e 8f 2f 3d 26 cd e7 3d
       -0.0393687 0.0309284 0.042861037 0.11318426
0000f0 9b a4 f2 bd a9 56 87 bd 2b ea c8 bc 41 6a b2 3d
       -0.11847802 -0.06608326 -0.024525722 0.087116726
000100 ce 09 39 bc a0 4f e9 3d 24 cb 7f 3b d4 ce 23 3e
       -0.0112938415 0.113921404 0.0039030993 0.15996867
000110 98 ab a1 bd 1a 1c a0 3d 25 34 20 3e 20 d6 73 bd
       -0.07894057 0.0781786 0.15644892 -0.059530377
000120 c6 6c 3e 3e f0 0b b4 bd 59 3e a1 3d 51 75 95 bd
       0.18596181 -0.087913394 0.0787322 -0.07297767
000130 5c 47 44 3d fc 22 05 3e 1c 85 2e bd 30 55 e5 3d
       0.047919616 0.13001627 -0.04260741 0.11197889
000140 c3 2f 99 3d 20 41 d4 3c b1 cd a7 3c 02 05 a8 bd
       0.07479813 0.02590996 0.020483823 -0.0820408
000150 75 6a 28 bb 69 44 0d 3e b9 fc 09 3e 50 84 14 3e
       -0.002569822 0.13795628 0.13475312 0.14503598
000160 92 e7 03 bd 16 e3 93 bd 64 4a b4 3d f6 bc e2 3d
       -0.032203265 -0.072210476 0.088032514 0.11071198
000170 69 11 a4 3b 6e 6e f9 bd bc 84 60 bc ec 3b 9a 3d
       0.0050069583 -0.12179266 -0.013703521 0.075309604
000180 26 b6 17 be d4 79 ee 3d 10 12 27 bd 0b 46 02 3d
       -0.14815578 0.116443306 -0.04078871 0.03180508
000190 dd c4 d2 3d b1 eb 2a 3e 90 53 8a bd bd 85 05 bd
       0.10291455 0.16691472 -0.067542195 -0.032598246
0001a0 74 e3 1f 3d 4a 97 06 bd 07 ef f5 3c bd 52 2b bc
       0.039035276 -0.032859124 0.030021204 -0.010456738
0001b0 26 64 3b bd d1 91 57 bd 6a 65 56 bc 79 42 9b 3c
       -0.045749806 -0.052629296 -0.013085702 0.018952595
0001c0 43 63 22 be e4 70 14 3d ba b1 f0 bd 13 b4 7d bd
       -0.15858178 0.036240473 -0.11752649 -0.06193931
0001d0 5e ed 03 3d 90 d8 e0 3c 51 52 60 3d d1 9a 81 bc
       0.032208793 0.027447015 0.054766003 -0.015820893
0001e0 59 fe 6c 3d b3 b1 d3 bd 90 b2 12 3e 0d 91 fc bc
       0.057859752 -0.10336628 0.14325929 -0.030830884
0001f0 1f 24 95 bc 15 02 03 3c 60 61 06 bd e3 e0 e6 bc
       -0.0182057 0.007996102 -0.032807708 -0.028183406
000200 00 8c 18 bd 4e a2 fc bb cc 99 32 3c ae 3b ae bd
       -0.03724289 -0.007709778 0.010900926 -0.08507477
000210 b7 e5 22 3d 17 fc be bd 58 d3 b2 3d 21 89 69 bc
       0.039769854 -0.09325426 0.08731717 -0.0142538855
000220 1b 86 98 bd 7b 74 08 bc 80 f2 d0 3c c6 a6 80 bd
       -0.074474536 -0.008328552 0.025506258 -0.062818095
000230 72 a0 37 3d 2c 5f 7d 3d 7e 34 c0 bc b7 ae a8 bd
       0.044830747 0.06185834 -0.02346253 -0.08236449
000240 94 bd 0e 3d 9c 5b 22 3d de 0a 7f 3c 82 dc a0 3c
       0.034848765 0.039638147 0.015566556 0.019636396
000250 3c c8 be 3d 06 41 72 bd ce 08 e6 3b 8b 35 01 3e
       0.093155354 -0.059144042 0.0070200926 0.12618081
000260 35 0b 93 3a 98 17 0e 3e ec 8c f5 bb 56 98 e5 bc
       0.001121855 0.13876188 -0.007493606 -0.028026741
000270 a8 16 82 bd 92 4c 94 3b d1 4c b8 bc 1b 86 50 bd
       -0.063519776 0.0045257295 -0.022497566 -0.050909143
000280 22 19 8b bd 7a 3e 81 3d 2c 07 5b bd d3 b3 85 3d
       -0.06791903 0.063107446 -0.053473637 0.065284394
000290 9a bd 00 3d d9 e5 f9 bd 0b aa 84 3d ad 8f a8 bc
       0.03143082 -0.12202043 0.064777456 -0.020576322
0002a0 93 12 07 3c 4e ee eb bc 7b b0 21 be 2e 07 87 3d
       0.0082441745 -0.028800156 -0.15789978 0.06593166
0002b0 8d 6c 95 bd bc 00 3d 3d dc 0f 2a 3c af ef 02 be
       -0.07296095 0.04614328 0.010379758 -0.12786745
0002c0 97 6f e2 bc 29 ae 19 be c2 6d d5 3b 50 09 09 be
       -0.0276411 -0.15007843 0.0065133283 -0.13382459
0002d0 fa 2e e7 bb a1 e8 24 3d f0 28 f1 bd d0 71 d4 bd
       -0.0070551606 0.040260915 -0.11775386 -0.103732705
0002e0 25 54 a3 bd 16 26 96 3c 25 38 58 3d cf b3 03 be
       -0.07975034 0.018328708 0.05278792 -0.1286156
0002f0 07 66 44 bd 00 c7 d4 3c 4d 86 33 3d 0e 45 45 bd
       -0.047948863 0.025973797 0.04382925 -0.04816156
000300 93 67 30 bd e5 26 d1 bd 75 24 51 3c ff 52 9b 3c
       -0.043067526 -0.10212497 0.01276504 0.018960474
000310 0a d3 99 3d ad e5 b0 3d e8 e3 a3 bd 88 a3 c1 bd
       0.07510956 0.08637557 -0.08002454 -0.09455019
000320 26 96 02 bb 33 a4 26 3d 66 2e 03 bc 80 fb c0 bc
       -0.0019925921 0.040683936 -0.008006668 -0.023557425
000330 04 42 07 be 64 2b 2d bd 62 2c 8f 3c e7 4d b9 3c
       -0.13208777 -0.04227771 0.017477218 0.022620155
000340 32 ab a7 3b 08 d2 92 3d 53 0a 92 3c 9f aa 57 bd
       0.0051168436 0.071689665 0.017827189 -0.05265295
000350 13 d3 18 3d d0 da 8d bd de 36 82 bd 7b e4 7b 3d
       0.03731067 -0.06926501 -0.06358121 0.061497193
000360 2e 6f 13 be 24 d6 01 3b 3c a6 82 3c c5 1c b3 3a
       -0.1439788 0.0019811476 0.015948407 0.001366519
000370 ec 56 59 bd 97 36 71 3d 47 90 84 3d 6b 4d a8 bd
       -0.05306141 0.05888995 0.06472831 -0.08217891
000380 bb db 34 be b7 e2 bf 3d c8 b1 13 bd 1c 48 b0 3c
       -0.17661946 0.09369414 -0.036058217 0.02151876
000390 ad 80 f6 3c 26 f0 5f 3d 86 89 17 bd fe 09 80 bd
       0.030090654 0.054672383 -0.036996387 -0.06251906
0003a0 49 c0 a2 bb 42 1a d3 ba 5f 3f 50 bd 1e 5d b8 3d
       -0.00496677 -0.0016105848 -0.050841685 0.09002136
0003b0 41 eb e5 3d 29 d7 b7 bd 13 8b 9e 3b 5f 9b 71 3d
       0.11226512 -0.089765854 0.0048383563 0.058986064
0003c0 eb f1 eb 3c 4b 74 4e 3e b4 59 1d 3d a5 11 30 3c
       0.028801879 0.2016155 0.038415626 0.010746394
0003d0 61 78 a8 bd ab cb 89 3d 96 5d 33 3c f0 e1 55 3d
       -0.082260855 0.067283 0.010947606 0.052217424
0003e0 38 05 97 bd a4 75 1a 3e b0 c2 9b bd 0b e0 e2 3d
       -0.07374042 0.15083939 -0.07605493 0.11077889
0003f0 ae 70 bb 3d 4a 27 f3 bd 9c 27 06 3b 0e f8 42 bd
       0.09152351 -0.11872728 0.0020470386 -0.047599845

bias f4 [128]
000000 61 51 75 3d a9 9f 0b be ca 0d b7 bd 32 87 07 bd
       0.059892062 -0.13635124 -0.08938177 -0.033087917
000010 ba d9 0a bd 14 be 83 bd 98 e3 94 bc a8 1b 12 bd
       -0.033899046 -0.06432739 -0.018174931 -0.035670906
000020 b1 71 03 bd 95 ac 15 be a4 ca 57 bc 50 80 88 bc
       -0.032090846 -0.14616616 -0.013170872 -0.016662747
000030 af 65 dc 3a e8 ca 06 be 9e bd 7e 3d 29 d5 c8 3c
       0.0016814972 -0.1316334 0.06219255 0.024515705
000040 f6 82 d4 bc 32 fb b3 bd 73 0c cc bd f7 6c 71 3c
       -0.025941353 -0.08788146 -0.09963312 0.014735452
000050 aa 3d 5c be be c6 f4 3a 6d 70 02 be 32 62 09 be
       -0.21507898 0.0018674952 -0.127382 -0.13416365
000060 52 fb 18 be b5 52 1b be a7 cc 2d be d5 1c e1 bd
       -0.14939621 -0.15168269 -0.169726 -0.109918274
000070 25 83 64 3d 3d 31 13 bd 39 e1 24 be 23 d1 db bd
       0.05578913 -0.03593563 -0.1610154 -0.10733249
000080 b8 df 2c bd 2e 82 21 be e7 de 46 3d 1c 1e 0b 3c
       -0.042205542 -0.15772316 0.04855242 0.008491065
000090 e2 d6 c2 3c 6b 32 3c bc 22 ff d2 bb bc 1a 53 3b
       0.023784105 -0.01148663 -0.0064391056 0.003221198
0000a0 8c 9f 4f bd f1 ce 1e be 58 08 0e 3d 21 77 48 be
       -0.050689265 -0.1550863 0.034675926 -0.19576694
0000b0 4a eb 1a bc ea 25 9c be b2 9f c1 bd 40 d4 af bd
       -0.009455511 -0.30497676 -0.094542876 -0.08585405
0000c0 5b 54 ca bd ad 2f 8c bd 27 1b 28 be b4 65 11 bd
       -0.09879371 -0.06845031 -0.16416608 -0.035497382
0000d0 d8 15 9a 3d bb 5b 47 3d e2 83 87 3d fc 06 1b bd
       0.075236976 0.048671465 0.066169515 -0.037848458
0000e0 26 9e f4 bc df c2 d6 bd d8 6b 9b bd c8 00 08 3d
       -0.029860567 -0.104863875 -0.07588929 0.03320387
0000f0 b9 5b 03 be 84 02 06 3d 1a e6 a0 bd 82 66 ad bd
       -0.12827958 0.032717243 -0.078563884 -0.084668174
000100 31 8c e1 bd 8e 61 5a bd a5 b6 c8 bd 2f 1f 94 3c
       -0.110130675 -0.05331569 -0.09800462 0.018081276
000110 dd 02 23 be 57 4f be bd 38 6a 15 3d 33 9a d0 bd
       -0.15919061 -0.092924766 0.03647825 -0.10185661
000120 17 c4 b0 bd b8 39 20 be fd 85 f1 3c 10 e9 13 3d
       -0.08631151 -0.15647018 0.029482836 0.036110938
000130 17 d9 c2 3d 84 1d 96 bc 11 90 55 3d 4e cc 9e bd
       0.09514063 -0.018324621 0.052139346 -0.07753812
000140 a5 df cd bc 24 5c 08 bc 23 9b 87 bc f8 4d a2 3c
       -0.025131056 -0.008322749 -0.016553467 0.019812569
000150 06 8e f8 bd fa c9 37 be dc c5 d1 3d 0b 3b d6 bd
       -0.12136464 -0.17948142 0.10242817 -0.1046048
000160 ff df 2c 3d 2a 6b 74 3b ef 70 78 bd 81 35 19 3d
       0.042205807 0.003729532 -0.060654577 0.03740454
000170 e8 5d d4 3c b4 03 94 bd 1c 26 c8 bb e6 35 3a bc
       0.025923684 -0.07227269 -0.0061080586 -0.011365389
000180 0a 57 9d bd 39 60 00 be 00 c5 60 bd 29 88 aa bc
       -0.07682617 -0.12536706 -0.054875374 -0.02081688
000190 88 63 b7 3d 8b a3 14 be 5e fb aa 3d d8 8b 32 3e
       0.08954531 -0.14515512 0.08348726 0.17436159
0001a0 38 24 ad bb 1a 48 54 bd 1b 52 e0 bd d1 18 1b be
       -0.0052838586 -0.051826574 -0.109531604 -0.15146185
0001b0 6e a7 ce 3c 6d ff f0 3b 74 c2 8a bd 84 85 46 3e
       0.025226321 0.007354668 -0.0677537 0.1938687
0001c0 b2 3b af bb 5d 55 c5 bc 86 f5 a8 bd 3b 14 b6 bd
       -0.0053476924 -0.024088556 -0.08249955 -0.088905774
0001d0 14 93 78 3d 8a d9 46 bd 31 7e c8 3c 05 27 06 be
       0.06068714 -0.048547305 0.024474235 -0.13100822
0001e0 ff 05 94 3d 53 0b 2b bd 70 fb d2 bc 9d 2b cb bd
       0.07227706 -0.041758846 -0.02575466 -0.09920428
0001f0 07 ab df bd a0 ce 34 3d 9b 33 df bc 73 5d cd bc
       -0.10921293 0.044142365 -0.027246287 -0.025068974

weight f4 [256, 128]
000000 53 99 c9 bd ef 96 f4 bc 38 05 b1 bd a8 cd cf 3d
       -0.098436974 -0.029857127 -0.086435735 0.10146648
000010 23 dd d6 3c fd 97 79 bd 4a 0f d1 3b c4 42 ae bc
       0.026228493 -0.060935963 0.0063799964 -0.02127207
000020 f4 5e c8 bd 9c 18 30 3d 54 92 e0 3b 40 19 bc 3d
       -0.09783736 0.04299222 0.006853381 0.091845036
000030 9e de c3 bd b9 be 56 3d 74 3e 4e bc cc 21 07 bb
       -0.09563945 0.05242798 -0.012588132 -0.002061951
000040 f4 60 cb 3c 62 8a da bc a7 af 44 3d ab 74 8c bd
       0.024826504 -0.026677314 0.048019078 -0.0685819
000050 71 f0 51 3d 43 03 be 3d c3 7d ff 3d a2 9c 8e bd
       0.051254693 0.09277966 0.12475159 -0.06963469
000060 b3 98 55 bd 8c ec 05 3e 18 ae a1 bd 3d 8c fd bc
       -0.05214758 0.13078517 -0.07894534 -0.03095066
000070 b8 78 8c bd 55 b1 42 bd a1 84 3c 3d 0c 9d 7b bd
       -0.06858963 -0.0475324 0.046024922 -0.06142907
000080 1d 8c 44 3d 1d b9 76 3b 29 65 8f 3e 00 73 80 3c
       0.047985185 0.0037646957 0.28006867 0.015679836
000090 bf 22 9f bd c3 a9 7e 3d 28 57 f6 bb d3 03 4c bd
       -0.07770299 0.062173616 -0.007517714 -0.049808335
0000a0 56 ed 4f bd 70 7e 0c 3c 3c a1 0a 3e e7 36 1a be
       -0.05076345 0.008575067 0.13538069 -0.15060006
0000b0 8d 70 39 bd 4d f6 bc bb bf 11 08 bd 44 6e fe 3b
       -0.045273352 -0.005766666 -0.03322005 0.0077646095
0000c0 7a 35 8c 3c 27 e0 fd 3c a9 3c 33 3b e3 91 f7 3a
       0.017115343 0.030990673 0.0027349389 0.0018888082
0000d0 88 d1 a6 3e 66 fd 41 3c 7f ac 17 3d c1 b3 1e bb
       0.32581735 0.0118402 0.03702974 -0.0024216028
0000e0 e5 ed e3 bc ac 5b 6c 3d 1c 9b 28 3c 1b 00 13 3e
       -0.027823398 0.057704613 0.010290887 0.14355509
0000f0 db 40 a4 3d 67 60 aa 3d 29 cc 93 3b 19 76 bd 3d
       0.08020183 0.083191685 0.004510422 0.09251041
000100 83 32 8d bd 9c f2 d2 3d 8b 93 0a bd 8e 8f 90 39
       -0.068944 0.1030018 -0.033832114 0.00027572777
000110 25 04 42 bd 4d 3c 49 3d be db a0 3d 08 95 de 3b
       -0.047367234 0.049129773 0.078544125 0.0067926683
000120 e6 63 a6 3c 0e 66 75 bd 19 a1 8e 3c c8 18 a6 bd
       0.020311307 -0.05991178 0.017410802 -0.081101954
000130 8a d2 04 3e f2 19 81 bd af 38 52 bd b4 72 92 3c
       0.1297094 -0.06303777 -0.05132359 0.01787696
000140 e9 e6 70 3b a9 21 56 3d 80 c4 1d be 4f 21 a5 3c
       0.0036758727 0.052278195 -0.1540699 0.020157484
000150 68 91 29 3e c4 88 9f 3d ff 92 5a 3d 34 51 18 be
       0.16559374 0.07789758 0.053362843 -0.14874727
000160 b3 bd 7e 3d d3 29 16 3d 23 b0 14 3e 15 51 94 bd
       0.06219263 0.03666098 0.14520316 -0.07242028
000170 52 eb ce 3c 5e 75 a7 3d 2d 0d ff bc 10 ff 12 3d
       0.025258694 0.08176683 -0.031134212 0.035887778
000180 3d 11 2f 3d 9d f5 97 bd 95 9a 4c 3e 45 09 54 3d
       0.04274105 -0.07419894 0.19980843 0.051766653
000190 bc 57 b2 bd 91 c7 82 3d fc ed 4a 3e 1c 52 0c bd
       -0.0870814 0.063857205 0.19817346 -0.034257993
0001a0 a4 54 bf 3d 30 da a9 3d da 5f 9a bd 06 5b 77 3b
       0.09342316 0.08293569 -0.075378135 0.0037743463
0001b0 b4 00 21 3e ce df a7 3c ca 07 04 be 16 60 31 be
       0.15722924 0.02049246 -0.12893596 -0.1732181
0001c0 4c 94 72 3e 89 78 8d 3c 2f 72 cd bd 3d f7 b8 3d
       0.23689383 0.01726939 -0.100315444 0.09031532
0001d0 37 a5 2a bd f2 c9 c2 3d 42 79 c3 bc 63 2d 54 3d
       -0.041661467 0.09511174 -0.023861531 0.051801097
0001e0 4a 67 9c 3d 25 d8 6f 3d 66 f3 92 3e 41 b8 4c 3e
       0.07636888 0.05855574 0.28701323 0.19992162
0001f0 ea 49 ad 3d f4 0a 30 3d ac 99 49 3d 6e f4 0b 3d
       0.084613636 0.042979196 0.04921882 0.034168653
000200 2a 39 86 3d 18 ce 19 3d b0 c1 84 bd d6 88 d2 3d
       0.06553872 0.037550062 -0.064822555 0.10280006
000210 07 f0 1b 3d 3b 8c ff 3c 7c 61 76 3d 40 57 9b bd
       0.038070705 0.031194797 0.060151562 -0.07585001
000220 5b f1 33 3e 95 ea ba 3d 66 2c 04 bd 79 9f 81 3d
       0.17572539 0.09126774 -0.032268904 0.06329245
000230 2d b2 a2 bd 07 9c 00 3d e2 c1 d1 3d 55 f3 0d be
       -0.079441406 0.0313988 0.10242058 -0.13862355
000240 0c 77 7b 3c f0 36 d2 3d 58 c9 d3 bc 1f 34 80 3d
       0.015348207 0.10264385 -0.025852844 0.06259941
000250 2e 3a 29 3d 2d 34 a2 3b 71 2f 68 3d 8f 9c 10 3e
       0.04131525 0.0049500675 0.05668587 0.14122222
000260 2b 1c fe bc 82 bd 8e bd c7 52 d1 3c f2 1d 86 bd
       -0.03101929 -0.069697395 0.025552167 -0.0654868
000270 e7 85 5f bd d1 b6 32 3e 7e 0a 05 3e e8 9c e2 3d
       -0.05457106 0.17452551 0.12992284 0.11065084
000280 a1 32 e0 3c 98 a6 63 3c 16 ac 6f 3d 90 02 83 bd
       0.027367892 0.0138946995 0.058513723 -0.06396973
000290 f6 5e bc 3c 2a 6a f4 3d bb 57 96 3d ba e8 ab bc
       0.0229945 0.11934312 0.07340952 -0.020984996
0002a0 d2 32 14 3d fa 43 19 3e c6 ea 0d be 6d 6d 50 3e
       0.03618128 0.14967337 -0.1385909 0.20354243
0002b0 b3 86 65 3d e7 f8 d0 3c bf d1 39 3d ab ab 32 3d
       0.056036662 0.02550931 0.045366045 0.043620747
0002c0 b8 11 e8 3d 92 e3 2c 3e db 04 a1 3d 80 60 36 3d
       0.113315046 0.16883686 0.07862254 0.044525623
0002d0 c5 55 e9 3d 2c 31 cf 3c ab 8e 38 3d bb 64 37 3e
       0.11393312 0.025292002 0.045057934 0.1790952
0002e0 c1 7f 21 3e 42 f8 ad 3d 4b ad 80 3d 5b 6a e4 bb
       0.1577139 0.08494617 0.06283053 -0.0069706864
0002f0 80 a0 21 3e 93 ea 8e 3d f3 01 0f bc 71 d8 5a be
       0.15783882 0.06978335 -0.008728492 -0.21371628
000300 a7 06 8f bd d0 42 c6 3d f2 3b ab 3d 0c 2a 82 bd
       -0.06983691 0.09680712 0.08361043 -0.06355676
000310 fb d7 42 3d 89 0c c6 bb 42 a6 52 bc 01 65 10 bc
       0.047569256 -0.006043975 -0.012857022 -0.008813144
000320 f6 12 68 3c 6c 1e 00 bd 41 b4 4b bc 47 cb 86 3d
       0.014164677 -0.031279013 -0.012433113 0.06581741
000330 52 13 fa 3d 1c de 23 bd 66 05 2f bd 1f 6b ec 3d
       0.12210716 -0.040006742 -0.042729758 0.11543869
000340 50 ae 8a 3d 8f 17 fb 3d c4 31 69 3c 30 10 0d bd
       0.06771529 0.12260353 0.014233056 -0.034439266
000350 67 33 52 3d e8 d1 4f bd 63 33 f6 3d 18 44 52 3e
       0.051318552 -0.05073729 0.1202152 0.20533788
000360 9f 26 61 3d a7 06 50 bd 1d fd d7 3d cc 3b df 3c
       0.054968473 -0.050787594 0.105463244 0.027250193
000370 df 6e a3 3c 0d a5 74 3d 8e 45 18 3e 28 a2 5c bd
       0.019950328 0.059727717 0.14870283 -0.05386558
000380 f4 6c c2 3d 30 fa 5a 3c cd 8b 26 bc 38 93 bb bd
       0.094934374 0.013365313 -0.010165167 -0.09158939
000390 44 57 f9 3d d7 0a 5d bd 91 77 c1 bb 03 83 94 3d
       0.12174848 -0.053965416 -0.005904146 0.07251551
0003a0 d0 b1 81 3c 26 d7 3c 3d 31 d7 87 3d a8 55 39 bd
       0.015831858 0.04610362 0.066328414 -0.045247704
0003b0 79 f6 3f bd 38 91 93 3d d2 ce 0b 3c 94 f6 1d 3e
       -0.046865914 0.07205433 0.0085331965 0.15426093
0003c0 a4 30 93 bc f8 9a 74 b9 d6 e3 68 3d 1a d5 c2 3d
       -0.01796753 -0.00023327384 0.056857906 0.09513302
0003d0 57 8a 10 3d 3a 9e e3 3d 02 a0 11 3e cd 00 06 3a
       0.03528818 0.11114164 0.14221194 0.00051118137
0003e0 99 a9 6e 3d 07 09 c5 bd 2f b2 01 bd 52 63 a0 3d
       0.05826721 -0.096208625 -0.03166407 0.07831444
0003f0 a1 b4 52 3d 57 97 ce 3d d7 6f da 3d 97 c0 45 bd
       0.051441792 0.100874595 0.10665863 -0.04827937

bias f4 [256]
000000 3d 46 1a 3d 68 07 95 bc ff 54 b1 bc c8 49 9e bc
       0.03766464 -0.018192008 -0.021646975 -0.019322291
000010 ec 79 4f bd 51 d3 d6 bd a3 25 7b 3d a2 7f 35 bd
       -0.050653383 -0.10489524 0.06131519 -0.044311173
000020 2b 17 f9 3a ba f3 c1 bd 95 bc 93 bb f6 4d b1 bc
       0.0019004097 -0.09470315 -0.0045085647 -0.02164362
000030 d6 c8 4e bd dd 23 86 bd 72 1c 37 bd 96 1a af bd
       -0.0504845 -0.06549809 -0.044704862 -0.08549993
000040 bb 50 b6 bd 4e 8d 19 be 99 f2 b3 bb 54 11 91 bd
       -0.08902117 -0.1499531 -0.0054915664 -0.07083383
000050 ec 3d 5f bd 53 f8 22 3d a7 0e b2 3c 12 2c d6 bd
       -0.054502413 0.0397876 0.021735502 -0.104576245
000060 0a 79 6b 3d 11 db 48 bd ac 89 b4 bd 7f a7 c3 ba
       0.05748848 -0.049037043 -0.08815321 -0.0014927237
000070 9a 33 b9 bd 0d 3a f0 3b 49 a1 cc bb b5 30 45 bd
       -0.09043045 0.007331139 -0.0062448126 -0.048142154
000080 f4 64 1e bc 7c 16 e5 3c 48 5f e0 39 c6 7a c6 bd
       -0.009667624 0.027964823 0.000427956 -0.09691386
000090 9d 2d c6 3c 83 0b 7a bd 50 b0 d3 bd 6b 49 9a bd
       0.024191672 -0.061046135 -0.10336363 -0.075335346
0000a0 35 07 ee bc fc 79 13 bb 35 c7 ad 3b d8 a9 91 bd
       -0.029056171 -0.0022503128 0.0053032883 -0.07112473
0000b0 37 7c 97 3c 3a cf 4b 3c 4f ea 07 bd 56 d9 16 3c
       0.018491847 0.012439543 -0.03318244 0.00920709
0000c0 5b 4d 9f 3d ec f0 a8 bc a6 59 4b bd 34 96 a3 3b
       0.07778426 -0.020622693 -0.049646042 0.004992271
0000d0 64 d1 42 3d 20 5a 54 3c 51 df 09 3c 59 ee a7 3d
       0.04756297 0.012960941 0.008415059 0.08199758
0000e0 17 74 04 bd a9 6d c8 bc 48 ef df 3b fe 56 0e bd
       -0.032337274 -0.024466353 0.0068339445 -0.03475093
0000f0 32 0c 30 bd 37 e2 19 bd 42 96 1f 3c 6b a4 df bd
       -0.04298038 -0.03756925 0.009740414 -0.10920032
000100 03 0d 90 bd 91 57 6f bc a3 9f d4 3c ec 56 10 bd
       -0.07033732 -0.01460828 0.025955027 -0.035239145
000110 33 e7 42 bd b0 b3 ee bd a2 f6 16 3c fc a2 8f bd
       -0.04758377 -0.116553664 0.009214075 -0.07013509
000120 36 4d 57 3c f5 97 42 bc 06 f7 db bc 41 9e c1 bd
       0.013140967 -0.01187705 -0.026851188 -0.09454013
000130 d4 ea f1 bd 6b 7f 27 bd 51 3b 56 bd 0e 80 a2 ba
       -0.11812368 -0.040893 -0.052302662 -0.0012397782
000140 40 92 93 3c 51 8a d3 bd dd fa 96 3c 15 52 1f bd
       0.018014073 -0.10329116 0.018430168 -0.03889664
000150 d8 2b a7 bd 22 cb 7c bd f2 62 ba bc b8 33 91 bd
       -0.081626594 -0.06171716 -0.022752259 -0.07089943
000160 51 4c 6c bd 9d 3d f9 bd 02 47 ae 3c b3 10 c7 3c
       -0.05768997 -0.12169955 0.021274094 0.024299955
000170 6f 7f 5f bd db 7a 10 3d dd 99 f7 bc f6 76 5c bd
       -0.05456489 0.035273414 -0.030224735 -0.053824387
000180 7e 36 42 bd 5a ce a6 3c fb 48 8f bc 1d e0 0e bc
       -0.04741525 0.020362068 -0.017490854 -0.008720425
000190 fb 7d a8 bd ba 69 c4 bd 3a 05 39 bc ce 1e 6f 3c
       -0.08227154 -0.09590478 -0.01129275 0.014594747
0001a0 43 a5 b9 bd 18 56 83 bd 68 7e 28 3b 8c c2 cc 3c
       -0.09064724 -0.064129055 0.002571011 0.02499511
0001b0 70 1a 7a bd cf 9c 99 bc e4 54 93 bc 03 fb 46 3c
       -0.06106037 -0.01875153 -0.017984815 0.012144807
0001c0 c6 4c c9 3c 12 0e 48 3b 9f 76 8a bc 15 ff 00 3c
       0.024572741 0.0030525965 -0.016902266 0.007873316
0001d0 32 7f 0c bd 9a 44 e7 3b bb 53 b8 3c 1f 9e 92 bd
       -0.03430099 0.0070577385 0.022500863 -0.071590655
0001e0 d0 99 b7 bd 0f 9d 4c bd 26 9e 8e bd cf e2 52 bd
       -0.08964884 -0.04995447 -0.06963758 -0.051485833
0001f0 9d 39 b9 bc f6 c2 af 3c ac 79 9e bb 3d 99 5f bd
       -0.02261048 0.02145527 -0.0048362818 -0.0545895
000200 92 98 3d bd 1b 1d 63 bd e3 cb d4 bc 4a 25 27 be
       -0.04628808 -0.05544768 -0.025976127 -0.16322818
000210 fc ba 42 bd 06 bd bd 3c 66 63 c3 bc 8d 21 69 bd
       -0.047541603 0.023161422 -0.023851108 -0.056916762
000220 c4 c1 c1 3c 5e 78 86 bd 67 d2 1f bd 98 b8 1f 3d
       0.023651965 -0.06565927 -0.039019015 0.0389944
000230 0a cc 37 bd ff df c5 ba 02 6b dd bc cd c7 8a 3b
       -0.04487232 -0.0015096663 -0.027028564 0.004235244
000240 93 38 14 bd 7e 2e 26 bd 9c c3 23 3e 25 69 1b 3d
       -0.036186766 -0.040571682 0.15992588 0.03794207
000250 98 82 fa bd 5f 47 d4 bc 4b 1d 3d bc 96 22 92 bd
       -0.1223194 -0.025912939 -0.0115426285 -0.07135503
000260 8b 99 06 bd 34 6a 83 bd ec 5b 65 bd ee ae 45 bd
       -0.032861274 -0.06416741 -0.055995867 -0.04826253
000270 a6 b4 6a 3b e3 f6 43 3c d6 db 09 bd 53 08 e9 bc
       0.0035813241 0.011960718 -0.033656918 -0.028446352
000280 7e 23 57 bd cf ce 34 bb 4f 22 b2 bc 30 81 8e bd
       -0.052524082 -0.0027589088 -0.021744875 -0.06958234
000290 bb ce 84 bc ba 5e 20 bc 8f e8 d4 3a 59 6e ea bd
       -0.016211858 -0.00978821 0.0016243624 -0.114468284
0002a0 11 e1 5e 3c ef af 18 bd 95 1e 87 bc f4 6f 97 bd
       0.013603465 -0.03727716 -0.016494075 -0.073944
0002b0 4e 7e 92 bd 06 3e 5a 3c 12 22 8d bb 4b 8f ae bd
       -0.07152997 0.013320452 -0.00430704 -0.08523425
0002c0 fa 25 be 3c dd bc 57 bd e9 de 8c bd 9f 54 18 bd
       0.023211468 -0.05267035 -0.06878454 -0.037190076
0002d0 6f 0c 06 3c ac 02 72 bd 57 33 e9 bd 33 8c 2e 3d
       0.008181675 -0.05908458 -0.113867454 0.042614173
0002e0 99 5a 97 bd b8 2a 91 3d 4f ae e7 bb 87 40 bc bc
       -0.07390327 0.07088226 -0.0070703398 -0.022979988
0002f0 a8 87 17 bd 7b 81 ad bc 94 0a 2b bd 6d 89 c1 bb
       -0.036994606 -0.021179905 -0.041758135 -0.005906275
000300 d2 17 d1 bc b0 e7 4b bd a5 6d 31 bd 97 f1 00 bd
       -0.025524054 -0.0497815 -0.043317456 -0.031480398
000310 86 c3 cf 3c 1b 1b 09 bd 39 59 7f bd 61 46 30 bd
       0.025361788 -0.033473115 -0.06234095 -0.04303587
000320 a6 5b 2b 3d d3 c8 9e 3b 83 66 f7 bc 84 e0 b0 bd
       0.04183545 0.0048457175 -0.030200249 -0.08636573
000330 9e 91 69 bd d9 10 6c bd 59 46 91 bd ce c7 05 bc
       -0.057023637 -0.057633255 -0.07093496 -0.008165313
000340 c1 62 0e bd 7b 44 b0 bd 64 23 d8 b9 cf 99 c4 bd
       -0.034762148 -0.086068116 -0.00041225099 -0.09599649
000350 c1 68 d5 bb d6 7c 6e 3d 20 93 59 3c af 40 66 bd
       -0.006512732 0.05822452 0.013279706 -0.05621403
000360 a0 ac 7a bb 91 60 00 bd f1 72 b6 bc 86 f5 74 3d
       -0.0038249865 -0.031342093 -0.022271605 0.059804462
000370 32 bc b3 bc ab 49 19 bd 4d 39 80 bd eb 6a 34 bd
       -0.021940324 -0.03742377 -0.06260929 -0.044047277
000380 17 7d ae bc 61 f9 01 3d e9 ab c7 bc e7 51 5e bd
       -0.021299882 0.031731967 -0.024373965 -0.054277327
000390 a0 32 a0 3c 49 ce c7 bc 31 da 9a bd 1e cf f5 bc
       0.01955539 -0.024390357 -0.07561148 -0.030005988
0003a0 f1 c6 06 bd e3 10 7b bd 99 86 c4 bc 3a a6 04 3d
       -0.03290457 -0.0612954 -0.023989962 0.03238509
0003b0 76 03 5d bd 9c 78 74 bd 1d 1c 92 bd 27 32 b0 bd
       -0.05395838 -0.059685335 -0.071342684 -0.08603316
0003c0 2b eb b2 3b 31 7b aa bd 63 ef 92 bd 94 84 31 bd
       0.005460163 -0.08324278 -0.07174566 -0.043339327
0003d0 ba 94 0c bc db a0 08 be f6 86 8d bd a0 72 02 3d
       -0.008580381 -0.13342611 -0.069105074 0.031847596
0003e0 94 60 83 3d e5 be 7c bd 6f 59 af bc 3c 85 41 bd
       0.06414905 -0.06170549 -0.02140495 -0.047246203
0003f0 c7 b8 cd 3c 96 16 80 bc 56 ba d6 bc d4 94 95 bd
       0.025112523 -0.01563577 -0.026211899 -0.07303777

weight f4 [512, 256]
000000 19 53 9c bd a3 b0 3f bd ca 2f 78 bd d2 6a 4f 3d
       -0.07633037 -0.046799313 -0.06059245 0.05063898
000010 96 4f 3e bd 7e 50 03 3d 14 c8 1e 3d 4a 88 57 ba
       -0.046462618 0.032059185 0.038765028 -0.0008221908
000020 ef 04 04 3d 48 07 4f 3c 0b 9e 6b bd 63 55 b3 3d
       0.032231268 0.012636013 -0.05752377 0.087565206
000030 e3 48 9c 3d 74 6d 1f bd 97 51 0c 3d 2c 9d 31 bd
       0.076310895 -0.038922742 0.034257498 -0.04336278
000040 d3 22 6e 3b 95 e6 89 3c 0c 6d 80 bd f3 26 3e 3d
       0.0036336675 0.016833583 -0.06270799 0.046423864
000050 b0 d1 d2 bc 75 d5 33 3c d4 06 42 3d 26 41 3e bd
       -0.025734752 0.010976185 0.047369793 -0.04644885
000060 9d 36 9d 3b f6 41 da 3c cb 54 fb 3b ce 57 8f bd
       0.00479777 0.02664278 0.00767002 -0.06999169
000070 b7 5f 5b bd b7 32 04 bd ba 86 63 3d 20 43 80 ba
       -0.053558078 -0.032274928 0.055548407 -0.000978563
000080 53 28 80 bc f8 38 4c 3c 5b e7 83 3c 86 60 5e 3d
       -0.015644228 0.012464754 0.01610153 0.05429127
000090 db a6 6c 3d 91 20 57 bd 39 eb 33 3d 8a c3 85 3c
       0.057776313 -0.052521292 0.043925498 0.016328592
0000a0 46 22 95 3c 01 4c 1f 3d db d4 9e 3c af ca b5 3c
       0.01820482 0.038890842 0.019388607 0.022191374
0000b0 07 5e e9 3d ad 9f 89 bd 13 50 1b bc 61 ec 35 bd
       0.113948874 -0.06719909 -0.00947954 -0.04441488
0000c0 a5 32 4e bd f7 b6 8c 3c 2a 46 17 3d b3 a6 21 bd
       -0.050341267 0.017177088 0.036932148 -0.039465617
0000d0 3a 73 f0 bb 02 4a b0 3d 87 78 73 bc 24 81 ff bc
       -0.007337955 0.08607866 -0.014860279 -0.031189509
0000e0 da 36 8d 3c 44 eb 9c bb 18 32 83 3c 60 51 ee bc
       0.01723807 -0.004788788 0.016015097 -0.029091537
0000f0 38 54 d5 3c d4 ea 19 3d eb 02 11 bd fb 23 44 bd
       0.026041135 0.037577465 -0.035403173 -0.047885876
000100 ec e8 92 3c 7a 52 db bd 6c 63 9c 3b 4e 85 fd 3c
       0.017933331 -0.107090905 0.004772594 0.030947354
000110 7d 46 32 3d 79 5f 1f 3d 85 fc 54 3c ea b7 7a bd
       0.043524254 0.03890941 0.0129996585 -0.06121055
000120 38 3d 04 bd bd a1 40 3c 47 c7 93 bb 6b f5 9f bd
       -0.032284945 0.011757311 -0.0045098397 -0.07810482
000130 88 af ae 3c 82 c5 41 bd f6 0a 2e 3d 6a 00 b6 bc
       0.021323934 -0.0473075 0.042490922 -0.022216994
000140 09 9a 0d 3e 67 81 67 bc 78 5d cd 3d 39 7a 08 bd
       0.13828291 -0.014129973 0.100275934 -0.033319686
000150 5b 30 02 3d 80 08 76 bb 81 4e 7f 3d 96 1d 19 3c
       0.031784397 -0.0037541687 0.062330727 0.009345433
000160 bf 79 a2 3c e0 44 89 3c f9 42 98 3d 18 ee 24 3d
       0.019833444 0.016756475 0.07434649 0.040266126
000170 3f 44 eb ba 70 c1 cc bc 7d 8d 84 bd ed 36 97 bb
       -0.0017949416 -0.024994582 -0.06472299 -0.004614702
000180 f5 21 e4 3c 4e 9b 77 bc e8 f6 d5 3c 54 a8 b3 3d
       0.027848223 -0.015112711 0.02611871 0.087723404
000190 40 ac cc bc bb 6c 8f 3d 49 24 01 3c c0 66 cb 3d
       -0.024984479 0.070031606 0.007882186 0.099317074
0001a0 28 e4 fe 3a 4f 17 f0 3b 03 83 52 3d 96 2c 7c bc
       0.0019446658 0.0073269974 0.051394474 -0.0153914895
0001b0 1d a0 0e bc 52 dc 4d bc 3d 0a 8b 3d c7 cc 81 bd
       -0.008705166 -0.0125647355 0.06789062 -0.06337886
0001c0 ab 0e 69 bb 56 4c 48 3c 95 19 f2 39 a3 c9 03 3c
       -0.0035561721 0.012225231 0.00046176897 0.008043679
0001d0 c2 df 10 3c b4 17 1e 3d 1e 9f a5 3d c2 c2 48 3d
       0.0088424105 0.038596824 0.0808699 0.04901386
0001e0 0e 6b 2d bd 46 60 61 3d e9 68 83 3a 99 f7 33 3c
       -0.042338423 0.055023454 0.0010025772 0.010984325
0001f0 89 30 38 bd 42 47 fe bc 7b 3f f4 bc f6 d3 4a bd
       -0.04496816 -0.031039838 -0.029815426 -0.049518548
000200 31 96 e5 ba ad 66 91 bd ee 96 a7 3c b3 57 e1 3d
       -0.0017516074 -0.07099662 0.020457711 0.110030554
000210 27 fa 0b 3c f9 a6 84 bc 2f 31 a9 ba 5b 4a 8f 3c
       0.008543528 -0.0161929 -0.0012908335 0.01749151
000220 fb b3 fc 3c 76 05 b4 3c 22 c3 a2 3d 68 9c 1d 3d
       0.03084754 0.02197526 0.07947375 0.03847924
000230 c1 d7 f9 3d 6c 39 4c bd e2 b7 26 3d 9f 74 24 3d
       0.12199355 -0.04985945 0.040702708 0.04015028
000240 fa 12 a8 3c 0a 71 0d 3d 95 eb 27 bd c5 53 ab 3d
       0.020516861 0.03453163 -0.040996153 0.08365587
000250 cb 5f 89 bd 69 87 9c 3d 0e a9 cd 3c 0d ff 62 3c
       -0.06707724 0.07643015 0.025105026 0.013854754
000260 28 13 17 bc 64 c1 1f bd d0 93 d3 3d d4 56 c6 bc
       -0.009220876 -0.03900279 0.10330927 -0.024211325
000270 7f e8 35 3d e4 29 a8 3d 21 22 93 bb 1f 94 e4 bc
       0.04441118 0.08211115 -0.0044901525 -0.02790266
000280 f2 00 04 bc 2a 38 ae 3c 9a 12 b1 bc 5f a9 5d 3b
       -0.008056866 0.021267015 -0.021615315 0.0033822877
000290 a7 d9 0d bd 20 97 dd 3d 57 12 97 3d 4d bf 80 3d
       -0.034631398 0.108198404 0.07376545 0.06286488
0002a0 f3 b0 9e bd 92 2d 82 3d b2 c1 b8 bd 97 ca a1 bd
       -0.07748594 0.06356348 -0.090213194 -0.07899969
0002b0 38 f1 72 bc 1b c5 08 3d f1 24 42 3d 68 f8 8d 3c
       -0.014828019 0.0333911 0.04739851 0.017330363
0002c0 2d a4 52 3d a7 26 ac bb de 38 38 bc 8a 13 bc bd
       0.0514261 -0.005253631 -0.011244027 -0.09183414
0002d0 e9 f4 0a 3c 0a 7c 9c 3c 9f ad 86 bc f2 6c d5 bc
       0.008481243 0.019102115 -0.01644021 -0.026052926
0002e0 97 7d 3f bd d6 2b 64 3c 71 fb 9c bd ac c6 59 bd
       -0.04675063 0.013926467 -0.07665146 -0.053167984
0002f0 3c 14 38 3c 8a c5 61 3d bf a0 78 bd a0 2e 37 3d
       0.011235293 0.05512003 -0.060700174 0.0447222
000300 21 a1 4e 3b d8 93 af 3d 9c 47 fc 3d 2b 50 11 3d
       0.0031529146 0.08573121 0.12318346 0.035476845
000310 ad ee b7 b8 19 ce ec bc 94 22 80 bd 38 0c 99 3d
       -8.770577e-05 -0.028906869 -0.06256595 0.07473034
000320 84 c3 9f bc 9d 83 bc 3c 35 18 0b bd 37 72 f1 3b
       -0.019502409 0.023011977 -0.033958632 0.007368352
000330 9c 07 2c bc 48 15 a5 3d c1 fa 15 bd e3 c5 19 bd
       -0.010499861 0.080607 -0.03661609 -0.037542235
000340 45 72 07 bd 3c a5 04 3d 77 0e 17 3d ed f9 bc bd
       -0.03306796 0.032384142 0.03687903 -0.09227357
000350 02 62 c7 bd 39 0b 6a bd 49 ad 05 3d 8c 7e 56 3d
       -0.097354904 -0.05713961 0.03263596 0.05236678
000360 6d 9e 2a bd f9 6f 3b 3d 0c bb 43 bb 01 85 fb 3c
       -0.041654993 0.045761082 -0.0029866127 0.03070307
000370 f6 2e 30 bd 4b 1a c7 3d 73 9d 7f 3b c7 99 84 bd
       -0.043013535 0.09721812 0.003900376 -0.06474643
000380 8d 50 71 3d b2 8d a8 3d 49 af 0e bd 66 94 b6 3c
       0.05891471 0.08230151 -0.034835134 0.022287559
000390 f0 7a 1f be 91 dd 2c 3c 05 dc 6a 3c 25 46 1d 3c
       -0.1557424 0.010550872 0.014334683 0.009599243
0003a0 b3 fd 7f 3c 8b 9b 6c bd 83 20 d6 bd 25 f8 61 3c
       0.015624451 -0.057765525 -0.1045542 0.013792072
0003b0 4a f1 d4 bb e7 1c 98 bc 14 ea 7c 3d 3b 13 94 bd
       -0.0064984905 -0.01856847 0.06174667 -0.072302304
0003c0 5f 20 d0 3d ef aa 77 3d c6 f6 8e 3c 48 6f c1 3b
       0.10162424 0.06046575 0.017451655 0.0059031583
0003d0 22 06 38 3d 0e c7 aa bd e2 97 02 3e b9 c7 8c 3c
       0.044927724 -0.08338748 0.12753251 0.017185079
0003e0 83 e9 2d bd 74 22 df 3d 1b 9a 81 3d 8a 0e 75 3d
       -0.042459022 0.10895243 0.063282214 0.05982832
0003f0 97 09 8d 3c d0 41 83 bd 23 da fe 3a b6 19 06 3d
       0.017216487 -0.06409037 0.0019443672 0.032739364

bias f4 [512]
000000 69 77 05 bc a8 15 cc bc 22 b2 30 3e 5e 18 88 3c
       -0.008146145 -0.02491267 0.17255452 0.016613182
000010 65 10 89 bd 36 27 ad bc a8 7d 32 bd 28 6d 27 3e
       -0.0669258 -0.021136861 -0.043576866 0.16350234
000020 48 cb 68 bc c2 0d 29 bd 09 66 04 bd 1c bb c6 bb
       -0.014208622 -0.041272886 -0.03232387 -0.0060647856
000030 59 04 fe ba 21 c0 03 bc 65 34 31 3c 90 88 0f 3d
       -0.0019379958 -0.008041413 0.0108157145 0.035042346
000040 b5 ca 03 3c 0b 61 f1 3d bc 91 a2 bd 90 91 4b bd
       0.008043935 0.117860876 -0.07937953 -0.049699366
000050 cc 66 06 3e 95 ba 6d bc 03 b2 80 bd 7e a5 76 bc
       0.13125151 -0.014509817 -0.06283953 -0.015054105
000060 4d 05 45 bb 9c 60 a7 3d 76 b0 61 bd 0c 38 ed bc
       -0.0030062974 0.08172724 -0.055099927 -0.02895739
000070 a0 7b 3d bd 71 cc 26 bc 7c a1 40 bc e2 f9 10 bd
       -0.046260476 -0.010180579 -0.011757251 -0.035394557
000080 c4 69 35 bc 32 75 20 be 61 c8 00 be f7 d1 81 3b
       -0.01107258 -0.15669706 -0.12576438 0.0039617973
000090 00 be 64 3c 72 06 78 bc 8a 8c 88 bc b6 11 7a bc
       0.013961315 -0.015138255 -0.016668577 -0.015263012
0000a0 08 f0 04 bd 26 9b f8 bd 1c b5 aa bc a6 9c 3e bc
       -0.032455474 -0.12138967 -0.020838313 -0.011634028
0000b0 bb 91 20 bd ac 6f c3 3d 3d b4 9f bd 45 36 7e bc
       -0.03920148 0.09542784 -0.077980496 -0.015515869
0000c0 ce bf af bc 31 de 0b bc 83 e7 a6 ba 66 e0 d8 bc
       -0.021453764 -0.008536861 -0.0012733791 -0.026474189
0000d0 40 a8 ce bd 41 eb a9 bc 6a a1 0a bd 21 71 07 bd
       -0.10090685 -0.02074206 -0.033845343 -0.033066873
0000e0 cc 74 04 bd 77 36 49 bd be 2e 49 bd ad a1 03 bc
       -0.03233795 -0.049124207 -0.049116842 -0.008034152
0000f0 39 b5 d5 3a d7 3c d7 bc f7 df 31 3e dd d5 b9 bc
       0.0016304619 -0.026274128 0.17370592 -0.022684986
000100 53 d3 70 bd 32 9d 35 3b 13 32 69 3d a1 5a b3 ba
       -0.058795284 0.0027712104 0.05693252 -0.0013683626
000110 a9 99 5e bb 35 8f 90 3d 35 5d 80 bc a5 9e c6 bc
       -0.00339661 0.070585646 -0.015669445 -0.02424557
000120 d0 32 b5 ba 43 0f 5a bd f8 04 a1 bb a3 b4 f2 bc
       -0.0013824347 -0.05323721 -0.0049139224 -0.02962715
000130 d2 e9 32 bd ad 9f 8a bd c5 d1 27 be bc 11 06 bc
       -0.04368002 -0.06768737 -0.16388614 -0.008182939
000140 a8 f8 65 bc 82 fe 91 bd 00 b9 b6 3b 79 d5 57 3d
       -0.014036335 -0.07128622 0.005576253 0.052693818
000150 06 82 ca bc a0 ef 3a bc af 08 4f bd 8e f4 26 3e
       -0.024720203 -0.01140967 -0.05054539 0.16304228
000160 1a db aa 3d 78 7a 2e be 67 a5 d8 bc 78 bc 69 bd
       0.083425716 -0.17038906 -0.026446057 -0.057064503
000170 e4 4c 5d 3c 26 4f b9 37 39 fe 2b 3d 36 8b 0d 3c
       0.013507102 2.2090575e-05 0.041990492 0.0086391475
000180 ab c4 de 3b 0b 34 c5 bc c3 9c 6b 3d 90 a2 07 38
       0.006798347 -0.024072668 0.057522546 3.2337906e-05
000190 a2 30 59 bd 20 a5 50 bd a1 0e 30 bc 7e 38 62 bd
       -0.053024895 -0.050938725 -0.010745675 -0.055229656
0001a0 0c 92 64 bd 23 65 21 3e f0 e8 63 3b 8b 89 06 bd
       -0.055803344 0.15761237 0.0034776293 -0.032846015
0001b0 8f 84 af bc 1a c0 9b bc c8 4e 24 bd 88 ac 20 bd
       -0.021425514 -0.0190125 -0.040114194 -0.03922704
0001c0 2c 2b 4d bd 03 f0 04 bd 29 10 a3 3d 8c f4 7f bd
       -0.05009 -0.032455456 0.07962067 -0.062489077
0001d0 0b d8 d2 bc 83 f4 9f 3c 55 46 26 bc 66 15 51 bd
       -0.025737783 0.019525772 -0.010148604 -0.051045798
0001e0 e3 9f b6 3a 80 1a 67 3c bb 19 dc bc b0 b9 8b bd
       0.0013933148 0.014105439 -0.026867738 -0.068225265
0001f0 8e 4c 65 bc b8 e3 65 bc 6e a8 72 bd 7e 0c 1b 3c
       -0.013995303 -0.014031343 -0.05924266 0.009463428
000200 c6 0d 14 bb b6 5f 13 bd 74 df 0a 3c d1 08 68 bc
       -0.0022591217 -0.03597995 0.008476127 -0.014162258
000210 e3 f8 22 be da 2f 5e bd 99 6f de 3d c3 a0 2e bd
       -0.15915255 -0.054244854 0.10861129 -0.042633783
000220 68 6c a4 bd 39 25 37 bd e2 5e b5 3d 29 c4 7b bb
       -0.08028489 -0.044713233 0.08855988 -0.003841648
000230 fc 57 f7 3b e0 35 8c 3a fb ea 57 bb 9f 81 bb bc
       0.0075483304 0.0010697208 -0.0032946456 -0.022888957
000240 e5 38 0c bd 0e 4e 4e bd bb 59 b4 bc 2b 8c 9c bc
       -0.034233946 -0.050367408 -0.022015443 -0.019109806
000250 30 70 42 3e 65 b3 52 3e 23 c9 00 3e 6b aa b2 bc
       0.18988109 0.20576246 0.12576728 -0.021809777
000260 7b d7 34 bd 53 45 8f bd 50 d6 58 3e 31 d6 1c bc
       -0.04415081 -0.069956444 0.21175504 -0.009572552
000270 37 ee 81 bd 2d c1 c3 3d c4 44 15 bd 1f eb 0b bd
       -0.06344264 0.0955833 -0.036442533 -0.034159776
000280 88 ca 21 3e 59 ca ee 3d 8f 6d 5d 3c 69 7a c8 3d
       0.15799916 0.116596885 0.01351489 0.09788973
000290 08 3d 55 3d e1 34 a9 bc 22 06 f8 bc c6 e0 11 bd
       0.052060157 -0.020655097 -0.030276362 -0.03561475
0002a0 e1 aa 91 3c 89 15 4d 3e 6a ad fb bc a3 ef b2 3b
       0.017781677 0.20027746 -0.030722339 0.005460696
0002b0 82 f5 b0 3a 1f 4a 16 bd 7c db d3 3c b7 94 f9 3b
       0.0013500901 -0.03669178 0.025861494 0.007616605
0002c0 fe 97 98 bb fa cb 4a 3b 5c 25 fe bc 7e 7c 33 3e
       -0.0046567908 0.0030944333 -0.031023674 0.17527959
0002d0 9f ef 86 bc 51 17 74 bd 74 96 f0 bb 7e 30 29 bd
       -0.016471682 -0.05959255 -0.007342154 -0.04130601
0002e0 c6 32 fc 3d 55 66 08 bd 51 66 2b bc a4 db 47 3c
       0.12314372 -0.033300716 -0.010461406 0.0121983625
0002f0 4e ca 1f bd 6c 8e 0f bc 30 76 e3 3d db d5 b6 bc
       -0.039011292 -0.008761983 0.11106527 -0.022318771
000300 bc 9f 05 bd fe 75 4d bd 6b f0 44 bc 3f ae 3b 3c
       -0.032623038 -0.050161354 -0.012020211 0.011455118
000310 10 58 c4 3c 54 51 e0 3d a8 16 1a 3d d4 e5 37 bd
       0.023967773 0.10953012 0.037619263 -0.044896916
000320 3a c0 d0 3c 7a 81 45 bc b5 0f 28 3e 9c 72 65 bd
       0.025482286 -0.012054795 0.16412242 -0.056017503
000330 b6 ba 0b 3c ff 25 af 3d f2 1c e1 3b 11 05 10 bc
       0.008528402 0.08552169 0.0068699056 -0.00879027
000340 c2 51 2b bd 3d 1b e5 bc bc cc f1 bc a8 d5 c5 3d
       -0.041826017 -0.02796709 -0.02951657 0.09659892
000350 a7 a0 be 3c bd 29 e0 bb 13 51 7d bc a2 c5 9c bc
       0.023269964 -0.006840913 -0.015461224 -0.019137207
000360 c6 0c 7f 3c 1c 04 a9 bc 06 ee e8 bd 63 23 f8 3b
       0.01556701 -0.020631842 -0.11373524 0.007572578
000370 67 06 aa 3c 83 28 f0 3d b8 64 9a 3c c5 91 ce 3d
       0.020755006 0.11726477 0.018846855 0.10086397
000380 09 65 34 bd 62 46 5c bd 23 00 4a 3e 67 9e fc bc
       -0.044041667 -0.05377806 0.19726615 -0.03083725
000390 ed c9 52 3b 78 7f 0e 3d 73 5b 1d bb fd d7 2a bd
       0.0032163814 0.034789532 -0.0024010807 -0.04170989
0003a0 d7 f6 16 3d 8a e2 e7 bb 3a ed 02 bd 02 37 e3 3c
       0.0368565 -0.007076566 -0.031964518 0.02773619
0003b0 f1 d6 82 bc 74 ca 23 bd e2 ec ef bc 8a 81 b5 bc
       -0.015971633 -0.039987996 -0.02928776 -0.022156496
0003c0 36 33 06 bc 69 89 ce bc 9e b4 73 bd d9 d8 0c bd
       -0.008190921 -0.025212007 -0.05949842 -0.03438649
0003d0 4c b0 9d 3c 06 c2 34 bd 25 67 1c bd 47 b0 62 bb
       0.019249104 -0.044130348 -0.038184304 -0.0034589933
0003e0 a7 b3 b6 3d 7b b4 43 bd 97 7f 2b bc a8 d2 38 3e
       0.08920985 -0.04777954 -0.0104674315 0.18049109
0003f0 e0 81 84 3c 46 0c 90 3b 9b 06 8f 3d 23 8d 57 3c
       0.01617521 0.0043959944 0.06983682 0.013156208
