python/bsc/con2prim_restoration/training_with_best_params/0046/net.pth (torch, 248871 bytes, 7 tensors)

layers.0.weight f4 [66, 3]
0	0x3ed06621	0.40702918
1	0xbeaa078e	-0.3320889
2	0x3e7b4ccd	0.24541016
3	0x3eca9e20	0.39573765
4	0x3ee2d121	0.44300178
5	0xbef362c7	-0.475363
6	0x3f086aee	0.5328816
7	0x3ec70015	0.3886725
8	0xbef836f3	-0.48479423
9	0x3db0b79c	0.08628771
10	0x3e6901d0	0.22754598
11	0xbf0fc916	-0.5616621
12	0x3eea0023	0.4570323
13	0x3ef1fa0f	0.47261092
14	0x3ec83e88	0.39110208
15	0xbddeb423	-0.10874202
16	0x3edeba4e	0.43501514
17	0xbe962bf7	-0.29330418
18	0xbef2baba	-0.47408086
19	0x3e6af92f	0.22946618
20	0xbe209f4f	-0.15685771
21	0x3ec19c5e	0.3781461
22	0xbeb6881d	-0.3565072
23	0xbedd2bc3	-0.4319745
24	0xbc997a7f	-0.018735169
25	0xbeb78ffa	-0.35852033
26	0xbede849f	-0.43460557
27	0x3c810820	0.015750945
28	0x3e2f6ca5	0.17131288
29	0x3cf6ddf0	0.030135125
30	0xbf0ecfa0	-0.5578556
31	0xbe1b818a	-0.15186134
32	0xbd642e83	-0.05570842
33	0xbea52d03	-0.32260904
34	0xbdd90d2f	-0.10598218
35	0x3d98ccff	0.07460975
36	0xbeaa5485	-0.33267608
37	0x3dffd708	0.12492186
38	0x3d0ccc05	0.034374256
39	0x3ef17ce6	0.47165602
40	0x3dedf7d6	0.116195366
41	0xbe48915c	-0.195867
42	0xbec3dacf	-0.38252875
43	0x3e893629	0.26799133
44	0x3ebfa977	0.3743398
45	0xbe8d1147	-0.27552244
46	0xbe565c54	-0.20933658
47	0x39c1aa93	0.00036938916
48	0x3e84fa04	0.25971997
49	0xbf00390a	-0.50087035
50	0xbdd45abf	-0.10368871
51	0xbec99a67	-0.39375612
52	0x3f0047d2	0.5010959
53	0x3dc8f711	0.09812749
54	0x3e3fadbc	0.18718618
55	0xbda687a3	-0.081313394
56	0xbe8f6f85	-0.2801477
57	0xbdead2a5	-0.114659585
58	0xbee6de41	-0.4509144
59	0xbeba2be9	-0.36361626
60	0xbec33d02	-0.38132483
61	0x3db2aa51	0.087238915
62	0x3db0af1f	0.08627152
63	0xbedc4c90	-0.43027163
64	0x3c5d94cd	0.013524246
65	0x3e5f8234	0.21827012
66	0xbe5585ac	-0.20851773
67	0x3e2a8f25	0.16656168
68	0x3ea5f269	0.32411507
69	0x3ec5c7c3	0.3862897
70	0x3e9c0423	0.30471906
71	0x3ed54ae9	0.41658714
72	0x3e54e9a1	0.20792247
73	0x3dbb286c	0.09138569
74	0xbf05e32e	-0.52299774
75	0xbec58030	-0.38574362
76	0x3e999fb3	0.30004653
77	0x3e6b280e	0.22964498
78	0x3ea508a9	0.3223317
79	0x3eccb2e5	0.39980236
80	0xbef92f12	-0.48668724
81	0xbdaab8fc	-0.08336064
82	0xbc971373	-0.018441891
83	0x3d10a1ca	0.035310544
84	0xbeb27012	-0.34851128
85	0x3ebf03fe	0.37307733
86	0xbe2f2f5d	-0.17107911
87	0xbdc6ffc8	-0.09716755
88	0xbec78fe0	-0.38976955
89	0x3dc0f0e3	0.094209455
90	0x3e32dc9f	0.17466973
91	0xbe3fe164	-0.18738323
92	0x3e18bc93	0.14915685
93	0xbeaadb5d	-0.33370486
94	0x3e281c1d	0.16416974
95	0x3c8979d2	0.016781721
96	0xbcbd0967	-0.023075772
97	0xbf0e9aff	-0.55705255
98	0x3e472762	0.19448617
99	0xbf0c20ac	-0.54737353
100	0xbd693853	-0.05693848
101	0x3ef716f7	0.48259708
102	0xbe4fa600	-0.20278168
103	0x3ee3c0fa	0.44483167
104	0xbd878a90	-0.066182256
105	0x3ee103d7	0.43948242
106	0x3e4b2c36	0.19841084
107	0x3eb2e221	0.34938148
108	0x3ee883fa	0.4541319
109	0xbe48abfb	-0.19596855
110	0x3f129d19	0.5727096
111	0x3ef04808	0.46929955
112	0x3e8ddd3e	0.27707857
113	0xbe8f5edb	-0.28002056
114	0xbf05e165	-0.5229705
115	0x3e570cd5	0.21000989
116	0x3e0abf3d	0.13549514
117	0x3e5bf019	0.21478309
118	0x3efef0ec	0.49793184
119	0x3e0d9efd	0.1383018
120	0x3d5007e7	0.050788786
121	0x3efc5326	0.49282187
122	0xbefa1dee	-0.4885096
123	0xbda16e66	-0.07882385
124	0x3ecbd7f6	0.39813203
125	0x3efe8dd5	0.49717584
126	0x3edf57a0	0.4362154
127	0x3eb97ef1	0.3622966
128	0x3e4209c2	0.18949035
129	0xbdb008f7	-0.0859546
130	0xbdc85e69	-0.09783632
131	0x3e83b6be	0.2572536
132	0xbe88a821	-0.26690772
133	0x3ecd2337	0.4006593
134	0x3e758030	0.23974681
135	0xbea60f5e	-0.324336
136	0xbd067d9e	-0.03283464
137	0x3cd73702	0.026271347
138	0x3ee4c3c6	0.44680613
139	0xbec52e8f	-0.38512084
140	0xbee63707	-0.44963858
141	0xbefb4687	-0.49077246
142	0xbe37ae9a	-0.17937699
143	0x3ed61963	0.41816244
144	0x3e17b88e	0.14816496
145	0xbe8e0044	-0.27734578
146	0xbed59e28	-0.41722226
147	0x3ddcba21	0.10777689
148	0x3e95277d	0.2913169
149	0x3ead141b	0.33804402
150	0xbec16c08	-0.37777734
151	0xbeeecdc7	-0.4664137
152	0x3f11978c	0.5687187
153	0xbece877c	-0.4033774
154	0x3eaea40e	0.3410954
155	0xbccaf27b	-0.024773827
156	0x3df39bf9	0.11894984
157	0x3e8ea1ec	0.27857912
158	0xbd2464df	-0.04013526
159	0x3eb13a34	0.34614718
160	0x3d0abff5	0.03387447
161	0xbe09a163	-0.1344047
162	0x3e8b4cb8	0.2720697
163	0x3de4e0de	0.111757025
164	0xbe215170	-0.15753722
165	0xbdcde7b1	-0.10053957
166	0xbeccec52	-0.40024048
167	0x3e05f805	0.13082893
168	0x3ef4f5f7	0.47843906
169	0xbf00fb7e	-0.50383747
170	0x3e5f331c	0.2179684
171	0xbe9ab87a	-0.3021887
172	0x3daa4f97	0.08315962
173	0x3de550e3	0.111970685
174	0x3ef12b3f	0.47103307
175	0x3eed2835	0.46319738
176	0xbdde6737	-0.108595304
177	0x3ec84453	0.39114627
178	0xbf0f878d	-0.5606621
179	0xbf0c3691	-0.5477076
180	0xbecdeaca	-0.40218192
181	0x3e7f7aab	0.24949138
182	0xbdcb9c0a	-0.099418715
183	0x3f0e8e10	0.5568552
184	0xbed49929	-0.41523102
185	0xbe5c750b	-0.21529023
186	0xbdafad81	-0.08578015
187	0xbebc0730	-0.36724234
188	0xbeefee94	-0.46861708
189	0x3db13cdd	0.08654187
190	0xbd32b31b	-0.04362784
191	0xbec233ba	-0.3793009
192	0xbd1019b0	-0.035180748
193	0x3ed26c79	0.41098383
194	0xbe204116	-0.15649828
195	0xbe8f68b7	-0.2800958
196	0xbdfb0bd3	-0.12258115
197	0xbe95ac9d	-0.29233256

layers.0.bias f4 [66]
0	0x3eada841	0.3391743
1	0xbd8a832e	-0.06763302
2	0x3ea461d4	0.32105887
3	0xbdec8869	-0.11549456
4	0xbe25c65e	-0.16188952
5	0x3f066e28	0.52511835
6	0xbe03e353	-0.12879686
7	0x3e535ff5	0.20642073
8	0x3db1cd6e	0.08681761
9	0xbf1c784e	-0.6112107
10	0xbea92709	-0.33037594
11	0xbd8475e7	-0.064678006
12	0xbdf4998e	-0.11943351
13	0x3df1f775	0.11814777
14	0x3e799ef7	0.24377047
15	0x3ea92c2d	0.33041516
16	0x3e8a713e	0.27039522
17	0x3e7a92c9	0.24470057
18	0x3d81c439	0.063362546
19	0xbeb5bde3	-0.35496435
20	0xbefbf73a	-0.49212056
21	0x3ea94ba1	0.33065513
22	0x3e8e5896	0.2780196
23	0xbf07c6f8	-0.5303798
24	0x3eb0b83a	0.34515554
25	0xbf03bf4d	-0.51463777
26	0x3e16c576	0.14723763
27	0x3e706202	0.23474887
28	0x3dc931f5	0.09823982
29	0xbf09b513	-0.5379192
30	0x3ea6cadd	0.32576647
31	0xbd6e92a1	-0.058245305
32	0xbe6ccb3c	-0.23124403
33	0xbc209103	-0.0098001985
34	0xbe3db2ea	-0.18525282
35	0x3de1fe8a	0.110348776
36	0xbf0b00c2	-0.5429803
37	0x3e89cf53	0.26915988
38	0xbddee140	-0.10882807
39	0x3ebc925d	0.36830416
40	0xbdd150bb	-0.10220476
41	0xbe22ded2	-0.15905312
42	0xbee77879	-0.452091
43	0x3ef95014	0.48693907
44	0xbe9ce4f7	-0.30643436
45	0x3daf0925	0.08546666
46	0x3ed193eb	0.40933165
47	0xbe9fc893	-0.31207713
48	0x3e04f82a	0.12985292
49	0x3ece753b	0.40323815
50	0xbe2b2cdd	-0.16716333
51	0xbe0be6ea	-0.13662305
52	0xbf0214b2	-0.5081283
53	0xbe8a87fc	-0.27056873
54	0xbeccd3d2	-0.40005356
55	0x3ee36211	0.44410756
56	0xbc26aeb4	-0.010173488
57	0x3e08d5c8	0.13362801
58	0xbd8a370a	-0.06748779
59	0x3e5dd20b	0.21662156
60	0xbdac1a29	-0.08403427
61	0x3ee14aae	0.4400229
62	0x3f031a67	0.5121216
63	0x3b2ae606	0.0026077046
64	0x3ed0db78	0.4079244
65	0xbe52dec9	-0.20592798

layers.1.weight f4 [193, 66]
0	0xbdb2d6d3	-0.08732381
1	0xbc9fb266	-0.019494247
2	0xbd785699	-0.06062946
3	0xbb90fbc3	-0.0044245436
4	0xbb600792	-0.00341842
5	0xbd2991d0	-0.041398823
6	0x3bd80f73	0.0065936386
7	0x3d441995	0.04787596
8	0xbca0f433	-0.019647693
9	0x3cf7bed2	0.030242357
10	0xbdb819a2	-0.08989264
11	0xbbbcd05b	-0.0057621426
12	0x3dfc4f44	0.12319806
13	0x3d0068ef	0.031350072
14	0x3d88092e	0.06642376
15	0xbd2eee02	-0.04270745
16	0x3e2c9eb5	0.16857417
17	0x3db284f4	0.08716765
18	0x3dec2d6b	0.115321
19	0x3ccd1baa	0.025037605
20	0xbb4db4c5	-0.0031388265
21	0x3d1f4423	0.03888334
22	0xbdb19298	-0.08670539
23	0xbd3ad375	-0.045611817
24	0xbd40fa5b	-0.047113758
25	0x3cdaa7a3	0.026691264
26	0x3de30c30	0.11086309
27	0x3d1a5136	0.037675105
28	0x3dc1fe24	0.094723016
29	0xbdf0c87d	-0.1175699
30	0xbda4e021	-0.08050562
31	0xbdc382f1	-0.095464595
32	0x3d86017b	0.06543251
33	0x3cbbdede	0.02293342
34	0xbbb33adb	-0.0054696626
35	0xbca1176c	-0.019664489
36	0x3d7e2f5a	0.062056877
37	0xbd301c1d	-0.04299556
38	0x3dc35c19	0.095390506
39	0xbdc18c0a	-0.094505385
40	0x3c424ce8	0.011859156
41	0xbde1b3d1	-0.110206254
42	0x3d5dad43	0.054120313
43	0xbdb84441	-0.089973934
44	0xbda128fb	-0.078691445
45	0xbca27c5e	-0.019834694
46	0xbd5b3bf5	-0.053523976
47	0xbd3ff19d	-0.04686128
48	0xbde525c0	-0.11188841
49	0x3de0eeda	0.10983057
50	0x3dc34de0	0.09536338
51	0xbd4d2ac4	-0.050089613
52	0x3a43518b	0.00074508105
53	0xbd22c743	-0.039740812
54	0xbb2f2168	-0.0026722793
55	0x3dc29dea	0.09502776
56	0x3e06aa01	0.13150789
57	0xbda7ea5d	-0.08198998
58	0x3d9b6404	0.07587436
59	0xbd81698e	-0.06318961
60	0x3c44196d	0.011968953
61	0xbd5a6129	-0.053315315
62	0x3dc045cf	0.09388315
63	0xbcd6aa87	-0.02620436
64	0x3deb4439	0.11487622
65	0xbdcd5765	-0.10026435
66	0x3dc1f652	0.0947081
67	0x3d6b5529	0.057454262
68	0xbd88a97c	-0.066729516
69	0xbd24c430	-0.04022616
70	0x3dcf3b59	0.101187415
71	0x3d81b106	0.06332593
72	0xbde32f55	-0.11093012
73	0x3d9d6ddd	0.076869704
74	0xbe07e9bc	-0.13272756
75	0xbd889291	-0.0666858
76	0x3d48d032	0.049026676
77	0xbdc08901	-0.094011314
78	0x3d980b96	0.07424085
79	0xbda72801	-0.08161927
80	0xbd973ce8	-0.07384664
81	0x3afe2f61	0.0019392782
82	0x3da94fc0	0.08267164
83	0x3d9ec301	0.07752038
84	0xbded8d6b	-0.11599239
85	0xbdfeb2fd	-0.12436483
86	0x3c6eb997	0.014570615
87	0xbba43bbc	-0.0050120037
88	0x3d855196	0.06509702
89	0xbd490cdc	-0.04908453
90	0xbd9bb514	-0.07602897
91	0xbd817638	-0.063213766
92	0x3d8d2666	0.068920895
93	0xbdd16823	-0.10224941
94	0xbe8fb4c5	-0.28067604
95	0xbde74ece	-0.11294328
96	0x3d2de501	0.042454723
97	0xbdec13b8	-0.115271986
98	0x3dc985fb	0.09840008
99	0xbd57c71f	-0.05268013
100	0xbd5b6825	-0.053566117
101	0xbd09b1d5	-0.03361686
102	0xbd2ee664	-0.042700186
103	0x3dd66995	0.10469357
104	0x3d2d324d	0.0422843
105	0xbdd8568b	-0.10563382
106	0x3d524152	0.051331826
107	0xbdc454bb	-0.095864736
108	0x3d9c9ac8	0.0764671
109	0x3db36c33	0.08760872
110	0x3d258c73	0.040417146
111	0xbc1cc69a	-0.009568835
112	0x3dc7d197	0.09756773
113	0xbd8adabf	-0.06780004
114	0xbe4bf7c0	-0.19918728
115	0x3cb6373c	0.022243135
116	0x3dbd2f51	0.092375405
117	0xbe0e6592	-0.13905933
118	0xbdcd5a69	-0.1002701
119	0xbe06a36e	-0.13148281
120	0x3ca7883e	0.020450708
121	0x3d322bce	0.043498807
122	0xbde02f8d	-0.109465696
123	0xbe80c9f8	-0.2515409
124	0x3dcf9595	0.101359524
125	0xbd29d965	-0.04146709
126	0xbe03e6ca	-0.12881008
127	0xbe1ef60f	-0.15523551
128	0x3cab7202	0.020928387
129	0x3b84843b	0.0040440834
130	0x3cbac6a0	0.02279979
131	0x3d728053	0.05920441
132	0x3e221b4b	0.15830724
133	0xbc220fac	-0.009891432
134	0xbca99e7b	-0.020705452
135	0xbdae06f6	-0.084974214
136	0x3d8eac91	0.06966508
137	0xbcc69961	-0.024243059
138	0xbd356cfd	-0.044293392
139	0x3cd19f11	0.025588544
140	0xbd89f474	-0.06736079
141	0xbc582eab	-0.01319472
142	0xbde271e9	-0.11056883
143	0xbcda02f1	-0.02661273
144	0xbd25e207	-0.04049876
145	0xbd8896a0	-0.066693544
146	0x3dc2f601	0.09519578
147	0x3d2701ca	0.04077319
148	0x3cc184df	0.023622928
149	0xbd74f268	-0.05980149
150	0xbdc89237	-0.09793513
151	0xbd309644	-0.043112054
152	0xbd98f942	-0.07469417
153	0x3d2e0344	0.042483583
154	0x3de2fe37	0.11083644
155	0x3d5eb375	0.054370362
156	0xbbde1ed4	-0.0067785773
157	0x3d917599	0.07102508
158	0xbe662f16	-0.224789
159	0x3e1f493f	0.15555285
160	0xbc54c71a	-0.012986923
161	0xbcb311e8	-0.021859124
162	0x3e14215f	0.14465855
163	0x3d91acca	0.07113035
164	0xbc326ed6	-0.010890683
165	0x3d3838c3	0.044976007
166	0xbdbdbd14	-0.092645794
167	0x3d70f4fe	0.058827393
168	0x3d978a21	0.07399393
169	0xbd52ddb5	-0.051480968
170	0xbc20a812	-0.009805696
171	0x3d7d7862	0.061882384
172	0xbc425c9d	-0.011862901
173	0x3da5ada6	0.080897614
174	0x3d368287	0.044558074
175	0x3c234fd4	0.009967763
176	0x3ce2dabc	0.027692191
177	0x3d81fddf	0.0634725
178	0x3c319ad5	0.0108401375
179	0xbca318db	-0.019909313
180	0x3cd3b611	0.025843652
181	0xbd16a0c1	-0.0367744
182	0x3e44cb83	0.19218259
183	0xbe0a09b1	-0.1348026
184	0x3d9eb2c0	0.077489376
185	0x3d892e64	0.066983014
186	0x3db24228	0.087040246
187	0x3cb5df5f	0.022201238
188	0x3c6cbe48	0.014449663
189	0xbdf00008	-0.11718756
190	0xbdf19a52	-0.117970124
191	0xbdb63202	-0.08896257
192	0xbdb1a53b	-0.08674093
193	0x3b4f8574	0.0031665238
194	0x3d4aef57	0.04954466
195	0xbd2f2510	-0.042759955
196	0xbc17c2aa	-0.00926272
197	0x3d61fca5	0.05517258
198	0xbc93c0ba	-0.018036235
199	0xbda3dc36	-0.08000986
200	0xbe0a01f3	-0.13477306
201	0x3d4dc5a5	0.050237317
202	0xbdbd4930	-0.09242475
203	0xbe0f4a6f	-0.13993238
204	0xbde19270	-0.11014259
205	0x3d49b882	0.049248226
206	0x3de6d549	0.1127115
207	0x3d94781b	0.07249471
208	0x3dad0d28	0.08449775
209	0xbdbdf0d5	-0.09274451
210	0xbdb4f470	-0.08835685
211	0xbdaeb41d	-0.08530448
212	0x3c45ae39	0.012065464
213	0xbd10f539	-0.035390113
214	0xbe04885f	-0.12942646
215	0x3cafe924	0.021473475
216	0x3d6d4c98	0.057934374
217	0xbdb4ad20	-0.088220835
218	0xbc1f3558	-0.009717308
219	0xbdb0b308	-0.086278975
220	0x3c0f8d4c	0.008761715
221	0x3dc46b60	0.09590793
222	0x3dab5273	0.08365335
223	0xbd2f89b1	-0.042855922
224	0xbdc2afe6	-0.09506206
225	0x3d950bd0	0.07277644
226	0x3d15c728	0.036566883
227	0xbd5e3cfa	-0.05425737
228	0x3d8b8fd7	0.06814545
229	0xbd24ad78	-0.040204495
230	0xbd768ea6	-0.060194634
231	0xbc88f950	-0.016720444
232	0xbd940e8e	-0.072293386
233	0x3db0207e	0.085999474
234	0x3ddb3f2c	0.107054085
235	0xbdd99163	-0.106234334
236	0xbe04ba4a	-0.12961689
237	0x3c6de14e	0.014519049
238	0xbe0f76ba	-0.14010134
239	0x3dd5388b	0.10411175
240	0xbbce3ad9	-0.0062936363
241	0x3d8cfbec	0.06883988
242	0x3de12454	0.10993257
243	0xbd876455	-0.06610934
244	0xbd128173	-0.035767984
245	0xbd9bf6f5	-0.07615463
246	0xbcd0fe0e	-0.025511768
247	0xbdabdebf	-0.08392095
248	0x3de73cd1	0.11290897
249	0xbcda2e45	-0.026633391
250	0xbc8af865	-0.016964147
251	0x3db49c3b	0.08818861
252	0xbd59251a	-0.0530139
253	0xbe0497cc	-0.12948531
254	0xbe0c3de9	-0.13695492
255	0xbd1443f9	-0.036197636

layers.1.bias f4 [193]
0	0xbd899ae0	-0.06718993
1	0x3d504fee	0.050857477
2	0xbd7963b1	-0.06088609
3	0xbd8cfc4d	-0.0688406
4	0x3d5efc67	0.05443993
5	0xbce04736	-0.027377706
6	0x3ca07ca8	0.01959069
7	0xbb80189b	-0.003909183
8	0x3cdf9137	0.027290924
9	0xbda86e9a	-0.082242206
10	0xbd147076	-0.036240064
11	0x3b47ace8	0.003046805
12	0xbdd3ea74	-0.10347453
13	0xbdc6572e	-0.09684597
14	0xbda3eb47	-0.0800386
15	0xbd685702	-0.056723602
16	0xbd526fcf	-0.05137616
17	0xbdec3510	-0.11533558
18	0x3c29af86	0.010356789
19	0xbe0be6a1	-0.13662197
20	0x3e1b280a	0.15151992
21	0xbd68260b	-0.056676906
22	0x3ceeba73	0.02914164
23	0x3cc3c670	0.023898333
24	0x3dc49da4	0.0960038
25	0x3dc00104	0.09375194
26	0x393f8130	0.00018263306
27	0xbcfed3f2	-0.031106923
28	0x3d00e927	0.03147235
29	0x3c99b991	0.018765243
30	0xbd446765	-0.047950167
31	0x3cff8ea9	0.031195955
32	0x3d31186f	0.043236192
33	0xbdeb7913	-0.114977024
34	0xbd800577	-0.06251042
35	0xbd8692ea	-0.065709904
36	0x3c79dd82	0.0152505655
37	0xbdfa4bb5	-0.12221471
38	0xbb66233b	-0.0035116214
39	0xbe26fb82	-0.1630688
40	0xbd5e8e35	-0.054334838
41	0x3ddfb5c7	0.10923343
42	0x3db55624	0.08854321
43	0xb841a3c7	-4.6167315e-05
44	0x3dbb6805	0.091506995
45	0xbd93cee0	-0.07217193
46	0xbd985e5c	-0.074398726
47	0xbd75f6aa	-0.06004969
48	0x3de7df83	0.11321928
49	0xbd729c6d	-0.05923121
50	0xbd1dac5f	-0.038494464
51	0x3d6fc854	0.058540657
52	0x3c6e140a	0.014531145
53	0xbcfab61b	-0.030604413
54	0x3b8abc19	0.004233849
55	0x3cb6a5bc	0.022295825
56	0xbd904571	-0.07044495
57	0xbd17ff53	-0.03710873
58	0xbd62d087	-0.05537465
59	0xbd8e218b	-0.069399916
60	0x3cc70cf4	0.024298169
61	0x3d0b1419	0.033954713
62	0xbbd6bb90	-0.006553121
63	0xbe0597a8	-0.13046134
64	0xbd000616	-0.031255804
65	0x3d02f9d0	0.03197652
66	0xbd2b9381	-0.041888718
67	0xbdf8406f	-0.12121665
68	0x3b941837	0.004519488
69	0xbdcb1607	-0.09916311
70	0x3d80480a	0.0626374
71	0xbdb61941	-0.088915356
72	0x3db2098a	0.08693226
73	0xbbc5a525	-0.0060316497
74	0xbe00b12b	-0.12567584
75	0xbc43875c	-0.011934128
76	0x3d57f50e	0.052723937
77	0x3da0a037	0.078430586
78	0xbddb67ae	-0.10713135
79	0x3c8430e8	0.016136602
80	0xbdeb63c4	-0.11493638
81	0x3dd0f515	0.10202996
82	0xbb5e9487	-0.003396304
83	0xbd219cde	-0.03945624
84	0xbde1d0ff	-0.11026191
85	0x3dc99aa4	0.098439485
86	0x3d80dbba	0.062919095
87	0xbd932216	-0.07184236
88	0x3d643235	0.055711944
89	0xbde29f3b	-0.11065527
90	0xbde19a74	-0.11015788
91	0x3d4d56b2	0.050131507
92	0xbd8271b5	-0.06369344
93	0x3dfca4f2	0.12336148
94	0x3d202cb1	0.03910512
95	0xbc214f98	-0.009845637
96	0xbae15da4	-0.0017194045
97	0x3d9a50eb	0.07534965
98	0xbdde3a9a	-0.10851021
99	0x3d36eda7	0.044660237
100	0xbdc81aa7	-0.097707085
101	0x3da7db6f	0.081961505
102	0xbd34a254	-0.04410012
103	0xbd9ae497	-0.07563131
104	0x3b7f2d70	0.0038936995
105	0xbd9fd7f1	-0.078048594
106	0x3e0e488d	0.13894863
107	0x3bde7c28	0.006789703
108	0xbdba4b6c	-0.09096417
109	0xbd78b91b	-0.060723405
110	0xbd1e4dc8	-0.038648397
111	0xbd9fe913	-0.07808127
112	0x3dde49dc	0.10853931
113	0xbd2d3351	-0.042285267
114	0xbd90b0b1	-0.07064951
115	0x3d959ea7	0.07305651
116	0x3c68389c	0.014173653
117	0x3c5fd385	0.01366127
118	0x3d0a694a	0.033791818
119	0xbce3f6ad	-0.027827585
120	0xbd691f3b	-0.05691455
121	0xbdbb7df5	-0.09154884
122	0x3c2c227e	0.01050627
123	0xbd3d800a	-0.046264686
124	0xbcf91b7b	-0.030408612
125	0xbdd01d8e	-0.10161887
126	0x3c53fbf7	0.012938491
127	0x3d424f9c	0.047439203
128	0xbbf86bdb	-0.0075812167
129	0x3cbaea3b	0.022816768
130	0x3dee149d	0.116250254
131	0xbe10acbe	-0.14128396
132	0x3dd29d96	0.102839634
133	0x3bd03022	0.006353394
134	0x3dce7291	0.100804456
135	0x3c59c6eb	0.013292055
136	0xbdab1345	-0.08353285
137	0xbd03ba4c	-0.03216009
138	0x3d964061	0.07336498
139	0xbe1ad9a3	-0.15122084
140	0x3e1c5b4a	0.15269199
141	0xbcbff665	-0.02343292
142	0xbc36297d	-0.01111829
143	0xbe011730	-0.12606502
144	0x3dbb1ddd	0.09136555
145	0xbdc56b81	-0.09639645
146	0x3dd0c079	0.10192961
147	0x3cadce64	0.021216579
148	0x3baf1b97	0.005343865
149	0xbd638fb8	-0.055556983
150	0x3bf41f18	0.0074499957
151	0xbc0737bd	-0.008253035
152	0x3d6faaf7	0.058512654
153	0xbdfb348c	-0.12265882
154	0x3d713b6c	0.05889456
155	0xbc03314f	-0.008007362
156	0x3d54999d	0.05190431
157	0x3e0c83ce	0.13722154
158	0x3b727873	0.0036998063
159	0x3ba8fc7b	0.005157051
160	0x3c693bb2	0.014235424
161	0x3dfc8123	0.123293184
162	0x3c4d7212	0.0125394035
163	0x3c0afd04	0.008483175
164	0xbcbf2b4d	-0.023336077
165	0xbdaa3c70	-0.08312309
166	0xbd2f522d	-0.04280298
167	0xbd8cc316	-0.06873147
168	0xbab6f20b	-0.0013957632
169	0x3c6ff696	0.014646193
170	0xbd9f497c	-0.07777688
171	0xbe06c309	-0.13160338
172	0x3da7f345	0.08200697
173	0xbda9e893	-0.08296313
174	0x3b3851c7	0.0028124915
175	0x3d5a0ede	0.053236835
176	0xbe0d42b5	-0.13794978
177	0x3d97137e	0.07376765
178	0x3d7c2030	0.061554134
179	0x3de0126b	0.10941013
180	0xbccf9448	-0.02533926
181	0x3d9976fd	0.07493398
182	0xbcbead31	-0.023275943
183	0xbd914ba5	-0.07094506
184	0x3c80770b	0.015681764
185	0xbe3728bc	-0.17886633
186	0xbdeeff0d	-0.11669741
187	0xbc6631ce	-0.01404996
188	0x3e05a4f4	0.13051206
189	0xbdb8cbc6	-0.09023242
190	0x3d8ac939	0.067766614
191	0xbe25019c	-0.16113895
192	0x3d94cfb5	0.072661795

layers.2.weight f4 [248, 193]
0	0xbb3a4838	-0.0028424393
1	0x3d2cca11	0.042184893
2	0xbd568fb5	-0.052383143
3	0x3cf7005d	0.03015154
4	0x3da3946b	0.07987293
5	0x3d5bdeeb	0.053679388
6	0x3d97525a	0.07388754
7	0x3d92957f	0.0715742
8	0x3bf4827a	0.007461843
9	0x3bacf226	0.00527789
10	0x3c19763c	0.009366568
11	0x3d705bb1	0.058681194
12	0xbcae4ecb	-0.021277806
13	0x3c9db284	0.019250162
14	0x3cd41cdf	0.025892673
15	0xb9f1f4a4	-0.00046149374
16	0xbd737677	-0.05943915
17	0x3c8f8e81	0.017524006
18	0xbb36c998	-0.0027891155
19	0xbde13fa2	-0.10998465
20	0x3d2d3fc7	0.04229715
21	0xbdd0001a	-0.10156269
22	0xbd5940ff	-0.0530405
23	0x3d0d8a7f	0.03455591
24	0x3acb9e1a	0.0015534789
25	0xbd8c6b6a	-0.06856425
26	0xbbe77040	-0.007062942
27	0xbcfd7355	-0.030938784
28	0x3d1b8c3d	0.03797554
29	0xbcea4beb	-0.028600654
30	0xbb9117c6	-0.004427883
31	0x3c8e69b9	0.017384397
32	0x3c9ee283	0.019395119
33	0x3db4a2ff	0.088201515
34	0xbd8f9bb0	-0.07012117
35	0x3d057319	0.03258047
36	0xbda03129	-0.078218766
37	0xbc948f59	-0.01813476
38	0xbcd33d71	-0.025786133
39	0xbd6759aa	-0.056481995
40	0x3df475bd	0.11936519
41	0xbcd09c4b	-0.025465151
42	0xbc9ae54b	-0.018908164
43	0xbd3d827a	-0.04626701
44	0x3d98d8a2	0.074631944
45	0x3c61afc7	0.013774819
46	0x3ce55081	0.027992489
47	0x3d8acc14	0.06777206
48	0x3cb14575	0.021639565
49	0x3d74d2b0	0.05977124
50	0xbd85188f	-0.06498825
51	0x3d88d197	0.06680601
52	0x3d739bbf	0.059474703
53	0xbd7b6248	-0.061373025
54	0x3dd0f654	0.10203233
55	0x3cc644dd	0.024202758
56	0x3dee332e	0.116308555
57	0xbd80fafc	-0.062978715
58	0xbbef438a	-0.0073017525
59	0xbc12232d	-0.008919519
60	0xbc561619	-0.013066792
61	0xbce2f4fe	-0.027704712
62	0xbd34e627	-0.044164803
63	0x3d96d231	0.073643096
64	0x3d5f6e20	0.054548383
65	0x3d24ba7f	0.04021692
66	0xbd2ae9b1	-0.04172677
67	0x3d84a69f	0.06477093
68	0x3c3f6d6c	0.011683803
69	0x3d04a87f	0.032387253
70	0x3c4b6ddb	0.012416328
71	0xbd4eedbc	-0.05051969
72	0x3c99c936	0.018772703
73	0x3cb80409	0.022462862
74	0x3db7b222	0.08969523
75	0xbd804372	-0.06262864
76	0x3d99fd73	0.07519045
77	0x3d18af5a	0.037276603
78	0xbd02ce07	-0.031934764
79	0xbaeceac1	-0.0018075333
80	0xbcea9794	-0.028636731
81	0x3dc6b7f1	0.09703053
82	0x3c14d08d	0.0090829255
83	0xbd06cab1	-0.032908145
84	0x3cea1e67	0.02857895
85	0xbcbc5890	-0.022991449
86	0x3ca4b979	0.020107972
87	0x3d416344	0.047213808
88	0xbdc5987c	-0.09648225
89	0x3d0ceb57	0.034404125
90	0x3d7df7f5	0.06200405
91	0x3b36e3d0	0.0027906783
92	0x3d3b43e8	0.045719057
93	0xbd7484a7	-0.05969682
94	0xbdd4f893	-0.10398974
95	0x3ce2b816	0.02767567
96	0xbd6db2e3	-0.058031928
97	0x38637b4e	5.4235854e-05
98	0x3c624df2	0.013812529
99	0x3d51d2ac	0.051226303
100	0xbd93bdb6	-0.07213919
101	0x3dafa55d	0.085764624
102	0x3d843883	0.06456091
103	0xbd60421a	-0.05475054
104	0x3cec7bd4	0.02886764
105	0x3d18a60c	0.03726773
106	0xbcdcd142	-0.02695525
107	0x3c931208	0.017952934
108	0xbd8403d1	-0.064460404
109	0x3d61d60c	0.05513577
110	0x3d4df2a0	0.050280213
111	0x3c967413	0.018365895
112	0x3b417bea	0.0029523321
113	0xbc5acf6e	-0.013355119
114	0xbd902200	-0.07037735
115	0x3bfe49df	0.007760271
116	0x3d9c7658	0.0763976
117	0x3d497e6d	0.049192835
118	0xbcc8eb0f	-0.024526147
119	0x3c09735b	0.008389319
120	0x3d039ccf	0.032131966
121	0x3c94a05d	0.018142873
122	0xbd6ff712	-0.058585234
123	0x3d83e867	0.064408116
124	0xbd0b789a	-0.03405056
125	0x3de382bc	0.1110892
126	0xbc845b60	-0.016156852
127	0x3d8ac257	0.06775349
128	0xbd2ec0b1	-0.042664234
129	0x3d615cbc	0.05502008
130	0x3ccf515b	0.025307348
131	0x3c4352c0	0.011921585
132	0x3c944c81	0.018102886
133	0x3dca653c	0.0988259
134	0x3b8c382e	0.004279158
135	0xbdb9fbdf	-0.09081244
136	0xbd17bdc3	-0.037046205
137	0xbd8844ab	-0.066537224
138	0x3c818c5e	0.015814003
139	0xbd5b488b	-0.05353598
140	0x3e0b4dfc	0.13603967
141	0x3d0fab3a	0.035075404
142	0x3d21cb4e	0.039500527
143	0x3d6fd75f	0.058555003
144	0xbc57ea59	-0.013178431
145	0x3bdf4188	0.006813232
146	0xbcc77fba	-0.024352897
147	0x3cc38815	0.0238686
148	0x3cdf3519	0.027246999
149	0x3d861646	0.06547217
150	0x3d78b739	0.06072161
151	0xbcc4e610	-0.024035484
152	0x3c0a0de0	0.00842616
153	0xbce9e1f7	-0.028550131
154	0x3beaccad	0.0071655125
155	0x3cb09ac9	0.021558182
156	0xbd60012a	-0.05468861
157	0xbb000931	-0.0019536729
158	0x3deb8d5f	0.11501574
159	0x3cafe248	0.021470204
160	0xbd2116bc	-0.03932832
161	0xbd9014b6	-0.070352
162	0xbccf369e	-0.025294598
163	0x3d7a97a2	0.061179765
164	0xbcd5d5c4	-0.026102908
165	0xbd3c576e	-0.045981817
166	0x399ab1df	0.00029505693
167	0xbd8b2f03	-0.06796076
168	0xbdca468d	-0.09876738
169	0xbcf0d421	-0.029398026
170	0x3d648eea	0.055800356
171	0x3cd2bc28	0.025724486
172	0x3cbeb6cd	0.023280526
173	0x3d781716	0.06056889
174	0x3ccd72c0	0.025079131
175	0x3d6b7eb8	0.057493895
176	0x3d29c69b	0.04144917
177	0xbd41cec3	-0.047316324
178	0xbb8d8c97	-0.004319738
179	0xbc03e695	-0.0080505805
180	0x3bd59c37	0.0065188664
181	0x3d0238e0	0.03179252
182	0x3c05fb31	0.0081775645
183	0xbd16a39d	-0.036777128
184	0xbd5d4265	-0.054018397
185	0x3cf01a49	0.029309409
186	0x3d708f90	0.058730662
187	0x3d17944a	0.037006654
188	0x3d3b3c9b	0.045712095
189	0xbc86826f	-0.016419617
190	0x3cea6654	0.028613247
191	0x3c84e416	0.016222041
192	0xbd36c17b	-0.04461811
193	0xbc9f8c00	-0.019475937
194	0xbceede5e	-0.029158767
195	0x3c270de2	0.010196181
196	0x3da04646	0.078259036
197	0xbcd0bd18	-0.025480792
198	0xbceb654e	-0.02873483
199	0x3d4a6057	0.049408283
200	0xbc41af74	-0.011821616
201	0xbcb2225b	-0.021744898
202	0xbc4e8865	-0.012605761
203	0x3ce612e3	0.028085178
204	0xbd5f6d66	-0.05454769
205	0xbd1b5f78	-0.037932843
206	0x3d46874e	0.04846888
207	0x3d715559	0.058919284
208	0x3cee0641	0.029055716
209	0xbd8b5264	-0.06802824
210	0xbca5f336	-0.020257574
211	0x3be9a1d2	0.007129886
212	0x3d22b09a	0.0397192
213	0x3c421358	0.011845432
214	0xbc7e6900	-0.015527964
215	0xbce88a66	-0.028386306
216	0x3d3df70a	0.046378173
217	0xbd484895	-0.048897345
218	0x3dac3410	0.08408368
219	0x3ccfc6f7	0.025363429
220	0x3c9c1be4	0.019056268
221	0x3c8eff69	0.017455773
222	0xbddf6424	-0.10907772
223	0xbdc1ab82	-0.09456541
224	0xbd2b8ab1	-0.041880313
225	0x3d507e35	0.05090161
226	0xbb853775	-0.004065449
227	0xbce8a59e	-0.028399285
228	0x3cfa9ea0	0.030593216
229	0xbc0fc4be	-0.008774934
230	0xbd41fa7b	-0.047358017
231	0xbbe1189b	-0.0068693883
232	0xbd8bde76	-0.068295404
233	0x3d2a51a7	0.041581776
234	0xbd9dcfb7	-0.07705634
235	0xbd0ef737	-0.03490373
236	0xbc2259a7	-0.00990907
237	0xbc94f662	-0.01818389
238	0x3d45be27	0.048277047
239	0x3d7c43a2	0.061587937
240	0xbcdedd4d	-0.027205134
241	0x3d024a91	0.031809393
242	0x3d74d2cf	0.059771355
243	0x3d917ff0	0.0710448
244	0x3cc5b93f	0.024136184
245	0xbc4b35a3	-0.012402925
246	0x3d2fe945	0.042947073
247	0x3bd92cf8	0.006627675
248	0x3a448970	0.00074972864
249	0x3cb1d08f	0.021705894
250	0x3c8330ad	0.016014421
251	0x3d34c058	0.044128746
252	0xbc19301c	-0.009349849
253	0x3c9929af	0.018696634
254	0xbbe1a406	-0.006886008
255	0x3c546bfb	0.012965198

layers.2.bias f4 [248]
0	0xbd51f9fc	-0.051263794
1	0xbd8b5a4a	-0.06804331
2	0x3d79121e	0.060808294
3	0xbd33f63b	-0.043935996
4	0x3d039de8	0.032133013
5	0x3d236544	0.039891496
6	0x3cc361f4	0.023850419
7	0x3cf09c4d	0.029371405
8	0x3d063fae	0.032775573
9	0xbd98c382	-0.07459165
10	0x3c1a4108	0.009414919
11	0xbd8cdc88	-0.068780005
12	0x3d685134	0.056718066
13	0xbacb3cc0	-0.0015505776
14	0xbdacfdbe	-0.08446835
15	0x3cdd9438	0.027048215
16	0x3c7b7d00	0.015349627
17	0xbd8a4163	-0.06750753
18	0x3be01713	0.006838688
19	0xbd875d44	-0.06609586
20	0x3d7445ea	0.059636988
21	0x3c16b241	0.0091977725
22	0xbb6f2a14	-0.0036493586
23	0x3b4ff758	0.0031733122
24	0x3c823c8e	0.015898015
25	0x3c9b94cf	0.018991856
26	0xbcd30efd	-0.025763983
27	0x3d4eded4	0.050505474
28	0xbd65e4cf	-0.056126412
29	0xbd084172	-0.03326554
30	0xbd0c802d	-0.034301925
31	0x3db76512	0.089548245
32	0xbd7c0a36	-0.061533175
33	0x3caaf6dd	0.020869667
34	0xbd670383	-0.056399833
35	0xbc7f3b54	-0.01557811
36	0x3db5dda6	0.08880167
37	0xbd2b4d73	-0.04182191
38	0xbd0a5a32	-0.033777423
39	0xbd8c5739	-0.06852574
40	0xbd9524a3	-0.072823785
41	0xbd8ac76a	-0.067763165
42	0x3d040461	0.03223074
43	0xbd9f3d94	-0.07775417
44	0xbb5ea11b	-0.0033970538
45	0xbca0e924	-0.01964242
46	0x3d0fecb5	0.03513785
47	0xbdc8c2f6	-0.09802811
48	0xbd81406a	-0.06311114
49	0xbb98bd8e	-0.0046612686
50	0x3cc5917a	0.02411722
51	0x3cc1a611	0.023638757
52	0x3bb55ccc	0.005534744
53	0xbd5d88a2	-0.05408538
54	0x3af973d5	0.0019031713
55	0xbcc7e0da	-0.02439921
56	0x3cf714e7	0.030161334
57	0xbca2133a	-0.019784559
58	0x3c44d8d0	0.012014583
59	0xbd91a520	-0.07111573
60	0x3d0e34f5	0.034718473
61	0xbd9a2548	-0.07526642
62	0xbc14ea29	-0.009089031
63	0xbd1e553f	-0.038655516
64	0x3b99a94e	0.004689372
65	0x3c5c2100	0.013435602
66	0xbdfeca42	-0.12440921
67	0x3d4c8046	0.04992702
68	0x3c935b46	0.017987859
69	0xbd2bbbde	-0.04192721
70	0xbd7d64e5	-0.0618638
71	0xbd8fae7d	-0.07015703
72	0xbd002c8d	-0.031292487
73	0xbe0a203f	-0.13488863
74	0x3c917126	0.017754149
75	0xbd9608cb	-0.07325896
76	0xbd8fe2f3	-0.07025709
77	0xbcff6f81	-0.031181099
78	0xb9d2ebf9	-0.00040230135
79	0xbd5a33e9	-0.05327216
80	0x3d9d423d	0.076786496
81	0xbc6f1b55	-0.014593919
82	0x3d5c8db7	0.053846087
83	0x3c729499	0.014805936
84	0xbd70e70d	-0.058814097
85	0xbc862cab	-0.016378721
86	0x3cada880	0.021198511
87	0xbca5c4c4	-0.020235427
88	0x3d46b5ed	0.04851334
89	0xbb77c5b4	-0.003780705
90	0xbcd92012	-0.02650455
91	0xbd47d2e7	-0.048785117
92	0xbcbbdd3d	-0.022932643
93	0x3c87099c	0.016484074
94	0xbcca8b26	-0.024724554
95	0x3c4e1286	0.0125776585
96	0x3c30115a	0.010746324
97	0x3d396831	0.04526538
98	0x3af25626	0.0018488809
99	0xbba6fd4b	-0.005096113
100	0xbcefd317	-0.02927546
101	0xbd8fa360	-0.07013583
102	0xbd8800be	-0.066407666
103	0x3c9ff51e	0.01952606
104	0x3d4f908c	0.05067496
105	0xbd3e4bc5	-0.04645898
106	0xbb85536a	-0.0040687816
107	0xbcad0328	-0.02111967
108	0x3e0b898d	0.1362669
109	0x3d9c437f	0.07630061
110	0xbdaf508c	-0.08560285
111	0xbda16497	-0.07880514
112	0xbd47bf9f	-0.04876673
113	0xbd32a9b8	-0.043618888
114	0xbd41ea92	-0.047342844
115	0xbc7bb7ce	-0.015363647
116	0xbc6e9ac4	-0.014563266
117	0xbd3cd8af	-0.046105083
118	0x3cdb2be0	0.02675432
119	0x3caf25f1	0.021380397
120	0xbc1f71d7	-0.009731731
121	0x3d0acabe	0.033884756
122	0xbd837f27	-0.06420737
123	0x3abdd77c	0.0014483775
124	0xbca39cc8	-0.01997222
125	0x3dd5508b	0.10415753
126	0x3cce2310	0.025163203
127	0xbc953e90	-0.018218309
128	0xbc9b07b5	-0.018924573
129	0x398a5e7e	0.00026391813
130	0xbd644428	-0.05572906
131	0xbdaf0cb9	-0.085473485
132	0x3e07b3a4	0.13252121
133	0x3ce5e262	0.02806205
134	0xbc7ecd21	-0.015551836
135	0xbb1c48a2	-0.0023847003
136	0xbd5c8767	-0.053840067
137	0xbd605bf6	-0.0547752
138	0xbd9cd624	-0.076580316
139	0x3b3d5000	0.0028886795
140	0xbda70c75	-0.08156673
141	0xbd9f9982	-0.07792951
142	0xbcc06ce3	-0.023489421
143	0x3c94b1d5	0.018151203
144	0x3d42efcf	0.04759198
145	0xbd85afb1	-0.06527651
146	0xbd55bd37	-0.052182402
147	0x3b013591	0.0019715766
148	0xbc73917a	-0.014866227
149	0xbd93bf0c	-0.07214174
150	0x3d8f0c90	0.06984818
151	0xbc9b0780	-0.018924475
152	0x3d1e80d2	0.03869707
153	0x3cbb2de3	0.022849029
154	0x3ceebe59	0.0291435
155	0x3dd7431b	0.10510846
156	0x3d401dc8	0.0469034
157	0xbc9854cf	-0.018595127
158	0xbcc2245e	-0.023698982
159	0x3ce75091	0.02823666
160	0x3da27524	0.07932499
161	0xbd3e5902	-0.046471603
162	0xbda54433	-0.080696486
163	0xbd6d905b	-0.057998996
164	0xbd48402d	-0.048889328
165	0xbd36574b	-0.044516843
166	0xbcad581e	-0.021160182
167	0xbdc5678d	-0.09638891
168	0xbd8fc48b	-0.070199095
169	0xbce056a5	-0.027385065
170	0xbd0d7481	-0.034534935
171	0x3e22e295	0.15906747
172	0xbcc7a74f	-0.024371771
173	0x3c63d065	0.013904666
174	0xbd510711	-0.05103213
175	0x3d5f6235	0.054537017
176	0xbcad5c75	-0.021162251
177	0x3b96685f	0.0045900787
178	0x3d3b512a	0.0457317
179	0xbdd5af12	-0.10433783
180	0xbcf00e58	-0.029303715
181	0x3d6d85ff	0.057989117
182	0x3c8828db	0.016621044
183	0x3c1970e2	0.009365292
184	0xbc9ca398	-0.019120976
185	0x3ac1ce6b	0.0014786249
186	0xbd7e7e8a	-0.062132396
187	0x3da8d514	0.082437664
188	0x3da1007a	0.07861419
189	0x3ce54194	0.027985372
190	0xbcd3ae03	-0.025839811
191	0xbca1d85d	-0.01975649
192	0xbd67d411	-0.056598727
193	0xbd9e1db7	-0.077205114
194	0xbcd30a39	-0.02576171
195	0xbdd05162	-0.101717725
196	0xbd339beb	-0.043849867
197	0xbd4de35b	-0.05026565
198	0xbd9f3fca	-0.07775839
199	0xbcef4abb	-0.029210439
200	0x3c12cc54	0.008959848
201	0xbb5d8439	-0.0033800735
202	0x3b033734	0.0020021917
203	0x3e0bce88	0.13653004
204	0xbd95cfdd	-0.073150374
205	0xbb9eab5e	-0.004842206
206	0xbd70964c	-0.058737084
207	0xbc4191d8	-0.011814557
208	0xbdaac23c	-0.083378285
209	0xbc5e81c4	-0.013580743
210	0x3ccb1cb9	0.02479397
211	0xbdc7fe1a	-0.09765263
212	0xbd24e856	-0.040260635
213	0xbd80bf46	-0.062864825
214	0xbe23323c	-0.15937132
215	0xbdb5eb7c	-0.08882806
216	0xbdc736e1	-0.09727264
217	0x3cac00fd	0.020996565
218	0x3d14350a	0.036183394
219	0xbd9cd866	-0.07658462
220	0x3d2a113d	0.041520346
221	0xbe1d884a	-0.15384021
222	0x3c882c38	0.016622648
223	0x3cdfe4f6	0.027330857
224	0x3cb906cd	0.02258625
225	0x3d6a3c64	0.0571865
226	0x3d3318e2	0.043724902
227	0xbd464c59	-0.048412655
228	0xbcfb9274	-0.030709483
229	0xbd71e23d	-0.05905365
230	0xbd1161d3	-0.035493683
231	0x3d9f5ac3	0.07780983
232	0x3b1c9847	0.0023894475
233	0x3c57f12f	0.013180061
234	0x3c357aa2	0.011076601
235	0xbc9e8656	-0.019351166
236	0x3da92601	0.08259202
237	0xbd9b80a2	-0.07592894
238	0xbcdcf153	-0.026970541
239	0xbd86609f	-0.06561398
240	0x3d2796ae	0.040915184
241	0xbd7a1f49	-0.061064992
242	0x3d1b8ad5	0.037974197
243	0x3ce56bdf	0.028005539
244	0xbd67d6bd	-0.056601275
245	0xbb340e17	-0.0027474219
246	0xbcdaa1de	-0.026688512
247	0xbcd6b6f1	-0.02621028

layers.3.weight f4 [1, 248]
0	0xbc8d7718	-0.017268702
1	0x3ccb8cf5	0.024847487
2	0x3d4375cf	0.047719773
3	0xbc522197	-0.012825391
4	0xbc8ebdd0	-0.017424494
5	0xbd8e2ce3	-0.06942155
6	0xbd87d184	-0.06631759
7	0x3d5cc5c1	0.05389953
8	0x3d4255e0	0.047445178
9	0xb9397846	-0.0001768778
10	0xbc96ef79	-0.018424736
11	0xba17f118	-0.00057961186
12	0x3d2e53b9	0.042560313
13	0xbc26515e	-0.010151235
14	0xbcef837b	-0.0292375
15	0x3c9c4c2f	0.019079296
16	0x3d64342a	0.05571381
17	0x3d0ecda4	0.034864083
18	0x3d515365	0.05110492
19	0xbaf17ca6	-0.0018423989
20	0x3c741c1d	0.014899281
21	0xbb2ea926	-0.0026651113
22	0x3d34ecdc	0.0441712
23	0x3d3a71fd	0.045518864
24	0x3d0bc7af	0.03412598
25	0xbd810b9d	-0.06301043
26	0x3c604b6c	0.013689857
27	0x3d6bfb9b	0.057612997
28	0xbd28c775	-0.041205842
29	0x3d2b3554	0.041798905
30	0xbc8b711f	-0.017021714
31	0xbcdcf10f	-0.026970414
32	0xbb8c8df0	-0.004289381
33	0xbd652084	-0.055939212
34	0xba628505	-0.0008641037
35	0x3bb1f76a	0.0054311054
36	0xbcbcffe8	-0.023071244
37	0xbc25b257	-0.01011332
38	0xbc981457	-0.018564386
39	0xbc988471	-0.01861784
40	0xbd0cb8df	-0.034355994
41	0xbd8045dd	-0.06263325
42	0x3d6f0455	0.05835374
43	0xbcbf5b28	-0.023358896
44	0xbcce0627	-0.025149418
45	0xbd1a43bc	-0.037662253
46	0x3d5398c1	0.05165935
47	0xbca99f6b	-0.0207059
48	0xbd2ed345	-0.04268195
49	0x3cb40bfe	0.021978375
50	0xbc36bd40	-0.011153519
51	0xbc7cc7bd	-0.015428481
52	0xbb777652	-0.0037759733
53	0xbb20088f	-0.0024419164
54	0xbc842e11	-0.016135247
55	0x3bed7f8a	0.00724787
56	0xbcf85a4b	-0.030316493
57	0x3c3505d9	0.0110487575
58	0x3cb4ee86	0.022086393
59	0x3c5f64fc	0.013634916
60	0xbda57469	-0.08078844
61	0xbc92fe94	-0.017943658
62	0x3d22698a	0.03965143
63	0xbd0beb15	-0.03415974
64	0xbd0d0d83	-0.034436714
65	0xbcb94538	-0.022616014
66	0xbc62ee5c	-0.013850775
67	0xbd2160a8	-0.03939882
68	0x3c930000	0.017944336
69	0x3c71de2b	0.014762442
70	0xbc106439	-0.008812957
71	0xbcdf7c8c	-0.027281068
72	0xbd410ed2	-0.047133274
73	0xbc871129	-0.016487675
74	0x3d3c1a8b	0.04592375
75	0xbcdcf8a6	-0.026974034
76	0xba3914d0	-0.0007060291
77	0xbcf9bea9	-0.030486422
78	0x3cd881ee	0.026429143
79	0xbb1597e0	-0.002282612
80	0x3d193ea5	0.037413258
81	0xbce95df4	-0.028487183
82	0x3d8d2462	0.06891705
83	0xbd54b9b1	-0.0519349
84	0xbcf58743	-0.029971724
85	0xbc029acb	-0.007971476
86	0xbd065215	-0.032793123
87	0xbd0839fa	-0.033258416
88	0xbda849d5	-0.08217207
89	0xbd19f111	-0.037583414
90	0x3cc6f53a	0.024286855
91	0xba9b22da	-0.0011835948
92	0x3df03f99	0.1173088
93	0x3d2b6345	0.041842718
94	0xbb68a8ca	-0.0035500997
95	0xba6a439c	-0.0008936466
96	0xbcca1352	-0.024667416
97	0x3d844d46	0.06460051
98	0xbce22b4b	-0.027608534
99	0x3ccf451b	0.025301507
100	0x3d237941	0.03991056
101	0xbd84a652	-0.064770356
102	0xbc729522	-0.014806064
103	0x3d62666c	0.05527346
104	0x3c10c663	0.008836362
105	0xbda201cc	-0.07910499
106	0x3bcb0f90	0.0061969236
107	0xbcba0f4d	-0.022712374
108	0x3d43f636	0.047842227
109	0xbd4041fa	-0.04693792
110	0xbd458522	-0.04822267
111	0xbc5c7dfb	-0.01345777
112	0x3c855e17	0.016280217
113	0x3a71ec52	0.0009228635
114	0x3cb7be8d	0.022429729
115	0xbd5e0ed4	-0.05421336
116	0x3ce44e69	0.02786942
117	0x3c314dbf	0.010821759
118	0x3d7a216b	0.061067026
119	0xbd96f74d	-0.07371388
120	0x3d740885	0.059578437
121	0xbc891185	-0.016731987
122	0xbcd4f515	-0.02599577
123	0x3c96e51f	0.0184198
124	0x3d47121b	0.04860125
125	0xbd035e12	-0.032072134
126	0xbd3d88d6	-0.046273075
127	0xbd1fc57c	-0.039006695
128	0xbba0d7bb	-0.0049085296
129	0x3c431fb4	0.011909414
130	0x3ced85fc	0.028994553
131	0xbd072038	-0.03298971
132	0x3ddb1423	0.106972
133	0xbd1f246a	-0.038853087
134	0xbc407368	-0.011746265
135	0x3c9db49b	0.019251158
136	0xbca74fab	-0.02042373
137	0xbd163ba8	-0.036677986
138	0x3c200532	0.009766864
139	0x3be3c83d	0.0069513605
140	0xbcef7c62	-0.029234115
141	0xbc91e6be	-0.017810222
142	0xbb96c1e7	-0.0046007517
143	0x3af62418	0.0018779067
144	0xbc6076d9	-0.0137002105
145	0x3a9fa246	0.0012179099
146	0xbd26c367	-0.040713694
147	0x3d87f8a1	0.06639219
148	0xbdd81584	-0.10550979
149	0xbd18682f	-0.037208732
150	0x3d5ba6cd	0.05362587
151	0x3d6226b5	0.055212695
152	0x3d8cd2ce	0.06876145
153	0xbb551d86	-0.0032518818
154	0xbd5a45d1	-0.05328924
155	0x3c3b87fc	0.011445995
156	0xbd0e8693	-0.03479631
157	0xbd35b2c6	-0.044359945
158	0xbb8719e4	-0.0041229594
159	0x3d7646e7	0.06012621
160	0x3d50ac3d	0.05094551
161	0xbd10e2ad	-0.035372425
162	0xbcee5226	-0.029091906
163	0xbbd9dc24	-0.0066485573
164	0xbc678122	-0.014129909
165	0xbd28f635	-0.041250426
166	0x3d308f1e	0.043105237
167	0xba9cc3ef	-0.0011960248
168	0xbc3a9a1a	-0.01138928
169	0x3ca86341	0.02055514
170	0x3c81ec83	0.015859848
171	0x3cdce181	0.026962997
172	0x3d007816	0.031364523
173	0xbd7895d6	-0.06068977
174	0xbc2f63fb	-0.01070499
175	0x3d1f605c	0.038910255
176	0x3c7e1e21	0.015510113
177	0xbc3fc454	-0.011704523
178	0x3cb89551	0.022532137
179	0xbb6443d5	-0.003483047
180	0xbc8c3419	-0.017114686
181	0xbd03bdf0	-0.03216356
182	0xbcd811df	-0.02637571
183	0x3bdef26e	0.006803802
184	0xbc98a8a4	-0.018635102
185	0x3ca297b6	0.019847732
186	0xbd03f42a	-0.032215275
187	0xbd0e1fe0	-0.034698367
188	0x3ce83717	0.028346581
189	0x3ceb6dd6	0.028738897
190	0x3bb74d36	0.005593921
191	0xbcf6371e	-0.030055579
192	0x3d4c12f7	0.049822774
193	0xbd206cdc	-0.039166316
194	0xbd2e155e	-0.042500846
195	0x3c4046b1	0.011735604
196	0x3d317f12	0.043334074
197	0xbd48f9bd	-0.049066294
198	0x3b60759e	0.0034249793
199	0xbd069f74	-0.03286691
200	0x3b8eba9d	0.004355742
201	0xbd5f42cc	-0.05450706
202	0x3cf0be18	0.029387519
203	0x3d2b3aa6	0.04180398
204	0xbcd9baf7	-0.02657841
205	0x3d4568e4	0.048195735
206	0x3b92f4ee	0.0044847643
207	0xbd706caa	-0.05869738
208	0xbd508c1d	-0.050914872
209	0xbd83d7f0	-0.06437671
210	0x3c8b3520	0.016993105
211	0xbbbcc242	-0.005760462
212	0xbca6e0a5	-0.02037079
213	0x3b57734e	0.0032875123
214	0xbc3f4450	-0.011674002
215	0xba84eeaa	-0.0010141928
216	0x3c7d364a	0.015454838
217	0xbd1939ff	-0.037408825
218	0x3d5e4468	0.054264456
219	0xbc3bf0f8	-0.011471026
220	0x3d4232f7	0.047411885
221	0xbc97f118	-0.01854758
222	0x3c644409	0.0139322365
223	0x3cd74585	0.026278267
224	0x3d0d4bf6	0.03449627
225	0x3cdb511c	0.026772074
226	0x3d42680c	0.047462508
227	0xbd00d6e5	-0.03145494
228	0x3c849d75	0.016188363
229	0x3a0c5a4b	0.0005354031
230	0x3d812eac	0.0630773
231	0x3d908d67	0.0705822
232	0xbca04693	-0.019564902
233	0xbd0258f6	-0.03182312
234	0xbbc8f4fa	-0.006132719
235	0xbaf589ca	-0.0018733081
236	0x3d0cbe9d	0.03436147
237	0x3c6ee4b7	0.014580897
238	0x3b9d147b	0.004793701
239	0xbc01a803	-0.007913592
240	0x3d657399	0.056018446
241	0xbc9fb46a	-0.019495208
242	0x3d59aff0	0.053146303
243	0xbd86d24f	-0.06583082
244	0x3d2dc596	0.04242476
245	0xbd8899ba	-0.06669946
246	0x3c67098f	0.0141014
247	0xbc3cb933	-0.011518764
