python/bsc/con2prim_restoration/training_with_best_params/0043/net.pt (torch, 155572 bytes, 7 tensors)

weight f4 [86, 3]
0.32871416 0.2689802 0.057467688 0.25777838 0.08850118 0.24048197 0.25636792 0.13040358
0.532194 -0.30651087 0.07991051 -0.64790297 0.526354 0.41950488 -0.25270626 0.11814211
0.21640307 -0.085746594 0.26105133 -0.2114485 0.51707715 -0.39715365 0.26906192 -0.03265437
0.3176852 -0.6835565 -0.30824003 0.44977197 -0.29522616 -0.2680272 -0.41099054 0.5139823
-0.15695733 0.084840216 -0.55002403 0.060617194 0.18896331 0.47925195 -0.11236759 -0.5246369
-0.541332 0.24576846 -0.012534746 0.33903623 0.4374426 0.36593023 -0.20036446 -0.4544958
-0.30428866 0.16152781 0.056210227 -0.0044021173 -0.21958327 0.27259818 0.15622725 0.36463252
0.37926304 0.10592273 -0.40439916 0.5729421 -0.24926506 0.53308934 0.15318958 -0.33921483
0.4919735 0.36110935 -0.04492503 -0.019818306 -0.27949744 0.354999 0.55291194 -0.1635998
-0.48769858 -0.26103187 0.58189756 -0.3990004 -0.32412407 0.5083448 -0.46376732 -0.53170496
0.057400547 -0.0144972 -0.53492224 -0.5452209 0.46929258 -0.44871882 -0.41446027 -0.08182446
0.08144512 0.36285728 -0.114109986 0.26083076 0.070875466 0.24323298 -0.4887705 0.5162248
-0.5480889 0.27597833 0.12296682 0.042695288 -0.5464355 -0.15226337 -0.15729177 -0.5652056
0.397543 -0.3193597 -0.29530433 -0.24608445 0.049723536 -0.48119706 0.5837732 -0.37218288
0.19860183 0.4803845 0.12279011 0.0072694495 -0.4075797 -0.3602644 0.009102243 -0.13550442
7.787209e-07 0.5658443 -0.46152216 -0.39894634 -0.06713924 -0.4877537 0.2817118 -0.046807554
-0.035956394 0.08400007 -0.31154653 0.4153441 -0.1919455 0.48585412 -0.050702434 0.34702736
-0.06578683 0.13387136 0.25140345 -0.35970616 -0.09226635 -0.39539233 0.26799494 -0.058117386
0.40499857 0.26658076 0.3263817 0.45794412 0.19248228 0.54903567 0.035492927 -0.055741567
0.529311 0.20006043 -0.40808532 0.5437489 -0.1878432 0.12741502 -0.55036914 -0.37810624
-0.4466056 -0.37101865 0.08544938 0.18749882 -0.17183709 -0.29144785 -0.47471535 -0.29593933
0.5398534 -0.057165634 0.22915387 -0.20408377 -0.32365286 0.12393832 0.4067139 0.27815345
-0.45223528 -0.1712192 -0.12344132 0.2773701 -0.3087558 -0.6713461 -0.02515572 0.055943064
-0.029807327 0.24742019 0.15911385 -0.53110385 0.26574472 -0.01177141 0.091098495 -0.18665592
0.10149071 -0.10748043 -0.46809983 0.23735751 -0.32326713 -0.014916792 0.21822247 0.27497783
-0.21259744 0.088677555 0.23149098 0.30235323 0.50060236 -0.16138668 -0.21721785 -0.422355
-0.17427604 0.2160402 0.105123065 -0.309666 -0.44836313 0.41385517 -0.106712945 0.2390925
-0.3428174 -0.2574347 0.14844559 0.36987782 0.08051004 0.25895625 0.27612618 -0.5030667
0.0069001173 0.30913174 -0.0278299 -0.5868988 0.14535837 -0.509872 -0.27912453 -0.036681265
-0.2082349 0.24248394 -0.29568297 0.043802407 0.52082753 -0.14244741 0.21457785 -0.080099225
-0.031542715 0.3653414 -0.1628172 -0.46629044 0.128624 0.053923175 -0.5538662 0.020792654
0.18426907 -0.015974743 0.457974 0.07503966 -0.0043011797 0.2672303 0.4108781 0.3825161
00000000: 394d a83e c6b7 893e 3d63 6b3d 87fb 833e
00000010: 1b40 b53d e840 763e a842 833e 8488 053e
00000020: de3d 083f feee 9cbe 1fa8 a33d f8dc 25bf
00000030: 23bf 063f 58c9 d63e b762 81be 7ef4 f13d
00000040: c498 5d3e e99b afbd 85a8 853e f585 58be
00000050: 2b5f 043f b957 cbbe 7cc2 893e 97c0 05bd
00000060: a2a7 a23e 8ffd 2ebf a3d1 9dbe 8348 e63e
00000070: e227 97be dc3a 89be 5a6d d2be 5894 033f
00000080: 6cb9 20be b5c0 ad3d 60ce 0cbf bc49 783d
00000090: 997f 413e 8360 f53e fb20 e6bd 9b4e 06bf
000000a0: bc94 0abf baaa 7b3e 895e 4dbc 2896 ad3e
000000b0: 7af8 df3e 355b bb3e 572c 4dbe acb3 e8be
000000c0: b9cb 9bbe 8c67 253e b23c 663d a33f 90bb
000000d0: 70da 60be fd91 8b3e 09fa 1f3e 1db1 ba3e
000000e0: c42e c23e 04ee d83d 680d cfbe 55ac 123f
000000f0: 573f 7fbe 8b78 083f bbdd 1c3e 91ad adbe
00000100: f3e3 fb3e 53e3 b83e 4f03 38bd 005a a2bc
00000110: 4a1a 8fbe 6ec2 b53e a38b 0d3f b586 27be
00000120: a1b3 f9be f8a5 85be 3df7 143f c849 ccbe
00000130: 97f3 a5be e322 023f e972 edbe d11d 08bf
00000140: d61c 6b3d aa85 6dbc aaf0 08bf 9993 0bbf
00000150: 1e47 f03e 79be e5be 2334 d4be 9593 a7bd
00000160: b3cc a63d 6ec8 b93e 7fb2 e9bd 9c8b 853e
00000170: 2827 913d 1112 793e 2140 fabe 4f27 043f
00000180: 8e4f 0cbf 084d 8d3e 07d6 fb3d 41e1 2e3d
00000190: 32e3 0bbf eeea 1bbe 1811 21be 50b1 10bf
000001a0: c28a cb3e 1d83 a3be 2132 97be 90fd 7bbe
000001b0: e8aa 4b3d 765f f6be 2972 153f c18e bebe
000001c0: 475e 4b3e f5f4 f53e 6279 fb3d 9034 ee3b
000001d0: 49ae d0be 9374 b8be 9321 153c acc1 0abe
000001e0: 4b09 5135 2cdb 103f a24c ecbe b242 ccbe
000001f0: 4c80 89bd daba f9be 873c 903e 47b9 3fbd
00000200: 0347 13bd 3b08 ac3d 0783 9fbe fba7 d43e
00000210: 5c8d 44be dfc1 f83e 5bad 4fbd 92ad b13e
00000220: 3fbb 86bd 9315 093e f4b7 803e 682b b8be
00000230: 24f6 bcbd dd70 cabe a236 893e 7f0c 6ebd
00000240: f95b cf3e 467d 883e 811b a73e a777 ea3e
00000250: 131a 453e 9a8d 0c3f 0861 113d 4551 64bd
00000260: ed80 073f a4dc 4c3e 8ff0 d0be 2133 0b3f
00000270: f859 40be 1579 023e fee4 0cbf 2497 c1be
00000280: 7da9 e4be 28f6 bdbe 1600 af3d b1ff 3f3e
00000290: 10f6 2fbe a738 95be e40d f3be 5c85 97be
000002a0: d533 0a3f 8326 6abd 50a7 6a3e 56fb 50be
000002b0: d4b5 a5be 60d3 fd3d ce3c d03e 216a 8e3e
000002c0: 628b e7be 1654 2fbe cece fcbd 7403 8e3e
000002d0: 3d15 9ebe 57dd 2bbf 5e13 cebc 8e24 653d
000002e0: 7f2e f4bc b85b 7d3e beee 223e 6cf6 07bf
000002f0: b10f 883e dfdc 40bc d991 ba3d bb22 3fbe
00000300: 5dda cf3d b31e dcbd c8aa efbe d90d 733e
00000310: 4583 a5be 8f65 74bc b675 5f3e e5c9 8c3e
00000320: 25b3 59be 949c b53d f90b 6d3e 0bce 9a3e
00000330: 7a27 003f 8d42 25be 5b6e 5ebe ea3e d8be
00000340: 6b75 32be a439 5d3e c34a d73d 8b8c 9ebe
00000350: da8f e5be d3e4 d33e 518c dabd aad4 743e
00000360: c385 afbe 7bce 83be 1f02 183e a060 bd3e
00000370: 73e2 a43d ea95 843e 6960 8d3e fbc8 00bf
00000380: 611a e23b 8446 9e3e 88fb e3bc 003f 16bf
00000390: d3d8 143e f986 02bf 69e9 8ebe 183f 16bd
000003a0: 883b 55be b64d 783e c263 97be 276a 333d
000003b0: f454 053f bcdd 11be 4cba 5b3e 100b a4bd
000003c0: ef32 01bd 070e bb3e 8db9 26be 9fbd eebe
000003d0: 03b6 033e 8cde 5c3d 2dca 0dbf 5b55 aa3c
000003e0: 08b1 3c3e 77dd 82bc 917b ea3e 65ae 993d
000003f0: e9f0 8cbb 69d2 883e 9d5e d23e 26d9 c33e

bias f4 [86]
-0.55492365 0.24516784 -0.38720587 0.42924765 -0.38852575 -0.3057808 -0.2566771 -0.16542748
-0.2001592 -0.2533573 0.5045929 0.20887017 0.3454906 0.46455964 -0.19939727 -0.23329103
0.3697922 0.02424343 -0.45560902 -0.05403917 0.068773456 0.1146155 -0.23867223 -0.40581742
-0.19034937 0.2313809 -0.08647368 -0.16037935 -0.512073 0.29070315 0.29307273 -0.007624972
-0.24168187 -0.40530196 -0.43604323 -0.46430194 0.24086478 0.19416408 -0.2580997 -0.34875318
0.08955212 0.19082378 -0.6560834 -0.39720362 0.3677255 -0.49773458 0.42855036 -0.38942719
-0.41203752 -0.54964983 -0.37177598 0.5062741 -0.42499086 -0.2713971 -0.046418015 0.10121978
0.17823382 -0.43185386 -0.44256502 -0.16777462 0.25335205 -0.4319292 -0.17175476 0.44082704
0.44244128 0.35435888 -0.11386328 -0.49216676 0.2264234 -0.21937713 0.13091858 0.08191891
0.590145 0.3241563 0.1448868 0.23176193 0.39651388 0.15065928 -0.14526096 0.46243852
-0.4706155 0.40788168 0.27552432 -0.56994635 0.35756567 -0.3817203
00000000: 7a0f 0ebf 470d 7b3e d93f c6be 59c6 db3e
00000010: d9ec c6be 4d8f 9cbe 2e6b 83be d265 29be
00000020: 89f6 4cbe 0cb8 81be 002d 013f 10e2 553e
00000030: 25e4 b03e c3da ed3e cc2e 4cbe d8e3 6ebe
00000040: 6755 bd3e 289a c63c 9645 e9be 2d58 5dbd
00000050: 19d9 8c3d 88bb ea3d 7e66 74be 4dc7 cfbe
00000060: f2ea 42be 1def 6c3e 1d19 b1bd 7c3a 24be
00000070: 3717 03bf 0bd7 943e a10d 963e e7da f9bb
00000080: 747b 77be bd83 cfbe 0f41 dfbe fcb8 edbe
00000090: 42a5 763e f3d2 463e a525 84be c78f b2be
000000a0: 1a67 b73d 4f67 433e 15f5 27bf 465e cbbe
000000b0: 8446 bc3e 11d7 febe f46a db3e 0063 c7be
000000c0: 95f6 d2be dab5 0cbf 6c59 bebe 2e9b 013f
000000d0: 6798 d9be 90f4 8abe d120 3ebd 514c cf3d
000000e0: ed82 363e f31b ddbe e297 e2be 1ccd 2bbe
000000f0: 5cb7 813e d325 ddbe 7be0 2fbe 15b4 e13e
00000100: aa87 e23e 876e b53e 2731 e9bd 48fd fbbe
00000110: 89db 673e 66a4 60be 850f 063e 1ac5 a73d
00000120: be13 173f d1f7 a53e 355d 143e 0053 6d3e
00000130: de03 cb3e 6d46 1a3e 4abf 14be bec4 ec3e
00000140: 84f4 f0be ded5 d03e 8611 8d3e 01e8 11bf
00000150: d912 b73e d870 c3be

weight f4 [201, 86]
-0.04113015 0.03929208 -0.12372232 -0.035675913 -0.035347614 -0.12633663 0.012120426 -0.047872834
0.019163366 -0.015427016 -0.08300371 -0.020255724 -0.10632841 -0.20480876 0.050246716 0.014560539
-0.12107231 0.014507558 0.047941662 0.04987466 -0.22869273 -0.03408252 -0.10419431 -0.10395604
0.042657625 -0.26095212 0.09205458 -0.01733002 0.009102438 0.038802054 0.07503776 -0.027098652
0.02841844 -0.03561615 -0.084296644 -0.050831664 -0.0101546515 -0.08364366 0.0023434232 0.082942076
-0.09866942 0.041027144 0.009566463 -0.15849416 -0.18197468 -0.047922146 0.013859968 0.05776242
-0.03742401 0.044156298 0.034384623 0.02922877 0.046723623 0.007361149 -0.18999034 -0.058408257
-0.01713564 -0.09535241 0.07764867 0.021573866 0.053052712 -0.14067622 0.061086684 0.017494913
-0.12143023 0.077522725 -0.11595683 -0.031893548 0.0062253396 -0.050334536 -0.315287 0.0727828
-0.07931813 0.0077324132 0.042926908 -0.041097004 0.066948645 -0.06907572 -0.12843758 0.062353004
0.069458134 -0.079389885 0.08052967 0.061769288 0.05529109 -0.065947436 0.081153184 -0.09123587
0.07641522 0.055812858 -0.066041276 -0.020241292 -0.007508181 -0.17406128 0.010336197 -0.08297991
0.10379485 -0.065309405 0.059777554 -0.042168308 -0.052096404 0.077305004 -0.064258695 0.04847259
-0.027119441 0.006637384 0.057624906 -0.04531001 0.01849828 0.09387539 -0.0013260072 0.02201636
-0.046032026 -0.071551144 -0.004622248 0.10923328 0.08212302 -0.02763084 -0.1231783 -0.1061613
-0.2588377 -0.026087688 0.07546425 0.10834545 -0.09387722 -0.016298408 0.10252023 -0.07058842
0.07868939 -0.032958567 0.10504765 0.021236643 -0.2114943 -0.407092 -0.082707845 -0.03691566
-0.05497787 0.08441563 -0.0824191 0.07435874 -0.049661677 0.030144496 -0.06347361 -0.04453906
-0.1308911 -0.15286744 -0.109733686 -0.054874796 0.09578253 0.041850396 0.04147572 -0.15554582
-0.04709812 -0.09635744 -0.08335837 -0.02828558 -0.20601551 0.017543685 0.021463769 0.092158884
-0.06230024 -0.028504629 -0.039995685 -0.10385536 0.10457968 0.030953828 0.06420228 -0.1457852
0.02165848 -0.08825219 -0.08100487 -0.26883247 -0.02825369 -0.020621646 0.032254305 -0.1482341
0.0069272113 0.0010180647 0.07730836 -0.11996926 -0.060146496 0.00027221604 -0.094652735 -0.07590162
0.056139037 0.04206567 -0.09987741 -0.0997426 0.015697096 0.06865271 -0.013627954 0.007223552
0.06800562 -0.07642098 0.08614024 0.08213913 0.013542209 0.08327439 0.106998764 -0.05582402
0.011176461 0.041027933 0.06867976 0.08839718 0.033724386 -0.08053226 -0.13142036 -0.014577425
-0.002418362 0.050644536 -0.061170243 -0.013684861 -0.13727741 -0.042073846 0.0063720127 0.016609741
-0.035352446 -0.032235935 -0.048164435 -0.07396248 -0.0011790944 0.025669714 0.09126039 0.09334527
0.08825352 -0.020304617 -0.09840801 0.0760265 -0.075651236 -0.07563489 -0.0030675493 -0.039789412
0.049385905 -0.020942882 0.02301284 0.04734253 0.0617559 -0.097680666 -0.10991684 0.070984825
-0.1061305 0.08049119 0.053660706 -0.06774476 0.024039946 0.074224204 0.026572935 -0.027933978
-0.0901752 -0.039136153 -0.06994338 0.03167015 -0.065729894 -0.04705004 -0.063064 -0.061479975
00000000: 1778 28bd bbf0 203d 2162 fdbd e820 12bd
00000010: a9c8 10bd 645e 01be c094 463c 4e16 44bd
00000020: 7efc 9c3c 98c1 7cbc d9fd a9bd 55ef a5bc
00000030: b6c2 d9bd 63b9 51be 80cf 4d3d 548f 6e3c
00000040: c2f4 f7bd 1cb1 6d3c 7a5e 443d 5f49 4c3d
00000050: 6d2e 6abe 1d9a 0bbd d463 d5bd e8e6 d4bd
00000060: c3b9 2e3d 849b 85be 1d87 bc3d b0f7 8dbc
00000070: 6422 153c e7ee 1e3d 66ad 993d fefd ddbc
00000080: cacd e83c 3de2 11bd b8a3 acbd dd34 50bd
00000090: b25f 26bc 5e4d abbd 1e94 193b 89dd a93d
000000a0: 3113 cabd 140c 283d a7bc 1c3c 4b4c 22be
000000b0: 9257 3abe 034a 44bd eb14 633c 4a98 6c3d
000000c0: eb49 19bd 3cdd 343d e4d6 0c3d 2c71 ef3c
000000d0: 4561 3f3d cb35 f13b d48c 42be 7f3d 6fbd
000000e0: 0b60 8cbc 2048 c3bd 4406 9f3d adbb b03c
000000f0: cd4d 593d 6d0d 10be 0836 7a3d 7e51 8f3c
00000100: 6ab0 f8bd 3cc4 9e3d c67a edbd cfa2 02bd
00000110: effd cb3b 962b 4ebd 4c6d a1be 260f 953d
00000120: 8b71 a2bd 2f60 fd3b 20d4 2f3d 5555 28bd
00000130: 5f1c 893d 9277 8dbd 2485 03be dd65 7f3d
00000140: 1140 8e3d 2a97 a2bd bdec a43d cb01 7d3d
00000150: e978 623d 730f 87bd a433 a63d dfd9 babd
00000160: 957f 9c3d 069c 643d a640 87bd 11d1 a5bc
00000170: 3007 f6bb 1f3d 32be 2759 293c 5ff1 a9bd
00000180: 6592 d43d f0c0 85bd 4fd9 743d adb8 2cbd
00000190: 0a63 55bd 1652 9e3d 109a 83bd 328b 463d
000001a0: 9729 debc 6a7e d93b 1808 6c3d fd96 39bd
000001b0: b489 973c be41 c03d 6bcd adba a75b b43c
000001c0: 148c 3cbd 6889 92bd 3a76 97bb b3b5 df3d
000001d0: 1d30 a83d 125a e2bc e844 fcbd 186b d9bd
000001e0: 6086 84be d9b5 d5bc 008d 9a3d 38e4 dd3d
000001f0: b342 c0bd 3d84 85bc 20f6 d13d a990 90bd
00000200: e727 a13d 90ff 06bd 3923 d73d 78f8 ad3c
00000210: f691 58be 5d6e d0be bb62 a9bd e034 17bd
00000220: 7a30 61bd 1ae2 ac3d 58cb a8bd 6549 983d
00000230: 0b6a 4bbd 97f1 f63c 74fe 81bd 976e 36bd
00000240: 5108 06be 4889 1cbe 0ebc e0bd 65c4 60bd
00000250: a229 c43d 526b 2b3d 72e2 293d 6747 1fbe
00000260: f5e9 40bd 0d57 c5bd cbb7 aabd 29b7 e7bc
00000270: bbf5 52be c6b7 8f3c c9d4 af3c ccbd bc3d
00000280: 892e 7fbd 8a82 e9bc 84d2 23bd 1eb2 d4bd
00000290: df2d d63d e292 fd3c 7c7c 833d b748 15be
000002a0: 206d b13c 90bd b4bd e2e5 a5bd 69a4 89be
000002b0: 4874 e7bc baee a8bc 171d 043d aeca 17be
000002c0: a9fd e23b 9570 853a d853 9e3d 72b2 f5bd
000002d0: 2c5c 76bd 38b8 8e39 4bd9 c1bd 4f72 9bbd
000002e0: 0cf2 653d 0d4d 2c3d 878c ccbd d945 ccbd
000002f0: 3297 803c cb99 8c3d c847 5fbc 8cb3 ec3b
00000300: 8846 8b3d 9a82 9cbd 4b6a b03d 8f38 a83d
00000310: 24e0 5d3c c38b aa3d 2b22 db3d baa7 64bd
00000320: 7a1d 373c e80c 283d f9a7 8c3d 9509 b53d
00000330: 9522 0a3d 19ee a4bd 0f93 06be 27d6 6ebc
00000340: 627d 1ebb a570 4f3d a68d 7abd 7836 60bc
00000350: 7392 0cbe a055 2cbd 51cc d03b 2711 883c
00000360: bacd 10bd d409 04bd 1248 45bd a479 97bd
00000370: d88b 9aba 4b49 d23c bae6 ba3d ce2b bf3d
00000380: 43be b43d de55 a6bc 248a c9bd c8b3 9b3d
00000390: 09ef 9abd 77e6 9abd f008 49bb 39fa 22bd
000003a0: e048 4a3d 6890 abbc 6c85 bc3c 3eea 413d
000003b0: c1f3 7c3d cd0c c8bd 151c e1bd 7e60 913d
000003c0: f35a d9bd 91d8 a43d 54cb 5b3d c4bd 8abd
000003d0: 6cef c43c dc02 983d 7caf d93c ccd5 e4bc
000003e0: c6ad b8bd 3b4d 20bd 7a3e 8fbd 8fb8 013d
000003f0: 659d 86bd 8bb7 40bd b327 81bd 6dd2 7bbd

bias f4 [201]
-0.010178921 0.010020871 0.10585308 0.07942952 -0.09707179 -0.099700704 0.028286438 -0.028434206
-0.04038735 -0.09634063 0.05635601 -0.058007784 -0.081787996 -0.08767135 0.10452701 0.007897357
0.050073978 -0.0042354264 -0.04330181 0.02881969 -0.1293762 0.04146775 -0.09217732 0.04174269
-0.007715012 0.000697706 -0.016412878 0.07714683 0.037728954 -0.10643885 -0.09870174 0.07712725
0.09919192 -0.081125244 0.08316131 0.088592015 -0.089347474 0.034508597 0.03553999 -0.09322108
0.077735156 0.089600116 -0.020730596 -0.046764 -0.049520854 0.005915372 -0.087270536 -0.06519938
-0.044837687 0.0076352884 0.053408887 -0.08979874 0.096304566 0.050767478 -0.0581488 0.009041704
-0.07310769 -0.046404503 0.057973027 0.07373823 -0.032818098 0.06535541 0.12397806 -0.09734753
0.022299146 -0.0019073838 -0.076985314 -0.041004013 0.008484203 -0.01322633 -0.10905943 0.050374296
-0.0077406787 0.07776232 0.010109644 0.0035831062 -0.09334487 -0.011013482 0.07288549 -0.05145986
0.093481645 0.043216873 -0.05549972 0.104320526 -0.08374484 0.04941524 -0.0353819 -0.011472945
0.025044488 0.05229543 -0.04286523 -0.092636704 0.04731397 -0.029516581 -0.0006305858 0.10400924
-0.10303821 0.072632 -0.0475044 -0.0006065561 0.10693078 -0.05079399 0.073689915 -0.048923947
0.0557407 -0.10874371 0.0026879497 0.0468872 0.102837846 0.11073213 0.009718975 -0.06471294
-0.07610957 -0.058049187 -0.09223522 0.0695769 -0.041990533 0.011452536 -0.09943149 -0.04264151
-0.035509754 -0.071955904 0.11623275 -0.08251665 -0.040182576 -0.0015121718 -0.002966404 0.069727235
-0.00949523 -0.06316565 -0.09809495 0.020133689 0.033040006 0.0055225953 0.01245739 0.035460733
0.08818808 0.06359069 0.07929385 -0.0552534 0.034558564 -0.09275723 -0.0052777706 0.048926994
-0.021880459 0.03432918 -0.09586852 0.083461925 0.027590772 -0.019808376 0.12998772 0.01575295
0.11519717 0.13486162 0.12022168 0.11389353 0.04219271 0.0059749833 -0.066245824 -0.1575137
-0.011820494 -0.102819964 -0.02631333 0.066782154 0.046613924 0.06581665 -0.08275227 0.068422794
-0.025501626 -0.088791534 -0.046969943 0.08760195 -0.09558711 -0.118820146 -0.117744505 -0.034047123
0.03352802 -0.036875866 0.08845862 0.054483656 0.05411358 -0.060891036 -0.019517163 -0.07519713
-0.029814186 -0.13669288 -0.052284036 -0.08754132 0.06595799 0.056434877 -0.05884265 -0.0847143
0.053244192 0.03121282 0.07130626 -0.009157045 -0.059260823 0.06160324 -0.0010482155 -0.01269728
0.08983797
00000000: 7dc5 26bc 942e 243c 80c9 d83d f2ab a23d
00000010: 93cd c6bd e22f ccbd f6b8 e73c daee e8bc
00000020: 356d 25bd 3c4e c5bd 8fd5 663d 9299 6dbd
00000030: 7780 a7bd 098d b3bd 4212 d63d eb63 013c
00000040: 5f1a 4d3d 55c9 8abb 3d5d 31bd 4517 ec3c
00000050: 327b 04be 16da 293d 76c7 bcbd 62fa 2a3d
00000060: 36ce fcbb 42e6 363a 4d74 86bc 28ff 9d3d
00000070: ad89 1a3d 9dfc d9bd 2324 cabd e4f4 9d3d
00000080: 2225 cb3d fe24 a6bd 7a50 aa3d bb6f b53d
00000090: cffb b6bd e358 0d3d 6192 113d b2ea bebd
000000a0: 9c33 9f3d 4480 b73d 36d3 a9bc 9c8b 3fbd
000000b0: 61d6 4abd bdd5 c13b e5ba b2bd 4187 85bd
000000c0: b9a7 37bd 7131 fa3b 47c3 5a3d 67e8 b7bd
000000d0: 543b c53d 8ff1 4f3d 702d 6ebd a823 143c
000000e0: 7cb9 95bd a612 3ebd 2075 6d3d 1204 973d
000000f0: 456c 06bd 0fd9 853d 36e8 fd3d 245e c7bd
00000100: b3ac b63c 2e01 faba 7aaa 9dbd d3f3 27bd
00000110: 5401 0b3c 40b3 58bc 8d5a dfbd 4755 4e3d
00000120: 85a5 fdbb da41 9f3d eca2 253c 8cd2 6a3b
00000130: 982b bfbd e471 34bc fd44 953d 93c7 52bd
00000140: 4e73 bf3d 2d04 313d ad53 63bd 00a6 d53d
00000150: 6a82 abbd a267 4a3d 9cec 10bd 05f9 3bbc
00000160: 192a cd3c bc33 563d 7493 2fbd 50b8 bdbd
00000170: 4bcc 413d c2cc f1bc e64d 25ba cc02 d53d
00000180: b205 d3bd 16c0 943d f993 42bd 4a01 1fba
00000190: 86fe da3d 5c0d 50bd bdea 963d 7a64 48bd
000001a0: 5c50 643d 06b5 debd 5028 303b cb0c 403d
000001b0: a69c d23d 87c7 e23d 563c 1f3c 3888 84bd
000001c0: 56df 9bbd fcc4 6dbd d2e5 bcbd 557e 8e3d
000001d0: 44fe 2bbd 6ba3 3b3c bda2 cbbd dda8 2ebd
000001e0: ad72 11bd 9e5d 93bd 700b ee3d 7dfe a8bd
000001f0: 7c96 24bd 1134 c6ba 0068 42bb 27cd 8e3d
00000200: e291 1bbc fe5c 81bd 01e6 c8bd 68ef a43c
00000210: f554 073d e3f6 b43b 151a 4c3c 463f 113d
00000220: f49b b43d d63b 823d d064 a23d 6451 62bd
00000230: 488d 0d3d 81f7 bdbd 26f1 acbb ac67 483d
00000240: a63e b3bc c19c 0c3d b756 c4bd 16ee aa3d
00000250: 0b06 e23c 2d45 a2bc 801b 053e 550c 813c
00000260: 7eec eb3d 2a19 0a3e c936 f63d 0341 e93d
00000270: 43d2 2c3d cbc9 c33b e4ab 87bd 454b 21be
00000280: bfaa 41bc 4693 d2bd 0d8f d7bc 15c5 883d
00000290: 3eee 3e3d e1ca 863d 067a a9bd 4021 8c3d
000002a0: c9e8 d0bc 56d8 b5bd 8e63 40bd a768 b33d
000002b0: 2dc3 c3bd fa57 f3bd 0824 f1bd ff74 0bbd
000002c0: ad54 093d 260b 17bd cb29 b53d 412a 5f3d
000002d0: 34a6 5d3d e168 79bd 75e2 9fbc f400 9abd
000002e0: e13c f4bc 38f9 0bbe c927 56bd dd48 b3bd
000002f0: fc14 873d 4228 673d fe04 71bd b17e adbd
00000300: 9516 5a3d 07b2 ff3c 0409 923d 6e07 16bc
00000310: 7abb 72bd ae53 7c3d 4764 89ba 4108 50bc
00000320: f8fc b73d

weight f4 [87, 201]
0.008159143 0.0023834198 -0.08456138 -0.076706626 -0.054481413 0.06625567 -0.06383143 -0.036733124
-0.06421735 -0.030643856 0.022755478 -0.013912288 0.039859895 0.015530855 -0.035236493 -0.05914681
-0.067265965 0.027307192 0.04248445 0.04734095 0.020500133 0.012904373 0.035849016 -0.038283333
-0.050268024 0.008570189 -0.07948402 0.0124342395 0.06614793 0.02953173 -0.010680041 -0.011015529
-0.042768903 -0.06329713 0.033874966 -0.012368243 -0.0015351024 0.04308791 -0.0042078714 -0.04418502
-0.01227403 0.03133047 -0.0036659837 -0.027579455 0.029353503 -0.00042241273 -0.03377404 -0.07939375
0.06208767 -0.03336451 0.014796761 0.049267337 0.0013123793 -0.0011185755 0.006182394 -0.022045355
0.008618829 0.06369135 -0.022033991 0.004085112 0.020926252 -0.031313915 0.045678664 -0.022624988
0.0678263 0.04927901 -0.036709566 -0.046522655 0.036781933 0.012332189 -0.06915567 0.047401614
0.04484265 -0.043036904 0.02862197 0.06580206 0.045394633 0.06391132 -0.0027810254 -0.049594227
0.03181414 -0.03777924 -0.057124533 0.0074867974 -0.07754319 -0.07966587 0.0063104955 -0.062821016
-0.0002012098 -0.037627984 0.047840312 0.002494765 -0.05736436 0.0051229615 0.017651293 -0.022330556
-0.02160083 -0.058982197 0.05291849 -0.03718767 -0.019300839 -0.00039262226 -0.00015954892 -0.0040028323
0.014158048 0.062248774 0.030846655 0.018994797 0.01212599 -0.052429937 -0.044530977 -0.015115313
0.0055641416 -0.036422223 0.042961568 0.0028474333 -0.053732168 -0.022962091 -0.07083227 0.050436493
0.03751905 0.041574143 0.03767545 -0.05855653 -0.07993646 -0.05524052 0.040643655 -0.083113424
-0.06892297 -0.045600604 -0.07004296 0.018957311 -0.05924177 -0.026892263 -0.07803723 0.07632756
0.04190655 -0.080140024 -0.04681984 -0.07436693 -0.038450558 -0.07122465 0.024158588 -0.02976721
0.036958937 0.033645324 -0.076592766 -0.06803156 0.04054211 0.070374094 0.004229802 -0.01345045
0.0020506158 0.009247885 0.019952811 0.015494095 -0.024087606 -0.076534905 0.013991217 0.030663576
-0.06883769 -0.0043257726 0.02323029 0.022726594 0.054590147 -0.04330508 -0.060095664 -0.027856266
-0.0106682675 0.024933169 -0.04932937 0.05594642 0.00420395 -0.0011596194 -0.055829074 -0.039262407
0.05771149 -0.05927638 -0.01949391 0.060889266 -0.012017889 -0.01690123 -0.057452343 -0.08464339
0.045759328 0.044386696 0.05366612 -0.052030824 -0.020224001 -0.0053639817 -0.049426496 0.020931976
-0.008918108 -0.051485293 0.04723974 0.011191329 0.028736034 -0.06848736 -0.044141304 -0.05305368
0.057230044 -0.030936377 -0.05194285 0.019695815 -0.07391424 -0.023537317 -0.043525446 0.05739428
-0.04282253 0.031237248 -0.04486127 -0.004468589 -0.03822896 -0.07582845 -0.026101721 0.03180286
0.03640141 -0.047256768 0.031102624 0.023471696 -0.071832865 -0.070727155 -0.04057819 -0.044257045
-0.024570877 0.001627315 -0.065141894 0.0023869504 0.05853358 -0.04027663 0.039783537 0.020821383
0.007766981 -0.029672967 0.008528989 -0.05187807 -0.027636884 0.034674257 0.046474464 0.00086762663
-0.012841166 -0.0532914 -0.057225578 -0.07941893 -0.046480652 0.058343183 -0.04210873 -0.056417104
0.00022463665 -0.065933414 0.00647212 0.01159921 0.014276306 0.053128142 -0.030134145 -0.070343435
00000000: edad 053c 2633 1c3b 842e adbd 5d18 9dbd
00000010: e727 5fbd 0db1 873d 0eba 82bd 7975 16bd
00000020: 6384 83bd d308 fbbc b269 ba3c 5df0 63bc
00000030: 2144 233d 2175 7e3c 2454 10bd ed43 72bd
00000040: bdc2 89bd 55b3 df3c 2d04 2e3d 96e8 413d
00000050: e5ef a73c dd6c 533c 6bd6 123d fcce 1cbd
00000060: d8e5 4dbd fa69 0c3c 85c8 a2bd fbb8 4b3c
00000070: 9178 873d 87ec f13c 57fb 2ebc 7a7a 34bc
00000080: 722e 2fbd eda1 81bd 7ac0 0a3d 2ca4 4abc
00000090: 7d35 c9ba f37c 303d 2fe2 89bb 5afb 34bd
000000a0: 0319 49bc 6154 003d 0041 70bb 4fee e1bc
000000b0: c276 f03c 4777 ddb9 a656 0abd 3199 a2bd
000000c0: a44f 7e3d 39a9 08bd 1d6e 723c 8ccc 493d
000000d0: 2404 ac3a 2a9d 92ba ae95 ca3b 7698 b4bc
000000e0: fd35 0d3c 9c70 823d a180 b4bc 67dc 853b
000000f0: 886d ab3c 0543 00bd 8d19 3b3d 0a58 b9bc
00000100: 84e8 8a3d cad8 493d c55c 16bd 8a8e 3ebd
00000110: a7a8 163d f30c 4a3c 7da1 8dbd 3228 423d
00000120: edac 373d 7747 30bd 9f78 ea3c 3bc3 863d
00000130: b9ef 393d f0e3 823d dd41 36bb 5123 4bbd
00000140: 8b4f 023d 68be 1abd 6afb 69bd cf53 f53b
00000150: f7ce 9ebd dc27 a3bd 46c8 ce3b 4ea8 80bd
00000160: d8fb 52b9 cd1f 1abd 34f4 433d 367f 233b
00000170: e4f6 6abd 84de a73b 7299 903c 92ee b6bc
00000180: 39f4 b0bc 5197 71bd 0fc1 583d 1952 18bd
00000190: cb1c 9ebc ded8 cdb9 964c 27b9 312a 83bb
000001a0: 28f7 673c 92f8 7e3d 20b2 fc3c fa9a 9b3c
000001b0: 17ac 463c c6c0 56bd 1d66 36bd 38a6 77bc
000001c0: 6753 b63b 782f 15bd 78f8 2f3d 019c 3a3b
000001d0: 4316 5cbd ff1a bcbc 8210 91bd 7f96 4e3d
000001e0: 93ad 193d a649 2a3d 9351 1a3d f9d8 6fbd
000001f0: bab5 a3bd e243 62bd f679 263d 5f37 aabd
00000200: 7c27 8dbd b3c7 3abd af72 8fbd 5d4c 9b3c
00000210: 80a7 72bd 2a4d dcbc fcd1 9fbd a051 9c3d
00000220: 34a6 2b3d 7420 a4bd 29c6 3fbd b04d 98bd
00000230: 557e 1dbd 3bde 91bd 3be8 c53c 5dda f3bc
00000240: 4162 173d aecf 093d abdc 9cbd 2154 8bbd
00000250: 7c0f 263d 4b20 903d 279a 8a3b 475f 5cbc
00000260: a063 063b 7184 173c 1474 a33c f2da 7d3c
00000270: 5f53 c5bc 55be 9cbd 6b3b 653c 2e32 fb3c
00000280: c6fa 8cbd 36bf 8dbb 734d be3c 1f2d ba3c
00000290: eb99 5f3d ab60 31bd df26 76bd d332 e4bc
000002a0: f5c9 2ebc a540 cc3c 980d 4abd 1328 653d
000002b0: 4ac1 893b 5ffe 97ba 07ad 64bd 9ed1 20bd
000002c0: e262 6c3d cacb 72bd b1b1 9fbc 0667 793d
000002d0: aee6 44bc 7374 8abc 2653 6bbd 8359 adbd
000002e0: 226e 3b3d d3ce 353d 01d1 5b3d 461e 55bd
000002f0: ceac a5bc 57c4 afbb 7073 4abd 8979 ab3c
00000300: 421d 12bc 3ee2 52bd 757e 413d d65b 373c
00000310: d567 eb3c 1a43 8cbd 83cd 34bd d14e 59bd
00000320: 0d6a 6a3d 496e fdbc 07c2 54bd 1e59 a13c
00000330: 5960 97bd 55d1 c0bc bd47 32bd 4416 6b3d
00000340: ad66 2fbd 42e5 ff3c 73c0 37bd 3e6d 92bb
00000350: f895 1cbd f24b 9bbd 47d3 d5bc b743 023d
00000360: a519 153d 5090 41bd eeca fe3c b747 c03c
00000370: 1c1d 93bd 66d9 90bd 5135 26bd e046 35bd
00000380: dd48 c9bc a14b d53a 1d69 85bd 626e 1c3b
00000390: e8c0 6f3d 1cf9 24bd 10f4 223d 9b91 aa3c
000003a0: 2982 fe3b b914 f3bc 2cbd 0b3c 197e 54bd
000003b0: bf66 e2bc 9806 0e3d 025c 3e3d 7071 633a
000003c0: c163 52bc 1548 5abd 5e65 6abd 64a6 a2bd
000003d0: 7f62 3ebd 43f9 6e3d 347a 2cbd 9f15 67bd
000003e0: 718c 6b39 1908 87bd 1414 d43b 9d0a 3e3c
000003f0: 2be7 693c e59c 593d e2db f6bc 3810 90bd

bias f4 [87]
-0.040653083 0.051680144 0.038389437 -0.048710596 0.03938053 -0.008818705 0.016170971 -0.04644698
0.026074903 0.0030091759 -0.0069812755 0.0029617131 0.02924227 -0.031346165 0.023146577 -0.059870444
0.042111706 -0.031032957 -0.06304538 -0.03601312 -0.023677424 0.0057263873 -0.008789409 -0.042499863
-0.042341743 -0.027336294 0.004984689 -0.03354388 0.04270635 -0.06395025 0.002933103 0.071798235
-0.059438065 -0.029973183 0.017517837 -0.047919877 0.028993594 0.03442752 0.0011289488 -0.07078079
-0.059282828 -0.042891838 -0.0054493016 -0.0017157394 0.036726974 0.0044962834 -0.03646398 0.056533583
-0.016370356 -0.034795705 -0.012818849 0.041980993 0.016930483 0.021441527 0.032648508 0.09589269
-0.062361024 -0.06877506 -0.017244242 0.015077218 0.016600696 0.06170893 0.08301627 0.0398654
-0.016343419 -0.028106343 -0.0028605654 0.0777968 0.030409865 0.03440514 -0.012857911 -0.019574303
0.040825795 0.044623166 0.042248923 -0.028039193 0.03483126 0.07100255 -0.014197516 0.003204197
0.07788785 -0.0011222436 -0.106907696 0.05678362 0.014667276 -0.025729172 -0.035651874
00000000: d983 26bd 8fae 533d 3e3e 1d3d c384 47bd
00000010: 7b4d 213d 547c 10bc fc78 843c 303f 3ebd
00000020: 099b d53c 9835 453b 2fc3 e4bb 4d19 423b
00000030: 7c8d ef3c d664 00bd e49d bd3c b63a 75bd
00000040: 537d 2c3d d438 febc f01d 81bd 7e82 13bd
00000050: 28f7 c1bc 6ba4 bb3b 7401 10bc 5614 2ebd
00000060: 896e 2dbd 5df0 dfbc 9a56 a33b 4f65 09bd
00000070: dbec 2e3d 59f8 82bd 4d39 403b f40a 933d
00000080: 5475 73bd 528a f5bc 9181 8f3c a247 44bd
00000090: f983 ed3c df03 0d3d 3cf9 933a 85f5 90bd
000000a0: 8dd2 72bd 5aaf 2fbd 0e90 b2bb a9e2 e0ba
000000b0: 066f 163d 8f55 933b 415b 15bd c28f 673d
000000c0: 201b 86bc f185 0ebd 2606 52bc 43f4 2b3d
000000d0: ccb1 8a3c 24a6 af3c 71ba 053d 6363 c43d
000000e0: 466e 7fbd f0d9 8cbd cc43 8dbc 7006 773c
000000f0: 2ffe 873c 81c2 7c3d 6f04 aa3d e749 233d
00000100: a2e2 85bc 463f e6bc 5378 3bbb ee53 9f3d
00000110: 1c1e f93c 67ec 0c3d fda9 52bc 4a5a a0bc
00000120: f338 273d c8c6 363d 350d 2d3d 73b2 e5bc
00000130: 39ab 0e3d c969 913d b39c 68bc 81fd 513b
00000140: aa83 9f3d 3f18 93ba 6cf2 dabd f195 683d
00000150: 044f 703c fcc5 d2bc b307 12bd

weight f4 [1, 87]
0.03164629 -0.0069689206 -0.07016597 -0.076596126 -0.11841255 -0.013872977 0.06736576 -0.08309156
0.04789196 0.00058681914 0.039102174 -0.083941735 -0.0951137 0.10375508 0.10783688 0.07130284
0.020190747 -0.050943177 -0.056657095 0.07435281 0.07977925 -0.07517601 -0.07792938 -0.07033584
-0.06992545 0.07300114 -0.06522286 0.08893184 -0.009418445 -0.022297634 -0.011513219 0.014341147
0.09917199 -0.06873095 0.051273406 0.014878498 0.00395409 -0.056365814 -0.0713049 -0.06946029
0.076095015 -0.0028725045 0.08032389 -0.02346223 -0.060760602 -0.097360924 0.040149663 0.0362205
0.042354 0.06506749 0.018852193 -0.036125105 0.051153343 -0.06918954 -0.03100508 0.08460578
-0.07428898 -0.040621344 0.069912694 -0.1347302 -0.09490528 0.09416831 0.08897002 -0.0908103
-0.029056406 0.027209258 -0.08456262 0.059097745 0.074200414 -0.070398815 0.10350207 -0.057718202
-0.054985642 0.014115146 0.059364345 0.00423974 -0.056087848 0.04747512 -0.057412744 -0.053637825
0.041375726 -0.030173017 -0.07963845 0.023743857 0.042813174 0.05300091 0.10196603
00000000: 8a9f 013d 8b5b e4bb 2db3 8fbd 6ede 9cbd
00000010: 4782 f2bd 7c4b 63bc 0ff7 893d e82b aabd
00000020: 5c2a 443d c4d4 193a 9a29 203d a5e9 abbd
00000030: f9ca c2bd 8b7d d43d 95d9 dc3d 3907 923d
00000040: 1167 a53c cba9 50bd 4511 68bd 4946 983d
00000050: 4e63 a33d e1f5 99bd 7099 9fbd 3d0c 90bd
00000060: 1335 8fbd 9f81 953d 9093 85bd e621 b63d
00000070: d24f 1abc 87a9 b6bc f1a1 3cbc 21f7 6a3c
00000080: af1a cb3d d0c2 8cbd 1004 523d f2c4 733c
00000090: 5091 813b d7df 66bd 4e08 92bd 3241 8ebd
000000a0: b4d7 9b3d a140 3cbb da80 a43d dd33 c0bc
000000b0: 1ce0 78bd 2a65 c7bd f973 243d f25b 143d
000000c0: 637b 2d3d 1b42 853d ea6f 9a3c ebf7 13bd
000000d0: 2b86 513d 3fb3 8dbd 5efe fdbc cc45 ad3d
000000e0: d224 98bd 9162 26bd 632e 8f3d b7f6 09be
000000f0: b35d c2bd 51db c03d ea35 b63d c0fa b9bd
00000100: b307 eebc f3e5 de3c 2b2f adbd 7a10 723d
00000110: 63f6 973d 412d 90bd e5f8 d33d ec69 6cbd
00000120: a038 61bd 3743 673c 0728 733d 84ed 8a3b
00000130: 5fbc 65bd 4575 423d a029 6bbd 56b3 5bbd
00000140: 9879 293d 672d f7bc 7c19 a3bd 7a82 c23c
00000150: de5c 2f3d 7b17 593d 91d3 d03d
